src_new5/unisage_news20_best_model.pth (torch, 8283 bytes, 12 tensors)

layers.0.bn.weight f4 [8]
0	0x3f757f13	0.95897025
1	0x3f691d36	0.910602
2	0x3f8710f7	1.0552052
3	0x3f997ce8	1.1991243
4	0x3f8f3726	1.1188705
5	0x3f801edc	1.0009418
6	0x3f692351	0.91069514
7	0x3f73d8fa	0.95252955

layers.0.bn.bias f4 [8]
0	0x3e015c4d	0.12632866
1	0xbe03e86c	-0.1288163
2	0x3d8c01c4	0.06836274
3	0x3e6bbfcb	0.23022382
4	0x3d6eb5cb	0.05827884
5	0x3e6d575f	0.2317786
6	0x3da535f9	0.08066935
7	0x3e611372	0.21980074

layers.0.bn.running_mean f4 [8]
0	0x3ee3fcbf	0.44528767
1	0x3b5e604e	0.0033931914
2	0x3ea763f0	0.32693434
3	0x3e7746d7	0.24148117
4	0x3ea4437c	0.32082736
5	0x3ed6d96b	0.41962752
6	0x3d592477	0.05301329
7	0x3e666637	0.2249993

layers.0.bn.running_var f4 [8]
0	0x3efc1d63	0.4924117
1	0x3b858f34	0.004075909
2	0x3e2603ae	0.16212341
3	0x3e69df82	0.22839168
4	0x3e920f43	0.2852727
5	0x3ec6edf9	0.38853434
6	0x3d622e7c	0.055220112
7	0x3e57a67c	0.21059602

layers.0.theta.weight f4 [8, 100]
0	0x3d8df422	0.0693133
1	0x3c4df0b7	0.012569598
2	0xbd0158ca	-0.031578816
3	0xbdf07b4d	-0.11742268
4	0x3dde8b22	0.10866381
5	0xbc237096	-0.009975573
6	0x3b010c23	0.0019691072
7	0x3d0fea28	0.03513542
8	0x3d902372	0.07038011
9	0xbd8f429c	-0.069951266
10	0xbde0dcf0	-0.109796405
11	0x3de51d25	0.111871995
12	0x3cefd290	0.029275209
13	0xbd2d7997	-0.042352285
14	0x3e752da5	0.23943193
15	0x3a0f57b9	0.0005468089
16	0xbbaea896	-0.0053301556
17	0x3e5d4ef7	0.21612154
18	0xbdff1fe4	-0.124572545
19	0x3cd06b09	0.025441663
20	0xbe034b4f	-0.12821697
21	0x3e0b5f68	0.13610613
22	0xbcedb200	-0.029015541
23	0x3cd03422	0.025415484
24	0x3de5a504	0.11213115
25	0xbd4184e2	-0.047245868
26	0xbe714c68	-0.23564303
27	0xbe0848bb	-0.13308994
28	0x3e21fae9	0.15818371
29	0xbdb45f2b	-0.08807214
30	0xbe192986	-0.14957246
31	0x3dec6a4a	0.115437105
32	0x3d7cf6a0	0.061758637
33	0xbba10a0e	-0.0049145287
34	0xbaa6863e	-0.0012704802
35	0x3e205aea	0.15659681
36	0x3e458c46	0.19291791
37	0xbda1a8d1	-0.07893527
38	0x3cf34e47	0.029700411
39	0xbcade3c9	-0.02122678
40	0xbd8041cc	-0.0626255
41	0x3d74451b	0.059636217
42	0xbdfdd436	-0.12393992
43	0xbd08f64d	-0.033438016
44	0x3d6690cf	0.056290444
45	0x3d4addc8	0.049527913
46	0x3e01acc5	0.12663563
47	0x3e3b1d9d	0.18273015
48	0x3d86d550	0.06583655
49	0xbd1dd08c	-0.038528964
50	0x3d43eb64	0.047831908
51	0xbe140656	-0.14455542
52	0x3dc7bf17	0.09753244
53	0x3e0d0699	0.13772048
54	0xbc3d8916	-0.011568328
55	0x3db9fb17	0.09081095
56	0x3d1c8b92	0.038219042
57	0x3e4b5ecd	0.19860382
58	0x3c7e73fc	0.0155305825
59	0x3c948dd2	0.018134031
60	0xbe1306d3	-0.14358072
61	0x3e1e4c36	0.1545876
62	0x3e59c054	0.21264774
63	0x3e59e474	0.21278554
64	0xbe0cab9d	-0.1373734
65	0x3d341f7c	0.04397534
66	0x3e7d6a5d	0.24747606
67	0x3e3ff976	0.18747506
68	0x3d329b1a	0.043604948
69	0xbe103fe4	-0.14086872
70	0x3ca187cf	0.019718079
71	0xbd5caa4e	-0.053873353
72	0xbd0394f0	-0.03212446
73	0x3d850c35	0.06496469
74	0x3c98c023	0.018646305
75	0x3d863cbf	0.06554555
76	0x3d95fcdc	0.0732362
77	0x3d16fc7d	0.036861885
78	0xbe0636a8	-0.13106787
79	0x3de5b33c	0.11215827
80	0x3bce4f5e	0.0062960824
81	0x3e67584c	0.22592276
82	0xbc9db7e5	-0.019252727
83	0x3e2fc764	0.17165905
84	0x3e3d17d5	0.18466122
85	0x3c0a47e2	0.00843999
86	0x3d656f63	0.05601443
87	0xbe0d6d35	-0.1381119
88	0x3d8eebb9	0.06978554
89	0x3d89c077	0.06726163
90	0xbe133a6e	-0.14377758
91	0xb9313534	-0.00016899855
92	0xbd5eb0d6	-0.054367863
93	0x3e12422b	0.14283054
94	0xbbbce36c	-0.0057644155
95	0x3e5eee81	0.2177067
96	0xbde47029	-0.11154205
97	0xbd9701f7	-0.07373422
98	0xbc99392b	-0.018704018
99	0xbbed11cd	-0.007234788
100	0xbe29ec95	-0.16594155
101	0xbd86b37d	-0.065772034
102	0xbe2b900c	-0.16754168
103	0xbe1552bf	-0.14582346
104	0x3cece164	0.028916068
105	0xbc984833	-0.018589115
106	0xbd08f66b	-0.033438127
107	0xbdc4f02f	-0.09616124
108	0xbdcda985	-0.10042099
109	0xbdec333a	-0.11533208
110	0xbd2c5edd	-0.042082656
111	0xbe11fc98	-0.14256513
112	0xbda702c3	-0.08154824
113	0xbdae9b89	-0.0852576
114	0x3d9fd288	0.078038275
115	0xba0a24a1	-0.00052697404
116	0x3e11b556	0.1422933
117	0xbd09de0b	-0.033659022
118	0xbdd72639	-0.10505337
119	0xbb21180f	-0.002458099
120	0xbc6f6bb2	-0.014613079
121	0xbe2a5c3a	-0.16636744
122	0x3df409da	0.119159415
123	0xbdf64523	-0.120249055
124	0x3d8a6986	0.06758408
125	0xbe225c9b	-0.15855639
126	0x3c9f0507	0.019411577
127	0xbe364069	-0.17798008
128	0xbd55a456	-0.052158676
129	0xbe196624	-0.1498037
130	0x3cfd3ee7	0.030913783
131	0xbe1fe18e	-0.15613386
132	0xbe01bd45	-0.12669857
133	0xbdd02f03	-0.10165217
134	0xbd855fe7	-0.065124325
135	0xbd52a952	-0.051431008
136	0xbd9ec25f	-0.07751917
137	0x3cd31f02	0.025771622
138	0x3c925272	0.017861579
139	0xbdb3bd4e	-0.087763414
140	0xbc9ef049	-0.019401686
141	0xbe18f6ec	-0.14937943
142	0xbe1e20be	-0.15442178
143	0xbd805d31	-0.06267775
144	0xbddbbff5	-0.10729972
145	0xbde8ec63	-0.11373212
146	0xbdf009cc	-0.117206186
147	0x3dc1df0f	0.09466373
148	0xbe167d02	-0.14696124
149	0xbc27d87e	-0.010244487
150	0x3e08fb5d	0.13377137
151	0x3da7840f	0.08179485
152	0xbe4721e2	-0.19446519
153	0x3e2bebfe	0.16789243
154	0xbd612bf5	-0.05497356
155	0xbdbd24af	-0.092355125
156	0xbe531197	-0.20612179
157	0xbe2e26a3	-0.17006926
158	0xbdf39c64	-0.118950635
159	0xbcaa38aa	-0.020778973
160	0xbdd742af	-0.10510766
161	0xbd8e6ab3	-0.06953945
162	0x3d9dfadc	0.07713863
163	0xbdf0ce2e	-0.11758076
164	0x3e1ecfd5	0.15508969
165	0xbd8ae4a7	-0.06781893
166	0x3c51cb46	0.012804812
167	0xbde94e7b	-0.11391922
168	0xbd067648	-0.032827646
169	0xbd2b9fac	-0.04190032
170	0x3ce78914	0.028263606
171	0xbd33442e	-0.043766193
172	0xbdb8f219	-0.090305515
173	0xbe1dd2f2	-0.154125
174	0xbdee6f92	-0.11642374
175	0xbc08b5f4	-0.008344162
176	0xbdd57855	-0.10423342
177	0xbdf3725b	-0.11887046
178	0xbe0efca5	-0.13963564
179	0xbd1e5047	-0.038650777
180	0x3ebb80ce	0.36621708
181	0x3e5967f3	0.2123106
182	0x3e640f8f	0.2227156
183	0x3cfd13d0	0.030893236
184	0x3e130b82	0.14359859
185	0x3d00d93c	0.03145717
186	0x3cf5ee05	0.030020723
187	0xbdf89d1d	-0.12139342
188	0xbdb39f61	-0.087706335
189	0xbe33c88d	-0.17556973
190	0xbc645ec0	-0.013938606
191	0xbdfc354f	-0.12314855
192	0xbd225aaf	-0.039637264
193	0x3e1e56da	0.15462819
194	0xbe0ed723	-0.13949256
195	0x3cf876bc	0.030330054
196	0xbcf52209	-0.029923456
197	0xbd3a4d2a	-0.045483746
198	0xbd50feab	-0.05102412
199	0xbcd5c77e	-0.026096102
200	0x3db5aded	0.08871064
201	0xbe3f1b7e	-0.18662831
202	0xbd3b3961	-0.045709018
203	0xbe6caf3e	-0.23113725
204	0x3ca51395	0.020150939
205	0xbe804d3a	-0.2505892
206	0x3d9a9c9d	0.07549403
207	0xbc5c56e5	-0.013448452
208	0xbe05d6a0	-0.13070154
209	0x3d44c72f	0.04804152
210	0xbcb12b74	-0.021627165
211	0x3cd50a22	0.026005808
212	0xbd099840	-0.033592463
213	0xbe9bf969	-0.30463722
214	0x3e879abe	0.26485246
215	0x3d8feaef	0.07027232
216	0xbce2782b	-0.027645191
217	0x3dabc1c1	0.08386565
218	0xbd24b789	-0.040214095
219	0xbe4e37ae	-0.20138428
220	0xbe8ddfc2	-0.27709776
221	0xbe41efcf	-0.18939136
222	0x3c7750c6	0.0150949415
223	0xbe53d041	-0.20684911
224	0x3d07f5d6	0.03319343
225	0xbd048390	-0.03235203
226	0xbd87e808	-0.06636053
227	0xbd26758b	-0.04063944
228	0x3d0049fc	0.031320557
229	0xbd97b99e	-0.074084505
230	0xbced49f5	-0.02896593
231	0xbd3ab930	-0.045586765
232	0xbc791b1a	-0.015204215
233	0x3d9a5a73	0.07536783
234	0x3cbd0e2c	0.023078047
235	0x3da6965a	0.08134146
236	0x3e2abe8d	0.16674252
237	0x3d7d5fb9	0.061858866
238	0xbe2525bc	-0.16127676
239	0xbdd4a71a	-0.103834346
240	0xbe8db7c2	-0.2767926
241	0x3ce51511	0.027964147
242	0xbc8cc4db	-0.017183712
243	0xbea6359d	-0.3246278
244	0x3d121b2d	0.035670448
245	0xbd89c158	-0.067263305
246	0x3c068ed4	0.008212764
247	0x3dfd9096	0.12381093
248	0xbdb09be3	-0.08623483
249	0xbda0db34	-0.0785431
250	0x3cc06746	0.023486745
251	0x3e35a624	0.17739159
252	0xbe1e6ee3	-0.15471987
253	0x3de7e549	0.113230295
254	0x3bd5956d	0.006518057
255	0xbdff2dbd	-0.12459896

layers.0.theta.bias f4 [8]
0	0x3c53a8c0	0.012918651
1	0xbdb94c6d	-0.0904778
2	0x3de376bb	0.111066304
3	0x3dccfa76	0.10008709
4	0x3d99cd04	0.07509807
5	0x3bb5a806	0.0055437116
6	0xbdd37565	-0.103251256
7	0xbda10432	-0.07862128

layers.1.bn.weight f4 [4]
0	0x3f800000	1.0
1	0x3f800000	1.0
2	0x3f800000	1.0
3	0x3f800000	1.0

layers.1.bn.bias f4 [4]
0	0x00000000	0.0
1	0x00000000	0.0
2	0x00000000	0.0
3	0x00000000	0.0

layers.1.bn.running_mean f4 [4]
0	0x00000000	0.0
1	0x00000000	0.0
2	0x00000000	0.0
3	0x00000000	0.0

layers.1.bn.running_var f4 [4]
0	0x3f800000	1.0
1	0x3f800000	1.0
2	0x3f800000	1.0
3	0x3f800000	1.0

layers.1.theta.weight f4 [4, 8]
0	0xbe825a54	-0.2545954
1	0x3e7744be	0.24147317
2	0x3e1fb46a	0.15596166
3	0xbe1e499a	-0.15457764
4	0x3eae990c	0.3410114
5	0x3d57f6a1	0.052725438
6	0x3e0d29eb	0.13785522
7	0xbdb1905e	-0.08670114
8	0xbd46c1b7	-0.048524585
9	0xbd65c223	-0.056093346
10	0xbe8ac269	-0.27101448
11	0xbdf8670a	-0.12129028
12	0xbf14b959	-0.5809532
13	0x3ec171b7	0.3778207
14	0x3edb83c5	0.4287397
15	0xbda1e0b2	-0.07904185
16	0x3ea4a6eb	0.32158598
17	0x3e004b6b	0.1252877
18	0x3ea184cf	0.31546637
19	0xbe5e6b23	-0.21720557
20	0xbe1106e5	-0.14162786
21	0x3c3ebeaf	0.011642142
22	0x3daa14f9	0.083047815
23	0xbe0e7058	-0.13910043
24	0x3d9cfacb	0.076650225
25	0x3c9e9e60	0.019362628
26	0x3da9f8af	0.08299386
27	0x3ec05ac4	0.3756925
28	0xbe796634	-0.24355394
29	0xbe11899e	-0.14212653
30	0xbde7719a	-0.11300965
31	0x3ebc7ab9	0.3681238

layers.1.theta.bias f4 [4]
0	0xbdb26957	-0.08711498
1	0xbc939b9f	-0.018018542
2	0xbdffea5a	-0.12495871
3	0xbdfb1a2a	-0.1226085
