src_new/model/bkhgnn_cocitationciteseer_hid64_0112.pth (torch, 955915 bytes, 12 tensors)

layers.0.bn.weight f4 [64]
00000000: 208c 393f 40be 253f 3bdd 373f f868 343f
00000010: ce7e 353f a7a8 3c3f f049 293f 00b9 3a3f
00000020: 4f3c 2d3f 423c 423f 18f3 2f3f 025c 2d3f
00000030: 52c3 303f 01fa 4a3f e3b6 383f 6941 313f
00000040: 8333 403f b72e 323f 9b1a 423f 7701 503f
00000050: ec7c 303f b42f 313f c2c5 2e3f 1235 463f
00000060: 06f3 2b3f 8813 2f3f 9c5e 403f ff53 353f
00000070: a867 343f dad4 2d3f fabb 2b3f 64f9 443f
00000080: e88c 323f 4c08 413f c3a0 223f 7f23 313f
00000090: b007 2c3f ade8 413f c302 323f f207 323f
000000a0: 98a4 403f 0670 353f b2cf 393f 1a7c 353f
000000b0: 2751 353f 443c 4d3f 1f0f 2a3f f728 353f
000000c0: eebf 373f 87fe 313f 9ce3 3c3f 4a18 443f
000000d0: f547 4d3f 4247 3e3f 22f3 3f3f 783e 3a3f
000000e0: edba 3c3f 0f08 443f 296f 423f 6546 4b3f
000000f0: c138 343f da48 4a3f 408f 3c3f acd5 2e3f
0.7247944 0.64743423 0.71821946 0.7047267 0.70896614 0.73694843 0.66128445 0.7293854
0.6767015 0.75873196 0.68730307 0.6771852 0.69048035 0.79287726 0.72154063 0.6924043
0.750786 0.6960253 0.75821847 0.81252235 0.68940616 0.69213414 0.68270504 0.7742473
0.671677 0.6838918 0.7514436 0.7083129 0.70470667 0.6790291 0.67083704 0.7694304
0.69746256 0.75403285 0.6352655 0.6919479 0.6719923 0.7574566 0.69535464 0.69543374
0.7525115 0.7087406 0.7258254 0.7089249 0.70826954 0.80170083 0.6642932 0.7076563
0.71777236 0.69529 0.73784804 0.7659956 0.8018792 0.7432748 0.74980366 0.7275157
0.73722726 0.76574796 0.75950867 0.7940429 0.703991 0.7901741 0.7365608 0.6829479

layers.0.bn.bias f4 [64]
00000000: ca7e 543a 16bd cd3b 9a87 58bc 578b 97bc
00000010: ba3c 5fbc 9662 8cbc 9bc8 ffbb 264c acbb
00000020: e048 e2bc 8d1c acbb 7f4a 13bd 0f64 ebbc
00000030: b999 8cbc ce24 a6bc 8ba7 bebc ede0 31bc
00000040: 5c63 b0bc b08e 30bc 54c0 f8bc c74b 99bc
00000050: 64df 46bd 0a67 24bc 8b1c 0fbd 49a1 f0bb
00000060: 10e3 afbc 3312 753b 66c1 f7bc e249 4fbc
00000070: 1a8f 39bd 4518 f8bc 26b9 e13a 4268 8abc
00000080: 0175 40bd b96d 3ebc e8d4 c13b ec08 a2bc
00000090: 280b 7cba d025 cfbc 94aa b8bc 52d6 82bc
000000a0: 9edb 6abc c5d4 a4bc 54ba 06bd 59fe a6bc
000000b0: 74ee 14bd a287 65bc 735b 8fba 4087 1fbd
000000c0: 4e1a fbbc e28d a7bc 6168 0fbd c030 cebc
000000d0: 5b5f 80bc cb93 4abb 63c0 51bc d8b5 d8bc
000000e0: 7c1c 95bc 8a2a d1bb d4f5 09bd 1ba2 63bd
000000f0: fbba 29bc af50 32bc 30ee e73b 9250 3abd
0.0008106051 0.0062786443 -0.013215924 -0.01849906 -0.013625318 -0.017136853 -0.0078058965 -0.005258101
-0.02762264 -0.005252427 -0.035959717 -0.028734235 -0.017163144 -0.020281222 -0.02327325 -0.010856849
-0.021531753 -0.010776207 -0.030365147 -0.018712891 -0.048552886 -0.010034332 -0.03493933 -0.0073434454
-0.021470577 0.003739488 -0.030243587 -0.012651892 -0.045302488 -0.03028501 0.0017221316 -0.016895417
-0.046986584 -0.01162284 0.005915273 -0.019779645 -0.00096146995 -0.025286585 -0.022542275 -0.015971337
-0.014334587 -0.020120988 -0.03289254 -0.020384954 -0.03636022 -0.014009388 -0.0010937288 -0.038947344
-0.030652191 -0.020453397 -0.035011653 -0.02516973 -0.015670469 -0.0030910845 -0.012802216 -0.026453897
-0.018202059 -0.006383245 -0.033681706 -0.055574518 -0.010359521 -0.010883494 0.0070779547 -0.045486994

layers.0.bn.running_mean f4 [64]
00000000: 2cf0 ec39 cf98 8138 c8d7 163a 15da d939
00000010: 5905 04ba 804a 0839 f810 a03a ee18 823a
00000020: 1f1d 053a bdf3 383a 5e73 173a de8d 1b3a
00000030: 3608 353a f5b2 843a f316 b93a a4a1 003a
00000040: ff19 3eb9 db50 6e3a 1439 7339 25be 073a
00000050: 034c 393a bbcc e039 272f 4c3a 6ca9 823a
00000060: f632 8b39 9cc5 8638 18a7 1b3a c8f4 a638
00000070: ca0e 753a 3c7d 35b9 1cfb 293a 2030 2f3a
00000080: 96b0 cdb9 eef0 323a b3d8 17b9 c841 b637
00000090: cf88 b438 c604 2c3a 300f 513a aaae a239
000000a0: 6660 0639 4dcc 0bb9 b35e 613a 393b 8639
000000b0: 7ff3 72ba a543 2a3a 9869 f736 3c71 9b3a
000000c0: 1b8c d6b9 061d 3d3a 6ac9 6cb9 1bbc fc38
000000d0: 9416 333a 699f f439 6101 6f3a adf8 1137
000000e0: 9db9 ea39 146a fd39 75e2 0f3a 6cca 6839
000000f0: 7979 bc39 dc6e 2c39 3322 2f3a 00ae 6a3a
0.0004519237 6.179662e-05 0.00057542 0.0004155195 -0.0005036197 0.00012997724 0.0012212088 0.0009925643
0.0005077887 0.0007055363 0.0005777384 0.00059339206 0.00069058256 0.0010124134 0.0014121219 0.0004906899
-0.00018129496 0.0009091028 0.00023195549 0.0005178175 0.00070685166 0.00042877145 0.00077890087 0.0009968705
0.00026550115 6.4264255e-05 0.00059376797 7.961091e-05 0.0009348212 -0.00017308159 0.00064842566 0.00066828914
-0.00039232214 0.00068260625 -0.00014481209 2.1726722e-05 8.6085514e-05 0.00065619906 0.00079749804 0.00031029183
0.00012815147 -0.00013332181 0.000859718 0.00025602596 -0.0009267851 0.0006495065 7.3734664e-06 0.0011859308
-0.00040921647 0.00072141027 -0.00022581746 0.00012051334 0.00068316725 0.00046658076 0.0009117332 8.700573e-06
0.0004477025 0.00048334955 0.0005488762 0.00022200652 0.00035948658 0.00016444497 0.00066808163 0.00089523196

layers.0.bn.running_var f4 [64]
00000000: b219 c036 4ad7 cc36 4a73 c436 e2cd b236
00000010: bcf2 af36 ee35 c636 f3f4 b236 38a2 9f36
00000020: 2786 b136 8e7a a536 f524 a536 c8fc ce36
00000030: 67e2 cf36 306b c336 cbe2 be36 47bc b436
00000040: 43bb 9436 68bf c136 b3bf a636 101f ab36
00000050: 6274 b036 fe40 bb36 599a b436 8bf1 bf36
00000060: 9eac ae36 ad46 a336 cfa2 b336 d570 c836
00000070: 1ab7 ab36 9623 b036 5459 c136 aa48 d236
00000080: 49c2 bc36 fa2f c236 37da e636 ef81 b636
00000090: 35aa b136 dec7 a436 b6bb c336 823a c436
000000a0: c9ef b036 cdce ac36 5cce ad36 a64e b336
000000b0: b4e7 9e36 e3eb a436 7ff3 c236 9f6e c436
000000c0: ca67 b136 d7d2 b336 f922 c536 1f28 cd36
000000d0: 77df aa36 aa91 cb36 1285 b636 7734 a236
000000e0: e014 c436 5ca1 ca36 086a b236 697d bf36
000000f0: f4ac a536 d3c6 b136 acdd af36 7921 c736
5.725037e-06 6.1047367e-06 5.8546766e-06 5.3287813e-06 5.2436644e-06 5.907138e-06 5.333329e-06 4.757454e-06
5.2906285e-06 4.9316504e-06 4.9216856e-06 6.168706e-06 6.1954374e-06 5.823931e-06 5.6888434e-06 5.3863364e-06
4.432544e-06 5.774131e-06 4.9695022e-06 5.0998133e-06 5.2587575e-06 5.5806004e-06 5.3823865e-06 5.720363e-06
5.2056994e-06 4.8660063e-06 5.353569e-06 5.9736e-06 5.117513e-06 5.2493515e-06 5.7622474e-06 6.266947e-06
5.6254544e-06 5.7872358e-06 6.8799377e-06 5.439149e-06 5.2948258e-06 4.9108485e-06 5.8333053e-06 5.8480664e-06
5.2731234e-06 5.1500742e-06 5.179825e-06 5.3437716e-06 4.7357407e-06 4.9150417e-06 5.809997e-06 5.854133e-06
5.2870937e-06 5.3591607e-06 5.875129e-06 6.114147e-06 5.0924095e-06 6.066829e-06 5.439514e-06 4.834084e-06
5.8436854e-06 6.038854e-06 5.317157e-06 5.7068432e-06 4.9375176e-06 5.2981572e-06 5.2412124e-06 5.934559e-06

layers.0.theta.weight f4 [64, 3703]
00000000: f92b 813c 9755 f23b 8f98 be3b 9319 103c
00000010: d0ed 0fbb c482 9d3a 5417 14ba eeb9 363c
00000020: fe26 ff3a ad6e 19bc 73af 293c cb66 31bc
00000030: 907d 293c 5078 05b8 062a 39bb 7153 89bb
00000040: aa6e d1ba a340 413b eb20 a8bb 78fe 583b
00000050: a45a 4b3b c2fa 873c 4add a7bb 5b60 543b
00000060: 67e8 5b3b 669e 22bc e185 ae3b 1dad 583c
00000070: 9d48 313c 39cd 12bb 09ce d33b b525 853b
00000080: c6d8 d93b ceb3 973a 5285 553c 4729 17bd
00000090: 55a9 b2b9 18cc 823c 55aa cdbc 8942 3ab9
000000a0: 5276 2239 7e3e b438 2c40 48bc 4915 f639
000000b0: 6519 b7bc 214f 89bc b834 503c 21c6 13bc
000000c0: 3f33 2cbc fb2c 92ba c8a9 5db7 4ae7 063c
000000d0: 544f 41bb 4d7f 0d3c c1f3 7bbc 9f71 8aba
000000e0: 9c8d e6b9 b73c bbba 5389 15ba a6c7 b938
000000f0: 053c 833c 9f34 5bbc 61ee 263c 12f3 40bb
00000100: 5485 9639 a4d2 21bb c256 143c 2645 9fbb
00000110: d596 a83a 1c51 4f3a a2e9 20b9 b10b 903b
00000120: aca3 87b9 3086 e1bb 1335 ac3b 7675 00bb
00000130: 431e 94bb 37cf 5bbc 0d24 db3c f588 cb3b
00000140: a6cd 5439 d329 083b d0c2 2c3b 5863 1fbc
00000150: 3c44 c33b 0ac6 193a 8df2 43bb e5d5 6c3b
00000160: d342 99bb 7bf0 183b a406 b03b e7b6 5cba
00000170: e5e1 693c b9e1 933b d528 373b ea36 13bc
00000180: fd7a 933b 9cba a9bb 9ac2 b9b8 d1df 3638
00000190: 9d11 42bb 24c8 9b3b 8075 cfbb 14dc a5bb
000001a0: 6d16 0bbb 7708 abbb efa7 0dbc 3922 893b
000001b0: 7745 b83b 45f1 69bb b6ae 2c3c a0a7 9e3b
000001c0: d9df 1c3b 4891 75ba 7e6b 52bc 5aa7 babb
000001d0: 3397 203b 2513 16bb 85b4 c7bb b817 17b8
000001e0: c4e3 11bc 6e74 a7ba 1647 3ebb 2062 fdbb
000001f0: 98ed 81bc ede3 2ebb 7b82 863b e6dd 84ba
00000200: e82d a73c 5380 3bbb 4141 da3a dda6 b33b
00000210: de62 4d3a 745d 1e3c 4516 83bb 8c80 d6bb
00000220: bfea 66ba 985e 6dbb c11b 29bb 4347 f839
00000230: b46e a5bc 32d5 3439 2e55 8b3c a5ed d33c
00000240: 57af dfbc 3a1c 603c 05f0 7cbb aa70 ba39
00000250: a412 15bb 461b 12bc a630 a7b9 aa99 c0bb
00000260: ace5 6eb9 e3b2 91b8 cf5f 2b3c 1894 05bc
00000270: f4fd 9237 6576 d238 7880 7abb 5383 2fbc
00000280: 5dd8 27bb 601e 5a3b 3ab9 fabb 9d59 7dba
00000290: 5412 3cbb 0140 36b9 8e2a 143c d112 8439
000002a0: 4228 7b39 7764 f8bb db99 cbbb d4d9 87bc
000002b0: 6b51 ba3c 9e9d e43b 1672 38bc 0509 14bc
000002c0: 49ef 09bc 1906 233c ca0b fdb9 b2b0 04bc
000002d0: 11d0 2dbc 6200 3a3c dfdb b1bc a26f 07bc
000002e0: a3bb 923b 97aa bfbb 02bf 1d3d 2b01 0d3c
000002f0: 71db 6a3a e498 2d3c 0ca9 67bb e1dd a2bb
00000300: d68b 9d3a e5e5 893c ba1d de3b 407d 69b8
00000310: f43b dabb cdd9 b4bb bd31 1a3c 7832 493c
00000320: 2f11 3bbc 1b0c 8bba 8944 e53a 6234 80ba
00000330: 9e0b d6bb 5496 2dbb 8043 61bb c2a0 e1bb
00000340: 8999 d6bb a29f 853c 742e 93bb 560e bc3b
00000350: 32c0 36bc 9318 f43c f9ef 8eba ad12 993c
00000360: 270d c7b9 873c 333b 7b99 bc3a bfed e7ba
00000370: b7fb 903b a317 10ba 0c6d 25bc 4fb3 303c
00000380: fd45 a6ba a43f 0e3c b532 f739 40ff 0bbb
00000390: 720a 07bb 27cb 48bc 045e f9bb 15e9 353c
000003a0: 28d3 b33b ec71 4e3b c017 0bbc a74d 5e3c
000003b0: 0a1c 32ba cf4b 76bc eeea 89bc 1389 92bc
000003c0: 90e0 bbbb 0513 63ba 829f 2c3c 78e6 8fbb
000003d0: 6078 d9bc 0748 60bc 6c46 043a ead3 a63b
000003e0: 4273 21bb 15fe 873c 5f3a bdbb 7f10 bb3b
000003f0: 3045 b436 8bb2 683c f9f6 edbb 0875 7cb9
0.015768038 0.007395457 0.0058165262 0.00879516 -0.0021961816 0.0012017121 -0.0005649228 0.0111527275
0.0019466577 -0.009364766 0.010356772 -0.01082773 0.010344878 -3.182172e-05 -0.0028253808 -0.004190855
-0.0015978415 0.002948799 -0.0051308773 0.003311066 0.0031029368 0.016599063 -0.0051228153 0.0032406065
0.003355527 -0.00992546 0.005326018 0.013224867 0.010820535 -0.0022400154 0.0064637703 0.004063333
0.006648156 0.0011573972 0.013032274 -0.0369046 -0.00034076968 0.01596646 -0.025105635 -0.00017763129
0.00015493602 8.594709e-05 -0.012222331 0.00046936635 -0.022350976 -0.016761364 0.012707882 -0.009019406
-0.010510265 -0.0011152321 -1.3212157e-05 0.008233855 -0.0029496746 0.008636308 -0.01537794 -0.0010562426
-0.00043974526 -0.0014285062 -0.0005704362 8.858675e-05 0.01601983 -0.013379245 0.01018867 -0.0029441756
0.00028709567 -0.0024692202 0.009053888 -0.004860538 0.0012862334 0.00079085096 -0.00015345824 0.004395925
-0.00025871152 -0.0068824515 0.0052553504 -0.0019601262 -0.004520209 -0.013416103 0.026750589 0.006211395
0.00020294506 0.0020776882 0.0026361234 -0.009728275 0.005959062 0.0005865997 -0.002989921 0.0036138233
-0.0046771555 0.0023336697 0.0053718854 -0.00084195886 0.014275049 0.004512992 0.0027947922 -0.0089852605
0.0045007453 -0.0051797163 -8.857735e-05 4.3600627e-05 -0.002961255 0.004754083 -0.0063311458 -0.0050616357
-0.0021223084 -0.005219515 -0.0086459955 0.004184988 0.005623515 -0.0035696786 0.010539701 0.00484176
0.0023937135 -0.0009367657 -0.012843011 -0.0056962194 0.0024504184 -0.0022899595 -0.0060945177 -3.6023295e-05
-0.008904401 -0.0012775788 -0.002903407 -0.0077326447 -0.015860364 -0.0026686147 0.00410491 -0.0010136932
0.020407632 -0.0028610423 0.0016651527 0.005482538 0.0007834862 0.009665836 -0.0040004575 -0.0065460857
-0.00088087836 -0.0036219712 -0.0025803896 0.0004735534 -0.020194389 0.00017245559 0.01700839 0.025870154
-0.027305288 0.013678605 -0.0038595211 0.00035560626 -0.0022746706 -0.008917635 -0.00031888968 -0.005877693
-0.00022783008 -6.947459e-05 0.010459854 -0.008152984 1.7522812e-05 0.00010035633 -0.0038223546 -0.0107124625
-0.002561114 0.0033282265 -0.0076514753 -0.00096645375 -0.0028697448 -0.00017380716 0.009043349 0.0002519102
0.00023952223 -0.0075803357 -0.0062134094 -0.01658336 0.022743901 0.0069767972 -0.011257669 -0.009035354
-0.008418866 0.009950184 -0.00048264704 -0.008098768 -0.010608689 0.01135263 -0.021711288 -0.008266361
0.0044779344 -0.0058491933 0.038512237 0.0086062355 0.0008959091 0.010595534 -0.0035348563 -0.0049702977
0.0012019824 0.016833255 0.006778446 -5.5668177e-05 -0.006659979 -0.005519128 0.009411273 0.012280099
-0.011417671 -0.0010608466 0.0017491739 -0.0009781236 -0.0065321466 -0.0026487308 -0.0034372509 -0.006885619
-0.0065490645 0.01631147 -0.0044916216 0.0057390137 -0.011154221 0.029796874 -0.0010905258 0.018685663
-0.00037966037 0.002734931 0.0014389002 -0.0017694755 0.004424538 -0.0005496686 -0.0100968 0.010784938
-0.0012685653 0.008682165 0.0004714929 -0.0021361858 -0.002060559 -0.012255467 -0.0076100845 0.011102934
0.0054878183 0.0031501008 -0.008489549 0.013568318 -0.0006794339 -0.015032723 -0.016835656 -0.017887628
-0.005733557 -0.0008662197 0.0105360765 -0.0043914877 -0.026546657 -0.013689048 0.0005045894 0.00509118
-0.002463535 0.016600648 -0.0057747806 0.0057087536 5.3724725e-06 0.014202724 -0.0072621075 -0.0002407619

layers.0.theta.bias f4 [64]
00000000: ac1e 3638 a62a 13b6 d498 8b37 001f 8e34
00000010: e9b4 3c38 15fa 31b8 20ab 0cb8 58b9 8f37
00000020: 9769 4bb9 b68f 1037 ae18 0a38 7c08 a237
00000030: fcc9 3e38 fe64 35b8 3b00 1d38 50b1 e0b6
00000040: a8ec 6436 3c7e 0538 6465 a3b6 bf20 31b8
00000050: 5bdf 99b7 9ac1 c1b5 440b 86b8 56d9 9537
00000060: 344f 9a37 f862 c535 5595 0b38 b456 84b8
00000070: 1f50 61b7 3ada 3537 64e8 a6b7 3e80 93b7
00000080: 9a78 f037 2069 5037 2c8e 41b6 4f45 c8b7
00000090: b117 ddb7 5128 38b8 42ae 6836 3791 0eb8
000000a0: 7485 c4b5 500b cab5 edec ceb7 058f b137
000000b0: 22ed 40b7 cff2 3137 1274 35b7 e9de 2eb8
000000c0: 9b31 a2b7 e0c5 50b5 58f4 1fb8 a9ae 81b6
000000d0: 8ddc bc37 c504 8c37 ce1e 7138 2703 c9b5
000000e0: c269 0337 ecd2 4b36 afbb 1fb7 4ea1 afb7
000000f0: 5026 5cb7 8cb1 d537 6f4c 8fb7 bbec e3b7
4.3420747e-05 -2.1929532e-06 1.6641257e-05 2.6472117e-07 4.499118e-05 -4.2432996e-05 -3.3537974e-05 1.7133236e-05
-0.00019398924 8.616529e-06 3.292475e-05 1.9315856e-05 4.5487643e-05 -4.324782e-05 3.743193e-05 -6.696362e-06
3.41124e-06 3.1827236e-05 -4.869582e-06 -4.2230586e-05 -1.834303e-05 -1.4435966e-06 -6.391716e-05 1.7863389e-05
1.8395112e-05 1.4706447e-06 3.327926e-05 -6.3104e-05 -1.34297e-05 1.08392505e-05 -1.9896957e-05 -1.7583483e-05
2.8666389e-05 1.2422242e-05 -2.8841996e-06 -2.3874132e-05 -2.6356285e-05 -4.3906566e-05 3.4672125e-06 -3.399068e-05
-1.4641978e-06 -1.5053465e-06 -2.466744e-05 2.1166643e-05 -1.1499304e-05 1.0606555e-05 -1.0815465e-05 -4.1692434e-05
-1.9335004e-05 -7.7773984e-07 -3.8136117e-05 -3.8648327e-06 2.2514048e-05 1.6691522e-05 5.7487567e-05 -1.4976584e-06
7.832832e-06 3.037213e-06 -9.520837e-06 -2.0936739e-05 -1.3121942e-05 2.5474255e-05 -1.708252e-05 -2.7170745e-05

layers.1.bn.weight f4 [6]
00000000: 9877 ac3f ce90 ab3f 3a53 ac3f c068 ad3f
00000010: d00d ae3f 76d8 aa3f
1.3473997 1.3403566 1.3462899 1.3547592 1.3597965 1.3347309

layers.1.bn.bias f4 [6]
00000000: aaeb 5d3e b06e a33d 2c9d 60be a13d 7c3d
00000010: efa9 9d3e 44f1 8cbe
0.2167193 0.07980096 -0.21934956 0.06158221 0.30793712 -0.2752782

layers.1.bn.running_mean f4 [6]
00000000: 71f2 513c fcba bab9 4e5b c0bb a21e 2c39
00000010: 14a0 473c 490e 15bd
0.01281415 -0.00035616 -0.0058702594 0.0001641461 0.012184162 -0.036390577

layers.1.bn.running_var f4 [6]
00000000: aa3a 283d 6699 123d 0848 133d a290 d83c
00000010: 8301 ff3c 3bec c33c
0.04107157 0.035790823 0.035957366 0.026436154 0.03112865 0.023916354

layers.1.theta.weight f4 [6, 64]
00000000: 081b 853d 7e1e 26bd 18cf 11bd d05b b53d
00000010: c02f d23d 1c9d c73d 4ea3 adbc ae16 e73d
00000020: 66b5 623c 83af 8e3d f6cf 69bd f8c4 45bd
00000030: 00f4 ad3d 597e 673d 3a8a a3bd c6bf 9bbd
00000040: 4311 39bd 3b75 92bd ca3f d8bd e22f 95bc
00000050: ec7e cebc 8d6f d43d 6f85 a6bd 245e cf3d
00000060: c57e 9b3d 1027 443d 9713 95bd 59a6 ad3d
00000070: 79bf 85bc ca1e 76bb 6bf4 b63d 22cc 3dbd
00000080: 77f9 5f3b 8d8d b03d f7ff a53d e9a8 6d3d
00000090: 1c86 913d e087 69bc 5d9d 87bd a7e4 9bbd
000000a0: 94d2 57bd 3411 c63d 127f 88bd 2edf a1bd
000000b0: 9083 fdbb 7d68 94bd 2ed9 9a3d 2a4b a0bd
000000c0: ac7a ef3d 1a7f 72bd 4684 41bd 2a0b e23d
000000d0: 2856 acbd 0165 6d3d b6db 93bd e322 34bd
000000e0: c61f 72bd 2af1 b33d ce42 92bd 76e2 dabc
000000f0: 189c b0bd b332 24bd c31f 423d 16d3 88bd
00000100: d729 6cbc 2584 953d 25cf 55bd 5e0b 34bd
00000110: eb85 fcbc 304a 2dbd e229 d03d 6b38 0f3c
00000120: 9da4 69bd 1165 ae3d 87b9 36bd 65f8 9f3d
00000130: e157 f5bc 4917 96bd 7c69 733d 692a 893d
00000140: be4f 2fbd a56b 74bd a15f c7bd 23ea ad3d
00000150: 9b4a f23d 9429 c7bc 9b6e 583d 429e 5abd
00000160: 9052 b8bd 3ad5 89bd aa61 a53d b3cb 7ebd
00000170: 9b14 fb3d b619 ee3d 4da6 14bc 65a0 21bd
00000180: 0828 d6bc 2ed5 69bd 1d98 15bd 5dfb 83bd
00000190: 226c 6d3d 5438 90bd 7c00 3ebd 28b2 553d
000001a0: 6c32 923d 7139 2ebd 423c d93d 5e55 7bbd
000001b0: aa58 da3d 6f13 04bd fdce 1bbd e090 33bd
000001c0: c8eb 4abc 1a32 a93d de5e d63d 042f c5bc
000001d0: ddda 263c 51bb 9e3d aa8c 46bd 53a7 24bd
000001e0: ecf9 35bd a3bd f3bc 362e a6bb deba 73bd
000001f0: 8cf9 89bd 0737 a4bd ec18 593d 081a c33d
00000200: 8679 78bd bd47 8b3d 4184 6ebd 3a7c afbd
00000210: 874a 5e3d a857 76bd c79a 8dbd 57f8 323d
00000220: 0ec7 a03d 7de9 6fbd e313 08bd 53f2 98bd
00000230: 5af0 043e c7ea 27bd 0c52 513d 17b8 b0bd
00000240: aa4c d33d 7d91 8abd 0b43 b73d 2e10 6dbd
00000250: d33b 3ebd bb42 b33d 2837 30bd 6db7 8cbd
00000260: 1c65 c63d aea8 6e3d a185 32bd c7b2 33bd
00000270: 3e0e 87bd da5f 7cbb f5fc 8cbd 7150 a53d
00000280: e6e4 9b3d 1dc6 6bbd 342c 8a3d 932f 97bd
00000290: 53d6 8a3d c748 d33d 9692 b23d 5c61 92bd
000002a0: 44c5 af3d 7298 a2bd 3ea6 c83d 1acd c03d
000002b0: cd5d 893c dc98 ca3d 7bb9 683d 467a 57bd
000002c0: 2c00 87bd bb6d a53d db5e 81bd 80d2 6abd
000002d0: 1d64 95bd 8f58 4abd 1545 253d d431 e23d
000002e0: 420e 71bd bdc0 93bd 61dd ce3d 2951 12bd
000002f0: e19d 5b3d d4d2 55bd 1b86 9cbd 0b51 12bd
00000300: 5df1 43bd 2a31 0bbd e774 943d 077d 913d
00000310: b4be 0ebd d4ad 8f3d e1d8 adbc feec 7dbd
00000320: 66d4 b0bd 7974 64bd daee d93d ebe4 8ebd
00000330: 54f2 febc 3172 bb3d 7dbe b43d a53c a43d
00000340: bf46 1dbd f004 793d c1db 783d b472 14bd
00000350: dcc1 863d 2c71 51bd 899a 51bd 3321 83bd
00000360: df37 28bd 2e72 403d b3d8 8bbd 3e4d 7fbd
00000370: 4443 30bd 5ea2 c4bc aa1d 8e3d 02df 67bd
00000380: c390 053e 048a 52bd 909c d5bc 4bb7 adbd
00000390: 01f9 60bd 42e0 f5bc 8e42 58bd 881a 77bd
000003a0: 7ef5 a7bc 7a7d 503d f964 19bd d63a 9f3d
000003b0: 3460 71bd dd62 f93c ffaf 3abd bead 8cbd
000003c0: eac2 7ebd 6f83 38bd a8d8 ccbc c3b9 14bd
000003d0: 5439 c13d 2b6d 22bd ce10 983d 2599 3bbd
000003e0: 56b0 a13d 3398 883d dca3 bb3d 2bbc 0dbd
000003f0: 622a 7e3d 9864 563d 26b1 1c3d df07 d13d
0.064992964 -0.040556423 -0.03559789 0.088554025 0.10263014 0.09746763 -0.021196034 0.11283623
0.013837194 0.0696707 -0.057083093 -0.048283547 0.08493805 0.05651698 -0.07985349 -0.07604937
-0.045182478 -0.07151266 -0.10559042 -0.018211309 -0.025207005 0.10372839 -0.08130919 0.10125378
0.07592539 0.047888815 -0.07279127 0.08478994 -0.016326653 -0.0037554973 0.08933338 -0.046337254
0.0034175792 0.08620749 0.08105462 0.058022413 0.071056575 -0.0142535865 -0.066218115 -0.07611971
-0.052691057 0.0967125 -0.06664862 -0.07903896 -0.0077366307 -0.07246492 0.07560955 -0.078268364
0.1169332 -0.059203245 -0.047245286 0.110372856 -0.084148705 0.057957653 -0.07219641 -0.043978583
-0.059112333 0.08786233 -0.07141648 -0.026719313 -0.086235225 -0.040087413 0.04739357 -0.066808864
-0.014414272 0.07300595 -0.0521995 -0.043956153 -0.030825576 -0.04230708 0.101642385 0.008741478
-0.057041753 0.08515371 -0.044610526 0.07811049 -0.02994913 -0.0732866 0.05942677 0.06697542
-0.042800657 -0.05967297 -0.09735037 0.08491924 0.11830636 -0.024311818 0.052839857 -0.053373583
-0.090001225 -0.06730123 0.080752686 -0.06220598 0.122597896 0.11625998 -0.009072852 -0.039459605
-0.026142135 -0.05708807 -0.03652202 -0.06444428 0.05796445 -0.07041994 -0.04638718 0.052171856
0.071385235 -0.04253525 0.106071964 -0.06136071 0.106614426 -0.032245096 -0.038039196 -0.043839335
-0.012385316 0.08261509 0.10467313 -0.02407027 0.010184017 0.077505715 -0.04847399 -0.040198635
-0.044427797 -0.029753512 -0.0050714267 -0.059504382 -0.067370504 -0.08018308 0.053002283 0.095264494
-0.06066277 0.06800792 -0.058231596 -0.08568616 0.054270294 -0.06014219 -0.06914287 0.043693867
0.07850467 -0.05857228 -0.03322209 -0.07468095 0.12982312 -0.040995385 0.051103637 -0.08628862
0.10317357 -0.06766031 0.08948334 -0.05787676 -0.04644377 0.08752962 -0.04302135 -0.06870923
0.09687254 0.058266334 -0.04358447 -0.043871667 -0.06594513 -0.003850928 -0.06884185 0.080719836
0.07612018 -0.057561982 0.06746712 -0.07382121 0.0677916 0.103166156 0.08719365 -0.07147476
0.08582547 -0.07939233 0.09797333 0.0941412 0.01676836 0.09892437 0.056817513 -0.052606843
-0.0659183 0.0807757 -0.0631692 -0.057329655 -0.07294486 -0.049400862 0.040349085 0.1104466
-0.058851488 -0.07214496 0.101008184 -0.03572193 0.053617362 -0.052203014 -0.07642766 -0.03572182
-0.047837604 -0.033982433 0.0724886 0.07103925 -0.034849837 0.07015577 -0.02122158 -0.06199359
-0.08634262 -0.05577514 0.106412604 -0.069772564 -0.03112141 0.0915264 0.08825395 0.080193795
-0.038397547 0.060795724 0.06075645 -0.036242202 0.065799445 -0.05113332 -0.051172767 -0.064028166
-0.041068908 0.04698389 -0.068284415 -0.062329523 -0.0430329 -0.024003204 0.06939252 -0.05660916
0.13043503 -0.051401153 -0.026075631 -0.08482226 -0.05492497 -0.030014161 -0.052797846 -0.060328037
-0.020502802 0.050900914 -0.03744981 0.07774894 -0.058929637 0.03044265 -0.045578 -0.06869076
-0.062197603 -0.04504722 -0.025005654 -0.03630997 0.094347626 -0.039654892 0.0742508 -0.045800347
0.078949615 0.06669655 0.09162113 -0.03460328 0.06205214 0.052342027 0.03825488 0.102065794

layers.1.theta.bias f4 [6]
00000000: daae 9635 3c83 c034 65f2 f3b6 d50b 85b5
00000010: f8f9 90b6 ac40 bd35
1.1226759e-06 3.5858272e-07 -7.270183e-06 -9.912716e-07 -4.3206346e-06 1.4100419e-06
