src_new/model/bkhypergcn_CocitationCora_hid64_0104.pth (torch, 371021 bytes, 4 tensors)

layers.0.theta.weight f4 [64, 1433]
00000000: 8054 02bd ac88 5c3d 3062 d23c 56df dfbb
00000010: a2df 353d 4603 043c 640d 3abe ea64 b6bd
00000020: a352 fc3d 3c51 443d 546e 36bd 6240 143d
00000030: 5726 9dbd d5de 013e 6512 3e3d 1536 d23d
00000040: 9c71 e43d 7b71 ca3c 654e 973d 0627 1a3f
00000050: ab70 363d 28c2 2cbe 7215 10bc 5bef 623d
00000060: d451 d6bc 24bf 1ebd 5db3 a7bd 775f fd3d
00000070: 6ef9 dfbd df7d 16bc ded5 a0bd 0222 3e3c
00000080: d2f9 f93d 723d d63c f6a5 12bd 0daa 65bd
00000090: 923d a4ba 80a0 0d3c 39fc f5bd bd56 1f3d
000000a0: d3a6 0bbe 01df cabd 0d87 d13c 4a9e b2bc
000000b0: 4086 41bd a1ff 83bd 9d46 023d 6f7d 78bd
000000c0: 8d6a ae3d cf43 2cbd c35b 54be 08e0 883e
000000d0: da12 683c 7cd9 d9bb 3904 34be 7ce2 04bd
000000e0: a754 1cbe 7a7f b7bd b9a8 643e fd51 fd3c
000000f0: 11ab 99bc 58c9 37bc ae1a 6fbd 18cc 3bbe
00000100: 28ae c33d 6825 023e e596 d13d 5176 bbbd
00000110: ff3e a93b aae2 f83d d35b dbbd b38f fcbb
00000120: bf00 6d3d 522a e43d 1da8 65bb 8e9a f53d
00000130: 2ad5 26be 6e32 123e 26af 4bbe 689e cabc
00000140: 5ede 5cbd 36a8 f3bd 3031 d8bd ca4e 31bc
00000150: 2b78 32bd 032b 4f3e 8ef9 283e b150 0e3e
00000160: 44bd 853e 3cc3 803d 4b57 303e cc15 86bd
00000170: 58a9 b23c d479 76be 1771 1ebd a17d 003e
00000180: b02f 0e3d d0ab 5fbd 6de0 98bd ac65 ffbd
00000190: c814 883d 2b51 653d f33e 7d3d 84a6 ec3d
000001a0: f380 a5bd 9711 203c bea4 c3be 5aba 88bc
000001b0: 556a 5fbe f918 c23d ce9a 2dbd e7b3 96bd
000001c0: 10fe df3d ef27 17bc 9be6 043d da64 a53d
000001d0: 3851 fa3b e43a 213d 1540 1dbd aa80 a33d
000001e0: e847 05bd ace1 12be d85d 9d3a 9040 3b3d
000001f0: 87e6 183b 28e8 303e 9921 d9bd 97e5 e13d
00000200: 4ba8 7d3e 807c 0d3e 049f 7dbc 57fd 143e
00000210: 55df b6bd e07b 323e fc66 adbd f1c1 9e3e
00000220: 2ae3 0a3e 4d42 273d 3615 6bbd f7c9 5e3d
00000230: 9611 c5be b92e c6bc c8a6 96bb 5ac5 c63d
00000240: bf37 60bc 17a8 a03c 866b dc3d 883d c4bd
00000250: 2b12 cbbc 82d8 24be ac70 b43c f1e7 843d
00000260: 264e 67bd 48e1 243e 3874 f7bd 7c24 d7bb
00000270: ebbf 31bd 1cb2 be3d 14ae f3bb 58d4 f1bb
00000280: 3915 bf3d 211d 983d 45a8 553d be18 efb8
00000290: 21d8 f8ba aa2f 9bbd 5a00 4e3c 5f9c b93d
000002a0: 962f 603e 04a7 ebbd 4143 13bd 670e a93d
000002b0: 775e 003e d24e 14be c650 0abd 990a e73d
000002c0: ef96 803e 2242 173d 3165 3cbd 1e43 28bc
000002d0: 4db2 573b 3625 a43c e881 633d fb6e d03c
000002e0: 4056 23bd f642 5bbc ffc1 f8bd c07b d6be
000002f0: a746 f1bd ad68 353d a0b5 a1bd 52f0 d5bd
00000300: 2aed 2cbd 2788 30bc d890 d5bd 12cd d8bc
00000310: 5445 eabc af71 ed3c 648f 88bd 7d26 83bd
00000320: b8ce a7bd 28cb ce3c 29e4 ec3d cee3 c33c
00000330: dc6e a93d 448f 8ebe ab69 e0bc 5a7e c13c
00000340: c226 f73d cc16 98bd e5e8 b53c 8500 62be
00000350: 8db8 ee3d 3ba1 c1bc 48e1 f7bb e0d2 dab9
00000360: 2e84 983d 2545 b23d 0ed0 e03d 5428 3abd
00000370: 6e98 51bd 669b 8bbc 2155 2a3e a830 183c
00000380: 77a1 94bc ace9 a43d 593f bc3c 08e2 33bd
00000390: 0036 e2bd ec41 2f3c 1d49 1b3e 45e0 6d3d
000003a0: 56f5 603d 9d8d 92bd ced8 92be 33c6 913d
000003b0: bd08 74bc 708e f7bd 6600 e03e 9478 093d
000003c0: 7e50 c83c 3268 813d 7476 4abd f81c 063d
000003d0: 1e90 7dbd c0ec 39bd 29e1 d83d 55f1 81bd
000003e0: 7c89 33bd 14a3 c33a 9fa1 36bd ae44 c13c
000003f0: 8f7a 463d 552a d23d 720c bf3c acc0 07be
-0.031818867 0.053841278 0.025681585 -0.0068320436 0.044402726 0.008057421 -0.1816917 -0.089059666
0.12320449 0.047929034 -0.04453881 0.036194213 -0.07673328 0.1268266 0.04640426 0.102642216
0.11154482 0.024712315 0.073879994 0.60215795 0.044541042 -0.1687094 -0.008794175 0.05540405
-0.026162066 -0.038756505 -0.08188508 0.12371724 -0.10936247 -0.009185283 -0.07853292 0.011604788
0.122058526 0.026152346 -0.035802804 -0.056070376 -0.0012530556 0.008644223 -0.12010998 0.03890108
-0.13637857 -0.09905816 0.025577093 -0.021803994 -0.04724717 -0.06445242 0.031805623 -0.060666498
0.08516417 -0.042056855 -0.2073813 0.26733422 0.014164651 -0.0066482406 -0.17579736 -0.032442555
-0.15266667 -0.08959861 0.22329988 0.030922884 -0.018758329 -0.011217438 -0.058375053 -0.18339574
0.09554702 0.12709582 0.10233859 -0.091534264 0.0051649804 0.12152608 -0.107108735 -0.00770756
0.05786204 0.111408845 -0.003504283 0.119923696 -0.16292253 0.1427705 -0.19891033 -0.024733737
-0.053923003 -0.11897318 -0.10556257 -0.010822007 -0.043571632 0.20231251 0.16501448 0.13897969
0.2612096 0.06287238 0.172208 -0.06547126 0.021809265 -0.24069911 -0.03868207 0.12547924
0.034713447 -0.054607213 -0.07464681 -0.12470564 0.06644589 0.05598561 0.06182761 0.11555198
-0.08081236 0.009769819 -0.38211626 -0.016690422 -0.21817906 0.094774194 -0.04238396 -0.073585324
0.109371305 -0.0092258295 0.032446485 0.080758765 0.0076390766 0.039362803 -0.03839119 0.07983525
-0.03253928 -0.143439 0.0012006117 0.04571587 0.0023330764 0.1727606 -0.10602111 0.11030119
0.2477123 0.13817024 -0.015479807 0.14549766 -0.08929316 0.17430067 -0.08466908 0.3100734
0.13563219 0.040834714 -0.057393275 0.054391827 -0.3848998 -0.024192201 -0.0045975186 0.097056106
-0.013685166 0.019611401 0.10762696 -0.09582049 -0.024788937 -0.16098216 0.022026382 0.06489552
-0.056471013 0.16101563 -0.12082714 -0.0065656286 -0.043395918 0.093113154 -0.007436523 -0.0073800497
0.0933022 0.07427431 0.052162427 -0.00011401017 -0.001898531 -0.075774506 0.012573326 0.090630285
0.21893153 -0.11506465 -0.03595281 0.082547 0.12536035 -0.14483193 -0.033768438 0.11281318
0.25115153 0.036928304 -0.04599494 -0.010269908 0.0032912672 0.020037275 0.05554381 0.025443545
-0.039877176 -0.013382664 -0.12146377 -0.4189129 -0.11781054 0.04428928 -0.0789597 -0.10446228
-0.042218365 -0.010774649 -0.104280174 -0.026464973 -0.028597511 0.028984873 -0.066679746 -0.064038254
-0.08193725 0.025243357 0.115669556 0.023912337 0.08273098 -0.27843678 -0.027394136 0.02361982
0.12067939 -0.07426223 0.02220578 -0.2207051 0.11656294 -0.023636451 -0.0075646974 -0.00041737314
0.07447086 0.087045945 0.10977183 -0.045448616 -0.05117076 -0.017041873 0.16634037 0.009288944
-0.018143399 0.08052382 0.022979425 -0.043916732 -0.11045456 0.010696869 0.15164609 0.05807521
0.05492147 -0.07155917 -0.28681034 0.071178816 -0.0148946615 -0.12087715 0.43750304 0.033562258
0.024452444 0.06318702 -0.049429372 0.03274247 -0.06190502 -0.045391798 0.10589821 -0.063448586
-0.043832287 0.001492592 -0.044587728 0.02359232 0.048456725 0.102619804 0.023321364 -0.13257092

layers.0.theta.bias f4 [64]
00000000: 4142 9a3d 0011 b13d ab3e 853d aa4c cabc
00000010: fd47 853d 3a12 6d3d 19f7 5d3d f0a8 5b3d
00000020: 8f98 353d 6ff9 993d 05d9 6ebc 5a48 ac3d
00000030: 3d3a ab3d 9a0a 8f3d 8a25 6c3d ac17 a53d
00000040: f607 1e3d 413d 803d 752f 583d 37d4 823d
00000050: f392 b9bc ed9c 693d a84c 423d f16a 833d
00000060: 3c84 563d 3653 933d bfe0 473d 93c3 cb3d
00000070: d02f 763d 9439 a33d 574a 573d a649 37bc
00000080: 7ce8 b0b7 f6a6 733d 6485 6f3d a1e7 9e3d
00000090: 4203 a03d 12a9 9c3d 948b ad3d edf2 5b3d
000000a0: 66ef af3d ed55 c8ba 73f7 68bc beda 893d
000000b0: 8ebf 5e3d 521c ae3d 884d a63d fc5f 6a3d
000000c0: 4f9d 96bc 214e 9d3d c835 743d bde7 883d
000000d0: 33fb 5f3d da2d 623d ec58 6d3d e785 a43d
000000e0: bd73 733d e214 adbc ac80 513d dd5f abbc
000000f0: e669 823d 1dcb f7bc 8329 823d b1d9 ba3d
0.07532168 0.086458206 0.065060936 -0.02469476 0.06507871 0.05787871 0.05419073 0.05362791
0.044334944 0.07518279 -0.014578109 0.084122375 0.083607174 0.06984444 0.057652988 0.08061156
0.03858181 0.06261683 0.052779634 0.06388133 -0.022653079 0.05703442 0.047436386 0.06416882
0.052372202 0.071936056 0.04879832 0.09949412 0.06010419 0.079699665 0.05256113 -0.011186993
-2.1089094e-05 0.0594854 0.05847682 0.077590235 0.078131214 0.07649435 0.08473888 0.05369847
0.085905835 -0.0015284397 -0.014219153 0.06731175 0.0543819 0.085014954 0.08120257 0.057220444
-0.018385557 0.076809175 0.059621602 0.066848256 0.05468292 0.05521951 0.05794613 0.08033352
0.05943655 -0.021128122 0.0511481 -0.020919735 0.06367855 -0.03024822 0.06355574 0.091235526

layers.1.theta.weight f4 [7, 64]
00000000: ba35 87bf 5470 9dbf 531e b63f 5013 e2b4
00000010: b4e4 aa3f b8fa 94bf 22d7 b43f 978a babf
00000020: b4d4 af3f ef3e aebf 8b96 8bb3 c8ab a2bf
00000030: 02ce 84bf 6a5d cc3f ba66 b9bf 9a23 9fbf
00000040: 5d9c 38bf 4f9a 98bf 9e7f a33f c690 9cbf
00000050: 8ed8 c3b4 3cbb b53f 0854 a33f 8a89 b33f
00000060: 235d a23f 704f c43f 44db b0bf ff46 95bf
00000070: 0849 adbf 9d05 7abf 4ede a93c 40b4 9533
00000080: 3a09 1634 7d35 9d3f 0425 a53f 831f 80bf
00000090: 1659 91bf 0d07 c53f 4b84 bc3f 2f5e b6bf
000000a0: 6a44 9bbf da5d 6033 0a68 38b3 6e20 af3f
000000b0: 0e49 5d3f 7118 9ebf d0b0 8cbf 5f67 b2bf
000000c0: 94d2 3533 0e79 a43f a249 a43f 494f ce3f
000000d0: 26cc aa3f d771 a43f 3bf3 713e 30a1 85bf
000000e0: 3730 70bf 586a 69b2 8e41 acbf 6f7e 9cb3
000000f0: 3f3b 0bbe 00bd 7db4 75f0 c53f 2fdb 92bf
00000100: a6ed a3bf fb35 b83f bb54 b1bf 528f d532
00000110: cf2c a7bf 10ae 9f3f 5533 c93f b5e3 c6bf
00000120: 7129 c23f c88e 953f 28a3 f2b4 559a ba3f
00000130: 439d a3bf 3e2b c8bf 0b43 c5bf 807c b7bf
00000140: f398 0e3f 73e0 8c3f cce1 cd3f 762c a23f
00000150: f507 47b3 6736 c73f 67bc cbbf d213 a2bf
00000160: 5b13 cd3f ee4e 653f ae6e 9dbf 4ab2 9a3f
00000170: d306 b13f 499d a6bf b753 343f 0ff0 dd33
00000180: 2dbf d4b3 969e abbf c367 92bf 8031 adbf
00000190: af80 a1bf 0f23 a8bf 352c a5bf 4c03 9abf
000001a0: 4f4f bd3f 75f8 7434 cdf4 9f34 1375 a9bf
000001b0: da00 6f3d 81ea a5bf 1766 9abf e9dc c0bf
000001c0: 96d4 0233 bfff bebf 2709 8ebf 2ad5 bebf
000001d0: 5b7b 93bf 2111 99bf dce5 86bf 7a29 a2bf
000001e0: a42c 3c3f a03a 42b2 2f49 c93f bac6 e4b1
000001f0: a8d2 7d3d 68ef a3b2 fbf6 98bf 64c6 c73f
00000200: 7955 88bf a449 1abe 3893 9ebf 8853 adb4
00000210: c7ae 83bf 8771 943e ddbb 97bf 13a1 da3f
00000220: 078b 7b3f cc82 9f3f d0f7 05b3 62a0 e8bf
00000230: 33fa 22bf fbdb d03f 05d6 df3f 9cd7 abbf
00000240: f517 8c3f 6403 ad3f 41bc 7dbf 001a a23f
00000250: f25a f332 c19c cabf 9c3f 593f abf6 793f
00000260: c286 80bf 2837 9ebf 963e dabf 740d 2dbe
00000270: 6878 8b3f 1365 2dbf 4779 4a3f 2eb0 4eb3
00000280: d09a ee31 9d84 dabf 5173 c6bf eb32 b6be
00000290: 793c 52bf 5730 0dbf 6625 a4bf 4e17 f8bf
000002a0: 409e a0bf bced 98b3 4e2f aeb2 31e5 a4bf
000002b0: fc2b 873f cf68 93bf 17c0 6dbf 77f0 cf3f
000002c0: 66fb 5934 632e 8e3f 6ab8 dabf e058 de3f
000002d0: d90d b6bf 8bf3 97bf 1584 953f 15fc 793e
000002e0: 3b95 f7be 673c 30b5 4016 dfbf faa3 b733
000002f0: 7a6d 673f 9e93 10b4 18b1 51bf 65cc b7bf
00000300: 0ec1 c73f 9fa8 723f dfd9 a9bf f0c1 9ab4
00000310: 699f 483f 0de3 90bf 4a64 fb3e 017c d83f
00000320: 8391 65bf d3c2 a23f 0f41 15b6 9383 443f
00000330: 3a0a 9f3f c6db f1bf e9c6 ba3f cd23 8b3f
00000340: 9767 9cbf 2d03 b7bf a8ff 4c3f fc13 cabf
00000350: a396 1b35 1ad3 aabf f980 a9bf b3ac 7e3f
00000360: 2d01 5d3f 76ab 533f bf64 8d3f 662c 873f
00000370: ec94 973f 8342 963f 6195 e5bf 5d42 98b3
00000380: 6087 7131 7ae3 233f 0c81 7a3f aadb 9f3f
00000390: 0af4 aa3f 710a 013d 53a6 043f 91a6 b43f
000003a0: 09f3 723f 4e52 3b34 ac82 bcb3 7fd5 bfbe
000003b0: 726e ddbf d4c1 763f fee1 923f 3260 ec3f
000003c0: ac01 2f34 74c0 293f bb29 8f3f a394 9d3f
000003d0: 8d92 373f c0f8 573f 0bc3 d2bf 25c5 8e3f
000003e0: 68b3 8dbf b8b2 7ab4 dee7 883f 1620 acb4
000003f0: 35f6 d6bf f669 9735 bd88 38bf fd0b 683f
-1.0563271 -1.2299905 1.4228004 -4.2109832e-07 1.3351045 -1.1639013 1.4128153 -1.4573544
1.3736787 -1.3612956 -6.5000755e-08 -1.2708673 -1.0375369 1.5966008 -1.4484475 -1.243274
-0.7211359 -1.1922091 1.2773321 -1.2231681 -3.6479145e-07 1.4197764 1.2760019 1.4026349
1.2684673 1.5336742 -1.3816915 -1.1662291 -1.3537912 -0.97664815 0.020735886 6.9711405e-08
1.3973195e-07 1.2281948 1.2901921 -1.0009617 -1.1355312 1.5392777 1.4727873 -1.4247493
-1.2130253 5.223942e-08 -4.293546e-08 1.3681772 0.864396 -1.2351209 -1.0991459 -1.3937796
4.2333866e-08 1.2849443 1.2834971 1.6117946 1.3343551 1.2847241 0.23627941 -1.0439816
-0.9382357 -1.3586565e-08 -1.3457506 -7.287314e-08 -0.1359682 -2.3631219e-07 1.5464007 -1.147314
-1.28069 1.4391474 -1.3853983 2.4861638e-08 -1.306055 1.2474995 1.571879 -1.5538241
1.5168897 1.1684198 -4.5194724e-07 1.4578348 -1.2782367 -1.5638196 -1.5411085 -1.4334869
0.5570213 1.1005996 1.6084533 1.2669818 -4.6340535e-08 1.5563477 -1.5916871 -1.2662299
1.6021532 0.8957356 -1.2299402 1.208566 1.3830208 -1.301675 0.7044024 1.0334781e-07
-9.906794e-08 -1.3407772 -1.1437916 -1.3530731 -1.2617396 -1.3135699 -1.2904116 -1.2032256
1.4789828 2.2814659e-07 2.9794174e-07 -1.3238853 0.05835042 -1.296219 -1.2062405 -1.5067416
3.046133e-08 -1.4921798 -1.1096543 -1.4908803 -1.152202 -1.1958352 -1.0538898 -1.2668908
0.73505616 -1.1305616e-08 1.5725459 -6.658266e-09 0.061968476 -1.9084567e-08 -1.1950372 1.5607419
-1.0651084 -0.15067154 -1.2388678 -3.2284538e-07 -1.0287713 0.28992864 -1.1854206 1.7080406
0.98259014 1.2461791 -3.119186e-08 -1.8173945 -0.63663024 1.6317133 1.7487189 -1.3425174
1.0944811 1.351666 -0.9911538 1.2664185 2.833028e-08 -1.5829087 0.84862685 0.9764201
-1.0041125 -1.2360582 -1.705035 -0.16899663 1.089612 -0.6773235 0.79091305 -4.8123347e-08
6.944312e-09 -1.707172 -1.5503942 -0.35585722 -0.82123524 -0.55151886 -1.2823913 -1.9382112
-1.2548294 -7.121295e-08 -2.0277778e-08 -1.2882444 1.0560298 -1.151636 -0.9287123 1.6245259
2.0301158e-07 1.1107906 -1.7087529 1.7370872 -1.4222976 -1.1871198 1.1680933 0.24412568
-0.4835604 -6.5653006e-07 -1.7428665 8.551429e-08 0.9040142 -1.3464748e-07 -0.8191085 -1.4359251
1.5605791 0.94788545 -1.3269614 -2.8825843e-07 0.7836824 -1.131929 0.49099952 1.6912843
-0.8967516 1.2715706 -2.22406e-06 0.76763266 1.2424996 -1.8895195 1.4591953 1.08703
-1.2219113 -1.4297844 0.800776 -1.5787349 5.7961205e-07 -1.3345673 -1.3242484 0.9948227
0.8632992 0.82683504 1.104637 1.0560424 1.1842322 1.1739048 -1.7936212 -7.090123e-08
3.5147067e-09 0.64018977 0.9785316 1.2488911 1.3355725 0.0315041 0.5181629 1.4113332
0.9490209 1.7445674e-07 -8.778201e-08 -0.37467572 -1.729933 0.9638951 1.1475217 1.8466856
1.6298753e-07 0.66309285 1.118461 1.2310985 0.71707994 0.8436394 -1.6465772 1.1153914
-1.1070375 -2.3348082e-07 1.069576 -3.2060842e-07 -1.6793886 1.1281215e-06 -0.72083646 0.9064329

layers.1.theta.bias f4 [7]
00000000: f9f2 a1be 9874 293f d4db 6b3e 7afc 87be
00000010: 1227 dc3e 2f69 9fbe 11de 9d3e
-0.31630686 0.6619353 0.23033077 -0.26559812 0.42998558 -0.31134936 0.30833486
