src_new/model/bkunigin_CocitationCora_hid64_0104.pth (torch, 375019 bytes, 12 tensors)

layers.0.bn.weight f4 [64]
00000000: a5b0 2b3f 9532 3c3f e952 193f bf5c d93e
00000010: 1460 163f 27e9 873e 5ce9 293f 6756 053f
00000020: 9dab 2c3f cf25 3d3f 91a2 2a3f c2d0 453f
00000030: 5d6d ea3e 3293 7d3e fe7b 253f 8ef1 2d3f
00000040: a92c cb3d a6c8 243f 8c34 953e c8b1 063f
00000050: 0fbf 183f e36e 583f e0b8 0b3f 6fbe 203f
00000060: c4d3 443f 3108 0d3f e9df a13e cc06 123f
00000070: 32a3 233f 4dd1 023f 6ae9 dd3e 87c4 2f3f
00000080: 142d 253f 7e21 283f fc5d 0a3f d02c 2d3f
00000090: 0b8c 433f bdcc 3f3f 4f73 423f 10ad 373f
000000a0: f592 3e3f 3111 473f 9ca2 3f3f 61d4 453f
000000b0: 90e7 2d3f cf8c 4b3f 2049 2d3f cae9 943e
000000c0: 433c 133f 6969 863e eb7c 223f e244 c43e
000000d0: 48de 423f 81d2 363f 2a11 233f d4f7 8f3e
000000e0: 7102 553e 6218 353f 1154 3b3f 390b 2b3f
000000f0: f460 2a3f df7c 273f 3d4d 563f e58a 2f3f
0.67066413 0.7351468 0.59892136 0.42453572 0.58740354 0.2654507 0.66371703 0.52084965
0.6744936 0.73885816 0.66654307 0.77271664 0.45786563 0.24763182 0.6464232 0.6794671
0.099206276 0.64368665 0.29141653 0.5261502 0.5966653 0.845442 0.5457897 0.6279058
0.7688563 0.55090624 0.31616142 0.5704162 0.6392089 0.5110062 0.43342143 0.6865925
0.6452191 0.65676105 0.5404966 0.67646503 0.76385564 0.7492178 0.75957197 0.7174845
0.7444299 0.77760607 0.748575 0.7727719 0.6793146 0.7951173 0.67689705 0.29084617
0.5751383 0.26252297 0.6347186 0.38333803 0.76120424 0.71414953 0.63698065 0.28118765
0.20801713 0.7074033 0.7317515 0.66814 0.6655419 0.65424913 0.83711606 0.6857131

layers.0.bn.bias f4 [64]
00000000: a79b c8be 7f9b 7dbe 2bd4 84be b204 04be
00000010: c0cb 8dbe b3c6 3cbe d07f 93be aa90 3fbe
00000020: b97b 9fbe 4e79 fdbe 9a6c 7cbe 7f23 d7be
00000030: 983f bcbd 9391 fdbc 0074 18be 3253 d5be
00000040: 1125 fcbc 44f7 9dbe 8115 5ebe 64a2 99be
00000050: fe07 80be 9f69 2fbf b8fa 47be 5008 4ebe
00000060: 3f0f 04bf 5aa9 0dbe 23b4 21be 4b90 4fbe
00000070: 39ce 9bbe 9565 25be f004 3ebe 85d9 08bf
00000080: db02 93be 1939 95be 46ac debd 65be 5bbe
00000090: 2433 debe 02dd 89be 29b3 d2bd b038 f5be
000000a0: af93 8ebe de2d 2bbe 6c70 cbbe 208f e0be
000000b0: 86b4 a2be 7a4f f1be 1f85 e5be ab7d 0bbe
000000c0: 82a8 8bbe 29e1 debd 6d5c e6be 0055 1abe
000000d0: bf7a cdbe c622 c2be 6107 76be 8168 e0bd
000000e0: 4e4e 5ebd b9f5 e8be 4d3d d5be 595d 76be
000000f0: d24c 35be ced0 9dbe 059a 12bf b5bb bcbe
-0.39181253 -0.24766348 -0.2594312 -0.12892416 -0.2769451 -0.18435173 -0.2880845 -0.18707529
-0.3114908 -0.4950661 -0.24650803 -0.4201927 -0.09191817 -0.030953204 -0.14888 -0.41665035
-0.030779393 -0.3085271 -0.2168789 -0.30006707 -0.25006098 -0.6852054 -0.19529235 -0.20120358
-0.51585764 -0.13834134 -0.15791373 -0.20269887 -0.30430773 -0.16152032 -0.18556571 -0.5345691
-0.28713116 -0.29145125 -0.10872702 -0.21459348 -0.43398392 -0.26926428 -0.10288078 -0.47894812
-0.2784705 -0.16716716 -0.3973421 -0.43859196 -0.31778353 -0.47130948 -0.44828126 -0.13622157
-0.27277 -0.1088279 -0.4499239 -0.15071487 -0.4013271 -0.37917155 -0.24026252 -0.109574325
-0.054273896 -0.45499972 -0.4164833 -0.24059047 -0.17705086 -0.30823368 -0.57266265 -0.3686196

layers.0.bn.running_mean f4 [64]
00000000: 338c 6a3c d8d7 843b a138 783b 71e9 a33b
00000010: 1f49 cc3b f694 b63b 8473 703b 5431 df3b
00000020: 51ea 1a3c e7c1 2a3c 7870 033c 125a fb3b
00000030: 15fb 063c de0b d13b fc16 4f3c 9e38 793b
00000040: 3741 4fbc a193 cb3b 4a43 ba3b e41f 263c
00000050: e3a6 963b d6f3 123c 949b 263c 9f90 a73b
00000060: 6ad2 2b3c ec82 853c e6e6 983b ea9d ff3b
00000070: 0200 213c c78b 7c3c 7218 803b 2041 59b7
00000080: 5654 673c d86c c73b 517f 8f3b f8e9 043c
00000090: 45d4 103b ca15 ec3b b06d 943c b986 323c
000000a0: 8c22 c23b 60ac 893c b797 c43b d1e2 4b3b
000000b0: 12e5 f23b f539 5f3b 8046 5e3a 2306 a4bc
000000c0: ec5e c83b be3f 90bb 9eb5 353c 6a05 353c
000000d0: 5566 323c 10f6 aa3b c7c4 793b a074 28bb
000000e0: 013b e2bb c541 1a3c 7147 863b 5e62 bc3c
000000f0: 037c cd3b eb08 603b 5ae4 383c ed9b 9d3b
0.014315653 0.004054051 0.003787555 0.0050021936 0.0062343027 0.0055719567 0.0036689946 0.0068113003
0.009455279 0.0104222065 0.00802242 0.0076706493 0.008238574 0.0063795885 0.012639757 0.0038028131
-0.012649826 0.006212667 0.005684291 0.010139439 0.004597531 0.008969268 0.010168929 0.0051136757
0.010487178 0.01629778 0.004666197 0.0078008072 0.009826662 0.015414185 0.003909164 -1.2949371e-05
0.014119228 0.0060859732 0.004379191 0.008112423 0.0022099179 0.007204746 0.01811871 0.010896378
0.0059245285 0.016805828 0.005999531 0.0031110535 0.007412561 0.0034061645 0.0008479133 -0.020022457
0.006114831 -0.00440213 0.011090664 0.011048654 0.010888656 0.005217321 0.0038111673 -0.002570428
-0.0069040065 0.009415095 0.004097872 0.022996124 0.006270887 0.0034185003 0.011284912 0.0048098476

layers.0.bn.running_var f4 [64]
00000000: 566f b139 05e5 8639 9132 9739 cd62 9e39
00000010: f766 3139 2477 4c39 86db b439 28f8 7639
00000020: c1cb d039 39d3 b139 c8b0 6339 00fe 9f39
00000030: 1970 8339 b73c f039 efb2 5d39 d02c 7e39
00000040: 4573 9939 610f 5d39 9641 bb39 cb93 ee39
00000050: 5fbf ae39 890a cd39 3692 7339 56d7 ab39
00000060: 3e08 a239 0d0a 7239 c4ef 5739 f8b9 ac39
00000070: 6998 bd39 f2d4 9839 bf4e 6939 8b0e 8439
00000080: 32b1 9339 511b 6c39 f58e 9839 1796 f939
00000090: 4474 5d39 948b a439 2d04 6d39 015e 043a
000000a0: 1ea4 cd39 25a7 8f39 8933 4e39 c0e2 4c39
000000b0: fd43 8639 d23c 4639 ad72 ac39 5ca1 693a
000000c0: 20e6 2c39 b550 d639 b69b 9b39 8f90 9439
000000d0: 3285 8339 829c 6239 c02d 5e39 2d57 fb39
000000e0: 49ba a039 22c0 ab39 5ed4 5539 0d69 ac39
000000f0: 6395 8f39 0348 3d39 aab4 9e39 98b4 1239
0.00033843023 0.00025729105 0.0002883864 0.0003020972 0.00016918393 0.0001949934 0.00034495833 0.00023552834
0.0003982466 0.00033917444 0.00021714263 0.00030516088 0.00025069786 0.00045821603 0.0002114286 0.00024240022
0.00029268317 0.00021081931 0.00035716285 0.00045505012 0.0003333045 0.00039108496 0.00023228754 0.000327761
0.0003090519 0.00023082663 0.00020593317 0.00032944954 0.00036162444 0.00029150356 0.00022249947 0.00025187837
0.00028170046 0.0002251689 0.0002909821 0.00047604807 0.00021119515 0.0003138451 0.00022603637 0.0005049408
0.00039222924 0.00027399618 0.00019664889 0.00019539427 0.00025609127 0.00018905409 0.00032891837 0.0008912289
0.00016488926 0.00040877392 0.00029679917 0.00028336464 0.00025085505 0.00021611343 0.00021188613 0.00047939402
0.0003065637 0.00032758812 0.00020392376 0.00032884665 0.00027386387 0.00018051271 0.00030270714 0.00013990921

layers.0.theta.weight f4 [64, 1433]
00000000: 4620 253b d1c0 803d fd6a 013e a760 283d
00000010: 5b9d 363c cb4c 0cbc 83e4 fabc e463 50bd
00000020: 96e3 1d3d fe20 8c3d 0179 40bd d382 27bd
00000030: 5ff6 623d 5372 8b3d 6d15 efbc 65de 7b3d
00000040: 9485 c53c 4930 7cbc b2a5 c53c f8aa b03c
00000050: 6a62 ed3b f4a1 183b 70ce b33d 1b75 b83c
00000060: 826e 503d f38c 98bd 9e5d 873d fc5e b4bc
00000070: 8db0 8e3a 37f1 7a3b eb5e 5a3c 1689 ca3a
00000080: d919 4ebc f13d 8dbd 7306 aebc 4cb4 6f3d
00000090: d946 253b 9be4 10bc 5e52 22bd 3774 673c
000000a0: 05dc c9bc 0278 96bd fa48 77bd c655 403d
000000b0: 7230 df3c 8d00 233c e2ad fa3d 26ea 20bd
000000c0: 4182 893c 7616 bf3c 0777 7abd 445c 44bd
000000d0: d2f9 313c 1b96 2d3b c9eb a5bd 4b6e 773d
000000e0: e498 56bc 1357 d5bc 240e 583c 0ac1 8e39
000000f0: aab6 a73b ecd3 583d a3d5 103e e5ee 993d
00000100: 84d9 623c c579 b53c eeb9 a9bb 2312 13bd
00000110: 6b94 e2ba de17 d5bc 875d 0fbe 1fab 47bb
00000120: e0f6 99bc 7e8c c13d 3172 49bb 33e3 b43c
00000130: 0c79 e9bc 9b7c 19bd a210 66bb 11a5 09bc
00000140: 4249 1abd d982 14bd 9740 33bd 6265 aa3d
00000150: beba 043c e033 853d bbb3 3ebd 3ec5 19bd
00000160: 2c16 1f3d 5c86 96bd 9043 2fbc f7db 7e3b
00000170: f432 fe3d bf0e 5ebd 7c2a cdbc bddc 4a3b
00000180: 3efe 48bc 7ea4 db3d 5cea 923d 6406 d43c
00000190: 5287 353d 4817 493d 461d 53bd 1a78 753d
000001a0: b246 06bb f075 ae3c 4e8e 1a3d daaf 293d
000001b0: a6b1 a73b 3307 07bd 6a69 29bd f366 f5bc
000001c0: c0d7 6ebc e3cd 92bb 826a 163d bb3e 72bd
000001d0: 4787 d7bd f933 163d 874f 7b3c d422 143d
000001e0: 415a c4bb 1108 da3d 56d5 313d cb95 583d
000001f0: 2bd9 b93c 20c6 68bc 6d52 833d 10b4 2ebc
00000200: af8a a6bd 2eed 40be 85d3 ce3c eb3e 593d
00000210: cea7 6dbd 1099 c8bd 802b 5d3d a72b e3bd
00000220: e2ac 853d b2e5 623d 410d 04be 82ec b2bb
00000230: 2fb8 98bd 305b 37bb 3ea0 fe3c 1aa7 2e3d
00000240: d557 13be a784 073d 4a15 c0bd 22bb ca3c
00000250: d100 1a3d 22d5 113c 10ad ba3d 1a14 d5bc
00000260: 1baa 6abc 30e0 9abd 8af9 293d 7e2b 1f3d
00000270: 8ea6 0ebc 046a cbbd d9eb 373b 6384 1b3a
00000280: 104f 9f3a 317f 85bb 4cc9 523c 8b76 57bc
00000290: 9448 95bc ad74 1e3d d21f 5fbd 4f59 1d3c
000002a0: 14ed cabc 377b 963c 6d2f ad3d 9864 2abe
000002b0: dc50 6bbc 71d8 8fbd 8836 b33d 6158 b33b
000002c0: a957 a23d fd2a 0cbd ab89 6d3d ad05 043c
000002d0: e0f7 22bd b741 26bb d550 b5bc 9568 c8bc
000002e0: 04ae c13d c305 94ba 7cde 47bb f3d8 a6bb
000002f0: 8ee4 1c3d 72bd 86bd c373 153e 5635 34bd
00000300: f7e4 0e3c f568 993c 8a50 39be f178 d53d
00000310: 1c25 ca3d 1ce5 e23c 07fa 20bc 13cb ab3b
00000320: 6366 d33c 28a8 eb3b 9fdc 2fbc df2c cb3d
00000330: e7c7 8c3d 2a7c bd3d 80a2 b9bc 7fe9 8cbc
00000340: 6d62 ab3d ea08 a6bc e03a a73d 5a6a 49bd
00000350: bd70 5b3d 63ef a1bd 11dd 92bd a85d b5bd
00000360: 1295 8a3d b4e5 d23d 5f1c a7bd 43ba 7d3a
00000370: 135c e73a 404c 20bd cf6b 11bd 6d5f 073d
00000380: aa00 d83c 1517 0dbc f77a 5a3d 9ec3 e9bc
00000390: 6ea5 48bd 025a a53d 75fb 1c3e 0542 39bd
000003a0: 4e30 dc3d 6d0d 6d3e 2460 303a b67f cf3a
000003b0: 64b3 a3ba ed89 c0bd 72ca 01bd 02dd feba
000003c0: 4584 3f3e ce50 68bb 331c 8abc d3f2 53bc
000003d0: b805 f23a cb4d a43b 6e6f 0b3c cbd3 f6bb
000003e0: 7fad 3abd a37a 783c 9cd5 623b 6e32 b53c
000003f0: 6f19 273c b970 0b3e 88ad 1bbd 0acd 273d
0.0025196238 0.06286777 0.12638469 0.0411078 0.011145915 -0.008563231 -0.030626541 -0.050876513
0.03854712 0.0684223 -0.0469904 -0.040896248 0.05541074 0.06808915 -0.029185021 0.06149139
0.024111547 -0.015392371 0.024126861 0.0215659 0.007244398 0.002328989 0.08779609 0.022516778
0.05088664 -0.07448759 0.06609653 -0.022017948 0.0010886356 0.0038290748 0.013328294 0.0015452232
-0.012579405 -0.0689658 -0.02124331 0.058521554 0.002521923 -0.008843566 -0.039629333 0.014126829
-0.024641046 -0.073471084 -0.06037233 0.0469568 0.02724478 0.009948862 0.12240197 -0.0392858
0.016785743 0.02332614 -0.06114867 -0.047939554 0.010862784 0.0026487175 -0.08101613 0.060407918
-0.013097975 -0.026042497 0.013186965 0.00027228176 0.005118211 0.05293648 0.14143996 0.07516269
0.013845805 0.02215279 -0.0051796352 -0.03590597 -0.0017286664 -0.026012357 -0.14000522 -0.0030466986
-0.018794477 0.09450625 -0.003073823 0.022080993 -0.028500102 -0.03747235 -0.0035105129 -0.008401171
-0.03766752 -0.0362576 -0.04376277 0.083201185 0.008101163 0.06504035 -0.046558123 -0.03754162
0.038839504 -0.07349846 -0.0106972605 0.0038888433 0.12412062 -0.05421328 -0.025044672 0.0030954324
-0.012267647 0.10724734 0.07173607 0.025881954 0.044318505 0.04909447 -0.05154159 0.05992899
-0.0020488915 0.021296471 0.03773337 0.04142747 0.005117613 -0.03296585 -0.041360296 -0.029956317
-0.014577806 -0.00448011 0.036722668 -0.059141856 -0.10523849 0.03667066 0.015338785 0.036166027
-0.0059922044 0.1064607 0.043416344 0.05287723 0.022686562 -0.014207393 0.06412206 -0.010663047
-0.081319205 -0.18840477 0.025247345 0.05303852 -0.05802136 -0.09794819 0.053996563 -0.110923104
0.065271154 0.055394836 -0.12895681 -0.005460323 -0.07457005 -0.0027977936 0.031082269 0.04263983
-0.14388974 0.03308549 -0.093790606 0.024747435 0.037598435 0.0089009125 0.0911504 -0.026010562
-0.014322783 -0.075622916 0.041497745 0.038859837 -0.008706702 -0.0993233 0.002806416 0.0005932508
0.00121543 -0.0040740003 0.012865376 -0.013150821 -0.018223085 0.03868549 -0.054473706 0.009603812
-0.02477125 0.0183693 0.084563114 -0.16639936 -0.01436254 -0.07023705 0.087506354 0.005473182
0.07926876 -0.034220684 0.05799262 0.008057994 -0.039787173 -0.002536876 -0.02213327 -0.024463931
0.09457019 -0.0011293221 -0.0030497601 -0.0050917803 0.038303904 -0.065791026 0.14594941 -0.043996178
0.008721582 0.018726805 -0.1809713 0.10423458 0.09870359 0.027697138 -0.009825236 0.005242714
0.025805658 0.0071916766 -0.0107337525 0.09920668 0.06874066 0.09252198 -0.022660494 -0.017201183
0.083683826 -0.020267922 0.081655264 -0.04917369 0.053574312 -0.079069875 -0.07171071 -0.08855754
0.06766714 0.10297719 -0.08159708 0.0009678939 0.0017651342 -0.039135218 -0.035503205 0.03304999
0.026367504 -0.00861146 0.053339925 -0.02853566 -0.04898589 0.08073808 0.15330298 -0.045228977
0.10751401 0.23149653 0.0006728193 0.0015830908 -0.0012489376 -0.09401307 -0.031687208 -0.0019444528
0.187028 -0.0035448554 -0.01685915 -0.012936312 0.0018464839 0.0050141565 0.008510454 -0.007532572
-0.045575615 0.015165958 0.0034612184 0.022118773 0.010198935 0.13617219 -0.03800729 0.040967025

layers.0.theta.bias f4 [64]
00000000: 8e7a 1639 a016 0336 b447 b937 4490 f838
00000010: 860c eab8 bb1a 3538 18ff df37 8b21 8db8
00000020: 5077 e8b8 3857 6cb7 f4a4 80b8 f181 2b38
00000030: 3322 1d39 60a8 8b37 2d13 ed36 de6f 093a
00000040: 00dd 8e37 fa63 2538 0b6a 47ba a016 7ab8
00000050: 7958 6a39 8c8e 2939 3740 81b7 b460 8638
00000060: cd78 7a38 383d 8737 c4c5 aab9 0719 4639
00000070: 9fd9 c038 de0c 9637 9a76 ed37 b65f a4b9
00000080: 5879 ef38 20da e137 3432 a7b8 40f3 e1b7
00000090: e83d 1d37 3ab6 1139 5e9d 1ab9 100f 1fb7
000000a0: 5858 2339 6875 5db9 c26e b338 32ea a238
000000b0: a438 4db9 f6a5 dbb8 2679 87b8 82bf 0637
000000c0: 1b02 2ab8 845f cab7 5a43 1539 b6bc ac38
000000d0: a049 f0b6 50f3 5cb8 d042 d1b7 bcfb c8b8
000000e0: dcc0 0f38 98ab 9739 48b9 3237 10c5 40b9
000000f0: e050 abb7 12a4 68b8 e281 19ba 7c1a 0db9
0.0001435077 1.953369e-06 2.2087108e-05 0.00011852433 -0.00011160322 4.3178658e-05 2.6702459e-05 -6.729652e-05
-0.00011084846 -1.4087003e-05 -6.1342405e-05 4.0890594e-05 0.00014985427 1.6648497e-05 7.0653828e-06 0.0005242805
1.703063e-05 3.9432176e-05 -0.0007607049 -5.9625716e-05 0.00022348938 0.00016170199 -1.54079e-05 6.40763e-05
5.971715e-05 1.6121761e-05 -0.00032572274 0.00018892075 9.1958085e-05 1.7887385e-05 2.830783e-05 -0.00031351828
0.0001141901 2.6923663e-05 -7.9725316e-05 -2.6935362e-05 9.372343e-06 0.00013896162 -0.00014745208 -9.4806455e-06
0.00015577802 -0.0002111994 8.5560154e-05 7.768384e-05 -0.00019571424 -0.000104736464 -6.459867e-05 8.031611e-06
-4.053312e-05 -2.4124754e-05 0.00014234838 8.236749e-05 -7.1611285e-06 -5.267869e-05 -2.4945854e-05 -9.583632e-05
3.427347e-05 0.00028928812 1.0652766e-05 -0.00018383958 -2.0422449e-05 -5.5465913e-05 -0.0005855841 -0.00013456674

layers.1.bn.weight f4 [7]
00000000: c0fc ff3f 8e2d 1e40 4f70 1540 62fa 1040
00000010: 9e38 1f40 dea2 2d40 0fbe 0740
1.9999008 2.4715304 2.3349798 2.2652822 2.4878306 2.7130656 2.1209753

layers.1.bn.bias f4 [7]
00000000: 3e68 103d 4080 11be 523e 4fbf 849c 423f
00000010: ca82 bdbe afa2 40bd daf3 29bf
0.035255663 -0.1420908 -0.8095447 0.76020074 -0.37013847 -0.047030147 -0.6638771

layers.1.bn.running_mean f4 [7]
00000000: 1e9a b2bc f930 7f3c 6296 02bd 181d 41bd
00000010: 5146 bebc 5783 2e3d 791a 923d
-0.021802004 0.015575641 -0.031881697 -0.047146887 -0.023226889 0.042605724 0.071339555

layers.1.bn.running_var f4 [7]
00000000: 71eb 263f d532 493f 1242 e83e fc28 803f
00000010: 98b8 333f ac2a a23f 74d2 4f3f
0.65203005 0.7859319 0.45362908 1.0012507 0.7020354 1.2669272 0.811805

layers.1.theta.weight f4 [7, 64]
00000000: 2c2f 14be cf1c c4bd fe96 343e 66aa a3bd
00000010: f523 903e 8cf9 513d 3728 5a3e f74d a83c
00000020: ec61 00be 107c 05be 5251 1a3e 7175 16be
00000030: 3f67 d73d 8c47 0ebe 6a53 003e 7e7a 18be
00000040: b14f 2a3d 7140 18be bdab 07bd f87f 843d
00000050: 83de 15be 3dd1 01be b675 10bd 031d 4d3e
00000060: cc4c efbd 08b8 0abd 42ac bebd dc68 b2bd
00000070: 6bd2 25be 5769 94bd 8d8a 383e 19ab 93bd
00000080: 96fa 8abd ac1b 543e 0d21 d6bd 2084 1e3e
00000090: da14 a23e 5f8f c8bd 772a c3bd 8a7a 983e
000000a0: c524 25be 10c3 9abd b4f9 cfbd 0205 04be
000000b0: 35c8 afbd 5a68 4d3e 2568 a6bd 5cfb 223d
000000c0: 9264 613e 44cf 0b3c dadb ba3d 8209 02be
000000d0: e27b 5d3e 6919 0abe f050 cb3b 441a 1fbc
000000e0: 0a4b 4b3c 3b40 67bc dabb 2b3e f79f bbbd
000000f0: b0a0 00be d3f2 5f3e e6d3 14be 7247 573e
00000100: 2bf7 6c3e c1c7 563e 49f5 26be da58 f03d
00000110: 21da 68be ca52 e4bc 78d0 493e 6b19 cebd
00000120: 8675 e0bd d4ba 8bbc 75d7 f43c d940 56be
00000130: 4712 bfbd 8f22 1d3e 252c 38be 20b1 eebc
00000140: 3ffa 90bb 4f34 3cbe f39d 2f3d ea6e 3bbc
00000150: 4007 bf3d 837e d13e 5c5c d5bd 0a36 203a
00000160: 921f aa3e 9c22 c23d 690c 523d 89e9 4e3e
00000170: 64e5 e03d 6f2f 86bd 977d 86bd 9b6d 883e
00000180: af1e 55bb a5ce 3cbe 615c 8c3d 89c5 073e
00000190: d8b5 9c3e 6fbf 74bc 8f4d 31be 37ab 15bc
000001a0: ed74 2ebe 7857 1c3e 05c5 4abe 3b4c 04be
000001b0: 2aa9 8bbd e55a 38be a1fa 9e3e e07b fa3b
000001c0: 9521 f2bd 0bc9 4dbc 726e 77bc 44a8 ebbd
000001d0: 1d82 59be 8e73 23be a695 5a3e 7bc0 0fbd
000001e0: 7d0b d5ba 437c f7bd 5df6 39be 0b66 543e
000001f0: 51cf fbbd 46db 50be bd59 7b3e 9477 0abe
00000200: a3c6 13be 6261 d5bd 5875 a2bd 2115 c5bd
00000210: afb1 10be 6233 80bd 6a8a c4bd 1bb9 92bd
00000220: b1e6 313e a276 b2bd 32b5 513e 862c c2bd
00000230: ab42 54bd 5c63 b2bd 6e19 99bd 80cb 0bbe
00000240: 4582 36bd 73cd 5b3e 0dbf b7bd 53ca 323c
00000250: e0a5 613e 147b e9bd 95f2 7fbd 2b80 383e
00000260: 3925 f73d a4e8 5ebd fd0a 89bd 2f3e 443e
00000270: cfd0 4b3e 604e bcbd cb89 a0bd c8e8 9abd
00000280: 4166 a4bd b27b 353e 4b67 63bd ea88 92bd
00000290: 213e edbd 9c89 aabd 2959 b0bd d553 25bd
000002a0: c929 373e d6de 003e bf19 b3bd fdb0 743e
000002b0: 2d9e abbd e833 23be 438b 703e 3377 b2bc
000002c0: 5664 c1bd 0c95 a4bd 1170 593e 348b 2c3e
000002d0: 698a 393e ba30 e3bd cb74 e2bd a26d 223c
000002e0: 5cb9 f7bc 90c1 abbd 99e8 08be 31d0 ce3d
000002f0: 309c 55bd 1029 403e af12 c2bd c27a fbbd
00000300: 0933 ac3e d642 433e b24e a23d fc4c a8bd
00000310: 488c 133d ee9b 02bd f146 2abe 1976 c5bc
00000320: 953d 08be 588f 06be b638 0abe abbd 9d3e
00000330: f5c6 32bc 9990 603d 0ccc 413e 23b6 30be
00000340: 1236 ae3b e943 143e 58cc 80bc 291e 3fbd
00000350: acff 0cbe 692d 42be 06a0 cebd 569e 3ebe
00000360: 4209 47be b7f6 4cbe 0340 17bd 9d7f febd
00000370: 0d5d c6bd 02c7 8d3d d7cc 993d 7de6 89bd
00000380: 3bf2 15be 3cc7 0dbe d9e0 3c3e 42b5 d7bd
00000390: f7e7 11be 5a05 813e d04e ec3d a68c 2dbe
000003a0: 2373 403e dbc1 f6bd 069f bc3e 99ad af3e
000003b0: 8ec4 c6bd 3fc1 42be fafc b7bd 3eda 0d3a
000003c0: a839 13be b769 2d3d cf40 1abe 1773 8f3d
000003d0: 8f68 91be 27b2 ba3e 879a 28be b858 3fbd
000003e0: 402a b43c 8f4e b93e 5c52 4fbe 2880 81bd
000003f0: b625 823e 34c2 f5bd a569 ec3d e315 803e
-0.1447112 -0.09575807 0.17635724 -0.07991485 0.28152433 0.051263377 0.21304403 0.020544989
-0.12537354 -0.13035607 0.15070084 -0.14693238 0.105177395 -0.1389448 0.1253182 -0.14890477
0.041579906 -0.14868332 -0.033122767 0.064697206 -0.14635663 -0.12677474 -0.035268508 0.20030598
-0.1168457 -0.033866912 -0.09310199 -0.087114066 -0.1619355 -0.072466545 0.18021603 -0.07210369
-0.06786077 0.20713681 -0.10455523 0.15480089 0.31656533 -0.09792971 -0.09529584 0.2978099
-0.16127308 -0.075567365 -0.10155049 -0.12892535 -0.08583108 0.20059338 -0.08125333 0.039790496
0.22011021 0.008533303 0.091239646 -0.1269894 0.21629289 -0.13486256 0.006204717 -0.009710852
0.012408027 -0.014114435 0.16770878 -0.0916137 -0.12561297 0.21869974 -0.14533958 0.21023348
0.23141162 0.20974638 -0.16304506 0.11735697 -0.2273946 -0.027871508 0.19708431 -0.10063442
-0.10959916 -0.01705686 0.029887894 -0.20923175 -0.09329658 0.15345214 -0.1798559 -0.029137194
-0.004424363 -0.18379329 0.04287524 -0.011440018 0.09327555 0.40916833 -0.10418007 0.0006111568
0.3322721 0.094792575 0.051281366 0.20206274 0.10981253 -0.06552016 -0.06566923 0.26646122
-0.003251951 -0.18438204 0.068535574 0.13258947 0.30607486 -0.014938219 -0.17314743 -0.009135059
-0.17036791 0.15267742 -0.1980172 -0.12919705 -0.06819375 -0.18003424 0.3105059 0.0076441616
-0.118228115 -0.012560139 -0.015102016 -0.115067035 -0.2124104 -0.1596205 0.21346149 -0.035095673
-0.0016254034 -0.12084248 -0.18160386 0.20742051 -0.12295402 -0.20396146 0.24545951 -0.13522178
-0.14431243 -0.10418965 -0.07932538 -0.09623171 -0.14130281 -0.062598005 -0.09596713 -0.07164212
0.17373158 -0.08714034 0.20479277 -0.094811484 -0.051821392 -0.087103575 -0.074755535 -0.13651848
-0.04455783 0.21465091 -0.08971987 0.010912496 0.22035933 -0.114004284 -0.062487204 0.18017642
0.120676465 -0.054421082 -0.06691549 0.19164346 0.19903873 -0.09194636 -0.07838782 -0.07563931
-0.08027316 0.17722967 -0.05551843 -0.071550205 -0.11584116 -0.08327028 -0.08610756 -0.04036315
0.17887034 0.12585005 -0.08745145 0.2389564 -0.08379779 -0.1593777 0.23490624 -0.021785354
-0.09442966 -0.08036241 0.21234156 0.16849977 0.18119206 -0.11093278 -0.11057433 0.009913834
-0.030239753 -0.083865285 -0.13369979 0.10098303 -0.052150905 0.18765664 -0.0947622 -0.122792736
0.33632687 0.19068465 0.07925166 -0.082178086 0.036022455 -0.031886987 -0.16628624 -0.024104165
-0.13304742 -0.13140619 -0.13498196 0.30808768 -0.010911693 0.0548254 0.18925494 -0.1725698
0.0053165043 0.1447903 -0.015722439 -0.046659622 -0.13769406 -0.18962635 -0.10089116 -0.18615088
-0.19437125 -0.20015989 -0.03692628 -0.12426684 -0.09685717 0.06922723 0.07509773 -0.06733415
-0.14643185 -0.13845533 0.18445148 -0.10532619 -0.14248644 0.25199395 0.1153847 -0.16948184
0.18793921 -0.12048694 0.36840075 0.34312132 -0.097054586 -0.1901903 -0.08983798 0.0005411244
-0.14377463 0.042337146 -0.15063785 0.070043735 -0.28400084 0.36464044 -0.16465198 -0.04671547
0.021992803 0.36192748 -0.20246261 -0.06323272 0.25419396 -0.11999932 0.115435876 0.25016698

layers.1.theta.bias f4 [7]
00000000: fe6f f0b6 ccbb 69b6 6879 9bb6 303d 99b4
00000010: 3a67 8db6 d8db 37b5 66d4 87b6
-7.165595e-06 -3.4829018e-06 -4.6334935e-06 -2.854299e-07 -4.2141446e-06 -6.849273e-07 -4.04804e-06
