src_new/model/bkunisage_cocitationciteseer_hid64_0112.pth (torch, 955963 bytes, 12 tensors)

layers.0.bn.weight f4 [64]
00000000: 43d4 7d3f dac7 803f 2a2d 7c3f a433 7e3f
00000010: ae9f 803f c6f9 853f f391 843f 84f6 843f
00000020: f26b 813f 02b7 7a3f 9d8a 7e3f aa61 843f
00000030: 23f2 823f 9a65 7b3f 05a5 823f 3699 803f
00000040: 8489 833f 71c8 813f 0519 7e3f 27ae 833f
00000050: 1523 863f 25f8 833f 0b97 803f 8f45 823f
00000060: fd84 7f3f 2bac 783f 9dca 833f 1445 7e3f
00000070: 2283 793f 7737 7c3f 0476 813f 019a 813f
00000080: fe5d 7c3f af8d 7d3f 8032 813f 668b 7d3f
00000090: 21f3 793f d0de 803f 7ccf 833f 269c 7d3f
000000a0: 09e9 7d3f e4cd 7e3f 42fe 7c3f 2eef 843f
000000b0: 9491 7f3f 6e33 7e3f e76f 833f 6d78 863f
000000c0: 590e 803f 8bd1 833f 2bcf 803f 6864 7a3f
000000d0: 3eae 803f 2dbc 7f3f ca9f 863f d0b0 803f
000000e0: 3eba 833f a203 823f 40a0 813f 5547 813f
000000f0: 535d 813f 105c 833f 2014 7e3f f00b 813f
0.9915201 1.006099 0.98506415 0.9929755 1.004873 1.046685 1.035704 1.0387731
1.0111067 0.979355 0.9943026 1.0342305 1.0230144 0.98201907 1.020661 1.0046756
1.0276341 1.0139295 0.99256927 1.0287522 1.0479456 1.0310103 1.0046095 1.0177478
0.998123 0.9713771 1.0296208 0.99324155 0.9746572 0.9852213 1.011414 1.0125123
0.9858092 0.99044317 1.0093536 0.9904083 0.9763661 1.0067997 1.0297694 0.9906639
0.9918371 0.99532914 0.98825467 1.0385492 0.9983151 0.99297225 1.0268525 1.0505501
1.0004379 1.0298322 1.0063223 0.9780946 1.0053174 0.9989651 1.0517514 1.0053959
1.0291212 1.0157359 1.012703 1.0099894 1.0106605 1.026247 0.9924946 1.0081768

layers.0.bn.bias f4 [64]
00000000: 2704 d3bb 221b 0dbb 043c f5bb f7c6 d5bb
00000010: 40b7 94bb ae1b 023c 6bc7 52bb 7fc9 0f3b
00000020: 64e6 b6bc 516a 4dbb eac4 0abc ef61 5b3c
00000030: f03b d6bb 44a6 03bb 261f 2a3b 8050 77bc
00000040: 3f00 5ebc 0095 10bc b3c2 36bb 3e42 153b
00000050: b9b3 843b c351 913b 9653 5739 ee90 c6bb
00000060: 5b3e 2abc ac61 1fbb 66c8 1abc f0fb 13bc
00000070: 5487 8bbb 7506 dbbb 6603 b2bb c681 9cb9
00000080: 9cdc 00bc c049 1cbb 83fa 3dbc 17c9 bfbb
00000090: 7ca7 183a 8673 b83a 2d4e 88ba 3a69 d9bb
000000a0: b131 a7bb 04b9 01bc 0a93 9abc c619 e3ba
000000b0: 8556 23bc a33b 00bc 47ff 15bc de79 ce3b
000000c0: b30c 9aba ae17 32bc c42f 9ebb aab0 00bb
000000d0: 7c9e 843b 62be 07bc 9d9c 33bc 9db2 f43a
000000e0: 690e fcbb faa2 5fbc 4b96 19bc 4fc0 8ebb
000000f0: 31c6 b2bb 2fe9 dbbb f38a e4bb 61d6 9abb
-0.006439704 -0.0021531065 -0.007483961 -0.0065239626 -0.0045384467 0.00794117 -0.003216232 0.002194017
-0.022326656 -0.0031343887 -0.0084697995 0.013390048 -0.006537907 -0.0020088116 0.0025958507 -0.015094876
-0.013549863 -0.008824587 -0.0027887046 0.002277508 0.004049745 0.0044347956 0.00020535136 -0.0060597574
-0.010390843 -0.0024319692 -0.009447193 -0.009032235 -0.0042580757 -0.0066841193 -0.005432534 -0.00029851327
-0.007865097 -0.002384767 -0.011595371 -0.005852829 0.0005823297 0.0014072515 -0.0010399275 -0.0066348584
-0.005102359 -0.007917646 -0.018868942 -0.0017326407 -0.009969358 -0.0078267185 -0.009155101 0.006301149
-0.0011753052 -0.0108699035 -0.0048274714 -0.001963655 0.004047213 -0.008285137 -0.0109626325 0.0018668954
-0.0076921475 -0.0136496965 -0.009374212 -0.004356421 -0.005455755 -0.0067111473 -0.006974572 -0.004725263

layers.0.bn.running_mean f4 [64]
00000000: 4e7d ee3a f65b 083b b4e1 cb3a b323 333b
00000010: 4ace ef3a 5179 c43a 8836 913a d3de d33a
00000020: 6cb9 0d3b be96 b4ba 6706 443b 84b2 453b
00000030: 3076 9c3a 8c5a 4f3a 8a5a ae3a 12af 673b
00000040: 86e2 893a 5a8f 9c3a 124c e83a 239d ce3a
00000050: 22f0 9b3a 97fa bb3a 844b 983a da53 f23a
00000060: 8b30 823a 4826 023a 7038 003b b3f4 cb3a
00000070: 69c5 8c3a 82f0 ed3a 1c98 693a c9ca fa3a
00000080: b7c5 503b 0819 023a d72b 103b 0bbf 113b
00000090: d41c e2ba 78f5 b13a 88da 1f3b 23b7 2e3b
000000a0: b643 f93a 5bb4 163b 11bd 7b3b 11bd f23a
000000b0: 631b c13a f4e0 3d3b 1ac6 e73a a3b0 183b
000000c0: 925e 153b dfe2 f83a 56f5 163b 6733 913a
000000d0: 4d5e 5139 173e 783a 7663 ad3a b947 f43a
000000e0: 52d5 183b 173d 863a c901 c63a 160d a43a
000000f0: 6353 793a d039 223b fc54 2f3b c00a 553a
0.0018195303 0.0020806766 0.0015554936 0.002733451 0.0018295732 0.0014989768 0.0011078874 0.0016164429
0.0021625413 -0.0013777835 0.0029911043 0.0030166218 0.0011937078 0.0007909916 0.0013302129 0.0035352153
0.001051978 0.0011944578 0.0017722866 0.0015763383 0.0011897127 0.0014341649 0.0011619185 0.0018488124
0.000993268 0.0004964811 0.001956489 0.0015560597 0.0010739985 0.0018153342 0.00089109107 0.0019133921
0.0031856128 0.00049628364 0.0021998787 0.0022239115 -0.0017251023 0.0013577184 0.002439173 0.002665945
0.0019017372 0.0022995684 0.0038412253 0.0018519481 0.0014732893 0.0028973194 0.001768294 0.0023298643
0.0022791964 0.0018988511 0.0023034415 0.0011077941 0.00019966923 0.00094697013 0.0013228494 0.0018637098
0.0023320508 0.0010241595 0.0015106733 0.0012516107 0.0009511022 0.0024753697 0.0026753535 0.0008126907

layers.0.bn.running_var f4 [64]
00000000: fa8a 4838 b403 5938 cb0e 4a38 960c 4038
00000010: 6e9d 4c38 5c1a 5f38 6f88 5738 f4e5 5938
00000020: 5f4c 4d38 b5dc 4b38 6a3c 4638 e813 5f38
00000030: 941e 5638 dd5f 5538 28cd 5638 0c44 4b38
00000040: 6a37 4c38 0d9d 5638 0e8c 4638 6cca 5538
00000050: f1b4 5f38 3340 5a38 00d1 5238 9d63 5238
00000060: 07bc 4838 2475 4838 d826 5938 906b 4638
00000070: a019 4638 b7fc 4e38 8b10 5138 ae65 5938
00000080: 8f4f 4538 c0ab 4c38 33ba 5338 fba9 3e38
00000090: 9284 4638 a6c9 5a38 771d 5538 464d 4338
000000a0: bf18 5438 840a 4638 b076 4e38 c33d 5b38
000000b0: 1595 4c38 d900 4f38 6cd3 4f38 4015 5a38
000000c0: 04de 5738 be1b 5738 6eb8 5038 d7d9 4938
000000d0: f63e 6938 aa3c 4d38 02a7 5438 1f97 5c38
000000e0: b5f3 4a38 dcac 5138 5b8c 5938 d3cc 5238
000000f0: 867f 4c38 ed8c 5138 6863 4138 a47b 4d38
4.7813148e-05 5.174028e-05 4.817433e-05 4.578809e-05 4.8784008e-05 5.3191892e-05 5.138706e-05 5.1950992e-05
4.8946935e-05 4.860452e-05 4.7263144e-05 5.3185882e-05 5.1050054e-05 5.0872437e-05 5.1212643e-05 4.8462345e-05
4.8689e-05 5.116784e-05 4.7337315e-05 5.0971677e-05 5.3335858e-05 5.203504e-05 5.0262548e-05 5.0160674e-05
4.785883e-05 4.779281e-05 5.1773008e-05 4.7307054e-05 4.7230744e-05 4.9349586e-05 4.984489e-05 5.183153e-05
4.7042555e-05 4.8797345e-05 5.047973e-05 4.5457837e-05 4.7330344e-05 5.216305e-05 5.08106e-05 4.656359e-05
5.0567785e-05 4.7216672e-05 4.9224764e-05 5.227119e-05 4.8776234e-05 4.9353435e-05 4.9549548e-05 5.199504e-05
5.1466763e-05 5.128583e-05 4.9762828e-05 4.8125014e-05 5.5610166e-05 4.8932307e-05 5.0700277e-05 5.259283e-05
4.8387523e-05 4.999047e-05 5.1867548e-05 5.025866e-05 4.8756156e-05 4.996073e-05 4.6107365e-05 4.8990958e-05

layers.0.theta.weight f4 [64, 3703]
00000000: 0a21 c6bc e178 3cbb fd72 733c a507 93bc
00000010: 86cb 13bb 70e0 833b 378b a9bc c2f2 57bc
00000020: 3e40 97bb ba13 02bb fc1b 37bc 3d5e 5e3a
00000030: 2276 923c ec95 cfbc dae0 013c 2f7f 68bb
00000040: 8f59 4eba 9f82 a6bb 5886 4bba 7bbc c0bb
00000050: dca7 023d 740d 1e3c cd5a e7bb 8ff4 c43b
00000060: 4005 a4bb 9a2a fcb9 3f23 19bc 552e 473c
00000070: 91eb ecbb 1d4c e9bb 95d0 9abb ebe0 163d
00000080: 6f4f bf39 d848 d03c 9212 d83c d2da e23c
00000090: c349 0abc 20f4 bfbb 3476 863a fa65 1f39
000000a0: 0ce2 1a3b 35d2 53bc ea69 ee3b 1903 8abb
000000b0: 6845 713b 9ced 273c eee2 cbbb 5f96 ca3a
000000c0: db64 19bc 33be bb3c be58 173d 18d6 743c
000000d0: 09b6 a8bb 6662 f03b 070b 543c a6d5 3abc
000000e0: a3d9 7b3b 5273 0d3c 7638 09bb ae53 ce3c
000000f0: a8af 4fbc 1a41 133c 3161 e33b d05f e83c
00000100: 452e 7c3b 8c29 d3bb 31b2 99bb d3d5 fcba
00000110: eb3b 6cbc c238 1bbb 9c7c 083c 0cbf 82bb
00000120: d0c8 253d b2c7 f9bb 55d7 7fbc ea7c 16bc
00000130: 87a9 dd3c d6ab 36bc 1671 9a3b a2c2 d33a
00000140: 2370 2a3c 7061 823b 6fc8 693c be2e 623b
00000150: 7601 83bc d0a9 96bc 7bfd ae3b c977 cc3c
00000160: a9e4 a6bb 86b1 2dbc 8a58 8bbc 5896 05bc
00000170: dac6 1f3d fda9 edbb 3cfe 80bc e07b 893b
00000180: e647 bb3c 55fa d73b 1e93 643c 7188 543c
00000190: 4932 a83c c243 403c 0fce 12bc 5875 d13b
000001a0: 8ed6 6abc 8b10 893c 1026 05bc fbe1 4cbc
000001b0: d5c8 3f39 8846 ae3c 0236 e63c 7a68 eaba
000001c0: 48f0 9ebc 85a5 12bc 785e e7b8 4421 08bc
000001d0: 5e11 6c3b bfeb d4bc 86d2 88bc a779 84bc
000001e0: 43a5 a6bc 287b b63c 992d acbb 1052 4e3c
000001f0: adce a4bb 3e1a cb3c 7e91 053c 9925 20bc
00000200: 1c79 3e3c afc4 0b3d b0fe 6f3b 7770 c03a
00000210: b503 1f3c 3a95 943c adf9 96bc 963d 0f3d
00000220: 9480 97b8 7eee 1abc 4a29 82bb 54b9 22b9
00000230: fed2 843b 5ec5 973c e63f a2bc 5fd9 52bc
00000240: 37df 72bc 3249 da37 e175 cf3b 4f91 d73c
00000250: 711f cabb 902e 9a3c 7703 c6bc 8c9e b83b
00000260: 868a b4ba 7339 3c3b 0af8 47bb e182 363c
00000270: 36bb c13c 7000 c53b 535c 3f3a 1d71 893a
00000280: c410 e43b be57 c1bb 1294 653a 087c 18bd
00000290: fa7a 5a3c 51b0 20b8 77a8 3d3c 60cb 1abc
000002a0: 6a34 a63b 3da8 333b f175 4f3c db2e 23bc
000002b0: fcdd 6dbc 0c03 aebb 3730 043c 3aa1 22bb
000002c0: 46ea 7cbc c6c5 9ebc c14a 0f3a e50f 2cbc
000002d0: 5ece 473d 91b6 943b 85cd 013c 9a1a 76bb
000002e0: 442b 82bc 7775 bc3a dd5f 6bba 7441 7dbb
000002f0: 42ab c7b9 335a b9bc 86d1 e73c 541a 783c
00000300: dcdc 2f3c 399f 8f3c fad4 cc3a 209a 6f3c
00000310: 8622 2bbc d60c 193c 59e8 79bc 5160 0a3c
00000320: 490a 43bc 776c e03a f185 95bc 7970 d63c
00000330: 881b 143a c574 223a ee2f c23b c77b 52bb
00000340: ccfa fc3c 11bf ff3c 9dab 373c e137 0f3b
00000350: 1cb2 213c fc16 2a3c e692 d7bb 680f 903b
00000360: b221 bc3c 2a4d 513b 0a50 aab8 ad49 d23b
00000370: 1b89 0bbd bd79 63bb 2629 c1bc f292 81bc
00000380: d14c f13c b35d aa3c 3815 533c f44e c9bb
00000390: b70d 8ebc edab 8a3c 495b 3b3b 6616 763b
000003a0: aa8e a9bc 140c 953c c5e2 963c 37e4 28bc
000003b0: 31ab 033c a18c 66bc d0d5 d13c e0de 8bbb
000003c0: 8ca6 b6bc 7ea3 e13c 82e0 9c3b 7d87 6ebc
000003d0: 3aa0 323c 5e08 893c 28cf a2bc 8b10 19bc
000003e0: ec5b edbc ccd5 383a 32dd ddbb 4481 803c
000003f0: 933e 94bc 0b71 30bc 65c3 77ba 6717 8d3b
-0.024185676 -0.0028758573 0.014858958 -0.017947981 -0.002255173 0.004024558 -0.020696266 -0.013180437
-0.0046158126 -0.0019848184 -0.011176106 0.00084826705 0.017878596 -0.025340043 0.007927144 -0.0035476198
-0.00078716216 -0.005081489 -0.0007763854 -0.0058818436 0.031898364 0.009646762 -0.007060385 0.006010599
-0.0050055087 -0.00048096926 -0.009346782 0.0121570425 -0.00723023 -0.007119669 -0.004724572 0.036835592
0.00036489542 0.02542536 0.026376043 0.027692232 -0.008440438 -0.0058579594 0.0010258616 0.00015201411
0.002363327 -0.012928535 0.0072758095 -0.004211795 0.003681505 0.010249522 -0.0062221205 0.0015456191
-0.009362425 0.022917842 0.036949866 0.014943622 -0.0051486534 0.0073359488 0.012942082 -0.011403477
0.0038429282 0.008633452 -0.0020938194 0.025186386 -0.012676157 0.008987689 0.0069390764 0.028366
0.0038479727 -0.0064441618 -0.0046904315 -0.0019289799 -0.014418582 -0.0023684953 0.00833049 -0.0039900597
0.040474713 -0.0076226825 -0.015615304 -0.009185055 0.027058376 -0.011149367 0.004713188 0.0016156028
0.010402712 0.0039789006 0.0142689785 0.0034512724 -0.015991908 -0.01839152 0.005340276 0.024959462
-0.0050931764 -0.010601407 -0.017009992 -0.0081535205 0.039008 -0.00725293 -0.015746228 0.0041956753
0.022861432 0.006591121 0.013951091 0.012971983 0.02053179 0.011734905 -0.008960261 0.0063921623
-0.01433338 0.016731521 -0.008126751 -0.01250505 0.00018289995 0.021273866 0.028101925 -0.001788392
-0.019401684 -0.008950596 -0.000110325345 -0.008308712 0.0036021094 -0.025991319 -0.016701948 -0.01617129
-0.020342475 0.022275522 -0.005254459 0.012592807 -0.0050295205 0.024792787 0.008152364 -0.009774589
0.011625554 0.03412312 0.0036620311 0.0014681955 0.009705474 0.018137563 -0.018429602 0.034970842
-7.2241906e-05 -0.009456275 -0.003972207 -0.00015518564 0.0040534725 0.01852673 -0.01980586 -0.012869208
-0.014823726 2.602171e-05 0.006331191 0.026314406 -0.006168299 0.01882103 -0.024171574 0.0056341346
-0.0013774193 0.0028720766 -0.0030512833 0.011139602 0.02364884 0.006012015 0.0007299829 0.0010485981
0.0069600064 -0.0059003523 0.0008757721 -0.03722766 0.013334984 -3.831118e-05 0.01157581 -0.009447902
0.005072166 0.002741351 0.012662397 -0.009959902 -0.014518257 -0.005310422 0.008068136 -0.0024815337
-0.0154367145 -0.019381415 0.0005466156 -0.010501836 0.04878079 0.004538365 0.007922535 -0.0037552477
-0.015889771 0.0014378269 -0.00089788233 -0.003864375 -0.00038083835 -0.022626018 0.02829815 0.015142996
0.010733809 0.017531978 0.0015627437 0.014624149 -0.010445243 0.009341439 -0.01525315 0.008445815
-0.011904308 0.0017122169 -0.018252345 0.026176678 0.00056498544 0.00061972096 0.005926124 -0.0032117234
0.030881308 0.031219037 0.011210349 0.0021853375 0.009869125 0.010381456 -0.006578791 0.004396368
0.022965286 0.0031936863 -8.12114e-05 0.0064174742 -0.0340663 -0.0034710013 -0.023579191 -0.01581714
0.029455574 0.020796632 0.012883477 -0.006143445 -0.017340524 0.016927684 0.0028588346 0.0037549972
-0.02069791 0.018194236 0.018418679 -0.010308317 0.008036421 -0.0140716145 0.025614649 -0.004268512
-0.022296213 0.02754378 0.0047875056 -0.01455867 0.010902459 0.016727623 -0.01987417 -0.009342323
-0.028974496 0.0007050901 -0.0067707533 0.015686639 -0.018096244 -0.010769139 -0.00094514183 0.0043057683

layers.0.theta.bias f4 [64]
00000000: edda 3139 87ea 1d38 b2b8 7038 46c6 bf38
00000010: 8d94 9438 00e1 c0b5 1d2c 9f38 7eaf 8bb9
00000020: b1cf b0b8 367b fab9 7d49 e038 d2ea 3437
00000030: 203b ab38 d257 b1b8 306d b7b7 da61 b838
00000040: cf81 d8b8 5b2e d9b7 38c2 21b8 e526 86b7
00000050: d0fa 7736 0050 5839 accc 3eb9 6907 4138
00000060: 7301 82b8 76f2 e0b8 2ba4 46b8 6d8d 18b7
00000070: 5e12 45b8 d857 46b8 b4aa c8b8 329b a237
00000080: 0445 2b37 836c 8a39 a094 6436 448a eab8
00000090: 8404 ccb9 feab 7fb9 361e 64b9 4a35 05b8
000000a0: c00e 61b7 d44f 96b8 8a94 9db8 1858 2238
000000b0: 747a ed37 b094 ffb5 76cb bdb8 4860 24b7
000000c0: 1128 f436 99b2 8bb7 cf17 4bb8 ac76 9bb7
000000d0: 72a8 1fb9 4a92 86b9 b2e2 bfb8 a056 6838
000000e0: 0043 4db9 31f3 2bb9 908b 2738 9345 c338
000000f0: 2cda 69b8 c083 9936 4a68 4c38 3057 7538
0.00016961592 3.7650138e-05 5.739247e-05 9.144521e-05 7.08486e-05 -1.4370598e-06 7.5899276e-05 -0.00026642898
-8.4310195e-05 -0.00047775515 0.000106948406 1.0783509e-05 8.164928e-05 -8.4563755e-05 -2.1866144e-05 8.79203e-05
-0.00010323861 -2.5890002e-05 -3.856627e-05 -1.5992156e-05 3.695186e-06 0.00020629168 -0.00018196058 4.6021687e-05
-6.199153e-05 -0.00010726314 -4.7359772e-05 -9.092834e-06 -4.6985566e-05 -4.728869e-05 -9.568539e-05 1.9384173e-05
1.0208463e-05 0.0002640226 3.4061159e-06 -0.000111837435 -0.00038913277 -0.00024382767 -0.00021755029 -3.17593e-05
-1.3414479e-05 -7.1674265e-05 -7.514011e-05 3.8705854e-05 2.8309623e-05 -1.9042254e-06 -9.05012e-05 -9.797579e-06
7.276431e-06 -1.6653257e-05 -4.8421145e-05 -1.85327e-05 -0.00015226172 -0.00025667466 -9.149815e-05 5.5393786e-05
-0.00019575283 -0.00016398427 3.994588e-05 9.311284e-05 -5.5754717e-05 4.575093e-06 4.8734517e-05 5.849375e-05

layers.1.bn.weight f4 [6]
00000000: 4eca 883f c199 873f f30e 863f 771b 823f
00000010: c23b 823f 950f 813f
1.0686738 1.0593797 1.0473312 1.0164632 1.0174487 1.008288

layers.1.bn.bias f4 [6]
00000000: a93c 8d3d 0eb9 7b3c 8cf1 18bc 4530 ce3c
00000010: 8959 433d d311 91bd
0.06896336 0.015363945 -0.009334933 0.025169501 0.04769281 -0.07083478

layers.1.bn.running_mean f4 [6]
00000000: aab9 9d3d 3bda e0bd 2b18 17bd 8a5f c1bd
00000010: f5d1 69be 7f7d 1dbe
0.07701428 -0.10979124 -0.036888283 -0.09442051 -0.22833999 -0.15379904

layers.1.bn.running_var f4 [6]
00000000: e13e 463f e466 0f3f da1d 123f 8cdc 493f
00000010: b0a8 3f3f 4a6a 113f
0.77439696 0.56016374 0.570768 0.7885215 0.7486677 0.5680281

layers.1.theta.weight f4 [6, 64]
00000000: 3c43 a2bd aa88 02bd 5cfb 4abd e635 1d3d
00000010: 0a84 d93d ed29 57bd eacc 8cbd 6bca eebd
00000020: 0730 eebd b422 2a3d f447 7cbd 25d2 ac3d
00000030: f503 9e3d 0ded 613d 85ce c6bd 361b 1ebd
00000040: 8dcd 9ebd 1fc7 003e 2ed8 6bbd 760e f23d
00000050: cf73 b43d c473 edbd e210 b43d dc06 063e
00000060: d8ef 9e3b c9d0 63bd 8b23 d2bb 6e01 7bbd
00000070: 0750 4d3d 206b eb3b 4e0c f9bd 3a57 403d
00000080: d1ab a93d 254d 2bbd 25b9 ddbd cade 8a3d
00000090: dd5e 613c 5c43 e23d a583 eebc 9bb7 ddbc
000000a0: 66a1 f83c 9f3f dc3d 5293 cbbb 815d f13d
000000b0: 000a 3bbd 8d9f 973d 2a5f d53b b546 233d
000000c0: c84f d3bd f548 9f3d ff2c 34bd 7f29 9a3d
000000d0: 4cfc edbd dc2e d1bd 772d 1c3e 3fb8 ccbc
000000e0: 12ef 96bd 1f0f 513d 9546 093d 3093 c4bd
000000f0: 5e04 e53d 20ac b03d ce06 93bd f89a 043b
00000100: c7f9 f5bd be06 f8b8 6370 e1bd 7ee1 023d
00000110: beb1 cc3d 921d 053e 3666 f23d b48b fd3d
00000120: 90de c9bd 4fd8 b73c 5701 dbbc dc54 1d3c
00000130: 0d1e 8a3d 65fe 75bc a95d c53d 215f eebd
00000140: b205 babd 287b 383c 11df a3bd b189 853d
00000150: e4d0 99bb e885 4bbd a190 bfbd 26ef 6fbc
00000160: 92a0 89bc ee2f 35bb 6a02 78bd b7a3 efbc
00000170: 9442 cb3d b79a e33d 753b ba3d 6f51 903c
00000180: ca80 353d 14e1 5abd cead b6bd 1e5a 1e3d
00000190: 79f6 e0bb c3ab cb3d 405c b43d b89e 383d
000001a0: f3f6 c0bb 9c19 cdbd 8170 babd 8549 12be
000001b0: 99b2 07bd d072 cdbd 7ff5 6abd 210b fabd
000001c0: 2a19 97bd 8328 053e 4a63 4ebd a1ed a83d
000001d0: 8c7a 23bc beb0 0abd 933f 1dbd 4e92 85bc
000001e0: f164 53bd 78a0 36bd 14e1 d23b 2eb9 093d
000001f0: 3dac c8bd 7fed 753c 776e 8f3b 20bd 9a3c
00000200: f1de c1bd 8bb8 ab3d ac62 e5bd 4e8a 333d
00000210: 32b3 57bc 82d3 8b3d 3017 5e3d 9d66 893c
00000220: 22fc 0dbe e424 4ebd 1093 6b3d 14ca 193e
00000230: 6d55 01be d726 a83c 6adc 2239 6fe4 6cbd
00000240: e0a6 dabd a62d 03bd e30b 9fbc 6aa5 a4bd
00000250: dab1 2abd 6a4a f33d 5566 3dbd c0fc 02bd
00000260: add8 cfbd 405c babd 9fbc 573d 65e1 0dbd
00000270: e621 2e3d dc7c d73d 655d 10bd e1bc e2bd
00000280: efad fc3d e96b aabc f333 a4bd 5311 803d
00000290: 3a82 f13b d58b 75bc 21be 603d 4962 be3c
000002a0: 2467 913d 3b17 dc3d b7c7 85bd 4f56 2b3c
000002b0: 0ea6 41bd 2fa2 543d 5e0a 1f3e 029f c03d
000002c0: 5164 bc3d 2176 9fbd ef79 983d 3371 fabc
000002d0: b8c7 113d bebf 0abd 29cc 1dbd cf84 a2bd
000002e0: cb43 89bd e2a3 95bd 0c0a 0d3e 2a61 ebbd
000002f0: 1ac5 963a 120f 8dbd 6309 ab3d c34d 9cbd
00000300: 4f60 163d 6e95 ccbc fc09 e5bc b058 9bbd
00000310: ddd5 9fbc 3e30 4bbb 5672 d9bd bd61 d9bd
00000320: d9d8 303c 19d0 b63d eb74 36bd 6b34 6b3d
00000330: 0f55 d9bc 78d4 5ebc 3662 a1bd 1e96 a8bc
00000340: d1b7 ebbd 9f49 acba d2a5 c9bd 1b54 eabc
00000350: 4dc0 033e 8202 033e f932 433d 5b2e e8bd
00000360: 7311 83bd 7545 7e3d 6d53 c7bd a228 d73d
00000370: 9785 c9bc f17f d93d 6923 d2bc 5dba 81bb
00000380: b308 f9bc 8765 6abd b0ee cb3d 95cd 2a3d
00000390: 4802 113c 935d edbd 5044 1e3e 702f 9dbd
000003a0: b5d0 b03d 5b53 bebd d823 323d 7e29 f3bd
000003b0: a2b9 6b3d 226e 4abb 4072 093e 3ad4 b1bd
000003c0: d477 b83d 375d a93c d085 1abd 6a6b dfbd
000003d0: 8ba7 08bd db12 fd3d 8680 303d c7cf 643d
000003e0: 358f 513d d310 a1bd 4a5f c3bd c4d5 423d
000003f0: d87f 1c3b 1962 f3bd 86dd a6bd 1773 083e
-0.0792298 -0.031868614 -0.04955612 0.03838148 0.106208876 -0.052530218 -0.06875022 -0.11659702
-0.11630254 0.041537 -0.061592057 0.084385194 0.077155985 0.05515771 -0.09707359 -0.03860017
-0.077540495 0.12575959 -0.057579212 0.118191645 0.08811151 -0.11594346 0.08792283 0.13088554
0.004850369 -0.055619035 -0.0064129285 -0.06128066 0.05012515 0.007184401 -0.1216055 0.046958186
0.082847245 -0.041821618 -0.10826329 0.06780775 0.013755527 0.11048004 -0.029115507 -0.027065089
0.030350398 0.10754322 -0.0062126303 0.117854126 -0.045663834 0.07403479 0.0065115886 0.039862353
-0.103179514 0.07777587 -0.043988224 0.07527446 -0.116203874 -0.10214016 0.15251718 -0.0249902
-0.07369818 0.05103981 0.033514578 -0.09598386 0.111824736 0.0862658 -0.07179032 0.002023397
-0.12010532 -0.00011826817 -0.11007764 0.031953327 0.09994839 0.12999561 0.118359014 0.12380162
-0.098569036 0.022442011 -0.026734037 0.009602752 0.06744013 -0.015014266 0.09637005 -0.11639238
-0.090831175 0.0112598315 -0.08001531 0.06520403 -0.004694091 -0.04968825 -0.09353758 -0.01464442
-0.016800199 -0.0027646977 -0.060549177 -0.02925287 0.09924808 0.11113494 0.09093372 0.017616956
0.044312276 -0.053437307 -0.08919869 0.03866016 -0.0068653193 0.0994487 0.08806658 0.04507324
-0.0058888136 -0.1001465 -0.0910349 -0.14285858 -0.03312931 -0.10031664 -0.05736303 -0.12209154
-0.073778465 0.13003735 -0.05038766 0.08248449 -0.009977948 -0.03385996 -0.038390707 -0.016305115
-0.051609937 -0.04458663 0.006435523 0.033623867 -0.09798477 0.015010237 0.004377182 0.01888901
-0.09466351 0.08384808 -0.11200461 0.04383307 -0.013165282 0.06827451 0.054221332 0.016772563
-0.13865712 -0.05032815 0.057513297 0.15018493 -0.12630244 0.020526333 0.00015531635 -0.05783504
-0.1067636 -0.032025956 -0.019414848 -0.08039363 -0.04167352 0.11879428 -0.04624017 -0.031979322
-0.101487495 -0.090996265 0.052670117 -0.03463878 0.042512797 0.10521862 -0.035245318 -0.11071182
0.12337863 -0.020803409 -0.08017721 0.06253304 0.0073702605 -0.014986952 0.05486882 0.023240225
0.07099751 0.10746618 -0.06532233 0.010457589 -0.047277503 0.051912483 0.15531299 0.09405328
0.09198821 -0.07786203 0.07445132 -0.030571556 0.035590857 -0.033874266 -0.03852478 -0.079354875
-0.067023836 -0.07306649 0.13773364 -0.11493142 0.0011502833 -0.0688764 0.083514 -0.07632019
0.03671294 -0.024973597 -0.027958862 -0.07585275 -0.019511158 -0.0031004096 -0.10617511 -0.10614345
0.010793888 0.0892641 -0.044545095 0.057423037 -0.026529817 -0.013600461 -0.078800604 -0.020579394
-0.115096696 -0.0013144499 -0.09846081 -0.028604558 0.12866326 0.12793925 0.047656033 -0.113369666
-0.063998125 0.062077958 -0.09732709 0.10505797 -0.024599833 0.10620106 -0.02565165 -0.003958984
-0.030399656 -0.05722573 0.099576354 0.041699965 0.008850642 -0.115901135 0.15455747 -0.076750636
0.08633558 -0.092932425 0.043491215 -0.118731484 0.05755008 -0.0030888398 0.13422489 -0.08683057
0.090072304 0.020674331 -0.03772527 -0.109091595 -0.033362906 0.12357112 0.04309132 0.055862214
0.051161963 -0.07864537 -0.09539659 0.047567144 0.0023879912 -0.11883945 -0.08147721 0.13325153

layers.1.theta.bias f4 [6]
00000000: c8b9 93bb 2529 e43a 58a0 793c a7fc be39
00000010: 5941 c5bc 7ad2 37b9
-0.004508231 0.0017407282 0.015235983 0.00036427865 -0.024079012 -0.00017530649
