src_new/model/hgnn_senate_hid64_0105.pth (torch, 81963 bytes, 12 tensors)

layers.0.bn.weight f4 [64]
0.98717046 0.9727567 0.9453158 0.9508913 0.9566528 0.9656386 0.97777253 0.97372127
0.95177567 0.9622545 0.94069624 0.94644237 0.93204284 0.9675973 0.932473 0.9341896
0.9439293 0.945063 0.92486316 0.9866489 0.9799881 0.9760337 0.944267 0.9589869
0.9700538 0.93430847 0.96081156 0.9620863 0.95945144 0.95316416 0.93695825 0.96202517
0.937054 0.95840526 0.94666827 0.93539274 0.9807712 0.9520465 0.9480412 0.96389854
0.9432368 0.9339543 0.99211055 0.9359697 0.96245044 0.9296199 0.9464101 0.9717865
0.9710876 0.98254555 0.9314964 0.98153704 0.9806164 0.9400811 0.9660427 0.96139205
0.9301573 0.9502162 0.9341386 0.9620171 0.970771 0.94023335 0.9681131 0.96820337
00000000: 34b7 7c3f 9506 793f 3700 723f 9d6d 733f
00000010: 33e7 743f 1734 773f 4d4f 7a3f cc45 793f
00000020: 92a7 733f 5056 763f 78d1 703f 0c4a 723f
00000030: 5c9a 6e3f 75b4 773f 8db6 6e3f 0d27 6f3f
00000040: 5aa5 713f a6ef 713f d5c3 6c3f 0695 7c3f
00000050: 80e0 7a3f 58dd 793f 7bbb 713f 2a80 753f
00000060: 7255 783f d72e 6f3f bff7 753f 4a4b 763f
00000070: 9c9e 753f 9102 743f 7fdc 6f3f 4847 763f
00000080: c5e2 6f3f 0c5a 753f da58 723f e675 6f3f
00000090: d213 7b3f 52b9 733f d4b2 723f 0ec2 763f
000000a0: f877 713f a117 6f3f f5fa 7d3f b69b 6f3f
000000b0: 2763 763f 92fb 6d3f ef47 723f 00c7 783f
000000c0: 3299 783f 1b88 7b3f 8c76 6e3f 0346 7b3f
000000d0: ad09 7b3f 28a9 703f 934e 773f ca1d 763f
000000e0: ca1e 6e3f 5e41 733f b523 6f3f c146 763f
000000f0: 7384 783f 22b3 703f 43d6 773f 2ddc 773f

layers.0.bn.bias f4 [64]
0.008873072 0.024423596 -0.007974832 -0.022591632 -0.021320105 0.008141951 -0.0024980756 -0.007289629
0.004751624 0.028602302 0.025398988 -0.023578046 0.03389159 0.00017019694 -0.0016704039 -0.00050360797
-0.015703201 -0.012575498 -0.015708221 -0.002354897 0.005959764 -0.0053484095 0.022639535 0.023330173
0.007624333 -0.011800716 0.00923749 -0.00778383 0.008720281 0.018268215 0.026110904 -0.003941246
0.021947762 -0.0050257654 -0.024393992 0.012168513 0.016387954 0.010427667 -0.0056411526 -0.0011219757
-0.02305249 0.025897952 0.012754929 -0.0052190204 0.0075144446 0.007106765 0.012612674 -0.00644681
0.010836362 0.006270784 0.03923462 0.0011332321 0.016659683 0.005217373 -0.019406047 0.010588508
-0.0066545373 0.012780198 0.008174917 -0.013934468 -0.014520785 0.009806344 0.0052763475 0.0063913665
00000000: 5d60 113c fe13 c83c dfa8 02bc 1612 b9bc
00000010: 80a7 aebc d165 053c c1b6 23bb d7dd eebb
00000020: 83b3 9b3b 604f ea3c 8a11 d03c bf26 c1bc
00000030: e8d1 0a3d e576 3239 74f1 daba 8f04 04ba
00000040: 00a4 80bc 7609 4ebc 87ae 80bc 9e54 1abb
00000050: 204a c33b b641 afbb 8c76 b93c eb1e bf3c
00000060: 8ad5 f93b ca57 41bc d758 173c 800f ffbb
00000070: 82df 0e3c 39a7 953c 89e6 d53c 9125 81bb
00000080: cbcb b33c 2daf a4bb e9d5 c7bc 715e 473c
00000090: 0840 863c ced8 2a3c 6bd9 b8bb 420f 93ba
000000a0: 93d8 bcbc f127 d43c 0dfa 503c 5104 abbb
000000b0: bb3b f63b dedf e83b 64a5 4e3c c33f d3bb
000000c0: ff8a 313c 267b cd3b 7bb4 203d f688 943a
000000d0: e379 883c 7ff6 aa3b 6ef9 9ebc 6c7b 2d3c
000000e0: 4e0e dabb 0964 513c 16f0 053c 654d 64bc
000000f0: 96e8 6dbc caaa 203c 36e5 ac3b ab6e d13b

layers.0.bn.running_mean f4 [64]
0.0010311913 -0.00060734485 -0.0012775597 -0.00028830674 -0.00022664075 0.00047543098 -0.0019255513 0.0005188611
-0.006384759 0.0003123548 0.0011812288 -0.0011130493 -0.0008465736 -0.00020809144 -0.0009028086 0.0005320968
-0.00068641134 0.0006806981 0.0007592675 0.00042848208 -0.0029257385 -0.00058738526 2.694741e-06 -0.003013381
-0.00027301334 -0.001033904 -0.0011538821 -0.0003842932 0.00092705555 -0.0045243665 -0.0013799395 0.0039165663
0.0040377285 -0.000676406 0.0038046427 -0.0018687793 -0.0038930774 -0.00039198223 -0.0010319714 -0.005100616
-0.0014019413 0.0005278596 -0.0009053113 0.004014646 0.0012064037 -0.0026214311 -0.0013554154 0.00033339695
-0.0021160203 -0.0018996119 -0.0008787221 -0.0006365862 -0.000198359 -0.0014258034 0.0004230091 -0.00053625
-0.002135125 0.00041652564 -0.00057584466 -0.0016250849 0.0009022963 -0.004574006 -0.0036635222 -0.0014794726
00000000: 0a29 873a 3936 1fba ca73 a7ba e027 97b9
00000010: 6aa6 6db9 4443 f939 c862 fcba 2e04 083a
00000020: 3e37 d1bb 8dc3 a339 76d3 9a3a bde3 91ba
00000030: 98ec 5dba 1f33 5ab9 76aa 6cba 697c 0b3a
00000040: 49f0 33ba e070 323a 9409 473a e4a5 e039
00000050: bfbd 3fbb c2fa 19ba 4cd7 3436 257c 45bb
00000060: 3b23 8fb9 1084 87ba dc3d 97ba f67a c9b9
00000070: a505 733a 2341 94bb 16df b4ba 8a56 803b
00000080: ec4e 843b d750 31ba 5057 793b d4f1 f4ba
00000090: 0023 7fbb f782 cdb9 3743 87ba 1123 a7bb
000000a0: 58c1 b7ba 0f60 0a3a 6a52 6dba 4b8d 833b
000000b0: 3120 9e3a 51cc 2bbb 32a8 b1ba c8cb ae39
000000c0: eeac 0abb 66fc f8ba 0b5a 66ba 94e0 26ba
000000d0: 97fe 4fb9 06e2 baba 52c7 dd39 2193 0cba
000000e0: 74ed 0bbb 2061 da39 48f4 16ba cd00 d5ba
000000f0: 1488 6c3a 8be1 95bb b417 70bb ddea c1ba

layers.0.bn.running_var f4 [64]
0.00034203348 0.0003457802 0.00035519738 0.0003369424 0.00035141633 0.00033319485 0.0003449433 0.00032706533
0.00033981426 0.0003395021 0.000329439 0.00034579769 0.00032444444 0.0003405345 0.00031599568 0.00034065158
0.00032826257 0.00034559943 0.00031619996 0.00034834843 0.00035857916 0.00034129067 0.00036192455 0.00036164498
0.000335279 0.00033112138 0.0003517842 0.0003597065 0.00034394668 0.00033734777 0.00033848235 0.00033924257
0.00034189483 0.00035605725 0.00036116556 0.0003404834 0.00034613334 0.00035088175 0.0003369141 0.00036056584
0.00034468903 0.00032666483 0.00036586527 0.00033407958 0.00034547405 0.00031698335 0.00035917095 0.00034380192
0.00036526605 0.00033534944 0.00032521284 0.0003596987 0.0003445165 0.0003457034 0.0003419643 0.00032681128
0.00035733564 0.00034290395 0.00035224587 0.00034302546 0.00034400815 0.00033631362 0.00034736996 0.00033910957
00000000: f552 b339 d549 b539 c939 ba39 a5a7 b039
00000010: 4d3e b839 a8b0 ae39 82d9 b439 f779 ab39
00000020: 1929 b239 33ff b139 8eb8 ac39 2e4c b539
00000030: 321a aa39 c489 b239 39ac a539 7b99 b239
00000040: a81a ac39 9231 b539 a4c7 a539 89a2 b639
00000050: aeff bb39 42ef b239 b1c0 bd39 2b9b bd39
00000060: 63c8 af39 5c9a ad39 ad6f b839 fd96 bc39
00000070: be53 b439 0dde b039 5576 b139 5edc b139
00000080: 5940 b339 32ad ba39 d25a bd39 e982 b239
00000090: 3b79 b539 8df6 b739 d8a3 b039 540a bd39
000000a0: 61b7 b439 3644 ab39 9bd1 bf39 6727 af39
000000b0: be20 b539 c930 a639 1c4f bc39 5040 b439
000000c0: 2e81 bf39 d7d1 af39 5481 aa39 f195 bc39
000000d0: 39a0 b439 863f b539 ac49 b339 de57 ab39
000000e0: c758 bb39 cac7 b339 a4ad b839 19d8 b339
000000f0: fe5b b439 4053 b039 351f b639 84ca b139

layers.0.theta.weight f4 [64, 294]
0.030634357 0.07221877 -0.026303234 0.05015908 -0.0025266604 0.017926315 -0.051688787 0.021184098
0.026206031 -0.054273788 0.021557799 -0.008087708 0.019609658 -0.0061802734 0.014691256 -0.032252092
0.034659687 0.03284591 -0.020126956 0.0042895274 -0.059235983 -0.0005152131 -0.022576956 0.041187722
-0.023674859 -0.0015670715 0.016483549 -0.042541392 -0.03154431 -0.072142415 0.0471332 -0.04364881
0.02005651 -0.012489652 -0.033523012 0.0010992074 0.022019528 0.06587027 0.03157423 -0.0045533283
-0.0021395881 0.006893344 0.0123643065 0.06239546 0.046080243 -0.019451495 0.042367686 -0.023585752
-0.0040264307 -0.012390355 -0.038020182 -0.015627835 -0.040796097 0.0713434 0.03899857 0.014496196
0.0092135435 0.016713519 0.06862362 -0.03651401 -0.027999137 -0.018927025 0.0009803321 -0.030481527
0.041165553 0.004974186 0.025390416 -0.026858617 -0.059152108 -0.03436386 0.026500707 0.043088958
0.09163902 -0.05103874 -0.069114275 -0.03403212 -0.06923831 0.06279371 -0.0051590516 0.038325626
0.010352498 -0.01965032 0.0282867 -0.02452699 0.032185163 -0.025412265 0.025631672 -0.05469118
-0.020874666 -0.004916791 0.025366614 -0.026633127 0.0010315734 0.05080445 -0.061173055 -0.017593572
0.040745493 -0.0100666005 -0.0338534 -0.06655205 -0.008306701 0.025337912 -0.017272662 -0.024220807
0.0066806125 -0.002408828 -0.01833467 0.0013149407 -0.030759534 -0.015588524 0.038093243 0.0032993655
0.030156188 -0.0025309958 -0.039873715 0.023427326 0.023920964 -0.030790713 -0.017587235 -0.03479608
0.012490011 -0.01995469 -0.010891587 -0.040272415 -0.035143938 -0.034351565 0.004532621 -0.017240334
0.08441204 0.032102358 0.003116941 0.03376823 -0.05887645 0.046874866 -0.021432253 -0.009369989
-0.058581308 -0.05460446 0.014321444 0.0074169417 0.0038331144 -0.02708124 0.014273401 -0.032269526
0.0030514745 -0.0063894475 0.025468016 0.030814718 0.040296767 -0.046722148 0.04784937 -0.02453186
-0.018331403 -0.037817337 0.029175181 -0.062959276 0.015754713 0.013363544 0.019024583 -0.047211777
0.054888908 -0.00998722 -0.007863741 -0.061191417 -0.0003001649 0.0011251124 -0.02107415 0.04717779
0.0008473912 -0.051347494 -0.036930088 -0.013899985 0.034508623 -0.04122525 -0.04154805 -0.0296252
-0.038064897 0.014544668 0.029946472 -0.04396373 0.018815799 0.036833216 0.018889025 -0.008124301
0.0028393716 0.036798757 0.022425948 -0.0014345887 -0.00928611 0.02039996 0.011801588 -0.010057104
0.043487098 0.06193326 0.004684637 -0.0013510289 -0.007980093 -0.008491031 0.025985476 0.0060263816
-0.05402602 -0.040629365 0.032624703 0.040844347 0.018166717 -0.0141034005 -0.016548363 -0.043425627
-0.016496204 0.033814337 0.022584904 0.01957677 -0.055993423 -0.048445445 -0.0024164051 0.03643912
0.016542407 -0.0003312704 0.04786829 -0.03334103 -0.04359803 0.031471148 -0.05272849 0.0037592421
-0.042449467 0.045165844 0.06034394 0.05520544 -0.031704716 -0.061129976 -0.04839984 0.027973153
0.014086474 0.035692666 0.012197228 -0.008300339 -0.010577678 -0.055053074 -0.059119377 -0.072375424
0.013917057 -0.03007678 -0.022186691 -0.03635445 0.00087182835 -0.03466191 -0.04803397 0.007067544
-0.026355987 0.019262746 -0.031885404 -0.05116374 -0.022297833 -0.013373302 0.0037870102 -0.042197265
00000000: e7f4 fa3c 6fe7 933d e179 d7bc 9c73 4d3d
00000010: 5496 25bb 35da 923c 9fb7 53bd 468a ad3c
00000020: 08ae d63c 314e 5ebd fb99 b03c 4e82 04bc
00000030: 6fa4 a03c e483 cabb 98b3 703c c51a 04bd
00000040: 51f7 0d3d 6f89 063d 49e1 a4bc 2a8f 8c3b
00000050: 6ea1 72bd 5e0f 07ba 4ff3 b8bc 75b4 283d
00000060: c7f1 c1bc 3266 cdba 8208 873c e23f 2ebd
00000070: 9b34 01bd 67bf 93bd be0e 413d 18c9 32bd
00000080: 8d4d a43c 66a1 4cbc 6d4f 09bd 4813 903a
00000090: 4c62 b43c fee6 863d fb53 013d 1634 95bb
000000a0: 5538 0cbb 90e1 e13b a993 4a3c 6292 7f3d
000000b0: a3be 3c3d be58 9fbc bd89 2d3d e836 c1bc
000000c0: 26f0 83bb ea00 4bbc 0dbb 1bbd f205 80bc
000000d0: cf19 27bd 7d1c 923d f7bc 1f3d 7481 6d3c
000000e0: 67f4 163c caea 883c 8a8a 8c3d b78f 15bd
000000f0: 725e e5bc d90c 9bbc 7d7e 803a 65b4 f9bc
00000100: 369d 283d 7ffe a23b 90ff cf3c 9a06 dcbc
00000110: 7b49 72bd 1ec1 0cbd 0318 d93c 0c7e 303d
00000120: 3dad bb3d ff0d 51bd c98b 8dbd 4465 0bbd
00000130: d1cc 8dbd fd99 803d 430d a9bb 55fb 1c3d
00000140: 869d 293c b5f9 a0bc 82b9 e73c d3ec c8bc
00000150: 97d4 033d 622d d0bc 83f9 d13c dc03 60bd
00000160: 5901 abbc 081d a1bb a5cd cf3c b72d dabc
00000170: dc35 873a 5418 503d 9990 7abd 6520 90bc
00000180: bfe4 263d 62ee 24bc dda9 0abd 714c 88bd
00000190: d418 08bc 7491 cf3c 667f 8dbc b76a c6bc
000001a0: 0ae9 da3b 6ddd 1dbb 9732 96bc 175a ac3a
000001b0: 6bfb fbbc 0267 7fbc a907 1c3d 2b3a 583b
000001c0: 1c0a f73c 10df 25bb 9f52 23bd aaea bf3c
000001d0: e6f5 c33c ce3c fcbc 1b13 90bc 5686 0ebd
000001e0: e7a2 4c3c 0578 a3bc a072 32bc b0f4 24bd
000001f0: 17f3 0fbd 3ab4 0cbd 6186 943b 9a3b 8dbc
00000200: 38e0 ac3d c37d 033d 9845 4c3b 8e50 0a3d
00000210: 6f28 71bd dcff 3f3d b192 afbc 9584 19bc
00000220: f4f2 6fbd eda8 5fbd 7da4 6a3c d109 f33b
00000230: fd34 7b3b 7ad9 ddbc fcda 693c 0d2d 04bd
00000240: 3ffb 473b 925e d1bb 4da2 d03c 266f fc3c
00000250: 390e 253d b95f 3fbd b3fd 433d 0af7 c8bc
00000260: bd2b 96bc 5ae6 1abd ca00 ef3c cbf0 80bd
00000270: 0710 813c c4f2 5a3c 71d9 9b3c 2361 41bd
00000280: 31d3 603d 70a1 23bc ecd6 00bc daa3 7abd
00000290: 735f 9db9 8278 933a b2a3 acbc 803d 413d
000002a0: 7623 5e3a c051 52bd 0144 17bd c3bc 63bc
000002b0: ea58 0d3d cfdb 28bd 4a2e 2abd 8cb0 f2bc
000002c0: f0e9 1bbd c24c 6e3c 4e52 f53c 5013 34bd
000002d0: 9723 9a3c 6dde 163d 28bd 9a3c ca1b 05bc
000002e0: c014 3a3b 4bba 163d 9fb6 b73c cf08 bcba
000002f0: c524 18bc d11d a73c 735b 413c 8dc6 24bc
00000300: 871f 323d bbad 7d3d 9581 993b 0215 b1ba
00000310: f0be 02bc f71d 0bbc 7edf d43c f478 c53b
00000320: 634a 5dbd fa6a 26bd 7ba1 053d 674c 273d
00000330: 5ed2 943c f311 67bc 6f90 87bc 12df 31bd
00000340: 0c23 87bc e780 0a3d fa03 b93c 765f a03c
00000350: 5c59 65bd bb6e 46bd 8d5c 1ebb 3041 153d
00000360: f183 873c 5cae adb9 8a11 443d 9b90 08bd
00000370: d993 32bd e4e7 003d d4f9 57bd 9e5d 763b
00000380: 7edf 2dbd d2ff 383d 352b 773d 191f 623d
00000390: cedc 01bd 6d63 7abd e93e 46bd f427 e53c
000003a0: f4ca 663c 7932 123d e2d6 473c 25fe 07bc
000003b0: ff4d 2dbc 557f 61bd 2927 72bd 9139 94bd
000003c0: 5e04 643c 9463 f6bc ddc0 b5bc 67e8 14bd
000003d0: 698b 643a a6f9 0dbd 45bf 44bd db96 e73b
000003e0: 83e8 d7bc e8cc 9d3c 459a 02bd 1291 51bd
000003f0: f2a9 b6bc b21b 5bbc 7d2f 783b 0ad7 2cbd

layers.0.theta.bias f4 [64]
-0.00016068615 0.00022011188 0.000882919 0.00017380531 -0.00039385253 -0.00025291953 -0.00027181767 -1.12976195e-05
-0.0034701382 0.0008504005 -0.00018241767 0.00091009913 -8.264856e-05 3.8276878e-05 0.000838796 0.0007320817
0.0007561292 0.000892565 0.00031631815 0.00017448826 -0.00065423676 2.8816341e-05 -6.273121e-05 -0.0002377085
-0.00024507826 -4.6225625e-05 -8.146021e-05 0.00035636465 1.0096668e-05 -0.00097480597 -0.00088134815 0.0016317464
0.0021069907 -0.00023142896 0.001897323 -0.00023486148 -0.00093528803 -0.00017503875 0.0005088366 -0.0024145222
0.0003590239 0.00020155829 0.0007935908 0.0024618327 -5.5541037e-05 0.00039535968 0.00017898761 0.00031713303
-2.1972377e-05 7.987699e-05 -0.0001567523 -0.00070166716 0.0009018994 0.00012559904 -0.00075753 8.004589e-06
9.229193e-05 -0.0003987246 -0.0009130144 0.0008460242 0.0002464565 -0.0010905403 0.00016149314 -0.00084169966
00000000: dc7d 28b9 d5cd 6639 b173 673a 823f 3639
00000010: fe7d ceb9 499a 84b9 c082 8eb9 e88a 3db7
00000020: 426b 63bb 69ed 5e3a 5f47 3fb9 b893 6e3a
00000030: 9c53 adb8 7c8b 2038 a6e2 5b3a 2ce9 3f3a
00000040: f936 463a 06fb 693a 81d7 a539 d6f6 3639
00000050: 1681 2bba 9fba f137 908e 83b8 6441 79b9
00000060: d97d 80b9 63e2 41b8 9ed5 aab8 74d6 ba39
00000070: dc64 2937 1f8a 7fba 460a 67ba 53e0 d53a
00000080: 7015 0a3b bdab 72b9 98af f83a 2645 76b9
00000090: 1e2e 75ba 9b8a 37b9 7263 053a f63c 1ebb
000000a0: 5f3b bc39 6459 5339 fa08 503a b356 213b
000000b0: bcf4 68b8 4748 cf39 9fae 3b39 e044 a639
000000c0: 5251 b8b7 a283 a738 e05d 24b9 16f0 37ba
000000d0: 726d 6c3a 3cb3 0339 fa94 46ba 734b 0637
000000e0: da8c c138 e90b d1b9 5c57 6fba b9c7 5d3a
000000f0: d536 8139 76f0 8eba 7c56 2939 82a5 5cba

layers.1.bn.weight f4 [2]
1.0845637 1.080363
00000000: fcd2 8a3f 5649 8a3f

layers.1.bn.bias f4 [2]
-0.04012295 0.04012294
00000000: f657 24bd f457 243d

layers.1.bn.running_mean f4 [2]
-0.012151353 0.010752462
00000000: 7816 47bc 182b 303c

layers.1.bn.running_var f4 [2]
0.022244135 0.02248238
00000000: 5539 b63c f82c b83c

layers.1.theta.weight f4 [2, 64]
0.07992195 0.090993024 0.02453228 0.0915467 0.057573415 0.0776333 -0.056784663 0.0868135
0.08018085 0.062497154 0.023265434 0.08302189 -0.041027877 -0.11120505 0.00777798 0.02173799
0.0628814 0.027846254 0.011112354 0.10543864 0.09446316 -0.07144127 -0.060037542 -0.043167964
0.017141998 -0.10504092 -0.06100332 0.08397084 -0.12315831 -0.010561832 -0.016282188 -0.03669461
-0.052346114 -0.061384507 -0.09938103 -0.1361205 0.07829742 -0.012575247 0.01774391 -0.037160564
-0.14659068 0.017943494 -0.124136984 0.019938927 -0.05084918 -0.0819014 0.006939719 -0.08214723
-0.11091628 -0.08708204 -0.06873649 -0.07880246 -0.13827418 0.00877082 0.07142602 -0.08341099
-0.1125748 0.075654924 -0.07066604 -0.086419806 -0.09405737 -0.0150459595 -0.00055174174 0.12303126
-0.05925102 -0.09258216 0.14359832 0.07456936 -0.08543339 -0.10132544 0.04235375 -0.06400999
-0.0041106744 -0.037532087 -0.058648225 0.12159891 0.05871832 0.06301733 -0.12316585 -0.05449866
0.034565724 0.06298381 0.014909216 -0.11766582 -0.08652241 0.11560613 0.07973671 0.07212258
-0.07542485 -0.040165078 0.060734395 -0.0972353 0.028194172 0.060455 0.07416231 0.053993948
0.02126128 0.06483584 -0.12854105 -0.03085101 -0.060050085 0.07168059 -0.080684476 0.086359896
-0.033410225 -0.057090588 0.10260654 0.1482599 0.042333473 0.022144847 0.106007904 0.00054215174
0.10670742 0.06964402 0.0452975 0.11195692 0.094761714 0.13657008 0.10662484 0.057973184
-0.01801984 -0.058738027 0.010289364 -0.048200767 0.008953272 0.13048267 0.09784065 0.00943574
00000000: 1fae a33d 8d5a ba3d ecf7 c83c d67c bb3d
00000010: 1ad2 6b3d 35fe 9e3d 0997 68bd 47cb b13d
00000020: dc35 a43d 04fd 7f3d 2797 be3c 6107 aa3d
00000030: d90c 28bd 79bf e3bd 6dde fe3b df13 b23c
00000040: f7c7 803d d41d e43c 9710 363c 37f0 d73d
00000050: e775 c13d cd4f 92bd ede9 75bd e4d0 30bd
00000060: 606d 8c3c b21f d7bd 9ede 79bd e7f8 ab3d
00000070: 6d3a fcbd 890b 2dbc 3962 85bc 164d 16bd
00000080: e168 56bd 526e 7bbd 4888 cbbd 2c63 0bbe
00000090: 665a a03d 6908 4ebc ad5b 913c ad35 18bd
000000a0: de1b 16be 3cfe 923c 883b febd f656 a33c
000000b0: 3b47 50bd ecbb a7bd 9566 e33b cf3c a8bd
000000c0: 1328 e3bd 1258 b2bd b8c5 8cbd 2f63 a1bd
000000d0: bf97 0dbe 7cb3 0f3c ce47 923d 62d3 aabd
000000e0: 9e8d e6bd f8f0 9a3d 5bb9 90bd defc b0bd
000000f0: 27a1 c0bd 5483 76bc c3a2 10ba d0f7 fb3d
00000100: 33b1 72bd b79b bdbd 700b 133e d2b7 983d
00000110: b4f7 aebd b683 cfbd 207b 2d3d ab17 83bd
00000120: d6b2 86bb 3fbb 19bd 1f39 70bd d908 f93d
00000130: 9f82 703d 3b0f 813d 613e fcbd fd39 5fbd
00000140: ca94 0d3d a8fd 803d c945 743c c7fa f0bd
00000150: a932 b1bd e8c2 ec3d 004d a33d 01b5 933d
00000160: 5878 9abd 2384 24bd a1c4 783d 4d23 c7bd
00000170: 77f7 e63c a99f 773d 69e2 973d c228 5d3d
00000180: 232c ae3c a7c8 843d 44a0 03be 42bb fcbc
00000190: 14f7 75bd 46cd 923d e73d a5bd 75dd b03d
000001a0: 29d9 08bd d2d7 69bd 6123 d23d 71d1 173e
000001b0: dd65 2d3d 1c69 b53c ac1a d93d 301f 0e3a
000001c0: 6b89 da3d 86a1 8e3d df89 393d ab49 e53d
000001d0: 6e12 c23d 07d9 0b3e 205e da3d 4a75 6d3d
000001e0: 589e 93bc 4997 70bd b894 283c 2b6e 45bd
000001f0: bfb0 123c 409d 053e ae60 c83d 5d98 1a3c

layers.1.theta.bias f4 [2]
0.007426556 -0.010892521
00000000: 785a f33b 8b76 32bc
