src_new/model/hgnn_cocitationcora_best_model_new.pth (torch, 744939 bytes, 12 tensors)

layers.0.bn.weight f4 [128]
0.99394584 0.99598664 0.99546355 0.9955877 0.99415314 0.9942364 0.99365735 0.9942908
0.9998892 0.99568033 1.0031209 1.0023286 0.9979527 0.99598 1.0036997 0.99480724
0.9956263 0.99814284 1.0002563 1.0033709 0.9941989 0.9980631 0.9975286 0.9947878
0.9954895 0.9936318 0.9997198 1.002871 0.9966777 0.9965366 1.0007448 1.0020288
0.9959771 1.0042279 1.0022454 1.0049863 0.99894756 1.0028658 1.0027082 0.99519753
1.0030032 0.9938621 1.0034654 0.9941062 0.99635524 0.9988074 1.0022838 1.0050087
1.0010648 0.99379927 0.9947308 0.99520475 0.9941344 1.0040592 0.9962156 0.9939354
0.99532586 0.99532574 1.0009371 0.9927192 0.9940724 1.000762 0.9985068 0.9951667
0.9959063 1.0034467 1.0030895 0.9953676 0.994349 0.9982158 0.99438256 0.9955289
0.99433434 0.99815786 0.9939502 0.9949054 1.0044544 0.994766 1.0034523 1.001954
0.9946101 0.9994085 0.99425393 1.002273 1.0018159 1.0009282 1.0015188 0.9956771
0.99457914 1.0030118 1.0024917 1.0038455 0.99596363 0.99719316 0.99763715 0.9986609
0.993707 0.99874246 0.9982219 0.99665785 0.99585164 0.9952921 0.99563944 0.9947978
0.9960316 0.99659485 0.9967875 0.99469095 0.995685 0.9950466 0.99435914 1.0010377
1.0016141 0.9944462 0.9995063 1.0044619 1.002726 0.99648064 1.0007758 0.9954629
0.9941252 0.9946365 0.9949828 1.0026151 1.0044056 1.0041324 0.9957896 0.99558127
00000000: 3c73 7e3f fbf8 7e3f b3d6 7e3f d6de 7e3f
00000010: d280 7e3f 4786 7e3f 5460 7e3f d889 7e3f
00000020: bdf8 7f3f e8e4 7e3f 4466 803f 4e4c 803f
00000030: d479 7f3f 8cf8 7e3f 3b79 803f b0ab 7e3f
00000040: 5de1 7e3f 4a86 7f3f 6608 803f 756e 803f
00000050: d283 7e3f 1081 7f3f 095e 7f3f 6aaa 7e3f
00000060: 66d8 7e3f a75e 7e3f a3ed 7f3f 145e 803f
00000070: 4526 7f3f 061d 7f3f 6818 803f 7b42 803f
00000080: 5bf8 7e3f 8a8a 803f 9449 803f 64a3 803f
00000090: 07bb 7f3f e85d 803f be58 803f 44c5 7e3f
000000a0: 6962 803f bf6d 7e3f 8e71 803f be7d 7e3f
000000b0: 2311 7f3f d7b1 7f3f d64a 803f 20a4 803f
000000c0: e422 803f a169 7e3f ada6 7e3f bdc5 7e3f
000000d0: 987f 7e3f 0385 803f fc07 7f3f 8d72 7e3f
000000e0: adcd 7e3f abcd 7e3f b51e 803f d822 7e3f
000000f0: 877b 7e3f f818 803f 249e 7f3f 3fc3 7e3f
00000100: b7f3 7e3f f170 803f 3d65 803f 69d0 7e3f
00000110: a88d 7e3f 128b 7f3f db8f 7e3f fbda 7e3f
00000120: b28c 7e3f 4687 7f3f 8573 7e3f 1fb2 7e3f
00000130: f691 803f fca8 7e3f 2071 803f 0740 803f
00000140: c49e 7e3f 3cd9 7f3f 6d87 7e3f 7b4a 803f
00000150: 813b 803f 6a1e 803f c531 803f b2e4 7e3f
00000160: bd9c 7e3f b162 803f a651 803f 027e 803f
00000170: 79f7 7e3f 0d48 7f3f 2665 7f3f 3ea8 7f3f
00000180: 9563 7e3f 96ad 7f3f 788b 7f3f f824 7f3f
00000190: 22f0 7e3f 77cb 7e3f 3ae2 7e3f 12ab 7e3f
000001a0: edfb 7e3f d720 7f3f 772d 7f3f 11a4 7e3f
000001b0: 36e5 7e3f 60bb 7e3f 528e 7e3f 0122 803f
000001c0: e434 803f 0794 7e3f a5df 7f3f 3592 803f
000001d0: 5359 803f 5b19 7f3f 6c19 803f a8d6 7e3f
000001e0: fd7e 7e3f 7fa0 7e3f 31b7 7e3f b155 803f
000001f0: 5d90 803f 6987 803f 11ec 7e3f 6ade 7e3f

layers.0.bn.bias f4 [128]
-0.0049871174 -0.0036993334 -0.003458927 0.0036437772 0.0023777732 -0.0042822124 -0.0060421713 -0.0043104603
0.0016446023 0.0010784924 0.005024317 0.004848704 0.004938468 -0.004205997 0.0053353137 -0.004389176
-0.0004361787 0.0007455969 0.005271434 0.004779004 -0.0048174784 -0.0035615559 -0.0036449628 -0.0056403712
-0.0037313008 -0.0050096936 0.0011544818 0.0024740894 0.001900572 0.0042122947 0.0022340096 0.0037018792
-0.0028359413 0.0058185114 0.00472228 0.0054420796 0.0044978717 0.0049525667 0.0030646129 -0.00514545
0.006398069 -0.0030915271 0.004158118 -0.0022979123 -0.00049507886 0.0012435666 0.004030606 0.005571498
0.0061824885 -0.0046864008 -0.00515796 -0.0015606835 -0.0004362704 0.0044318545 0.003566889 -0.003557992
-0.0033350843 -0.003374432 0.00017966435 -0.005885932 -0.0058627366 0.005105448 0.0014964475 -0.004618757
-0.0038661936 0.0058808713 0.0035877626 -0.0044752858 -0.004001339 0.0040374747 0.0031732277 -0.0029545496
-0.0022177887 0.0014427803 -0.0054179276 -0.00430211 0.005314485 -0.0038299074 0.004905867 0.0025263056
-0.0017843646 -0.00014094393 -0.0024382034 0.0041082925 -0.001330759 0.0009644995 0.0053031123 -0.0036918572
8.910359e-05 0.002834758 0.0044238674 0.0051357946 -0.0017579169 0.0027283782 -0.001717039 -0.0048102736
-0.001541711 0.001048136 -0.00035826222 -0.0009226002 -0.002625284 -0.0047232136 -0.004070547 -0.0037581567
0.0025838062 -0.0020094232 0.0018387706 -0.0005643328 -0.0031284513 -0.0029689071 -0.0012448659 0.0035478764
0.0022957982 -0.0050424724 -0.00010933269 0.0058714193 0.0056901923 -0.002762669 0.0037027083 -0.005836645
-0.0037715926 -0.005585168 -0.0015632006 0.0049619665 0.0052209315 0.0054538064 0.002173352 -0.0037233492
00000000: f96a a3bb 8470 72bb 2aaf 62bb 70cc 6e3b
00000010: 6ad4 1b3b cd51 8cbb 68fd c5bb c33e 8dbb
00000020: b28f d73a 335c 8d3a 07a3 a43b e1e1 9e3b
00000030: dfd2 a13b 76d2 89bb dbd3 ae3b 14d3 8fbb
00000040: eaae e4b9 2974 433a febb ac3b 3199 9c3b
00000050: f0db 9dbb fe68 69bb 54e0 6ebb ddd2 b8bb
00000060: d788 74bb 5b28 a4bb fb51 973a 5524 223b
00000070: 9d1c f93a 4a07 8a3b 7668 123b 3a9b 723b
00000080: 33db 39bb 36a9 be3b 5bbd 9a3b 7953 b23b
00000090: e262 933b 2449 a23b acd7 483b 2a9b a8bb
000000a0: e5a6 d13b 389b 4abb d240 883b 9298 16bb
000000b0: 2ec8 01ba 2cff a23a 2c13 843b 1d91 b63b
000000c0: 7996 ca3b 6190 99bb 1b04 a9bb d98f ccba
000000d0: 39bb e4b9 1739 913b 78c2 693b 332d 69bb
000000e0: 6e91 5abb 9325 5dbb 4864 3c39 c7de c0bb
000000f0: 331c c0bb 9a4b a73b 7224 c43a f158 97bb
00000100: f75f 7dbb 53b4 c03b ab20 6b3b 6ba5 92bb
00000110: aa1d 83bb cb4c 843b edf5 4f3b 1ea1 41bb
00000120: 5258 11bb ac1b bd3a df88 b1bb b7f8 8cbb
00000130: 2225 ae3b 2fff 7abb 65c1 a03b 6090 253b
00000140: 57e1 e9ba 59ca 13b9 44ca 1fbb db9e 863b
00000150: dd6c aeba 77d6 7c3a bbc5 ad3b 16f3 71bb
00000160: 20dd ba38 59c7 393b 17f6 903b 2b4a a83b
00000170: e769 e6ba 97ce 323b 450e e1ba 809f 9dbb
00000180: 3d13 caba 9c61 893a 24d5 bbb9 a7da 71ba
00000190: f50c 2cbb 30c5 9abb 3962 85bb 684b 76bb
000001a0: 1355 293b 87b0 03bb e702 f13a bcef 13ba
000001b0: b406 4dbb ff91 42bb c52a a3ba 7d83 683b
000001c0: 1a75 163b 533b a5bb 8a49 e5b8 0965 c03b
000001d0: cb74 ba3b e50d 35bb 23a9 723b 5441 bfbb
000001e0: d32c 77bb c903 b7bb 4fe4 ccba fe97 a23b
000001f0: 5914 ab3b d8b5 b23b cc6e 0e3b 6f03 74bb

layers.0.bn.running_mean f4 [128]
0.00021451668 0.012122966 -0.0006850843 -0.0033554225 -0.014262 -0.006631188 0.018658888 0.00021850877
-0.004754013 -0.010541577 -0.017447071 -0.00029423434 -0.0018803297 0.009654291 -0.016018625 -0.0020666667
0.008181128 -0.0045681205 -0.012219462 -0.008002358 -0.007638203 0.006409647 0.0001229231 0.006629844
0.0009617973 -0.014136253 -0.00081848033 -0.00032025948 0.00010122752 0.004337586 0.0034367652 -0.012149531
-0.0070672436 0.016397895 0.01557266 -0.002440687 0.0032335317 -0.0024839444 -0.018230017 -0.0076440517
0.0009917672 0.006853196 -0.011569239 0.011008095 0.00093319244 -0.015189663 0.01219128 0.0071070925
-0.013860956 -0.0008820468 0.0007346075 -0.0102895 0.005722572 -0.007718921 0.0048929458 -0.0077068973
-0.014985034 -0.011863207 -0.00028634752 -0.0035028448 0.001721715 -0.0002253486 -0.0006203338 -0.000985084
0.00800939 0.01822209 0.006069752 0.00020026001 0.014331393 0.014160305 0.009227211 0.00039849858
-0.009425584 -0.002618262 0.0004294291 -0.01617665 -0.006112337 0.008101344 0.0012274549 -0.015366289
0.0053240233 -0.017797451 -0.00927875 -0.00319897 -0.016475026 7.048301e-05 0.0055253133 0.00061870145
-0.007643858 0.005272326 -0.008296298 0.0018748416 0.008646291 0.00021326446 -0.015970673 0.01534967
0.0010355551 -0.008088656 0.00061391055 0.0075189783 0.014599912 0.018897912 -0.0055509554 0.0135303475
-0.015761076 -0.009710631 0.011506776 -0.010716798 0.0065550944 -0.014011251 -0.0033470865 -0.0005170636
0.012412636 0.0025395043 -0.013341661 0.016712314 -0.0008454262 0.0012726814 -0.001814618 0.014488086
-0.014057983 0.00091896433 -0.0036994857 0.01484885 -0.01762303 -0.0031527765 0.0007815415 0.0009319962
00000000: e2ef 6039 689f 463c 3b97 33ba a6e6 5bbb
00000010: 2aab 69bc 704a d9bb 86da 983c 801f 6539
00000020: 8dc7 9bbb 94b6 2cbc 29ed 8ebc 7743 9ab9
00000030: 6575 f6ba 082d 1e3c 7e39 83bc ea70 07bb
00000040: 230a 063c 2cb0 95bb 2334 48bc 521c 03bc
00000050: e449 fabb 0408 d23b ebe4 0039 2a3f d93b
00000060: 2021 7c3a be9b 67bc 498f 56ba 80e8 a7b9
00000070: 1c4a d438 4f22 8e3b 5a3b 613b d40e 47bc
00000080: 5694 e7bb e154 863c 7824 7f3c eff3 1fbb
00000090: a9e9 533b acc9 22bb 1e57 95bc f47a fabb
000000a0: 2ffe 813a c690 e03b e88c 3dbc 4c5b 343c
000000b0: 7ca1 743a 10de 78bc efbd 473c 9de2 e83b
000000c0: 1019 63bc 2939 67ba ad92 403a 4a95 28bc
000000d0: 6a84 bb3b 01ef fcbb 0155 a03b 248a fcbb
000000e0: ca83 75bc e65d 42bc ea20 96b9 fc8f 65bb
000000f0: 2bab e13a 8e4b 6cb9 e69d 22ba ef1d 81ba
00000100: d139 033c 7e46 953c c5e4 c63b e3fc 5139
00000110: 38ce 6a3c a000 683c ba2d 173c 93ed d039
00000120: c46d 1abc 2697 2bbb 0025 e139 e584 84bc
00000130: 004a c8bb 80bb 043c 8de2 a03a e3c2 7bbc
00000140: 2575 ae3b f6cb 91bc e605 18bc d0a5 51bb
00000150: a2f6 86bc 47d0 9338 b00d b53b 5a30 223a
00000160: 5479 fabb 7ac3 ac3b 32ed 07bc 3fbd f53a
00000170: 2ca9 0d3c be9f 5f39 eed4 82bc 2f7d 7b3c
00000180: 77bb 873a 4886 04bc d7ee 203a c361 f63b
00000190: 7834 6f3c cbcf 9a3c cae4 b5bb 64ae 5d3c
000001a0: 5f1d 81bc 5719 1fbc eb86 3c3c 8295 2fbc
000001b0: 1ecc d63b 728f 65bc cb5a 5bbb 8d8b 07ba
000001c0: 5e5e 4b3c d06d 263b fb96 5abc 43e8 883c
000001d0: 989f 5dba 1ad0 a63a 7ad8 edba 705f 6d3c
000001e0: 7453 66bc a7e6 703a 1273 72bb 9748 733c
000001f0: 2c5e 90bc d09e 4ebb 5de0 4c3a 3551 743a

layers.0.bn.running_var f4 [128]
0.00010008858 0.0001007476 0.00010145325 0.00010211915 0.00010037421 0.00010167525 0.00010342669 9.930812e-05
0.000101067264 0.000102289225 0.00010424691 0.00010160432 0.00010202857 9.944431e-05 0.0001013981 0.00010157002
0.00010241827 0.00010219169 0.00010230806 0.00010250849 0.00010177676 0.000100889 0.00010185821 9.989357e-05
0.00010006473 0.000101814236 0.000103933045 0.000105386665 9.9831705e-05 9.982961e-05 0.00010315659 0.00010326173
0.000100998404 0.00010178726 0.00010151241 0.00010304613 0.00010103772 0.0001008177 0.000102598504 9.9617304e-05
0.00010227938 0.00010071143 0.000102733764 0.00010015259 0.00010292444 0.00010158213 0.00010286602 0.0001023278
0.00010075465 0.000101269536 9.92523e-05 0.000101353835 0.00010141724 0.00010283715 0.00010158623 0.000101153964
0.000102005055 0.00010186332 0.00010230925 0.000102118676 9.902511e-05 0.00010267694 0.000101104066 9.941653e-05
0.000100504694 0.00010151519 0.0001001433 0.000100636644 0.00010093537 0.00010235936 0.0001006953 0.00010006382
0.00010005557 9.909798e-05 0.00010121294 0.00010125659 0.000101406404 0.00010022901 0.00010163249 0.00010408629
9.9844736e-05 9.964772e-05 9.976156e-05 0.00010102534 0.00010043922 0.000102171274 0.00010157723 0.000100923025
0.00010107115 0.00010012152 0.00010311171 0.00010040131 0.00010067339 0.00010120755 0.00010103036 0.00010028221
0.000101730526 9.983693e-05 0.00010098963 0.000101041616 0.000100768884 0.000101358855 9.9580044e-05 0.00010241864
9.9019446e-05 0.00010067614 0.000100692465 0.00010050693 9.862352e-05 0.00010021282 0.00010172297 0.000100935344
0.00010120643 0.00010075864 0.00010014715 0.00010126874 0.00010131826 0.00010123627 0.00010405646 9.834756e-05
0.000100911304 0.00010191212 0.00010162833 0.000101257334 9.933205e-05 0.00010163231 0.000100688914 0.00010043383
00000000: a6e6 d138 7548 d338 4dc3 d438 cd28 d638
00000010: fe7f d238 7c3a d538 c8e6 d838 a443 d038
00000020: 13f4 d338 1c84 d638 229f da38 6714 d538
00000030: 2cf8 d538 c28c d038 b1a5 d438 fd01 d538
00000040: 64c9 d638 bf4f d638 398e d638 d4f9 d638
00000050: fb70 d538 5f94 d338 b69c d538 f47d d138
00000060: d8d9 d138 1a85 d538 a1f6 d938 0903 dd38
00000070: bd5c d138 9d5b d138 c655 d838 388e d838
00000080: 1bcf d338 9e76 d538 0fe3 d438 781a d838
00000090: 36e4 d338 176e d338 272a d738 a2e9 d038
000000a0: d37e d638 0a35 d338 c572 d738 0309 d238
000000b0: 23d9 d738 7e08 d538 c6b9 d738 d298 d638
000000c0: 3e4c d338 ab60 d438 ac25 d038 ed8d d438
000000d0: f7af d438 46aa d738 b10a d538 9f22 d438
000000e0: 8ceb d538 749f d538 dc8e d638 8c28 d638
000000f0: b3ab cf38 4354 d738 d507 d438 d87d d038
00000100: 0cc6 d238 8de4 d438 0604 d238 e30c d338
00000110: 44ad d338 c3a9 d638 612c d338 5bd9 d138
00000120: edd4 d138 d3d2 cf38 4942 d438 b859 d438
00000130: 26aa d438 0a32 d238 8723 d538 e748 da38
00000140: bc63 d138 f6f9 d038 1437 d138 91dd d338
00000150: e5a2 d238 c944 d638 dc05 d538 a3a6 d338
00000160: 29f6 d338 55f8 d138 ae3d d838 8b8e d238
00000170: 9d20 d338 643f d438 43e0 d338 9a4e d238
00000180: 2958 d538 8b5f d138 65ca d338 4ee6 d338
00000190: e253 d338 9f90 d438 a1d5 d038 97c9 d638
000001a0: a9a8 cf38 1722 d338 db2a d338 3fc7 d238
000001b0: 19d4 ce38 5929 d238 1b54 d538 40ad d338
000001c0: ca3e d438 624e d338 1706 d238 3e60 d438
000001d0: d47a d438 cf4e d438 e338 da38 f23f ce38
000001e0: 58a0 d338 a7b9 d538 4b21 d538 1e5a d438
000001f0: 7d50 d038 6e23 d538 f328 d338 00a0 d238

layers.0.theta.weight f4 [128, 1433]
-0.028211277 0.004599889 -0.008541239 -0.016850987 -0.006310367 -0.01061526 0.0013045393 -0.017733311
-0.003629476 0.019315815 -0.017851181 0.0069610183 0.0041993475 -0.018417817 -0.012800436 0.013675768
0.01081142 0.011608316 0.008113255 0.017472854 0.006085664 -0.009992666 0.008484027 0.020907855
-0.019148808 -0.0076086856 -0.023338247 0.019308226 -0.003482509 0.027765984 0.002991353 0.009102131
-0.026050836 -0.014278021 -0.018172165 0.027246956 0.009434585 -0.018914333 -0.023303779 0.012086633
-0.023325233 -0.019018928 0.0146413 -0.027406821 -0.0036010784 -0.009327346 -0.0013758776 0.026299989
0.014111289 0.0060109957 -0.0041583376 0.003997455 0.020908369 -0.01627143 0.025572356 -0.0125757875
0.024559498 -0.010830456 -0.017818857 0.020052552 0.0069999374 0.0112470845 0.015060887 0.0010059843
0.02172553 -0.013595987 -0.017186929 0.020059936 -0.022923455 0.0019440776 0.026179817 0.023246514
0.0058434764 0.0096956985 -0.012170464 0.022612438 0.006355937 -0.02765119 0.0018771943 -0.004737057
0.016806722 -0.011105932 0.002939446 -0.020652361 0.008307139 -0.006212 0.01936665 0.009039799
-0.01005951 -0.0005570647 -0.010076996 0.026700014 -0.01000253 -0.02318653 0.006591066 -0.01856221
-0.019115949 -0.00932947 -0.018261172 -0.02291062 0.02157267 0.01362282 -0.02531168 -0.0194661
0.01052902 -0.02033996 -0.0022401619 -0.0029399346 0.0080953995 -0.015034291 0.021550445 0.017879514
-0.0019638846 -0.0031738263 -0.014211767 -0.009076424 0.00149644 0.0030039507 -0.009458379 -0.022417028
0.011908618 0.024923487 -0.004249178 0.015136197 -0.02514507 -0.007809555 0.026553066 0.018499043
-0.015751911 0.022086967 -0.012652173 0.0048725056 -0.01078963 -0.008683093 -0.0043596253 -0.007580721
-0.0053744502 0.008635307 0.022953449 -0.0077003567 0.009975093 -0.026658274 0.023674576 0.022298886
-0.011505325 -0.007393418 -0.01276562 0.00863272 0.0045953044 0.01586158 -0.008913802 -0.024390431
-0.012643079 -0.015040201 0.021988297 0.010714278 0.0238347 -0.0010804047 -0.0018320181 -0.0075080344
0.010788886 -0.011355175 -0.01722023 0.018060429 -0.003205878 0.013940312 -0.011991755 0.0005545413
-0.002940511 0.0010377918 0.009657199 0.011917352 -0.016597904 0.0012744551 -0.016581366 0.004352481
-0.017564086 0.016065579 -0.00070532324 0.011848475 -0.0013115781 0.020261634 -0.012677856 0.0050125667
0.0038417806 -0.017472964 0.0019088928 0.011449998 -0.0126398485 -0.013204829 0.008627637 -0.0007452441
-0.019110478 0.012579046 0.0054525733 0.013358051 -0.020094553 -0.020294365 0.0054964554 -0.0069856127
-0.0032608896 -0.00049243757 -0.019743415 0.026317246 -0.002167823 0.015711214 -0.005642019 -0.01715747
-0.007935659 -0.014122934 -0.015855385 0.007354505 -0.022851761 0.02999044 -0.0073669464 0.0032447837
-0.009807716 -0.0015555203 0.011082307 0.020555273 -0.0137121845 0.008213414 0.010404345 0.026422413
0.01444948 0.016440619 0.012706406 0.011417958 -0.007507068 0.005363394 0.004611965 0.013665162
-0.013663573 -0.0012084752 -0.016465025 -0.02979285 0.016610758 -0.004424191 0.0033102424 -0.028424582
-0.017359056 -0.0032322214 0.013327835 0.010999127 -0.015923496 -0.003101997 -0.008483307 -0.004857555
0.021813245 -0.01654615 -0.016531868 0.017372424 -0.018657314 0.014791286 -0.019151183 -0.0070611676
00000000: 561b e7bc aaba 963b 8ef0 0bbc 150b 8abc
00000010: 32c7 cebb a1eb 2dbc 13fd aa3a 7345 91bc
00000020: 81dc 6dbb 333c 9e3c a43c 92bc 4119 e43b
00000030: ae9a 893b f6e0 96bc ebb8 51bc 5410 603c
00000040: 6222 313c ce30 3e3c 75ed 043c 3b23 8f3c
00000050: 406a c73b 47b8 23bc 9700 0b3c f346 ab3c
00000060: f6dd 9cbc 4852 f9bb da2f bfbc 492c 9e3c
00000070: ce3a 64bb 7d75 e33c 930a 443b 1b21 153c
00000080: 9068 d5bc 5cee 69bc cbdd 94bc 0235 df3c
00000090: 8593 1a3c 3bf2 9abc 91e7 bebc 0307 463c
000000a0: 8f14 bfbc 95cd 9bbc 10e2 6f3c 4584 e0bc
000000b0: 1200 6cbb bad1 18bc cb56 b4ba 1373 d73c
000000c0: 0933 673c e3f7 c43b aa42 88bb 15fd 823b
000000d0: 0748 ab3c a94b 85bc 1e7d d13c ad0a 4ebc
000000e0: 0031 c93c 3a72 31bc daf8 91bc 4045 a43c
000000f0: bb5f e53b b145 383c f0c1 763c 3bdb 833a
00000100: bdf9 b13c b4c1 5ebc 9acb 8cbc bc54 a43c
00000110: f8c9 bbbc 6bd0 fe3a 0e77 d63c 796f be3c
00000120: a27a bf3b b5da 1e3c a066 47bc b83d b93c
00000130: 7745 d03b c084 e2bc 300c f63a 5039 9bbb
00000140: 40ae 893c a8f5 35bc b8a3 403b 242f a9bc
00000150: ab1a 083c 088e cbbb cfa6 9e3c aa1b 143c
00000160: a5d0 24bc fb07 12ba fc19 25bc fdb9 da3c
00000170: a7e1 23bc aef1 bdbc def9 d73b c70f 98bc
00000180: 0d99 9cbc a2da 18bc 7498 95bc 0daf bbbc
00000190: 2bb9 b03c 4032 5f3c 715a cfbc 5f77 9fbc
000001a0: e981 2c3c fd9f a6bc aecf 12bb ebab 40bb
000001b0: 91a2 043c 6352 76bc 8f8a b03c 0f78 923c
000001c0: 84b4 00bb f8ff 4fbb 79d8 68bc 48b5 14bc
000001d0: 3224 c43a eedd 443b 51f7 1abc eaa3 b7bc
000001e0: 5d1c 433c 572c cc3c b03c 8bbb d0fd 773c
000001f0: 09fd cdbc 4ce7 ffbb d185 d93c 4e8b 973c
00000200: 270a 81bc baef b43c 0f4b 4fbc 8aa9 9f3b
00000210: fdc6 30bc 8843 0ebc 30db 8ebb b267 f8bb
00000220: 281c b0bb 1a7b 0d3c df08 bc3c 4653 fcbb
00000230: 936e 233c 7462 dabc 2ff1 c13c 27ac b63c
00000240: d580 3cbc 7c44 f2bb e426 51bc 4170 0d3c
00000250: 3594 963b 25f0 813c 320b 12bc 71ce c7bc
00000260: eb24 4fbc 2d6b 76bc cd20 b43c f08a 2f3c
00000270: fd40 c33c 5e9c 8dba 5420 f0ba f505 f6bb
00000280: dec3 303c 0e0b 3abc 7111 8dbc 77f3 933c
00000290: b519 52bb e865 643c 1179 44bc a35e 113a
000002a0: 97b5 40bb 8406 883a 3a39 1e3c ff40 433c
000002b0: 54f8 87bc 9e0b a73a a5d5 87bc 429f 8e3b
000002c0: 8fe2 8fbc f69b 833c 71e5 38ba 1b20 423c
000002d0: 42e9 abba bafb a53c c8b6 4fbc 7540 a43b
000002e0: 62c6 7b3b 7623 8fbc d033 fa3a c698 3b3c
000002f0: 5e17 4fbc 1159 58bc ef5a 0d3c 7c5c 43ba
00000300: 948d 9cbc 5818 4e3c 80ab b23b badb 5a3c
00000310: 559d a4bc 5e40 a6bc 9c1b b43b 91e7 e4bb
00000320: a6b4 55bb ed16 01ba f1bc a1bc 4497 d73c
00000330: 0912 0ebb ceb4 803c b0e0 b8bb d38d 8cbc
00000340: 9104 02bc e163 67bc 27e3 81bc 0ffe f03b
00000350: 9e33 bbbc 83ae f53c 6d66 f1bb 70a6 543b
00000360: 8bb0 20bc 9ae2 cbba 9192 353c 8863 a83c
00000370: 12a9 60bc 8e91 063c fc76 2a3c d173 d83c
00000380: 83bd 6c3c 7aae 863c 882e 503c 6312 3b3c
00000390: dafd f5bb 69bf af3b f71f 973b d8e3 5f3c
000003a0: 2edd 5fbc b365 9eba a9e1 86bc 2310 f4bc
000003b0: 4913 883c cef8 90bb a7f0 583b abda e8bc
000003c0: 9434 8ebc add3 53bb fe5c 5a3c af35 343c
000003d0: fe71 82bc e04a 4bbb 92fd 0abc 202c 9fbb
000003e0: b1b1 b23c cb8b 87bc d76d 87bc 9d50 8e3c
000003f0: 39d7 98bc 2657 723c f1e2 9cbc 5e61 e7bb

layers.0.theta.bias f4 [128]
-3.195638e-05 0.0109871365 -2.6345984e-05 -0.0019549127 -0.012779827 -0.0054632695 0.015786676 -1.4398029e-07
-0.003354943 -0.009593251 -0.01759992 3.0473173e-05 -5.4489574e-06 0.010076711 -0.016849233 -0.0019070073
0.0063060895 -0.002516902 -0.0120864855 -0.006807926 -0.006284072 0.005929997 6.8559666e-07 0.006530046
3.0049114e-05 -0.012877412 -1.5383543e-05 -4.9084765e-06 0.00052484486 0.004864495 0.0020666716 -0.009207108
-0.005273684 0.014956877 0.014093368 -0.002624296 0.00288328 -0.0022602398 -0.017797105 -0.0076637855
0.0008875728 0.0045095533 -0.009118677 0.009607674 9.606268e-06 -0.01481047 0.010694787 0.0060165627
-0.012860813 -2.5027544e-05 -2.6122056e-05 -0.007931693 0.003861726 -0.0057942267 0.004127812 -0.008724476
-0.013813645 -0.012136882 -1.374432e-05 -0.0033904554 0.0013273357 -5.8001126e-05 -0.0013527207 4.475237e-05
0.00694118 0.016536789 0.0061582876 1.2170292e-05 0.01277789 0.012492139 0.008936441 -6.93071e-05
-0.007964259 -0.0034580044 1.3090903e-07 -0.0146071315 -0.005292725 0.006702723 0.00026497652 -0.013609269
0.004643421 -0.015568565 -0.009221751 -0.0013278032 -0.017195778 4.465186e-05 0.003964578 2.5823261e-05
-0.007423819 0.004647455 -0.0063446527 -1.4226429e-05 0.008076599 0.00025490485 -0.015057679 0.015526613
3.5594e-05 -0.008338309 -1.3639672e-05 0.009036385 0.015054673 0.017792452 -0.0057795267 0.012539933
-0.013962771 -0.010822936 0.010417828 -0.009695108 0.005032974 -0.013136476 -0.0026802442 6.4658714e-05
0.0118109295 0.0016516246 -0.011984983 0.017203148 2.3524333e-05 1.6064262e-06 -0.0005344573 0.013279261
-0.013696185 7.120365e-05 -0.0043395045 0.013334837 -0.016225196 -0.0020284671 0.0009286783 3.112226e-05
00000000: e708 06b8 6403 343c 9201 ddb7 fe1d 00bb
00000010: 7b62 51bc 3a05 b3bb 0f53 813c 0099 1ab4
00000020: 9ade 5bbb 032d 1dbc b52d 90bc a4a0 ff37
00000030: 30d6 b6b6 ca18 253c 6707 8abc 8cf4 f9ba
00000040: 50a3 ce3b 9cf2 24bb 6506 46bc 0615 dfbb
00000050: 9eea cdbb 6c50 c23b d809 3835 fff9 d53b
00000060: fb11 fc37 c8fb 52bc e80b 81b7 7eb3 a4b6
00000070: be95 093a 5766 9f3b ff70 073b 69d9 16bc
00000080: dece acbb b00d 753c dfe7 663c 61fc 2bbb
00000090: 69f5 3c3b 8820 14bb 3ccb 91bc 7e20 fbbb
000000a0: 01ac 683a e0c4 933b 8166 15bc 8169 1d3c
000000b0: 9b2a 2137 9da7 72bc 3039 2f3c 9626 c53b
000000c0: 29b6 52bc 3ef2 d1b7 b020 dbb7 eff3 01bc
000000d0: 0315 7d3b 7fdd bdbb 9942 873b 1bf1 0ebc
000000e0: a052 62bc c6d9 46bc 6897 66b7 6732 5ebb
000000f0: fff9 ad3a 3c46 73b8 c64d b1ba 7eb4 3b38
00000100: d772 e33b 2978 873c 76cb c93b 022f 4c37
00000110: 5b5a 513c d4ab 4c3c 266a 123c f758 91b8
00000120: 867c 02bc b09f 62bb 0090 0c34 c052 6fbc
00000130: 986e adbb 84a2 db3b 8cec 8a39 69f9 5ebc
00000140: d727 983b 4b13 7fbc d416 17bc af09 aeba
00000150: 29de 8cbc 9248 3b38 4ae9 813b 089f d837
00000160: 8243 f3bb ae49 983b cee6 cfbb 0cae 6eb7
00000170: b653 043c c0a4 8539 7cb4 76bc 5663 7e3c
00000180: c44a 1538 679d 08bc f2d5 64b7 590d 143c
00000190: e0a7 763c 7ac1 913c 2f62 bdbb 4b74 4d3c
000001a0: 1bc4 64bc af52 31bc 8aaf 2a3c 3bd8 1ebc
000001b0: a5eb a43b 603a 57bc 09a7 2fbb 6299 8738
000001c0: a182 413c 537b d83a aa5c 44bc 9eed 8c3c
000001d0: 1f56 c537 629c d735 d21a 0cba 4291 593c
000001e0: f765 60bc 2b53 9538 6732 8ebb 5c7a 5a3c
000001f0: b4ea 84bc 08f0 04bb 8c72 733a 4689 0238

layers.1.bn.weight f4 [7]
1.0071326 1.003653 1.0010443 1.0073245 1.0072227 1.0069376 1.0076098
00000000: b9e9 803f b477 803f 3822 803f 02f0 803f
00000010: acec 803f 55e3 803f 5cf9 803f

layers.1.bn.bias f4 [7]
0.0078066224 -0.0054936237 -0.0073290993 0.0078056077 -0.009759694 0.005984153 -0.008018223
00000000: b2ce ff3b db03 b4bb f128 f0bb 2fc6 ff3b
00000010: 20e7 1fbc b716 c43b dd5e 03bc

layers.1.bn.running_mean f4 [7]
0.003725574 -0.0015866393 -0.00515106 0.03280539 0.01308594 -0.02131696 -0.068543255
00000000: c228 743b c8f6 cfba 39ca a8bb f25e 063d
00000010: 6966 563c e8a0 aebc 6860 8cbd

layers.1.bn.running_var f4 [7]
0.05533337 0.040417835 0.038289033 0.052956287 0.050950117 0.045062963 0.045321368
00000000: 3ea5 623d 2c8d 253d f6d4 1c3d b1e8 583d
00000010: 12b1 503d f193 383d e6a2 393d

layers.1.theta.weight f4 [7, 128]
0.015896533 0.0389292 -0.053322818 0.033258103 -0.050960183 -0.041589156 -0.024264257 0.07231182
-0.05394238 -0.07669844 -0.07053563 0.01611298 0.0031384968 -0.08448708 0.07303172 -0.032922156
0.045664616 0.0134085445 0.043679893 0.024806138 -0.07135944 0.07675764 -0.039812583 0.033781007
-0.080340326 -0.06094265 -0.08226127 0.07852704 0.05505063 0.0642756 0.054063797 -0.002860288
0.08362023 0.074323155 -0.06692937 0.082007766 -0.06162849 0.02375027 -0.07471925 0.001058918
0.015321597 -0.08129625 -0.05340009 -0.0039682547 0.0672176 -0.011639237 -0.00706768 -0.052727412
0.031432357 0.060609818 0.074292034 0.07928563 -0.0022354634 -0.06325811 -0.04305407 -0.07699696
-0.051736694 -0.06441931 0.0389152 -0.015124016 -0.023518618 -0.06578602 0.07034995 -0.047728125
0.050342564 0.03368806 -0.016913317 0.012952213 0.076422796 -0.045901667 -0.010081376 -0.04478114
-0.013436495 0.07399528 0.016017094 -0.07170417 -0.010452625 0.0017228618 -0.011013994 0.05906588
-0.08172633 0.00806343 -0.058366153 -0.022238206 0.07218898 0.008021018 -0.01182463 0.055214837
0.08333488 -0.0047095846 -0.06579819 -0.06161112 -0.031934652 -0.057494897 -0.059080362 -0.060982276
0.078328766 0.012335335 0.02173409 -0.058478426 0.0005981545 -0.027660873 0.027893472 0.048472594
0.013544408 0.0021140687 -0.032025516 -0.055287305 0.07133987 -0.089119695 -0.07166214 0.08623866
0.05722952 0.022265399 -0.03143099 0.020267816 0.0068122605 0.06298587 0.043215007 0.068192355
0.0027276764 0.0683676 -0.05911285 0.050671604 0.043299064 0.025423512 -0.005299483 0.025302166
0.05685326 0.063667364 0.040683713 1.4158715e-05 0.082079284 0.08296002 0.031090848 -0.09086181
0.067546904 0.04322862 -0.018195963 -0.05920877 0.0072703045 0.016365526 -0.0035123045 0.026069622
0.044264823 -0.05882812 -0.0775877 -0.012072961 -0.014332956 -0.018480036 0.035759427 0.040769715
0.042860404 0.07542287 -0.004239973 0.003663287 -0.07425916 -0.0815737 0.052498646 -0.047727715
0.0027065342 -0.024017321 -0.031231638 -0.0063384445 -0.052625503 -0.06791074 -0.01823859 -0.06345256
-0.070762485 0.0428495 -0.01836858 0.04100486 -0.06190877 0.015821312 0.08911745 -0.06454743
0.049249023 0.05337791 -0.012097197 0.03938597 0.06334392 -0.05772664 0.015273762 -0.029140351
-0.07623229 -0.08200312 0.0734724 0.059407275 -0.03008115 -0.05624767 0.07270903 0.07264045
0.015806206 -0.042075828 -0.01138366 0.058227226 0.055299252 -0.050741456 0.08131373 0.004054301
0.05963806 0.07692807 0.047738153 -0.021988472 -0.02730677 -0.038234685 -0.06210689 -0.011517862
0.05898624 -0.07220509 0.018532643 -0.032206524 0.012036671 0.019141011 0.008311174 -0.07381619
0.026560888 0.022226008 -0.0782422 0.0545769 0.050985385 0.009964073 0.04088738 -0.0764149
-0.07325218 -0.06429186 0.030827587 0.05747165 0.005646892 -0.03255061 0.054955367 -0.011829581
-0.0128746135 -0.02163035 0.057818912 -0.0022808816 0.010317063 -0.03206408 -0.05655631 0.02102897
-0.0673556 0.023293285 0.030188434 -0.053472184 -0.044173617 -0.0646846 0.03256441 0.020447927
0.036886994 0.035833918 0.062930085 -0.034049433 -0.06323148 -0.07065882 0.042810302 0.08485754
00000000: 7239 823c 3a74 1f3d 0769 5abd a639 083d
00000010: a0bb 50bd 6459 2abd d6c5 c6bc 3818 943d
00000020: aff2 5cbd 1214 9dbd fc74 90bd 5eff 833c
00000030: 3daf 4d3b 9007 adbd a891 953d 62d9 06bd
00000040: d20a 3b3d 83af 5b3c b0e9 323d 3e36 cb3c
00000050: e624 92bd 1c33 9d3d 8512 23bd f45d 0a3d
00000060: 7889 a4bd 009f 79bd 9978 a8bd c9d2 a03d
00000070: c57c 613d eda2 833d 0072 5d3d ab73 3bbb
00000080: 1541 ab3d bd36 983d 4412 89bd b0f3 a73d
00000090: 286e 7cbd ed8f c23c 6806 99bd 64cb 8a3a
000000a0: 7007 7b3c a67e a6bd 0eba 5abd 2208 82bb
000000b0: 62a9 893d 80b2 3ebc ff97 e7bb b3f8 57bd
000000c0: 37bf 003d 0042 783d 6c26 983d 8160 a23d
000000d0: da80 12bb 788d 81bd 7759 30bd 95b0 9dbd
000000e0: dbe9 53bd 45ee 83bd 8b65 1f3d b9ca 77bc
000000f0: 1eaa c0bc d2ba 86bd a213 903d 917e 43bd
00000100: 0134 4e3d 7efc 093d cc8d 8abc 8535 543c
00000110: 8e83 9c3d 6303 3cbd 5b2c 25bc 6e6c 37bd
00000120: bf24 5cbc d68a 973d 4836 833c a3d9 92bd
00000130: 7d41 2bbc a6d1 e13a 0a74 34bc 10ef 713d
00000140: 2260 a7bd 7a1c 043c 5911 6fbd e62c b6bc
00000150: d1d7 933d 966a 033c 18bc 41bc f428 623d
00000160: 7aab aa3d dc52 9abb 34c1 86bd f15b 7cbd
00000170: e9cd 02bd c57f 6bbd 40fe 71bd 8dc8 79bd
00000180: d56a a03d 251a 4a3c b10b b23c 1387 6fbd
00000190: 78cd 1c3a 0e99 e2bc da80 e43c 338b 463d
000001a0: 5de9 5d3c 308c 0a3b 302d 03bd f174 62bd
000001b0: a31a 923d 6384 b6bd 9ac3 92bd e59d b03d
000001c0: 8069 6a3d ed65 b63c c8bd 00bd b108 a63c
000001d0: 6239 df3b bcfe 803d 3802 313d 6fa8 8b3d
000001e0: d1c2 323b 5004 8c3d 5120 72bd 078d 4f3d
000001f0: 5c5a 313d f844 d03c 49a7 adbb 7d46 cf3c
00000200: f7de 683d 0964 823d f7a3 263d 388b 6d37
00000210: 2f19 a83d f1e6 a93d 3cb2 fe3c c215 babd
00000220: 0856 8a3d 7e10 313d b30f 95bc e584 72bd
00000230: bc3b ee3b ff10 863c b12e 66bb f68f d53c
00000240: 084f 353d c1f5 70bd 4de6 9ebd abcd 45bc
00000250: c6d4 6abc 7263 97bc 7a78 123d 25fe 263d
00000260: 648e 2f3d 4e77 9a3d 79ef 8abb c213 703b
00000270: 3015 98bd 1d10 a7bd d208 573d 237e 43bd
00000280: 1c60 313b f9bf c4bc 7ed9 ffbc bab2 cfbb
00000290: d78d 57bd c914 8bbd 1869 95bc 6af3 81bd
000002a0: eceb 90bd f582 2f3d b479 96bc b6f4 273d
000002b0: 0d94 7dbd b29b 813c 3683 b63d 7131 84bd
000002c0: 58b9 493d cca2 5a3d 5233 46bc 2f53 213d
000002d0: 75ba 813d c572 6cbd cd3e 7a3c bfb7 eebc
000002e0: ad1f 9cbd 40f1 a7bd b378 963d 0b55 733d
000002f0: be6c f6bc f563 66bd 79e8 943d 84c4 943d
00000300: 047c 813c b457 2cbd 8882 3abc ac7f 6e3d
00000310: 7881 623d 46d6 4fbd d087 a63d f1d9 843b
00000320: 0a47 743d 778c 9d3d 1589 433d 2b21 b4bc
00000330: 73b2 dfbc f99b 1cbd cb63 7ebd 6ab5 3cbc
00000340: 8e9b 713d 43e0 93bd c5d1 973c fdea 03bd
00000350: 7535 453c 9ccd 9c3c 972b 083c f12c 97bd
00000360: 3896 d93c 5113 b63c 723d a0bd 078c 5f3d
00000370: 0dd6 503d 5a40 233c 8679 273d 6a7f 9cbd
00000380: 3d05 96bd 73ab 83bd 238a fc3c 6567 6b3d
00000390: 9009 b93b ca53 05bd e118 613d dcd0 41bc
000003a0: 0bf0 52bc 2232 b1bc 86d3 6c3d d87a 15bb
000003b0: e608 293c a055 03bd 97a7 67bd f244 ac3c
000003c0: bcf1 89bd 8fd1 be3c bc4d f73c a605 5bbd
000003d0: 65ef 34bd 5c79 84bd 4262 053d 6982 a73c
000003e0: d116 173d 96c6 123d 7de1 803d 6b77 0bbd
000003f0: 827f 81bd 92b5 90bd db59 2f3d cac9 ad3d

layers.1.theta.bias f4 [7]
0.0013851895 -0.0062231575 0.028343193 -0.017220497 0.036542512 -0.02298294 -0.021751564
00000000: 3f8f b53a a1eb cbbb fc2f e83c 0012 8dbc
00000010: 9aad 153d b846 bcbc 5630 b2bc
