src_new/model/launisage_cociteseer_hid64_0106.pth (torch, 967215 bytes, 4 tensors)

unisage1.theta.weight f4 [64, 3703]
-0.054779246 0.10349206 -0.036815822 0.016307894 -0.007981957 -0.033997867 -0.014940953 -0.03230542
-0.018211728 -0.0596583 0.02302571 0.00024162195 -0.010883286 -0.01825639 -0.027229175 0.009921857
-0.071273 0.021016441 -0.054186374 0.045331422 0.018420978 0.030765433 -0.079238795 -0.00091204385
0.004946484 -0.006317821 -0.05442391 0.06568306 -0.06307495 -0.06852264 -0.007691442 0.026672829
0.0034240875 0.037321657 0.06299573 0.11003759 -0.015399241 -0.06025576 -0.089803495 0.007505386
0.026883373 0.090832815 0.06531541 -0.045516923 0.068952486 -0.0009039922 -0.0046624304 0.015196678
-0.023643307 0.02540463 -0.010505958 -0.045961928 -0.008515743 -0.0026526148 0.047373604 -0.009813347
0.0131110065 0.04636337 -0.035199955 -0.0024572352 -0.028865458 -0.012566937 -0.005840154 -0.017249776
-0.010427569 -0.12777051 -0.0070891688 -0.005806873 -0.0131200235 -0.038404267 -0.021229034 -0.017112201
0.020915577 0.06242557 0.012670844 -0.07145136 0.052837454 -0.024155462 0.01244131 -0.04240357
-0.00043261348 0.07470274 0.03075337 -0.02278186 -0.062519744 -0.01242389 0.00051305257 0.0076572434
-0.019246677 -0.022164809 -0.016990516 -0.024700494 0.006258019 -0.030189311 -0.030228842 0.031547777
0.035017647 0.027937844 0.001023898 -0.024377428 -0.003975592 -0.022727586 0.15883985 0.0076139313
0.016763343 0.015353936 -0.07173067 0.03939818 -0.03326326 -0.0032124382 -0.09096327 0.005283874
-0.049776457 -0.02351491 -0.011236661 -0.005811573 -0.017323185 -0.0491498 -0.016580578 0.037822083
-0.04055716 -0.011163229 0.00760241 -0.015035674 0.053251177 0.03325395 -0.018726146 -0.020852674
0.050884444 0.032336026 -0.050644193 0.08965536 0.013601501 0.07839324 -0.051391095 0.0036764457
-0.032140147 -0.026711551 0.036977183 0.005704895 -0.011102078 -0.014105404 -0.1131317 -0.0130169885
0.0036294106 -0.025229672 0.0025934738 0.010061138 -0.02071459 -0.01257588 0.040956136 -0.0063389065
-0.0040538823 -0.024726463 0.00093642145 -0.015254371 0.029719412 -0.0021427055 -0.029325824 -0.014861405
-0.017009791 0.011522155 0.011180892 0.027600888 -0.0047630835 -0.0046096677 0.116327435 -0.022533944
-0.09520859 0.10162878 0.054108027 0.097625636 -0.016246859 -0.06368871 -0.039905284 0.029881425
0.0012169478 -0.102649525 0.051584795 -0.024844408 -0.0013248414 -0.021794721 -0.035128377 -0.01564231
-0.012178524 -0.023723971 -0.0074024606 -0.024232585 -0.006025411 -0.019620173 0.04173101 -0.02780557
-0.009190198 0.03614092 -0.0277172 0.008093915 -0.057243377 0.007853634 0.012423151 -0.011620615
0.0867835 0.018476423 -0.014273786 0.006478045 -0.027989864 -0.000159761 -0.05698827 -0.01148712
0.08096175 0.059261467 0.017896447 0.12076992 -0.008577337 0.051681686 -0.015377371 -0.042836268
0.02191329 0.0023117627 -0.06779945 -0.020084547 -0.03720985 0.008536342 0.016168639 -0.0025607697
0.01397912 0.06029437 -0.07352976 -0.02556247 0.0034456989 0.032205693 -0.09404517 -0.03774082
-0.062276248 -0.0068538575 -0.0073044975 -0.006339982 -0.12872173 -0.003898066 0.01505707 0.022427166
-0.009566886 -0.010541093 0.064849645 -0.010018908 -0.012841693 0.13336352 0.012674004 -0.12838188
-0.052539717 0.06912723 -0.033816576 0.018613229 -0.069349855 -0.038147017 -0.13132584 -0.0056496873
00000000: 3460 60bd a5f3 d33d 30cc 16bd 2298 853c
00000010: c1c6 02bc 5941 0bbd e6ca 74bc b052 04bd
00000020: c330 95bc 435c 74bd 6aa0 bc3c e65b 7d39
00000030: cf4f 32bc 6d8e 95bc b80f dfbc 498f 223c
00000040: 94f7 91bd ac2a ac3c 88f2 5dbd 71ad 393d
00000050: 97e7 963c ca07 fc3c f347 a2bd 3a16 6fba
00000060: 1e16 a23b b905 cfbb 9beb 5ebd d784 863d
00000070: 702d 81bd 9955 8cbd 7e08 fcbb fa80 da3c
00000080: a866 603b 98de 183d e803 813d 635b e13d
00000090: 194d 7cbc bece 76bd e5ea b7bd beef f53b
000000a0: 853a dc3c 8e06 ba3d 16c4 853d f46f 3abd
000000b0: f636 8d3d e4f9 6cba 4dc7 98bb 7dfb 783c
000000c0: 9caf c1bc 5f1d d03c 2f21 2cbc 9342 3cbd
000000d0: 9d85 0bbc 7ed7 2dbb d30a 423d 29c8 20bc
000000e0: 8ccf 563c 84e7 3d3d d42d 10bd 9109 21bb
000000f0: 4177 ecbc 8ee5 4dbc c35e bfbb 674f 8dbc
00000100: 65d8 2abc 46d6 02be 424c e8bb 9547 bebb
00000110: 5ef5 56bc cb4d 1dbd 83e8 adbc e32e 8cbc
00000120: 2557 ab3c f4b1 7f3d 5f99 4f3c 1755 92bd
00000130: 166c 583d ade1 c5bc a3d6 4b3c 5eaf 2dbd
00000140: 66d0 e2b9 c0fd 983d 7eee fb3c 06a1 babc
00000150: 5a0a 80bd 928d 4bbc 607e 063a 9de9 fa3b
00000160: 35ab 9dbc f992 b5bc b22f 8bbc b158 cabc
00000170: 1110 cd3b 934f f7bc 7aa2 f7bc 3e38 013d
00000180: aa6e 0f3d e8dd e43c 5134 863a 2cb3 c7bc
00000190: af45 82bb 342f babc eaa6 223e 497e f93b
000001a0: 4753 893c 138f 7b3c 88e7 92bd fc5f 213d
000001b0: 0e3f 08bd c587 52bb f34a babd 5924 ad3b
000001c0: 66e2 4bbd 57a2 c0bc f919 38bc 026f bebb
000001d0: 5ae9 8dbc 4d51 49bd fed3 87bc 54eb 1a3d
000001e0: 441f 26bd fae5 36bc a31d f93b 3058 76bc
000001f0: e81d 5a3d 4b35 083d 9367 99bc 3ad3 aabc
00000200: 356c 503d c872 043d 4970 4fbd 3b9d b73d
00000210: d4d8 5e3c a38c a03d 787f 52bd 86f0 703b
00000220: 63a5 03bd 2fd2 dabc 6375 173d 21f0 ba3b
00000230: 7de5 35bc 5a1a 67bc 98b1 e7bd 3545 55bc
00000240: 68db 6d3b 75ae cebc 45f7 293b 79d7 243c
00000250: a5b1 a9bc 100b 4ebc 9fc1 273d 9ab6 cfbb
00000260: 6ed6 84bb 278f cabc 2e7a 753a 78ed 79bc
00000270: 2076 f33c a26c 0cbb b63c f0bc 407d 73bc
00000280: 1e58 8bbc 6cc7 3c3c 0f30 373c 421b e23c
00000290: a413 9cbb b20c 97bb 143d ee3d 1b99 b8bc
000002a0: b9fc c2bd c022 d03d 61a0 5d3d f3ef c73d
000002b0: 2218 85bc 3a6f 82bd b973 23bd e4c9 f43c
000002c0: fe81 9f3a ea39 d2bd 944a 533d 8086 cbbc
000002d0: 4da6 adba d88a b2bc c6e2 0fbd 4d24 80bc
000002e0: 6f88 47bc c658 c2bc 5790 f2bb 6a83 c6bc
000002f0: d070 c5bb 7cba a0bc 23ee 2a3d 82c8 e3bc
00000300: 7c92 16bc 8008 143d 2e0f e3bc 579c 043c
00000310: 0878 6abd 87ac 003c 798a 4b3c 6464 3ebc
00000320: 8cbb b13d de5b 973c 99dc 69bc c845 d43b
00000330: 004b e5bc 8485 27b9 886c 69bd 7934 3cbc
00000340: 46cf a53d 27bc 723d 929b 923c 3856 f73d
00000350: f587 0cbc 2db0 533d 5ef1 7bbc 1575 2fbd
00000360: 8083 b33c f180 173b 70da 8abd 5988 a4bc
00000370: 5b69 18bd 03dc 0b3c 1874 843c 96d2 27bb
00000380: ae08 653c 3bf7 763d c596 96bd 6368 d1bc
00000390: 3cd1 613b 1eea 033d c19a c0bd 1e96 1abd
000003a0: 6115 7fbd 5396 e0bb 915a efbb a0bf cfbb
000003b0: a1cf 03be b276 7fbb eeb1 763c 2db9 b73c
000003c0: 6ebe 1cbc 8cb4 2cbc e4cf 843d 5926 24bc
000003d0: f765 52bc 7290 083e a0a6 4f3c 8a76 03be
000003e0: e333 57bd 9492 8d3d 4083 0abd c57a 983c
000003f0: 4c07 8ebd 0c40 1cbd 487a 06be 0321 b9bb

unisage1.theta.bias f4 [64]
0.027491907 0.03287311 0.037759922 -0.0030722157 0.035095606 -0.0012435669 0.03782459 0.0304094
0.028099304 0.027608685 -0.006088363 -0.004265849 -0.0016298994 0.036896493 0.032494504 0.021814683
0.029168582 -0.0058636805 -0.002309932 0.034647405 -0.004829192 0.03359564 0.030218413 0.02476938
0.024322694 0.027832307 0.03441954 -0.0054223104 0.02110353 0.027485607 0.029485056 0.030837823
0.028984819 0.03632227 0.03139896 -0.00436072 0.029721834 0.029275328 0.02847705 0.020057362
-0.0037065602 0.025703117 0.026136484 0.02243563 -0.0027086476 0.029821565 -0.0003693872 0.03518616
0.029347226 0.037854493 0.03744916 0.030369816 0.036239363 0.035362788 0.027946891 0.022856666
0.021715378 0.012503122 0.02827963 0.035242967 -0.0002268544 0.03627569 0.028239077 -0.005187792
00000000: b536 e13c f4a5 063d 26aa 1a3d 3a57 49bb
00000010: 69c0 0f3d 2eff a2ba f5ed 1a3d 221d f93c
00000020: 8330 e63c 9c2b e23c e480 c7bb 89c8 8bbb
00000030: 59a2 d5ba c720 173d f518 053d b5b4 b23c
00000040: f3f2 ee3c 1e24 c0bb 3a62 17bb 70ea 0d3d
00000050: 333e 9ebb 959b 093d 9b8c f73c 28e9 ca3c
00000060: 6340 c73c 9400 e43c 81fb 0c3d a3ad b1bb
00000070: 4fe1 ac3c 7f29 e13c a58a f13c 9a9f fc3c
00000080: 9271 ed3c a9c6 143d 329c 003d 5fe4 8ebb
00000090: 347b f33c d0d2 ef3c b448 e93c 564f a43c
000000a0: c3e9 72bb 588f d23c 2e1c d63c edca b73c
000000b0: 9183 31bb 5b4c f43c 50aa c1b9 5d1f 103d
000000c0: 9869 f03c 500d 1b3d 4a64 193d 1fca f83c
000000d0: ba6f 143d 92d8 103d e1f0 e43c e73d bb3c
000000e0: 73e4 b13c e5d9 4c3c afaa e73c ee5a 103d
000000f0: c4df 6db9 d195 143d a355 e73c 5afe a9bb

unisage2.theta.weight f4 [6, 704]
0.0033105565 -0.009215999 0.00036365114 -5.1012787e-05 0.030761749 -3.1885868e-06 0.0039169155 0.027735343
0.027713427 0.011751035 -1.9024434e-05 -4.452332e-06 1.07986525e-05 0.009946159 0.0024726104 0.01675352
-0.008354825 -9.535571e-06 1.435615e-05 0.002448362 -5.7166935e-06 0.017930694 -0.018647442 -0.00036109987
-0.0011797849 -0.00433821 -0.003916389 -5.7464233e-05 0.024106316 0.0053417105 0.0128329955 -0.0026276633
0.020538583 0.01979801 0.0018789661 0.000525174 0.020514091 -0.0010155528 0.0057275263 -0.017520051
1.0989578e-05 0.022167483 -0.01801524 -0.018254431 5.217542e-06 -0.008234536 -3.6131428e-07 -0.007073577
0.033104733 0.014676522 -0.021449735 0.027213685 1.024214e-05 0.0028633662 -0.01844533 -0.012383489
-0.01955129 0.0030791024 -0.019889724 -0.005300014 -1.83976e-05 -0.00027099092 -0.0008143638 3.1386233e-05
-0.00041291918 -0.0046468712 -0.028609222 8.265862e-06 -0.011442335 -1.000631e-05 0.008458769 0.022679508
-0.0006932621 0.024439795 -5.5635974e-06 1.1979311e-05 8.362905e-06 -0.022128807 0.0017569755 0.028104074
-0.015143439 -2.0907322e-05 2.4256113e-05 0.012529409 0.0015592992 0.004650696 0.0102245845 -0.0011411043
-0.0048907734 -0.01629105 0.0073760315 -1.8658873e-05 0.031885557 0.02319401 0.020542575 0.0033967355
0.0076940944 -0.009164357 -0.0019400006 3.8623788e-05 0.02067226 0.0060099014 0.002830776 -0.0020220147
-2.4125488e-06 -0.020317342 0.026076835 -0.009586045 2.041303e-05 0.00079412444 -2.1423217e-05 0.009753135
0.020526357 0.0036305443 0.0030305893 0.002787345 -0.0074608168 0.0010182793 -0.0029409272 0.008973208
-0.008660587 0.009980856 -0.007357014 -0.012077683 5.2322166e-06 -0.022024956 0.019641316 -1.3420333e-06
-0.002246691 0.008139896 -0.023064066 -7.893046e-06 0.014117904 -1.1933368e-05 -0.008602628 0.020066338
0.0058718114 -0.011275731 -1.0585106e-05 -1.8624367e-05 -3.241007e-05 0.005386369 -0.007189107 -0.015461142
0.019275188 9.737693e-06 -2.0488967e-05 -0.013739454 7.0344213e-06 0.001668724 -0.0046422896 0.0023168335
-0.011694954 0.0025209943 -0.0060786875 -1.4567374e-05 -0.028881045 0.0006490384 0.002836795 0.005656453
0.021694414 -0.008142406 0.016925288 -1.6675587e-05 0.01824736 0.023304233 0.00651404 -0.021860005
-5.4620505e-06 -0.012962717 0.033503607 0.022477042 1.2078741e-05 0.03626387 -3.021505e-06 -0.014062019
0.015793586 0.013094602 -0.00043816914 -0.01718172 -0.022831311 -0.001243129 0.003114561 -0.008128002
-0.027974395 -0.006604662 0.018371748 -0.011884797 3.0758113e-06 0.000100738456 -0.016819835 7.737923e-06
0.0014379079 -0.02067557 0.010733915 -6.54444e-05 -0.01384547 1.4076344e-05 -0.005823699 0.014822657
0.007167995 -0.026344627 8.949398e-06 -7.845511e-06 3.5821342e-06 0.002647078 -0.011413575 0.024536934
-0.019169906 -3.4817876e-06 -1.3946394e-05 -0.008762065 -4.559904e-05 -0.00896233 -0.009805053 -0.0027200922
6.269083e-05 -0.002018162 -0.008221792 1.1193852e-05 0.0059229075 -0.012161238 0.027011635 0.0024241558
0.019538287 -0.016505385 -0.0027132013 -0.0015554792 -0.011000205 -0.013439925 0.0138473855 -0.02515982
-1.1584121e-05 0.014271503 0.00065107964 0.02150143 -6.2606523e-06 0.018419946 9.181611e-06 -0.018321138
-0.010975082 0.0020389343 -0.030177312 -0.006779598 0.009914378 -0.029187629 -0.003273804 0.00085251214
0.0060738325 -0.0037854866 0.02772456 0.009686439 -4.152298e-06 -0.00881671 0.010436872 -3.2598342e-05
00000000: ecf5 583b b4fe 16bc 6ea8 be39 90f6 55b8
00000010: 1000 fc3c 81fb 55b6 7859 803b 3b35 e33c
00000020: 4507 e33c 6a87 403c a996 9fb7 3e65 95b6
00000030: dc2b 3537 37f5 223c 850b 223b ae3e 893c
00000040: ade2 08bc f7fa 1fb7 32db 7037 b374 203b
00000050: 06d2 bfb6 64e3 923c 85c2 98bc 0152 bdb9
00000060: 03a3 9aba 8b27 8ebb 0d55 80bb c005 71b8
00000070: 9c7a c53c 8409 af3b 7c41 523c e034 2cbb
00000080: 8840 a83c 702f a23c a447 f63a d5ab 093a
00000090: 2b0d a83c 4c1c 85ba f9ad bb3b 3686 8fbc
000000a0: e15f 3837 9598 b53c b294 93bc 518a 95bc
000000b0: 5812 af36 26ea 06bc a8fa c1b4 77c9 e7bb
000000c0: d498 073d cc75 703c 5bb7 afbc 3cef de3c
000000d0: a8d5 2b37 50a7 3b3b a91a 97bc 1ee4 4abc
000000e0: 072a a0bc c4ca 493b c6ef a2bc bdab adbb
000000f0: 8c54 9ab7 c913 8eb9 087b 55ba b6a4 0338
00000100: 137d d8b9 c844 98bb e35d eabc 9bad 0a37
00000110: a278 3bbc c6e0 27b7 a696 0a3c 60ca b93c
00000120: 08bc 35ba f735 c83c f0ae bab6 c0fa 4837
00000130: 674e 0c37 7947 b5bc 514a e63a 843a e63c
00000140: 301c 78bc 2262 afb7 9b79 cb37 2648 4d3c
00000150: 6661 cc3a de64 983b 0485 273c 1b91 95ba
00000160: c842 a0bb cf74 85bc a3b2 f13b a085 9cb7
00000170: 6e9a 023d 5d01 be3c e748 a83c c49b 5e3b
00000180: be1e fc3b 1926 16bc 9e47 feba faff 2138
00000190: df58 a93c b5ee c43b 8a84 393b c783 04bb
000001a0: 46e7 21b6 8e70 a6bc 169f d53c c90e 1dbc
000001b0: a63c ab37 ca2c 503a 02b6 b3b7 9dcb 1f3c
000001c0: e426 a83c 6dee 6d3b da9c 463b e4ab 363b
000001d0: de79 f4bb c977 853a 92bc 40bb 5d04 133c
000001e0: 22e5 0dbc bf86 233c 1b13 f1bb 79e1 45bc
000001f0: 6690 af36 ae6d b4bc d3e6 a03c ea1f b4b5
00000200: 383d 13bb 335d 053c daf0 bcbc 606c 04b7
00000210: c84e 673c 6d35 48b7 09f2 0cbc 2962 a43c
00000220: 5368 c03b d8bd 38bc af96 31b7 863b 9cb7
00000230: 0cf0 07b8 2380 b03b 9a92 ebbb bb50 7dbc
00000240: 00e7 9d3c 135f 2337 b9df abb7 721b 61bc
00000250: 3809 ec36 16b9 da3a 591e 98bb 04d6 173b
00000260: 319c 3fbc 4437 253b ba2f c7bb 6566 74b7
00000270: f197 ecbc 3b24 2a3a 86e9 393b c459 b93b
00000280: 7cb8 b13c ba67 05bc e7a6 8a3c 8de2 8bb7
00000290: 7d7b 953c 85e8 be3c ba73 d53b c113 b3bc
000002a0: a846 b7b6 9361 54bc 143b 093d c621 b83c
000002b0: cca5 4a37 6c89 143d 10c5 4ab6 6264 66bc
000002c0: 8d61 813c be8a 563c 11ba e5b9 aec0 8cbc
000002d0: bb08 bbbc 7df0 a2ba aa1d 4c3b 502b 05bc
000002e0: 8f2a e5bc ec6b d8bb 5980 963c 74b8 42bc
000002f0: 096a 4e36 8c43 d338 c0c9 89bc 20d2 0137
00000300: 2f78 bc3a d05f a9bc 4ddd 2f3c 323f 89b8
00000310: 1cd8 62bc 7029 6c37 bad4 bebb bbda 723c
00000320: 80e1 ea3b b0d0 d7bc 5f25 1637 37a0 03b7
00000330: 9964 7036 997a 2d3b 0100 3bbc ae01 c93c
00000340: 350a 9dbc a8a8 69b6 4efb 69b7 c48e 0fbc
00000350: 9941 3fb8 bdd6 12bc 5fa5 20bc 9343 32bb
00000360: e278 8338 2443 04bb b2b4 06bc 3acd 3b37
00000370: f314 c23b ee3f 47bc 8147 dd3c 96de 1e3b
00000380: c20e a03c 4d36 87bc f7cf 31bb 39e1 cbba
00000390: 343a 34bc 2233 5cbc 25e0 623c f81b cebc
000003a0: 6c59 42b7 06d3 693c 37ad 2a3a c423 b03c
000003b0: 9812 d2b6 6de5 963c b80a 1a37 3616 96bc
000003c0: d5d0 33bc a49f 053b 6936 f7bc 6427 debb
000003d0: ea6f 223c e51a efbc 518d 56bb 1f7b 5f3a
000003e0: 0007 c73b ed15 78bb 9e1e e33c dfb3 1e3c
000003f0: f853 8bb6 f673 10bc 6aff 2a3c 34ba 08b8

unisage2.theta.bias f4 [6]
0.084951475 0.04821155 -0.003029585 0.018028371 0.0043314137 -0.12701243
00000000: 0afb ad3d 7979 453d 008c 46bb 3cb0 933c
00000010: 88ee 8d3b 8c0f 02be
