src_new/model/unigin_cocitationcora_best_model_new.pth (torch, 744971 bytes, 12 tensors)

layers.0.bn.weight f4 [128]
0	0x3f8016e0	1.0006981
1	0x3f800c6e	1.0003793
2	0x3f800e2a	1.0004323
3	0x3f7f87c3	0.9981653
4	0x3f803240	1.0015335
5	0x3f802741	1.0011979
6	0x3f7f1a0c	0.9964912
7	0x3f81233a	1.0088875
8	0x3f801771	1.0007154
9	0x3f7fc6d8	0.99912786
10	0x3f804d4a	1.0023587
11	0x3f7fbfa2	0.99901783
12	0x3f7f278f	0.99669737
13	0x3f802b1c	1.0013156
14	0x3f7f4ddc	0.9972818
15	0x3f804a8d	1.0022751
16	0x3f80d6f6	1.0065601
17	0x3f7fa3ad	0.99859124
18	0x3f7ed16a	0.9953829
19	0x3f802421	1.0011026
20	0x3f802337	1.0010747
21	0x3f7e5769	0.9935213
22	0x3f801aff	1.0008239
23	0x3f7f8a02	0.9981996
24	0x3f7fdf22	0.9994985
25	0x3f7f577a	0.99742854
26	0x3f7f7e16	0.99801767
27	0x3f7fec21	0.9996968
28	0x3f802d33	1.0013794
29	0x3f7fcd4a	0.9992262
30	0x3f7fb29c	0.9988191
31	0x3f800489	1.0001384
32	0x3f8010f1	1.000517
33	0x3f7f2fb5	0.9968217
34	0x3f8023f9	1.0010978
35	0x3f7f9201	0.9983216
36	0x3f7ff1b1	0.99978167
37	0x3f80366d	1.001661
38	0x3f7efe7f	0.9960708
39	0x3f7fe1bf	0.99953836
40	0x3f7f929f	0.998331
41	0x3f7facea	0.9987322
42	0x3f7f8cf7	0.9982447
43	0x3f7f8d3d	0.9982489
44	0x3f802ffd	1.0014645
45	0x3f7f7ea3	0.9980261
46	0x3f80992f	1.0046748
47	0x3f8017c1	1.0007249
48	0x3f804145	1.0019919
49	0x3f7f74b2	0.9978744
50	0x3f805a1c	1.0027499
51	0x3f7fcf80	0.99925995
52	0x3f801254	1.0005593
53	0x3f7fbaf9	0.9989467
54	0x3f8046ee	1.0021646
55	0x3f7fc63e	0.9991187
56	0x3f7f8b6c	0.99822116
57	0x3f7eb9fe	0.9950255
58	0x3f800334	1.0000978
59	0x3f7f7354	0.9978535
60	0x3f80aa37	1.0051945
61	0x3f7f6e31	0.99777514
62	0x3f8013dd	1.0006062
63	0x3f7f7d46	0.9980053
64	0x3f80eeed	1.0072914
65	0x3f7f1dab	0.99654645
66	0x3f7fc710	0.9991312
67	0x3f802998	1.0012693
68	0x3f8021bd	1.0010296
69	0x3f802abf	1.0013045
70	0x3f80191e	1.0007665
71	0x3f80094f	1.0002841
72	0x3f80b1aa	1.0054219
73	0x3f7efe4d	0.9960678
74	0x3f80f7eb	1.0075659
75	0x3f7fff40	0.99998856
76	0x3f80a125	1.0049177
77	0x3f800e66	1.0004394
78	0x3f7f1eb5	0.9965623
79	0x3f7f8149	0.9980665
80	0x3f7f81fe	0.9980773
81	0x3f8027b7	1.001212
82	0x3f807671	1.0036145
83	0x3f807c41	1.0037919
84	0x3f800587	1.0001687
85	0x3f802386	1.0010841
86	0x3f7f2f48	0.9968152
87	0x3f80251b	1.0011324
88	0x3f7fcbbb	0.99920243
89	0x3f7f79cd	0.9979523
90	0x3f7ed6f8	0.99546766
91	0x3f808fe2	1.004391
92	0x3f8057f2	1.0026839
93	0x3f801344	1.0005879
94	0x3f7fc157	0.9990439
95	0x3f805979	1.0027305
96	0x3f7f32e0	0.99687004
97	0x3f815069	1.0102664
98	0x3f80e417	1.0069607
99	0x3f805577	1.0026082
100	0x3f7f5735	0.9974244
101	0x3f7f5878	0.9974437
102	0x3f80898d	1.0041977
103	0x3f80954e	1.0045564
104	0x3f7f5edf	0.99754137
105	0x3f7f46d9	0.9971748
106	0x3f80c6d7	1.0060681
107	0x3f80ce2e	1.0062921
108	0x3f80123d	1.0005566
109	0x3f814982	1.0100558
110	0x3f80871f	1.0041236
111	0x3f802309	1.0010692
112	0x3f7fd71a	0.99937594
113	0x3f7f8c18	0.9982314
114	0x3f80af5e	1.0053518
115	0x3f804a5d	1.0022694
116	0x3f7fb90b	0.9989173
117	0x3f7fddc4	0.9994776
118	0x3f7f633a	0.9976078
119	0x3f8026ee	1.001188
120	0x3f7f4854	0.9971974
121	0x3f804118	1.0019865
122	0x3f80a878	1.0051413
123	0x3f7ee8cd	0.99573976
124	0x3f7fcd75	0.9992288
125	0x3f7f35b7	0.9969134
126	0x3f7ee16a	0.99562705
127	0x3f7fd34a	0.99931777

layers.0.bn.bias f4 [128]
0	0x3a46b887	0.00075805973
1	0x3ad4edef	0.0016245226
2	0x3a50790f	0.00079526094
3	0xba86f5ae	-0.0010296607
4	0xba800075	-0.0009765761
5	0x36758238	3.6583642e-06
6	0xbb72c001	-0.0037040713
7	0x3aecc21a	0.0018063218
8	0x3a89c605	0.0010511285
9	0x3a3149d5	0.0006763016
10	0xb9f6141b	-0.00046935756
11	0x39827a66	0.00024886726
12	0xbb712760	-0.003679715
13	0x3a9054f3	0.0011011645
14	0xbace937b	-0.0015760505
15	0x3b1fdc8c	0.002439293
16	0x3b51f103	0.0032034523
17	0x39ceadf5	0.0003942099
18	0xbada89c2	-0.0016673135
19	0x3ab2efe9	0.0013651821
20	0x3a8d359c	0.0010773423
21	0xbade39b3	-0.0016954452
22	0x3a9386d4	0.0011255392
23	0xba90f4be	-0.0011059267
24	0x394e6903	0.00019684811
25	0xbafc0888	-0.0019228617
26	0xba047d3a	-0.00050540606
27	0xb9540a6e	-0.00020221781
28	0x39aca27e	0.00032927463
29	0x38957f30	7.128564e-05
30	0xba5ec844	-0.000849847
31	0xb9933e97	-0.00028084658
32	0x3a2bda51	0.0006555664
33	0xbb5ec68d	-0.0033992857
34	0xbaf63365	-0.0018783627
35	0xb9b205ea	-0.00033955212
36	0xba32b1f8	-0.00068166805
37	0x3a9580ee	0.0011406222
38	0xbb7c89d4	-0.00385343
39	0xbae15eed	-0.0017194428
40	0xbad390a7	-0.0016141132
41	0xb9cfd70a	-0.00039642333
42	0xbb773231	-0.0037719125
43	0xbb14232e	-0.0022603977
44	0xba3d932e	-0.00072317093
45	0xbb0ee27c	-0.0021802476
46	0xba8b60d5	-0.0010633717
47	0xb9154a94	-0.0001423753
48	0x3a4a25b0	0.00077113044
49	0xbb25d6a6	-0.0025304942
50	0x39a1be17	0.0003084994
51	0xbb205c6c	-0.002446915
52	0xba92cf0a	-0.0011200618
53	0xbafafbe9	-0.0019148561
54	0xb9b8a76e	-0.0003521996
55	0x39fa2dc8	0.00047717826
56	0xbb5741e1	-0.0032845663
57	0xbb23d2bb	-0.0024997431
58	0x394536b7	0.00018807767
59	0xb9125172	-0.00013953986
60	0x3b6994be	0.0035641636
61	0xba99df9b	-0.0011739613
62	0xb9923459	-0.00027886292
63	0xbb6daad0	-0.0036265142
64	0xba214b5e	-0.0006152893
65	0x394e6270	0.00019682362
66	0xba94543c	-0.0011316608
67	0x3aa83b6e	0.0012835094
68	0x3a5c7e54	0.00084111583
69	0x3aa4b9f3	0.0012567624
70	0x3aa712c6	0.0012746684
71	0x39cb9738	0.00038831844
72	0x3ac7ccc9	0.0015243526
73	0xbb62b98c	-0.0034595458
74	0x3bc238fa	0.0059272023
75	0xb9a5fce6	-0.00031659676
76	0xb9087b0a	-0.00013015806
77	0x394772f5	0.00019020944
78	0xb92496fd	-0.00015696506
79	0xba7910fd	-0.00095011276
80	0xbb028765	-0.0019917127
81	0x3989edfd	0.0002630799
82	0x3ac4ed7b	0.0015024388
83	0x3b069d29	0.0020540452
84	0x395ff5fe	0.00021358576
85	0xb9ebf597	-0.00045005672
86	0xbb48173d	-0.003053143
87	0x3a94b35c	0.0011344957
88	0xba616108	-0.00085975276
89	0xbaecc4b3	-0.0018063992
90	0xba66e6c3	-0.000880819
91	0x3a4ec828	0.0007888102
92	0x39f39e94	0.00046466722
93	0x39aaab46	0.00032552535
94	0x39db6556	0.00041846436
95	0x3b0a0c49	0.0021064451
96	0xbb0c433b	-0.0021402377
97	0x3b1c7a0b	0.0023876454
98	0x3aab695a	0.0013077662
99	0x3abd582b	0.0014445832
100	0xbaf7c132	-0.0018902181
101	0xbb24ad88	-0.0025127847
102	0x3a81d717	0.0009906021
103	0x3a4fdd16	0.0007929368
104	0xbb07c432	-0.0020716307
105	0xbb373a88	-0.0027958471
106	0x3a69ae6f	0.0008914237
107	0x3ab4ff47	0.0013808989
108	0x3a46ecd2	0.00075883896
109	0x3ac90579	0.0015336714
110	0xba9a9f57	-0.0011796755
111	0x3a7a745b	0.00095540815
112	0xbab7eb79	-0.0014031968
113	0xbac5dd84	-0.0015095924
114	0x3ad23359	0.0016037031
115	0x3995dded	0.00028584842
116	0xbaf247e1	-0.0018484556
117	0x3989a8de	0.00026256492
118	0xbb2abf92	-0.0026054126
119	0x39ae2fee	0.00033223577
120	0xbb0269dd	-0.0019899525
121	0x3afb9cd9	0.0019196525
122	0x3a90f4f9	0.0011059336
123	0xbb4c0a3d	-0.0031134032
124	0xbae1a125	-0.0017214163
125	0xbb26f023	-0.0025472722
126	0xbabe0f17	-0.0014500347
127	0xb9f368ab	-0.00046426555

layers.0.bn.running_mean f4 [128]
0	0x38bf777f	9.1298476e-05
1	0xbb54e29d	-0.0032483705
2	0x3a28a6ba	0.00064335356
3	0xb81f1bfc	-3.7934617e-05
4	0x3a047cb1	0.0005053981
5	0x3a9b1cbc	0.0011834125
6	0x3bf1efb0	0.0073833093
7	0xba45ce95	-0.0007545737
8	0xbb1ccab5	-0.0023924534
9	0x3a09131d	0.00052289834
10	0xba735788	-0.00092827575
11	0xbbac8a0c	-0.00526548
12	0x3b022c5c	0.0019862866
13	0x38f1ba94	0.000115265284
14	0xb8495257	-4.799882e-05
15	0xbac9f683	-0.0015408549
16	0xbbdc0311	-0.0067142327
17	0xba530350	-0.0008049505
18	0x3abb2112	0.0014276823
19	0xb8a5890f	-7.893342e-05
20	0x392fe3bc	0.00016774138
21	0x3b08387e	0.0020785625
22	0x3c0abda8	0.008468069
23	0xb680fa1d	-3.8438143e-06
24	0x3a9c61b0	0.0011930969
25	0xbab94b0c	-0.0014136746
26	0xbb35f0f3	-0.0027762025
27	0xba4ed6af	-0.0007890267
28	0xbbedb3a4	-0.007254081
29	0x3998748c	0.00029078533
30	0xbc26db6e	-0.010184152
31	0x3a14789f	0.0005663726
32	0xbbe478e0	-0.0069724172
33	0x3ae7ba21	0.0017679372
34	0x3826a94d	3.9735158e-05
35	0xba0ee8fa	-0.00054515863
36	0x3b0e8a5d	0.0021749951
37	0x3bc2866c	0.0059364345
38	0x3b9f9005	0.0048694634
39	0xbbf74a1d	-0.007546677
40	0xba5d3639	-0.0008438561
41	0x39f21dcd	0.0004618004
42	0x3ae86f52	0.0017733371
43	0xbb34e5dd	-0.002760283
44	0x3b4f37ed	0.0031619028
45	0x3b19470a	0.002338829
46	0x3a87a5d4	0.0010349103
47	0x3b11e221	0.0022260027
48	0xbb9e3420	-0.004827991
49	0x3ad021e6	0.0015879243
50	0x34a83c40	3.1336276e-07
51	0x398f2eb8	0.00027309894
52	0xbb3f0cd3	-0.002915193
53	0x3910c957	0.00013807915
54	0x3c162a0b	0.009165297
55	0x37603857	1.3364558e-05
56	0x3aac4a3e	0.0013144684
57	0x38d874fc	0.00010321473
58	0x3bbb3400	0.005712986
59	0xbacdb2d6	-0.0015693556
60	0xbb9bd96b	-0.004756143
61	0x3b01fb83	0.001983375
62	0x3c0542f5	0.00813364
63	0x3a56dddf	0.00081965135
64	0x3bcad22f	0.0061896066
65	0x3c0d3976	0.008619657
66	0x3ab5d5ac	0.0013872883
67	0xbb52c5ef	-0.0032161435
68	0x3bb97a3c	0.0056603234
69	0x3b78d141	0.0037966522
70	0x3c2a7dbb	0.010405953
71	0xbad8da2b	-0.0016544511
72	0xba6e1f54	-0.0009083648
73	0x3c218d66	0.009860372
74	0xbb4034e9	-0.0029328412
75	0x3a6844e8	0.00088603655
76	0x3bd25155	0.006418387
77	0xbc03496a	-0.008013109
78	0x39676501	0.00022067504
79	0xba7876a4	-0.0009478128
80	0xbbb6ba78	-0.005576428
81	0x3a7fd3c2	0.00097590324
82	0x3b7a3530	0.0038178675
83	0xbbebca43	-0.0071957423
84	0xbaaeaf01	-0.0013327302
85	0x3abed7f4	0.0014560209
86	0x3a692320	0.00088934787
87	0xbbdb5a2c	-0.006694099
88	0xba6fa024	-0.0009140989
89	0x3a92f679	0.0011212371
90	0xb9fb1b80	-0.0004789494
91	0x3a8f95f5	0.0010954725
92	0x3bb56289	0.005535428
93	0xbbfc9606	-0.007708314
94	0xbbaa0e80	-0.005189717
95	0xbbe192df	-0.0068839635
96	0xbb156a22	-0.0022798856
97	0xba44a181	-0.00075008726
98	0xbb41ed08	-0.0029590745
99	0x3bc95cdb	0.0061451024
100	0x39f5348e	0.00046769198
101	0xbb8edc65	-0.004359769
102	0x3c2ad17c	0.0104259215
103	0xbc346aac	-0.011011761
104	0x3a37e7d7	0.0007015443
105	0xbb852bba	-0.0040640505
106	0xba8d21fd	-0.0010767576
107	0x3b20213a	0.0024433867
108	0xbc47cbe0	-0.012194604
109	0x3b823a7f	0.0039742584
110	0xbaffa6ac	-0.0019504628
111	0x3a2a5be1	0.00064986764
112	0xbc0750e6	-0.008259034
113	0xbb205fe1	-0.002447121
114	0xbbd38f1f	-0.0064562703
115	0xba8130fe	-0.000985652
116	0xbbc6f6cc	-0.006071901
117	0xbbb68049	-0.005569492
118	0x3a4d4599	0.00078305
119	0x3a739448	0.000929181
120	0xbac280aa	-0.001483937
121	0xbb2ede2b	-0.0026682715
122	0x39be7d92	0.0003633318
123	0x3a76e0af	0.0009417636
124	0x3ad98af0	0.0016597193
125	0x3aead4ca	0.0017916199
126	0xb8c52508	-9.4005896e-05
127	0xb94b9c39	-0.00019417786

layers.0.bn.running_var f4 [128]
0	0x37818311	1.543903e-05
1	0x37764c3b	1.4680491e-05
2	0x378a60c6	1.6495946e-05
3	0x3775f509	1.466019e-05
4	0x379a037b	1.8359851e-05
5	0x37ab2070	2.0399893e-05
6	0x3793966f	1.7593817e-05
7	0x3793a726	1.76016e-05
8	0x37739b7c	1.452013e-05
9	0x377f6def	1.522478e-05
10	0x3787f164	1.620566e-05
11	0x3784bd0c	1.5823658e-05
12	0x3772cde1	1.4472259e-05
13	0x37865f7d	1.601851e-05
14	0x378a9a8f	1.6522854e-05
15	0x37815da1	1.5421598e-05
16	0x37880627	1.6215328e-05
17	0x3778796c	1.4810223e-05
18	0x378380e8	1.5676444e-05
19	0x378ca32d	1.6765285e-05
20	0x3783fce6	1.5734182e-05
21	0x3793656f	1.7571e-05
22	0x3787c06b	1.6182856e-05
23	0x377c036d	1.5021168e-05
24	0x379fb982	1.904066e-05
25	0x377422b7	1.4551616e-05
26	0x377f70ae	1.522542e-05
27	0x3793e964	1.7632447e-05
28	0x3790babf	1.7253098e-05
29	0x378b57e4	1.6611019e-05
30	0x378088e1	1.5322528e-05
31	0x3785e51d	1.5961525e-05
32	0x37a0a911	1.9152214e-05
33	0x378f8773	1.7110002e-05
34	0x37a13a55	1.9219859e-05
35	0x37800d1d	1.5264895e-05
36	0x37875bbb	1.613597e-05
37	0x376d1e4c	1.4133355e-05
38	0x3794039c	1.7644656e-05
39	0x378ddda5	1.6911721e-05
40	0x377f0d51	1.5202285e-05
41	0x3784a5eb	1.5812888e-05
42	0x378d1991	1.6820415e-05
43	0x378c7542	1.6743903e-05
44	0x37881980	1.6224338e-05
45	0x37866f75	1.6025946e-05
46	0x379e7b2b	1.8892422e-05
47	0x37882149	1.6227963e-05
48	0x37907d41	1.7224464e-05
49	0x3797b8e4	1.80867e-05
50	0x37add603	2.0722864e-05
51	0x3793b179	1.7606408e-05
52	0x377d2033	1.5087472e-05
53	0x379256d6	1.7444992e-05
54	0x378cf4cc	1.6803293e-05
55	0x37848f0c	1.5802238e-05
56	0x378eafda	1.7009606e-05
57	0x37813a3b	1.5405114e-05
58	0x37863dc8	1.6002814e-05
59	0x378fa74a	1.7124828e-05
60	0x37b21926	2.1230964e-05
61	0x3786906c	1.6041296e-05
62	0x3785fbfd	1.5972177e-05
63	0x378ec931	1.7021406e-05
64	0x378ca980	1.676823e-05
65	0x378576b8	1.5910118e-05
66	0x3780ee94	1.5369886e-05
67	0x3781e9d1	1.5486878e-05
68	0x379144c5	1.731737e-05
69	0x37a1361e	1.9217896e-05
70	0x3780a89d	1.5337306e-05
71	0x378bc0c4	1.6659855e-05
72	0x378d45d8	1.6841033e-05
73	0x37920f14	1.7411578e-05
74	0x37845210	1.577384e-05
75	0x379bf249	1.8590263e-05
76	0x378df0b0	1.6920589e-05
77	0x37906a99	1.7215776e-05
78	0x3786705c	1.6026366e-05
79	0x3791d40b	1.7384087e-05
80	0x3789aaca	1.6411203e-05
81	0x379cfa78	1.8713283e-05
82	0x376c20c0	1.4074321e-05
83	0x37a3a771	1.9509085e-05
84	0x378bfcd9	1.6687833e-05
85	0x379ea1b1	1.8910361e-05
86	0x3797ac8e	1.8080955e-05
87	0x37853ba2	1.5882604e-05
88	0x37744deb	1.4561675e-05
89	0x3782a168	1.5572368e-05
90	0x377e8527	1.5170582e-05
91	0x37962058	1.7896455e-05
92	0x379321bb	1.7539473e-05
93	0x379eb1d9	1.8917885e-05
94	0x377ebd25	1.5183618e-05
95	0x379de7ba	1.8823765e-05
96	0x378f5f36	1.7091264e-05
97	0x377d7618	1.5107471e-05
98	0x378ac443	1.6542273e-05
99	0x377ef204	1.5195928e-05
100	0x3787ff30	1.6212085e-05
101	0x376694d2	1.3743718e-05
102	0x37876e77	1.6144693e-05
103	0x379e082d	1.8838875e-05
104	0x3784c81d	1.5828811e-05
105	0x379f622f	1.8999997e-05
106	0x3790b4f4	1.72504e-05
107	0x3791c441	1.7376735e-05
108	0x378e652f	1.6974836e-05
109	0x378cd267	1.6787277e-05
110	0x378fb7c2	1.7132497e-05
111	0x378b191d	1.6581786e-05
112	0x378580b8	1.5914775e-05
113	0x3782baac	1.5584134e-05
114	0x378298f2	1.5568428e-05
115	0x37953f4a	1.7791655e-05
116	0x3794495f	1.7677141e-05
117	0x378e2b6f	1.6947944e-05
118	0x378e79d2	1.6984446e-05
119	0x37913053	1.730785e-05
120	0x378a5b5c	1.6493424e-05
121	0x37960469	1.7883447e-05
122	0x378f4356	1.7078284e-05
123	0x378666ce	1.6021917e-05
124	0x379c3ae4	1.8624072e-05
125	0x378f627b	1.7092787e-05
126	0x37740990	1.454576e-05
127	0x378a554d	1.6490603e-05

layers.0.theta.weight f4 [128, 1433]
0	0xbbf1bf54	-0.0073775444
1	0x3c501a9f	0.012701659
2	0xbcb4a78a	-0.022052545
3	0xbc45c8cc	-0.0120717995
4	0x3c94511d	0.018105084
5	0xbca4f34b	-0.020135542
6	0xbc943257	-0.01809041
7	0xbc967e49	-0.018370764
8	0xbc57c10d	-0.0131685855
9	0xbc078f30	-0.008273885
10	0x3bb9f066	0.0056744097
11	0xbc3e7992	-0.011625664
12	0x3c3772b0	0.011196777
13	0x3cb2579c	0.021770291
14	0xbacef9bd	-0.001579098
15	0xbce8c3a4	-0.028413601
16	0x3c441b3f	0.011969387
17	0x3c1af895	0.009458681
18	0xbba70671	-0.0050972034
19	0xbc82d13d	-0.015968913
20	0xbc8286db	-0.015933445
21	0xbaa78996	-0.0012782093
22	0xbc0d1c0b	-0.008612643
23	0xbc61f1c6	-0.013790553
24	0x3c4dd3e4	0.012562726
25	0xbb0e03b5	-0.002166969
26	0xbc3289d0	-0.010897115
27	0x3cb805d1	0.022463711
28	0x3c9d89ae	0.01923069
29	0x3c876952	0.016529713
30	0x3c2e7bd8	0.010649644
31	0x3cafa1bc	0.021439426
32	0x3c4979ed	0.012297136
33	0x3c5fa8e7	0.013651109
34	0xbce77b13	-0.028256929
35	0x3b3850e0	0.0028124377
36	0xbcaf5f1c	-0.021407656
37	0x3c99cb05	0.018773565
38	0x3bfd1854	0.0077238474
39	0xbcb2a3e3	-0.021806663
40	0xbb0d183f	-0.0021529344
41	0x3b923762	0.0044621686
42	0xbb4f31fe	-0.003161549
43	0x3b101e72	0.0021990803
44	0xbca72c47	-0.020406855
45	0xbc3c3adc	-0.011488643
46	0xbc5df162	-0.01354632
47	0xbc861080	-0.01636529
48	0xbc62e4d5	-0.013848503
49	0x3c3a7daa	0.0113825
50	0x3ce71d30	0.02821216
51	0x3c3e08d8	0.011598788
52	0x3c3f219b	0.011665727
53	0x3bddef59	0.006772917
54	0x3ca0584c	0.019573353
55	0x3c841047	0.016121043
56	0xba7f3500	-0.00097353756
57	0xbc8148eb	-0.01578184
58	0xbcb47f49	-0.02203335
59	0x3bdd8a44	0.0067608673
60	0x3cc38177	0.023865445
61	0xbb278ab9	-0.0025564863
62	0x3c77b20d	0.015118134
63	0x3b978e33	0.0046251058
64	0x3bbabe01	0.0056989198
65	0x3c5e43c6	0.013565963
66	0xbcddebc3	-0.027089959
67	0xbcc82e46	-0.024436127
68	0xbce16f1e	-0.027518805
69	0x3b4c3f86	0.0031165793
70	0xbcce1356	-0.025155704
71	0xbc42c404	-0.011887554
72	0x3c19cc33	0.009387064
73	0xbbc5bac7	-0.0060342285
74	0x3c143220	0.009045154
75	0x3c9420d4	0.01808206
76	0xbc33266e	-0.010934455
77	0x3c73948f	0.014866962
78	0x3ca67f84	0.020324476
79	0xb8d7fff1	-0.00010299672
80	0xbb9682d2	-0.0045932317
81	0xbc4c0eeb	-0.012454729
82	0xbc64035d	-0.0139168175
83	0xbc293c23	-0.010329279
84	0xb99bd19c	-0.00029720075
85	0x3c4b11d2	0.012394385
86	0x3c87a17e	0.016556498
87	0xbb3e72e3	-0.0029060177
88	0xbaf53e7c	-0.0018710638
89	0x3a225921	0.0006193091
90	0x3c8333a0	0.016015828
91	0x3c0a838f	0.008454218
92	0x3c8111d3	0.01575557
93	0xbc992b8d	-0.018697524
94	0x3bdf3dac	0.006812772
95	0x3c313312	0.010815399
96	0xbc18a990	-0.009317771
97	0xbb28ea88	-0.0025774557
98	0xbcc8d175	-0.02451394
99	0x3bb5bb6f	0.0055460255
100	0xbbdf5b56	-0.006816308
101	0xbc9ff9a9	-0.019528227
102	0xbca9f8a2	-0.02074844
103	0xbc4f8ebb	-0.012668307
104	0xbb7bb95d	-0.0038410046
105	0x3c549229	0.0129743
106	0xbca8316d	-0.02053138
107	0x3c371e21	0.011176617
108	0x3cb1d4fb	0.021708002
109	0xbc1db7c0	-0.009626329
110	0xbbbad507	-0.0057016644
111	0xbc14da2d	-0.00908522
112	0xbc9cc59c	-0.019137196
113	0xbc5c251f	-0.013436585
114	0xbc0f00ab	-0.008728187
115	0xbc7be7e8	-0.015375115
116	0x3b5cadc1	0.0033672901
117	0xbb99341a	-0.0046754004
118	0x3b199932	0.0023437259
119	0x3c4176a8	0.011808075
120	0x3c96f49e	0.01842719
121	0xbc1dafbc	-0.009624418
122	0x3bf2c889	0.0074091596
123	0x3c983eb2	0.018584583
124	0xbc1f8190	-0.00973548
125	0xbadfe6b8	-0.0017082309
126	0x3c672cf7	0.014109842
127	0xbc988044	-0.01861585
128	0x3c150a31	0.009096668
129	0xbb50b415	-0.0031845619
130	0x3c8c29aa	0.01710971
131	0xbb759a36	-0.003747595
132	0x3b8e5f6e	0.004344872
133	0x3c8675a5	0.01641352
134	0xbcc4ef96	-0.024040025
135	0x3c9548db	0.018223217
136	0x3c99bf91	0.018768104
137	0x3c810df3	0.015753722
138	0x3c7fb8cc	0.015608024
139	0xbb321ed9	-0.0027179031
140	0xbc00fa05	-0.007872109
141	0x3ccf9762	0.02534074
142	0x3cd42755	0.025897661
143	0x3c983a17	0.018582387
144	0xbc1d1c0b	-0.0095892055
145	0x3c89e1b3	0.016831255
146	0x3b8b2ffe	0.0042476645
147	0xbc95f0dd	-0.01830333
148	0xbcd9d9fd	-0.026593203
149	0x3b3c6b9d	0.0028750666
150	0xbb8c70c8	-0.0042859055
151	0x3be8fb48	0.007110033
152	0xbcc425b6	-0.023943763
153	0xbc9edbab	-0.019391855
154	0xbbe20b78	-0.00689834
155	0x3c6b9e1e	0.01438096
156	0x3c5dc645	0.013536041
157	0x3c185fdc	0.009300198
158	0xbbe91982	-0.0071136365
159	0xbcc375d1	-0.02385989
160	0xbb002f43	-0.001955942
161	0x3c3a992e	0.01138906
162	0x3c1d2770	0.009591922
163	0xbad21ad3	-0.0016029723
164	0x3cbc917f	0.023018597
165	0x3ca29951	0.019848498
166	0xbb8682ff	-0.0041049714
167	0x3ca91f5d	0.020644838
168	0xbb2d811c	-0.002647466
169	0xbc358607	-0.011079318
170	0x3c253aad	0.01008479
171	0x3c8173d3	0.0158023
172	0xbc1779a4	-0.00924531
173	0x3cbf3e31	0.023345085
174	0x3c084a35	0.008318474
175	0xbc5eca9b	-0.01359811
176	0x3bf3df5d	0.0074423985
177	0x3a4d6958	0.0007835827
178	0x3c100e86	0.008792525
179	0xbc715c76	-0.014731517
180	0x3c84b9df	0.016201911
181	0x3c2f4242	0.010696949
182	0xbadf9909	-0.0017059158
183	0x3c28bcac	0.010298889
184	0xbbbc0f24	-0.0057391096
185	0x3cc1b38a	0.023645181
186	0xbb23483c	-0.0024914881
187	0x3b4312ae	0.0029765773
188	0x3ce45247	0.027871264
189	0xbc8a8a90	-0.016911775
190	0x3c815057	0.01578538
191	0xbc8cb777	-0.017177327
192	0x3a98ba76	0.0011652249
193	0xbbc52668	-0.0060165413
194	0x3bb30b9b	0.00546403
195	0xbcc11f49	-0.023574488
196	0xbb02844b	-0.0019915279
197	0xbcb03094	-0.021507539
198	0xbcbdf5fe	-0.023188587
199	0x3c6364cc	0.013879012
200	0xbc6db70a	-0.014508972
201	0xbccb2cc5	-0.024801621
202	0xbcb7e6f4	-0.022448994
203	0x3c0a51c7	0.008442349
204	0xbcac366a	-0.02102204
205	0xbc815a17	-0.015790028
206	0x3bce960c	0.006304508
207	0xbc072452	-0.0082484055
208	0xbc031964	-0.008001659
209	0xbc92154e	-0.017832424
210	0x3c11c304	0.008896593
211	0x3cd5c402	0.02609444
212	0xbcb66827	-0.02226646
213	0x3c156996	0.009119412
214	0xbc64007c	-0.013916131
215	0x3c25d679	0.010121935
216	0x3c77d841	0.015127243
217	0xbcc5a270	-0.024125308
218	0xbc3999b0	-0.011328146
219	0xbbfb1fa5	-0.0076636844
220	0x3b3938cd	0.0028262616
221	0xbb7a2369	-0.0038168079
222	0x3b8b7b80	0.0042566657
223	0xbb025892	-0.0019889218
224	0x3c47ecd9	0.012202465
225	0xbc8c1789	-0.017101066
226	0xbc3cbed1	-0.011520104
227	0xbc11bd56	-0.008895239
228	0x3cc216c2	0.023692492
229	0xbc88540e	-0.016641643
230	0xbc8475cc	-0.016169451
231	0xbc742a6f	-0.014902695
232	0xbc628cdb	-0.013827528
233	0x3c81664c	0.01579585
234	0xbbe5ad35	-0.0070091733
235	0x3c1bdd55	0.009513219
236	0xbbb6f30c	-0.0055831727
237	0xbcaa32a5	-0.020776102
238	0xbc6b1fd9	-0.014350855
239	0xbc57158e	-0.013127698
240	0x3b4919b2	0.0030685482
241	0xbce203b0	-0.027589649
242	0x3cb99134	0.022652246
243	0xbcaa6587	-0.020800365
244	0x3cc4988a	0.023998518
245	0x3cfc80b5	0.030823091
246	0x3c55dacf	0.013052656
247	0xbc28f6bd	-0.010312733
248	0xbc74383a	-0.014905984
249	0x3bb2af60	0.0054530352
250	0x3b227933	0.0024791479
251	0x3c800df4	0.015631653
252	0xbb8e878c	-0.0043496545
253	0xbc076fe4	-0.008266423
254	0xbc31610d	-0.010826361
255	0xbc520f33	-0.012821007

layers.0.theta.bias f4 [128]
0	0xb7f5d20d	-2.9304088e-05
1	0xbabaca20	-0.0014250912
2	0x3afa9d8e	0.0019120441
3	0xbacf0d29	-0.0015796769
4	0xb7494517	-1.199662e-05
5	0xb83688d2	-4.3519605e-05
6	0x3ba3409f	0.0049820687
7	0xbabb916e	-0.0014310309
8	0xbb2d352f	-0.0026429405
9	0xba47a5e8	-0.00076159695
10	0xb89f2816	-7.5891774e-05
11	0xbb72e7be	-0.0037064399
12	0xb7fa2d9e	-2.9823565e-05
13	0xb889382b	-6.543131e-05
14	0xba69d2da	-0.0008919664
15	0x38a3974a	7.8006255e-05
16	0xbbc58233	-0.006027484
17	0xb9b9808a	-0.0003538172
18	0x39a32ed0	0.0003112466
19	0xba366bbc	-0.00069588027
20	0xb98a6afe	-0.00026401127
21	0x39d99755	0.00041502216
22	0x3c1c9497	0.009556911
23	0x38dbef9f	0.00010487367
24	0x39005145	0.00012237307
25	0xbb263bdf	-0.0025365276
26	0xbab33170	-0.001367135
27	0xba4886f6	-0.0007649505
28	0xbbf21ef4	-0.007388944
29	0xb911bf8b	-0.00013899633
30	0xbc133171	-0.008983956
31	0x3a25a7a2	0.000631923
32	0xbbdf73dd	-0.006819232
33	0xb83978d3	-4.4219963e-05
34	0xbaa87a1e	-0.0012853777
35	0x38c57a69	9.416493e-05
36	0x3b03ec7f	0.0020129976
37	0x3bd80498	0.0065923445
38	0x3b903188	0.004400436
39	0xbbd6886c	-0.0065470245
40	0xb9305b59	-0.00016818698
41	0xb88aeeaa	-6.6248074e-05
42	0xb9696777	-0.00022259155
43	0xbb41e6b0	-0.0029586963
44	0x3b669a9d	0.0035187372
45	0x3a35d152	0.0006935793
46	0xb7d90e7c	-2.587516e-05
47	0x3b04e71a	0.0020279349
48	0xbb3191bd	-0.0027094923
49	0xb8511db4	-4.9857146e-05
50	0x39888969	0.0002604232
51	0x39b51a4e	0.0003454261
52	0xbb5ebec3	-0.0033988215
53	0xb884f5c9	-6.3400315e-05
54	0x3c14a358	0.009072147
55	0xb7914b1b	-1.732032e-05
56	0xb8b8eb6d	-8.817655e-05
57	0x3973fba3	0.00023268028
58	0x3ba62c0d	0.005071169
59	0xba6139d3	-0.00085916853
60	0xbb0dd833	-0.0021643757
61	0x3a375dbd	0.0006994864
62	0x3c05cc08	0.008166321
63	0x3a9a0211	0.0011749883
64	0x3bb5689d	0.0055361525
65	0x3c14952a	0.009068767
66	0xb7f277cd	-2.8904435e-05
67	0xbb643d3b	-0.0034826535
68	0x3bd1dce0	0.006404504
69	0x3b640050	0.0034790225
70	0x3c269d6f	0.010169371
71	0xb9f6e44d	-0.00047090874
72	0xb7acfc96	-2.0621617e-05
73	0x3c0cda56	0.008596977
74	0xba8d059c	-0.0010759118
75	0x39f6fa1b	0.0004710712
76	0x3bcfe621	0.006344572
77	0xbbb97ad0	-0.0056603923
78	0x38d00e00	9.9208206e-05
79	0xb8824e4f	-6.213469e-05
80	0xbbbe9b4f	-0.005816854
81	0x38402990	4.5815075e-05
82	0x3b9f525e	0.004862114
83	0xbbd2dcd8	-0.006435018
84	0xb933971e	-0.00017127066
85	0x36a48522	4.9030796e-06
86	0xb81d6446	-3.7525104e-05
87	0xbbc685f9	-0.0060584513
88	0xba55fb91	-0.00081627915
89	0x39dbf9f2	0.0004195716
90	0xb9dca77f	-0.00042086464
91	0x3917fca2	0.00014494595
92	0x3baeccd6	0.005334477
93	0xbbd5087d	-0.006501256
94	0xbbbf0021	-0.005828873
95	0xbbc4df16	-0.006008039
96	0xbb192316	-0.002336686
97	0x3a4fb967	0.00079240504
98	0xbac12e76	-0.0014738578
99	0x3baaa1fc	0.0052072983
100	0x3a5e795d	0.00084867125
101	0xbbc7fc9a	-0.0061031105
102	0x3c271097	0.010196826
103	0xbc1bf791	-0.009519474
104	0x399060e4	0.0002753801
105	0xbb9aed35	-0.0047279843
106	0xb958c510	-0.00020672777
107	0x3b70e937	0.00367601
108	0xbc2d1513	-0.0105641065
109	0x3b7a943b	0.0038235325
110	0xbb4f7ca9	-0.0031659997
111	0x388287cf	6.2241794e-05
112	0xbc120ea6	-0.008914625
113	0xbb2a3f6a	-0.002597774
114	0xbbcbe310	-0.0062221363
115	0xbb185d7a	-0.0023249076
116	0xbba62bfd	-0.005071162
117	0xbb8b5dce	-0.0042531257
118	0xb88738dc	-6.4478925e-05
119	0x38571665	5.128085e-05
120	0xba92a84c	-0.0011189072
121	0xbb4d6d4f	-0.003134567
122	0xb810b81e	-3.4503748e-05
123	0x3847e6d5	4.7660276e-05
124	0xb8b27140	-8.508796e-05
125	0xb9698d4a	-0.00022273246
126	0x3a398029	0.00070762873
127	0x3605ed60	1.9956715e-06

layers.1.bn.weight f4 [7]
0	0x3f7ff496	0.99982584
1	0x3f7f295f	0.996725
2	0x3f7ed5bd	0.9954489
3	0x3f7fe911	0.99965006
4	0x3f7f7d28	0.9980035
5	0x3f80e93f	1.0071181
6	0x3f7e92fc	0.9944303

layers.1.bn.bias f4 [7]
0	0x3b5a5dcd	0.003332007
1	0xbc12cb3f	-0.00895959
2	0xbc90b22d	-0.017663086
3	0x3c8d71ae	0.01726612
4	0xbbf5e77f	-0.007504403
5	0x3c0dab9a	0.00864687
6	0xbc756e26	-0.014979875

layers.1.bn.running_mean f4 [7]
0	0xbe97fb3b	-0.2968386
1	0x3e54428e	0.20728514
2	0xbe55e5b8	-0.20888412
3	0x3e86a25a	0.2629574
4	0x3d5143cb	0.051090043
5	0xbd0af0ea	-0.03392116
6	0x3d36779c	0.044547662

layers.1.bn.running_var f4 [7]
0	0x3fbb38ef	1.462675
1	0x3fcb173b	1.5866464
2	0x3fc04790	1.5021839
3	0x3fc3ff5b	1.5312303
4	0x3fc8715d	1.5659596
5	0x3fc252bd	1.51815
6	0x3ff3d875	1.9050432

layers.1.theta.weight f4 [7, 128]
0	0x3d1ad1bb	0.03779767
1	0x3d62f789	0.05541185
2	0x3c4eab48	0.012614079
3	0xbd674b00	-0.05646801
4	0x3d69c7e1	0.057075385
5	0x3c112c67	0.008860684
6	0x3d28ec1d	0.0412408
7	0xbd32eadd	-0.043681014
8	0x3cb49f45	0.022048602
9	0x3d4aa4f0	0.049473703
10	0xbd0c0b48	-0.034190446
11	0x3d4d46f1	0.050116483
12	0xbcb7d7b9	-0.022441732
13	0x3c81a0ed	0.015823806
14	0xbcb76e29	-0.022391396
15	0xbd8d4520	-0.0689795
16	0x3b155a05	0.0022789252
17	0x3da74c8c	0.08168897
18	0xbda2d8f3	-0.07951536
19	0x3dae2afa	0.08504291
20	0x3d40de9c	0.047087297
21	0xbda33ad3	-0.07970204
22	0x3cef92c9	0.029244797
23	0x3d76478e	0.060126834
24	0xbd8279a1	-0.06370855
25	0xbcd9e004	-0.026596077
26	0x3da2cd28	0.07949287
27	0x3cd76421	0.026292862
28	0xbd2d3fff	-0.04229736
29	0x3d1acb1e	0.037791364
30	0x3cd2bd53	0.025725042
31	0x3d46130a	0.048358
32	0xbc0250ce	-0.007953836
33	0xbd323f0c	-0.043517157
34	0xbd92fcc4	-0.071771175
35	0x3d76216a	0.06009046
36	0xbd8c205c	-0.068421096
37	0xbcfcc35f	-0.030854879
38	0xbcc7130c	-0.024301074
39	0xbda0cff6	-0.078521654
40	0xbd684728	-0.056708485
41	0x3d8de28e	0.069279775
42	0xbd922489	-0.07135875
43	0x3d1f4359	0.038882587
44	0x3d9fea66	0.0780838
45	0xbd83d749	-0.06437547
46	0xbd853253	-0.06503739
47	0x3c733e9b	0.014846469
48	0x3d15044b	0.036381047
49	0x3c9545aa	0.018221695
50	0xbc93c489	-0.018038051
51	0x3cb8506d	0.022499288
52	0xbd54fb16	-0.051997267
53	0xbda962c9	-0.08270795
54	0xbc437788	-0.011930354
55	0x3d67875a	0.056525566
56	0xbdaddb8a	-0.084891394
57	0x3c1e3839	0.009656959
58	0x3ce60c48	0.028082028
59	0x3d2124bc	0.039341673
60	0xbd79f48f	-0.061024245
61	0x3cbfad7c	0.023398153
62	0xbd41c476	-0.0473065
63	0xbb64576f	-0.0034842154
64	0xbd884985	-0.06654648
65	0x3d864a36	0.06557123
66	0xbdaa47f7	-0.083145075
67	0x3d3a772e	0.045523815
68	0x3c3b55d9	0.011434042
69	0x3cd90a1f	0.026494084
70	0xbd24bd66	-0.040219687
71	0x3cfb6160	0.03068608
72	0x3d264591	0.040593687
73	0x3d094317	0.033511247
74	0x3d17cfa0	0.03706324
75	0x3c2e88b3	0.010652709
76	0x3d600d92	0.05470044
77	0x3d972300	0.073797226
78	0xbd082d76	-0.03324648
79	0xbdab40cb	-0.08361968
80	0xbc5058ec	-0.012716513
81	0x3d062f25	0.032759804
82	0x3b6a1d6d	0.0035723106
83	0x3ccabbb6	0.02474771
84	0x3bebf7c0	0.007201165
85	0x3c3f51bb	0.011677201
86	0xbd9e86ed	-0.07740579
87	0x3c4e36a4	0.0125862695
88	0xbcf7fdb0	-0.030272335
89	0xbd51d2b2	-0.051226325
90	0x3cc787b8	0.024356708
91	0xbd65a078	-0.056061238
92	0xbd4f3e97	-0.0505968
93	0x3c9c3386	0.019067537
94	0x3d9e7e49	0.07738931
95	0xbdb35d5d	-0.08758042
96	0xbd54b615	-0.05193146
97	0x3c8a8d78	0.01691316
98	0xbb8c464a	-0.00428084
99	0x3b52fbd5	0.003219356
100	0xbd7816f3	-0.06056876
101	0xbd5827ec	-0.052772447
102	0xbd2eca73	-0.04267354
103	0x3cc14913	0.023594415
104	0xbda96d41	-0.08272792
105	0xbd941ff8	-0.0723266
106	0xbcf8f81c	-0.030391745
107	0xbd6d2c5a	-0.057903625
108	0x3ceb0bc3	0.028692132
109	0x3c099fb5	0.0083998935
110	0xbbf50195	-0.0074769952
111	0x3cd61557	0.026133223
112	0x3c1bf563	0.009518954
113	0x3d5efc43	0.054439794
114	0xbcf9edf1	-0.030508967
115	0xbd47825e	-0.048708312
116	0xbd847ec5	-0.06469492
117	0x3d1c7225	0.038194794
118	0xbcce0a93	-0.025151527
119	0xbc822857	-0.015888376
120	0xbd6019d0	-0.054712117
121	0x3d369fa0	0.044585824
122	0xbc9d25a6	-0.019182991
123	0xbd909c72	-0.070610896
124	0xbc384a42	-0.011248173
125	0x3b8447ff	0.004036903
126	0xbd3189c2	-0.043344267
127	0x3b44b356	0.003001412
128	0xbcc0e455	-0.023546377
129	0xbd8fca08	-0.07020956
130	0x3cd0f900	0.025509357
131	0x3d99a3cc	0.07501945
132	0x3d9d31ab	0.07675489
133	0x3a579eb4	0.0008225248
134	0x3db04a8b	0.08607968
135	0x3d88a7cb	0.06672629
136	0x3d682cd8	0.05668339
137	0xbd797f48	-0.0609124
138	0xbd1618be	-0.03664469
139	0xbd5cba91	-0.05388886
140	0xbd8e61ac	-0.06952223
141	0x3da3807b	0.0798349
142	0xbd86e3c7	-0.06586414
143	0xbdb460be	-0.088075146
144	0xbd44c1c6	-0.04803636
145	0x3d8d46dd	0.06898282
146	0xbc7a3d61	-0.015273423
147	0x3cd96f71	0.026542397
148	0x3cd7b01d	0.026329095
149	0x3bec38f9	0.00720894
150	0x3ca50153	0.020142233
151	0x3c3cc3e9	0.011521318
152	0xbcd79265	-0.026314924
153	0xbbbeadc5	-0.005819055
154	0x3d4317a1	0.047629956
155	0x3d8e6c00	0.06954193
156	0x3d64f229	0.055895004
157	0x3cb68d1b	0.022284081
158	0x3d028bf8	0.031871766
159	0x3d33be7e	0.04388284
160	0x3d139862	0.036033995
161	0xbd6b32ba	-0.057421423
162	0xbb9790bd	-0.0046254084
163	0xbda23d2c	-0.07921824
164	0xbd70d767	-0.058799174
165	0xbda05feb	-0.07830795
166	0x3d02482e	0.031807117
167	0xbd59c54c	-0.053166673
168	0x3d9fca53	0.07802262
169	0xbd1489e0	-0.0362643
170	0x3d9a5299	0.075352855
171	0x3d19ba13	0.03753097
172	0xbdb227e4	-0.08699015
173	0xbb1a233f	-0.0023519543
174	0xbd9f3959	-0.0777461
175	0x3d7385d0	0.059453785
176	0xbceb22ca	-0.028703112
177	0x3d5cc9e0	0.05390346
178	0xbc8d0fa9	-0.017219381
179	0x3cd0c9e2	0.02548689
180	0xbd0acf84	-0.03388931
181	0xbd60af8e	-0.054854922
182	0xbd0d15c6	-0.034444593
183	0x3d8438dd	0.06456158
184	0xbd590c8c	-0.05299048
185	0x3caafefd	0.020873541
186	0x3d4426a3	0.04788841
187	0xbd9ccb40	-0.07655954
188	0xbcb7ce01	-0.022437098
189	0x3d0468da	0.032326557
190	0xbcf73bf2	-0.030179951
191	0x3ca929d9	0.020649837
192	0xbd8ce25c	-0.06879112
193	0xbd4d74d6	-0.05016025
194	0x3d5c7487	0.053822067
195	0x3d5036fb	0.050833683
196	0x3c8fc3d2	0.01754943
197	0xbd900004	-0.07031253
198	0xbccf9ac2	-0.025342349
199	0x3d253001	0.040328983
200	0xbda44fe1	-0.08023048
201	0x3c2ce8f4	0.010553587
202	0x3d9014b8	0.07035202
203	0x3d13f0a6	0.036118172
204	0x3d567d76	0.052365743
205	0xbd3a58a0	-0.045494676
206	0xbd7f9c32	-0.06240482
207	0x3d13dc91	0.03609902
208	0x3c5b3439	0.01337915
209	0xbc541906	-0.012945419
210	0xbd0444a9	-0.032292042
211	0x3d7cf80e	0.06176
212	0xbd9360a0	-0.07196164
213	0x3db0f4df	0.086404555
214	0xbc5f3e03	-0.013625625
215	0xbd411c59	-0.047146175
216	0xbd92179d	-0.0713341
217	0x3da0dc35	0.07854501
218	0x3d041fc9	0.032256875
219	0x3d414127	0.047181275
220	0x3d86c589	0.065806456
221	0xbd82fb47	-0.063955836
222	0x3c95a0eb	0.018265208
223	0xbbaac416	-0.0052113635
224	0xbd8e262c	-0.069408745
225	0xbda67e85	-0.081296004
226	0x3cecebdc	0.02892106
227	0x3dac0268	0.083988965
228	0xbd8b3e72	-0.0679902
229	0x3d825aa5	0.06364945
230	0x3db8800a	0.090087965
231	0x3c29dbbc	0.01036733
232	0xbcd6907a	-0.026191939
233	0xbc90b65b	-0.017665079
234	0xbdadf62a	-0.08494218
235	0x3d987be9	0.07445509
236	0xbd8e0a36	-0.06935541
237	0x3d71fdcd	0.059079934
238	0x3db837c1	0.08995009
239	0xbc7a3fc4	-0.015273992
240	0x3d10f190	0.035386622
241	0xbc08fc58	-0.008360945
242	0x3d9af2f8	0.07565874
243	0xbaada04f	-0.0013246628
244	0xbc48c8d3	-0.0122549115
245	0xbda414f5	-0.0801181
246	0x3cb26b67	0.021779729
247	0xbd3d5e98	-0.04623279
248	0x3d20b265	0.03923263
249	0x3d5ffb0c	0.054682776
250	0x3d292182	0.04129172
251	0xbda2ed45	-0.07955412
252	0xbd4d1b90	-0.050075114
253	0x3dab85ac	0.08375105
254	0x3d800f60	0.062529325
255	0x3d6398e8	0.055565745

layers.1.theta.bias f4 [7]
0	0xbbc7b67a	-0.006094751
1	0xbd2c7e6f	-0.042112764
2	0x3bb1cc19	0.0054259417
3	0xbd1b61ec	-0.037935182
4	0xbd62a8c6	-0.055336736
5	0xbd30de67	-0.04318085
6	0xb49ad87c	-2.8842248e-07
