src_new/model/unisage_cocitationcora_best_model_new.pth (torch, 744987 bytes, 12 tensors)

layers.0.bn.weight f4 [128]
0	0x3f81f9c2	1.0154345
1	0x3f7f7e17	0.9980177
2	0x3f7f8bd8	0.9982276
3	0x3f7ef618	0.9959426
4	0x3f7f326d	0.9968632
5	0x3f7f47cc	0.9971893
6	0x3f7ed65c	0.99545836
7	0x3f802cea	1.0013707
8	0x3f7fea15	0.99966556
9	0x3f7efddb	0.996061
10	0x3f802e06	1.0014045
11	0x3f801195	1.0005366
12	0x3f7fd570	0.99935055
13	0x3f7f8cdd	0.99824315
14	0x3f8023c1	1.0010911
15	0x3f7e3da9	0.99312836
16	0x3f80b1ff	1.005432
17	0x3f805583	1.0026096
18	0x3f801f3b	1.0009531
19	0x3f8033bb	1.0015787
20	0x3f7fdf0f	0.99949735
21	0x3f7f74e5	0.9978774
22	0x3f7e4ab1	0.9933272
23	0x3f7fa8d7	0.99867004
24	0x3f804c90	1.0023365
25	0x3f7f5970	0.99745846
26	0x3f7f88bb	0.9981801
27	0x3f8010f3	1.0005172
28	0x3f7ff4ee	0.9998311
29	0x3f7f7d61	0.9980069
30	0x3f7fa6f9	0.99864155
31	0x3f7f8082	0.9980546
32	0x3f80baa0	1.0056953
33	0x3f800940	1.0002823
34	0x3f800abd	1.0003277
35	0x3f7ee499	0.9956756
36	0x3f800ebe	1.0004499
37	0x3f7fdc65	0.9994567
38	0x3f803429	1.0015918
39	0x3f8098fa	1.0046685
40	0x3f7fd851	0.9993945
41	0x3f7fa22a	0.9985682
42	0x3f80651a	1.0030854
43	0x3f800ed3	1.0004524
44	0x3f8093cb	1.0045103
45	0x3f7fb515	0.99885684
46	0x3f7fba15	0.99893314
47	0x3f803739	1.0016853
48	0x3f7fd336	0.9993166
49	0x3f808f2a	1.004369
50	0x3f802950	1.0012608
51	0x3f7fdb4b	0.9994399
52	0x3f802632	1.0011656
53	0x3f8045c0	1.0021286
54	0x3f7f661c	0.9976518
55	0x3f7f15d6	0.99642694
56	0x3f80ddca	1.0067685
57	0x3f8007fa	1.0002434
58	0x3f80480e	1.0021989
59	0x3f8062d0	1.0030155
60	0x3f804b3b	1.0022959
61	0x3f7f6ad6	0.99772394
62	0x3f7ff75a	0.99986804
63	0x3f7f1d4b	0.9965407
64	0x3f7fc51f	0.9991016
65	0x3f7f320f	0.9968576
66	0x3f7f3588	0.9969106
67	0x3f804268	1.0020266
68	0x3f808ec3	1.0043567
69	0x3f80376a	1.0016911
70	0x3f7fca45	0.99918014
71	0x3f805957	1.0027264
72	0x3f7fe77e	0.99962604
73	0x3f7fc747	0.9991345
74	0x3f800ff1	1.0004865
75	0x3f7fd02e	0.9992703
76	0x3f7f93d7	0.9983496
77	0x3f7fe584	0.9995959
78	0x3f80094e	1.000284
79	0x3f7f656d	0.9976414
80	0x3f802816	1.0012233
81	0x3f7ec47d	0.9951857
82	0x3f7fbf65	0.9990142
83	0x3f7fe049	0.99951607
84	0x3f80d98d	1.0066391
85	0x3f7fbad2	0.9989444
86	0x3f802472	1.0011122
87	0x3f7f0c7f	0.9962844
88	0x3f7fe41a	0.9995743
89	0x3f7fbe1d	0.99899465
90	0x3f801e30	1.0009212
91	0x3f7fa6e7	0.9986405
92	0x3f804ab4	1.0022798
93	0x3f80089f	1.0002631
94	0x3f7f7c98	0.9979949
95	0x3f8019d3	1.0007881
96	0x3f80494e	1.0022371
97	0x3f8074a7	1.00356
98	0x3f7f47c5	0.99718887
99	0x3f7fcf35	0.9992555
100	0x3f7fbd02	0.9989778
101	0x3f802b18	1.0013151
102	0x3f7eefa7	0.9958443
103	0x3f7f82e9	0.9980913
104	0x3f7fac89	0.9987264
105	0x3f8028ae	1.0012414
106	0x3f7f0f1f	0.9963245
107	0x3f800de0	1.0004234
108	0x3f7fa025	0.99853736
109	0x3f803534	1.0016236
110	0x3f802997	1.0012692
111	0x3f7f6745	0.9976695
112	0x3f7fdc19	0.9994522
113	0x3f806f90	1.0034046
114	0x3f80d070	1.006361
115	0x3f804703	1.0021671
116	0x3f816ea1	1.0111886
117	0x3f7fd049	0.9992719
118	0x3f800157	1.0000409
119	0x3f7ff3ba	0.9998127
120	0x3f7f8480	0.99811554
121	0x3f7f88b2	0.99817955
122	0x3f81aab2	1.0130217
123	0x3f807d28	1.0038195
124	0x3f80ccac	1.0062461
125	0x3f809653	1.0045875
126	0x3f7fdf17	0.99949783
127	0x3f8043b6	1.0020664

layers.0.bn.bias f4 [128]
0	0x3a5fcd68	0.0008537383
1	0xbad90ef7	-0.0016560246
2	0xbb0b4d84	-0.002125592
3	0xb9619453	-0.00021512927
4	0xbb11b7be	-0.0022234763
5	0xbb0a8157	-0.0021134221
6	0xbb3595d9	-0.0027707724
7	0x39f82c15	0.0004733509
8	0xbaec0266	-0.0018006086
9	0xbac160d5	-0.001475359
10	0x3a9cf07e	0.0011973528
11	0x3a8af6cc	0.0010602116
12	0xba810759	-0.0009844109
13	0xbb7c28e2	-0.0038476516
14	0xbb1509b2	-0.0022741375
15	0xba52bd00	-0.00080390275
16	0x3b1645ab	0.002292971
17	0xb7cabd33	-2.416838e-05
18	0xba4fb00e	-0.00079226575
19	0xb95c5a18	-0.00021014397
20	0x3ad9551d	0.0016581152
21	0xbab0e407	-0.0013495692
22	0xbb5b96cf	-0.0033506637
23	0xbab0d986	-0.0013492561
24	0x3a3d4dd8	0.00072213775
25	0xbaaf7413	-0.0013386033
26	0xba0900ef	-0.00052262744
27	0xb9f5f0c0	-0.00046909414
28	0xbaada6b6	-0.0013248536
29	0xbac0e6e6	-0.0014717251
30	0xbac629f8	-0.0015118709
31	0xbae0cd25	-0.0017150982
32	0xbab48e29	-0.0013775277
33	0x39d8d8c7	0.00041360242
34	0xb96a7e37	-0.00022362998
35	0x398a2b1e	0.00026353536
36	0x3a0ac9bf	0.0005294345
37	0xbaacbf14	-0.0013179504
38	0xbb2ec6e1	-0.0026668834
39	0x3a77e536	0.00094564573
40	0xba559dc2	-0.0008148813
41	0xba8e468f	-0.0010854768
42	0x3ab2b94f	0.0013635549
43	0xbb1a64b8	-0.0023558568
44	0x3b1a0cc3	0.0023506142
45	0xba0571f1	-0.0005090526
46	0x38c14d0c	9.217308e-05
47	0x3b174caa	0.0023086467
48	0xbb0e232c	-0.0021688445
49	0x39c075cd	0.00036708862
50	0xba0762b5	-0.000516455
51	0xbb460f1a	-0.0030221404
52	0x3ace0fe4	0.0015721289
53	0xba68be1f	-0.0008878428
54	0xbb3874c6	-0.0028145774
55	0xbae3b21e	-0.0017371809
56	0x3aad91a2	0.0013242254
57	0xba8d772d	-0.0010792963
58	0xba36487d	-0.00069535506
59	0x3b0a3036	0.0021085865
60	0x3ad8a816	0.0016529586
61	0xbb2eef54	-0.0026692944
62	0xbab824d4	-0.0014049062
63	0xbb234c05	-0.0024917137
64	0xbac7c162	-0.0015240128
65	0xbb3ba774	-0.0028633745
66	0xbb4fff4b	-0.003173786
67	0xb9165a86	-0.00014338837
68	0x3a47d0a5	0.0007622338
69	0x3adfdc70	0.0017079245
70	0xbb02f3af	-0.0019981673
71	0x3a99ed43	0.0011743683
72	0xbae36b3c	-0.0017350684
73	0xbb6bb82a	-0.0035967925
74	0x3a3168ee	0.000676765
75	0xba5f1234	-0.00085094874
76	0xba2096b0	-0.000612597
77	0xba6041a5	-0.00085547037
78	0xb9c68b7e	-0.00037869433
79	0xbb4494cb	-0.0029995914
80	0x3aee918e	0.0018201338
81	0xbaa6ccda	-0.0012725845
82	0xb963f42b	-0.00021739367
83	0xba804623	-0.0009786527
84	0x3b220754	0.0024723606
85	0xbadfb04a	-0.0017066088
86	0x3a64f357	0.000873377
87	0xbb592bf7	-0.0033137777
88	0xba4d646d	-0.0007835094
89	0xbaf0095c	-0.0018313336
90	0x3a897246	0.0010486327
91	0xba4ec39b	-0.0007887424
92	0x3a5ebb8a	0.00084965734
93	0x3a5eb666	0.00084958074
94	0xbad5d38d	-0.0016313657
95	0xb9fb9a98	-0.00047989632
96	0x3b0e8182	0.0021744673
97	0x379f027f	1.895544e-05
98	0xbaab1825	-0.001305346
99	0xb943cb6f	-0.00018672434
100	0xb9d08ae2	-0.00039776327
101	0xb93046fb	-0.0001681111
102	0xbb186c7e	-0.0023258026
103	0xbb46f890	-0.0030360557
104	0xba9ede03	-0.0012120608
105	0x3a52b684	0.0008038061
106	0xbb994d3a	-0.0046783956
107	0xba21c43f	-0.00061709055
108	0x383780b4	4.3750464e-05
109	0x3a8e4c45	0.001085647
110	0xba464741	-0.0007563718
111	0xbb13b8e9	-0.0022540635
112	0xba0ce70a	-0.00053750037
113	0x3b0f47e0	0.002186291
114	0xbaa6aeb8	-0.0012716865
115	0x38cd9281	9.80245e-05
116	0x3b9df47b	0.004820404
117	0xba944fb8	-0.0011315262
118	0xba2c3f43	-0.0006570706
119	0xba413b50	-0.0007371204
120	0xbaae42c0	-0.001329504
121	0xbafbf7e8	-0.0019223662
122	0x3bb427cc	0.005497908
123	0x3b06f318	0.0020591673
124	0x3ad095ec	0.0015913821
125	0x3aab1d0a	0.0013054919
126	0xba9e1efe	-0.001206368
127	0x3ab2c2fa	0.001363843

layers.0.bn.running_mean f4 [128]
0	0x3ab035b8	0.0013443744
1	0x399a2618	0.0002940155
2	0x3a5e95a8	0.00084909284
3	0xb9ef6dfe	-0.00045667583
4	0xbba8b23c	-0.0051482003
5	0x3b94aa84	0.0045369286
6	0x3aa86887	0.0012848534
7	0x39ec8732	0.00045114156
8	0x3c1ff31a	0.00976255
9	0xbb4f979b	-0.0031676057
10	0x39f6cb39	0.0004707219
11	0xbbd5b065	-0.006521272
12	0x3a83f79e	0.0010068303
13	0xbb87b8d9	-0.0041419086
14	0x3b52bf5b	0.0032157514
15	0xb8465eb4	-4.7295078e-05
16	0x399c8e84	0.0002986082
17	0xbb422b47	-0.0029627846
18	0x37789964	1.4817666e-05
19	0xbaa865c9	-0.0012847717
20	0xbc1c8944	-0.009554211
21	0xba9f859d	-0.0012170557
22	0x3b2148e2	0.0024610092
23	0x38775944	5.8972524e-05
24	0x394c6854	0.00019493821
25	0x3b129a80	0.0022369921
26	0x3c17f216	0.009274026
27	0x3c08c7d7	0.008348427
28	0x3b044348	0.0020181704
29	0x3a8d43e9	0.0010777685
30	0x3b0c70f9	0.0021429642
31	0x392aa8a0	0.00016275281
32	0x3c056a54	0.008143026
33	0x3b931504	0.0044885892
34	0xba1f7422	-0.0006082674
35	0xb91e8f03	-0.0001512133
36	0xbc301dad	-0.010749263
37	0xbb04a21a	-0.0020238222
38	0xb9ee9164	-0.00045503222
39	0x3c37ab95	0.011210342
40	0xb93eceb7	-0.0001819682
41	0x38145800	3.5367906e-05
42	0x3a128a4b	0.0005590065
43	0x39cd1efa	0.00039123726
44	0xb988b54a	-0.00026075012
45	0x39e56d66	0.00043759792
46	0xba2f3613	-0.0006683778
47	0x39646464	0.00021781173
48	0xbc1b383e	-0.009473858
49	0x3c104690	0.008805886
50	0xbc0b83eb	-0.008515338
51	0x3a91fd1e	0.0011138057
52	0x388d24e3	6.7302746e-05
53	0xbc3c7576	-0.011502614
54	0xbbf05655	-0.0073345103
55	0x3bae7aa0	0.0053246766
56	0x3a1af9a2	0.0005911832
57	0x3b4c3004	0.003115655
58	0xb8e7b808	-0.00011049217
59	0x3c07699c	0.008264925
60	0xb82f98ff	-4.186574e-05
61	0x3c1c59d4	0.009542901
62	0x3a54b4fd	0.00081141276
63	0xba08af21	-0.00052140845
64	0xbb9ea38f	-0.004841275
65	0x3ad1d4ff	0.0016008912
66	0xbbef06b2	-0.0072944993
67	0xbc0b7294	-0.008511204
68	0x3ad9a79a	0.0016605735
69	0x3a1b9033	0.0005934268
70	0x3a8e7625	0.001086895
71	0x3b7a940b	0.0038235213
72	0xba984772	-0.0011617972
73	0x3abc58db	0.0014369743
74	0x3a2f46fd	0.00066862983
75	0xbbc12e40	-0.005895406
76	0xb9bd233a	-0.00036075135
77	0x36fab91a	7.4721293e-06
78	0xbb232b83	-0.0024897761
79	0xba3d9916	-0.00072325894
80	0xbbd453db	-0.006479723
81	0x3baf6a7c	0.00535327
82	0xbaffb188	-0.0019507864
83	0x37da2df9	2.6009033e-05
84	0xbaa8ce8d	-0.001287894
85	0xb8a65643	-7.931564e-05
86	0xba4aec64	-0.00077409134
87	0x3ba7400a	0.0051040696
88	0x3abbe4fc	0.001433521
89	0xba8f978a	-0.0010955196
90	0x3ae796aa	0.0017668803
91	0xba4ded9d	-0.00078555365
92	0xbc06b2d5	-0.008221348
93	0xbc0cbdd1	-0.008590178
94	0x3aa02451	0.0012217854
95	0x38be8560	9.084749e-05
96	0x3aec5a03	0.0018032197
97	0xba2afb9f	-0.000652248
98	0xbbe001a9	-0.0068361354
99	0x3b6e9f7b	0.0036410976
100	0x3b095e44	0.0020960728
101	0x3bb44399	0.0055012223
102	0xb9f0748a	-0.00045863196
103	0xbab46c34	-0.0013765157
104	0x3a20f6da	0.00061402994
105	0xbc11c8cc	-0.008897971
106	0xbaab0922	-0.0013048986
107	0xbac0549f	-0.0014673657
108	0xbb9dd9cc	-0.004817223
109	0xbacd4ea5	-0.0015663697
110	0x3c048ad8	0.008089744
111	0xbbea06ed	-0.007141939
112	0xb93abf8a	-0.00017809696
113	0x3bf2d4d4	0.007410625
114	0xbbd3228c	-0.0064433273
115	0xbadd79e5	-0.0016897289
116	0x3c1e86dd	0.009675709
117	0x3b26ea5a	0.0025469274
118	0xb8e10f46	-0.00010731681
119	0xbc364360	-0.011124462
120	0x3b37f40c	0.0028069047
121	0x3a939cab	0.0011261901
122	0xba246133	-0.00062705873
123	0x3b98206e	0.004642538
124	0xbb731bf2	-0.0037095514
125	0x3b6c7f9c	0.0036086803
126	0xbb0d9804	-0.00216055
127	0xbc257f34	-0.010101128

layers.0.bn.running_var f4 [128]
0	0x37880427	1.6214397e-05
1	0x378c42de	1.6720438e-05
2	0x3764aaac	1.3629597e-05
3	0x3787836a	1.6154449e-05
4	0x37a33311	1.9454894e-05
5	0x3793aa4c	1.7603066e-05
6	0x378f126a	1.7055503e-05
7	0x37a2900b	1.937898e-05
8	0x378e3b24	1.6955259e-05
9	0x378187dd	1.5441265e-05
10	0x379067a1	1.7214394e-05
11	0x37819a67	1.5449898e-05
12	0x3785dfa0	1.5958969e-05
13	0x3786c755	1.6066866e-05
14	0x376ccec3	1.4114837e-05
15	0x377f4a9d	1.5216557e-05
16	0x379de29f	1.8821387e-05
17	0x378cae15	1.6770364e-05
18	0x37926e17	1.745582e-05
19	0x3779367a	1.485424e-05
20	0x3787b2d8	1.6176535e-05
21	0x37746117	1.4566139e-05
22	0x378a5bc2	1.649361e-05
23	0x378a7a64	1.6507875e-05
24	0x3797799c	1.8057232e-05
25	0x377f2f3e	1.5210184e-05
26	0x3793f7d0	1.7639162e-05
27	0x3780b392	1.5342408e-05
28	0x3791a729	1.7363187e-05
29	0x378f6001	1.7091634e-05
30	0x378ab307	1.6534248e-05
31	0x377d20ae	1.5087584e-05
32	0x37932f4b	1.7545788e-05
33	0x37878cff	1.615891e-05
34	0x3799545e	1.8278308e-05
35	0x378833b7	1.6236545e-05
36	0x3780a549	1.5335756e-05
37	0x37854cc0	1.5890575e-05
38	0x378c353d	1.6714092e-05
39	0x37a00cad	1.9079389e-05
40	0x379af387	1.8471632e-05
41	0x3790b1c9	1.7248925e-05
42	0x378b5f3c	1.6614438e-05
43	0x3792daa5	1.750637e-05
44	0x37971b16	1.8013216e-05
45	0x37827d91	1.5555679e-05
46	0x378e415b	1.6958153e-05
47	0x37959958	1.783359e-05
48	0x37878584	1.6155427e-05
49	0x378f509c	1.7084465e-05
50	0x377c243b	1.5028806e-05
51	0x378180e1	1.5438012e-05
52	0x3789acd0	1.6412145e-05
53	0x379997e3	1.8309749e-05
54	0x37889746	1.6282906e-05
55	0x37858238	1.5915473e-05
56	0x3797aed0	1.8082006e-05
57	0x378d1f18	1.6822989e-05
58	0x37883815	1.6238579e-05
59	0x378d2eee	1.6830363e-05
60	0x3793c2ce	1.7614479e-05
61	0x378ee627	1.7034892e-05
62	0x37869dda	1.604755e-05
63	0x37915033	1.7322693e-05
64	0x377e2660	1.5148515e-05
65	0x379a7b5b	1.8415672e-05
66	0x378886c3	1.6275217e-05
67	0x3776efa4	1.4718538e-05
68	0x37820b0b	1.550235e-05
69	0x37826007	1.5541924e-05
70	0x379c09db	1.8601238e-05
71	0x379b2e75	1.8499073e-05
72	0x3789cf54	1.6428217e-05
73	0x37811367	1.5387033e-05
74	0x3789d175	1.6429209e-05
75	0x3787287f	1.6112112e-05
76	0x378eb49d	1.7011824e-05
77	0x3795e463	1.7868535e-05
78	0x3793080a	1.7527509e-05
79	0x378e2469	1.6944674e-05
80	0x3797696c	1.8049694e-05
81	0x37941171	1.7651097e-05
82	0x378eb346	1.70112e-05
83	0x3785da7a	1.5956572e-05
84	0x377f9d82	1.5235857e-05
85	0x378a2dbc	1.6472179e-05
86	0x37917168	1.7338156e-05
87	0x37866439	1.6020715e-05
88	0x379d0486	1.8717965e-05
89	0x37845fd0	1.5780242e-05
90	0x379a4150	1.8388644e-05
91	0x378e06b4	1.693084e-05
92	0x3787aad3	1.61728e-05
93	0x3794e33f	1.7748795e-05
94	0x378228d4	1.551622e-05
95	0x377ef903	1.5197557e-05
96	0x3780ffec	1.5377962e-05
97	0x378cab9c	1.6769212e-05
98	0x37802ed2	1.5280591e-05
99	0x378b12d7	1.6578864e-05
100	0x378140c4	1.5408157e-05
101	0x3784648b	1.5782445e-05
102	0x3798c6c1	1.8212364e-05
103	0x37859a3c	1.5926656e-05
104	0x379deef4	1.882713e-05
105	0x37884e0c	1.6248807e-05
106	0x379a6682	1.8405965e-05
107	0x37942704	1.7661143e-05
108	0x3795b8f7	1.7848315e-05
109	0x3785e211	1.5960106e-05
110	0x378b5eaf	1.6614182e-05
111	0x379383c3	1.7585122e-05
112	0x378b0aeb	1.6575175e-05
113	0x3784b2f9	1.5818967e-05
114	0x379a743c	1.8412356e-05
115	0x378e64a4	1.6974584e-05
116	0x377f50d8	1.5218007e-05
117	0x378127f8	1.539661e-05
118	0x379c7575	1.8651344e-05
119	0x3788b36f	1.6296019e-05
120	0x3769d318	1.3937031e-05
121	0x37834e5b	1.5652904e-05
122	0x379a0d6c	1.836448e-05
123	0x379701d7	1.800146e-05
124	0x37a4d054	1.9647334e-05
125	0x378bcffd	1.6666943e-05
126	0x3794f09f	1.7755023e-05
127	0x378dcd20	1.6904029e-05

layers.0.theta.weight f4 [128, 1433]
0	0x3abea40c	0.0014544739
1	0xbbf29aea	-0.007403721
2	0x3bfc55ed	0.007700673
3	0xbae0fe4a	-0.0017165628
4	0x3cc5fde2	0.024168912
5	0xbc19c504	-0.009385351
6	0x3c0e0801	0.0086689005
7	0x3b92ab12	0.0044759596
8	0xbc13554f	-0.008992507
9	0x3c86dcaa	0.016462643
10	0x3c9119b1	0.017712446
11	0x3b653983	0.0034976907
12	0xbbf257da	-0.0073957266
13	0xbc9dbb47	-0.01925434
14	0x3cd65c3c	0.026167028
15	0x3cc97fb3	0.024597025
16	0xbb0b528a	-0.0021258914
17	0x3bf89add	0.0075868205
18	0xbb7cdb48	-0.003858285
19	0xbbbc1e62	-0.0057409266
20	0x3c09b7a0	0.008405596
21	0x3ca1f198	0.019768521
22	0x3cdb4f7a	0.026771296
23	0x3b27c1a3	0.0025597594
24	0x3a427b92	0.0007418926
25	0xbc6b72e8	-0.0143706575
26	0x3ca86a15	0.020558396
27	0x3ccf473d	0.025302524
28	0x3ba030d5	0.0048886337
29	0x3c7b5770	0.015340671
30	0x3d02866b	0.031866472
31	0xbcdece81	-0.027198078
32	0xbc482050	-0.012214735
33	0xbcad722f	-0.021172611
34	0xbbd1a88c	-0.006398266
35	0xbc40a079	-0.01175701
36	0xbc3e0f66	-0.011600351
37	0xbc846ee6	-0.016166162
38	0xbad04d3f	-0.0015892162
39	0x3b922e9c	0.0044611227
40	0x3c677b64	0.01412854
41	0x3a4cef0c	0.0007817603
42	0x3c0ddeee	0.008659108
43	0xbcf2a230	-0.029618353
44	0xbbad7cc4	-0.0052944142
45	0x3ccf2c79	0.02528976
46	0x3b6e7c92	0.0036390168
47	0xbbc3421c	-0.0059588086
48	0x3cba7096	0.022758763
49	0xbc44139e	-0.011967568
50	0xbc62040f	-0.013794913
51	0xbc5b7b3c	-0.013396081
52	0xbb7f8c0e	-0.0038993391
53	0xbb9f1ca5	-0.0048557096
54	0x3cfbacc3	0.030722028
55	0x3c8cfc6d	0.01721021
56	0xbbdadbf1	-0.006679051
57	0x3b48ac96	0.0030620447
58	0xbcdb52c3	-0.026772862
59	0x3cc98fcf	0.024604706
60	0xbca265f1	-0.019824
61	0x3b27f7f0	0.002562996
62	0x3c680b47	0.014162845
63	0xbcba7c4a	-0.022764344
64	0xbc5209dd	-0.012819734
65	0x3ba38241	0.0049898927
66	0xbac360c5	-0.0014906159
67	0x3c58969a	0.0132195
68	0xbb2de564	-0.0026534433
69	0xbc31744a	-0.010830948
70	0x3c295e1b	0.010337378
71	0xbc437161	-0.011928887
72	0xbaf5918a	-0.0018735391
73	0x3c3233ab	0.010876576
74	0x3bc137ff	0.005896568
75	0x3b6f805f	0.003654502
76	0x3c822a76	0.015889388
77	0x3aeba4ad	0.0017978154
78	0x3cf69236	0.030099016
79	0x3c25ee30	0.010127589
80	0x3c04f976	0.008116117
81	0xbb208b39	-0.0024497046
82	0xbbab9ae0	-0.0052369684
83	0xbc99284d	-0.018695975
84	0x3bab3bc6	0.0052256314
85	0x3c90d83a	0.01768123
86	0x3b85e29f	0.004085853
87	0x3c9c28af	0.019062368
88	0x3c7c47ea	0.015398005
89	0x3c5be870	0.013422117
90	0x3c969fd3	0.018386757
91	0xbc1a6895	-0.009424348
92	0xbb788436	-0.00379206
93	0xbc9c0421	-0.019044938
94	0xbc0b9269	-0.008518794
95	0x3cc1ffea	0.0236816
96	0x3bf73dfb	0.0075452304
97	0x3bf7f640	0.007567197
98	0x3ca683fc	0.020326607
99	0xbbdb359a	-0.0066897394
100	0x3be69fad	0.007038078
101	0x3c466a9b	0.012110378
102	0x3a4cc5c3	0.0007811451
103	0xbcb16537	-0.021654708
104	0x3bb2ca13	0.005456218
105	0xbc66c763	-0.014085623
106	0x3c4c59b5	0.01247256
107	0xbc8bbdf6	-0.017058354
108	0xbb4dede9	-0.0031422323
109	0x3be0307c	0.0068417173
110	0xbca3ebfa	-0.020009983
111	0x3c53d0fc	0.012928244
112	0x39267a5c	0.00015876576
113	0xbbecb2ae	-0.0072234487
114	0x3c8587c0	0.016300082
115	0xbc337f56	-0.010955652
116	0x3bc3b9d1	0.005973079
117	0xbc8d8923	-0.017277306
118	0x3b24b44d	0.0025131882
119	0xbc2894f4	-0.010289419
120	0x3c83d0e0	0.01609081
121	0x3cc1a0de	0.023636278
122	0xbccfae7e	-0.025351759
123	0x3c8ca426	0.017168116
124	0x3c36bb02	0.011152985
125	0x3c94fbf5	0.018186549
126	0x3c11c33a	0.008896643
127	0xbcd6acb4	-0.026205398
128	0xbc345f33	-0.011009025
129	0x3bccf827	0.006255168
130	0x3b8d9d3f	0.0043217237
131	0x3afcb40b	0.0019279731
132	0xbc981dcc	-0.018568896
133	0xbc6a70bd	-0.014309105
134	0x3cefdedd	0.029281074
135	0x3bbf3488	0.0058351196
136	0xbc88fcd4	-0.01672212
137	0xbca98283	-0.020692116
138	0x3c86a8c9	0.016437905
139	0x3c41848a	0.011811385
140	0xbc947249	-0.018120902
141	0x3c20b15d	0.009807912
142	0x3ad6a8d3	0.0016377218
143	0x3bf36e5b	0.007428927
144	0x3b69ef2d	0.0035695538
145	0x3c14585c	0.00905427
146	0x3c7a4440	0.015275061
147	0x3c5fdc30	0.013663337
148	0x3b0abb88	0.0021168906
149	0x3cd05786	0.02543236
150	0x3c7f48fb	0.015581365
151	0xbcb18b96	-0.021673005
152	0xbcbd857f	-0.023134945
153	0x3c96e126	0.018417906
154	0xbbe3bff4	-0.006950373
155	0xbc01c95b	-0.007921542
156	0xbc97d6b8	-0.018535003
157	0x3b85b384	0.004080238
158	0x3cbf203b	0.023330798
159	0x3c9ee372	0.019395564
160	0xbc965d92	-0.018355165
161	0xbc58edd7	-0.013240299
162	0x3c8d6d3a	0.017263997
163	0x3ca972c3	0.020684605
164	0x3cd029b3	0.025410509
165	0xbc3b6ab8	-0.011439018
166	0xbc829c8b	-0.015943786
167	0x3ccbea62	0.024892036
168	0xbb092121	-0.0020924287
169	0xbc93d8a1	-0.018047633
170	0x3d010361	0.031497363
171	0xbc2525d6	-0.010079822
172	0xbb7a7b70	-0.0038220547
173	0x39720f33	0.0002308458
174	0xbc2cb093	-0.010540145
175	0xbcbd700f	-0.023124723
176	0xbc2b02a7	-0.010437644
177	0x3c8704ef	0.016481845
178	0xbb538400	-0.0032274723
179	0x3cb7168b	0.022349617
180	0x3c88102a	0.01660927
181	0xbc761557	-0.015019736
182	0xbb2aea4a	-0.0026079589
183	0x3c557012	0.013027208
184	0x3c98fb92	0.018674646
185	0x3cc61df6	0.024184208
186	0xbc2b035a	-0.010437811
187	0x3cb03660	0.021510303
188	0x3b34b8fa	0.0027576075
189	0x3ce705c0	0.028200984
190	0x3ce9e575	0.028551796
191	0xbc113389	-0.008862385
192	0x3ca712b3	0.020394659
193	0x3a33ea57	0.00068632275
194	0x3c4ca8c3	0.012491408
195	0x3c64a8c5	0.013956253
196	0x3c330e37	0.010928682
197	0x3ca35b01	0.019940855
198	0xbc6e4fb7	-0.014545373
199	0xbc72ebf5	-0.014826764
200	0x3c2bd94a	0.0104888175
201	0x3caad196	0.020851891
202	0xbccb7f1e	-0.024840888
203	0xbcd65fe6	-0.026168775
204	0xbcad3677	-0.021144135
205	0x3b1429a5	0.002260783
206	0x3cf27df8	0.029601082
207	0x3c9ab3c0	0.01888454
208	0x3bedc4f6	0.0072561456
209	0x3bb41fae	0.0054969406
210	0x3cc03ee8	0.023467496
211	0x3bc8d136	0.0061284555
212	0xbaab99f0	-0.0013092142
213	0x3c5b40b5	0.013382127
214	0xbc701d89	-0.014655479
215	0xbc0a7ab4	-0.008452106
216	0xbcf58b2d	-0.02997359
217	0xbc7c7f64	-0.015411232
218	0x3ad2086f	0.0016024242
219	0xbc80a099	-0.015701579
220	0xbc5dae40	-0.013530314
221	0x3b22f284	0.002486379
222	0xbcc56f07	-0.024100794
223	0xbbd67139	-0.006544259
224	0xbc3a9173	-0.011387217
225	0xbae23aec	-0.0017259992
226	0x3cfee1b1	0.031113477
227	0xbc60cd04	-0.0137207545
228	0x3ad13bd5	0.0015963266
229	0xbcd7be18	-0.026335761
230	0x3919b5f0	0.00014658994
231	0x3b6ffe80	0.00366202
232	0xbb74121e	-0.0037242244
233	0xbcab55aa	-0.020914871
234	0x3cbe2691	0.02321175
235	0x3cb9765e	0.02263945
236	0x3d06cecf	0.03291207
237	0xbc8088b8	-0.015690193
238	0xbcd400fe	-0.02587938
239	0xbc8bf644	-0.017085202
240	0xbc1eeebc	-0.009700473
241	0xbc72043e	-0.014771519
242	0xbc9d7f14	-0.019225635
243	0xbc56494c	-0.013078999
244	0x3c73bb7d	0.014876244
245	0x3c8ad273	0.016946053
246	0xbcd0f2c0	-0.025506377
247	0xbc98a7e4	-0.018634744
248	0x3cb7df44	0.022445329
249	0x3cb14e54	0.021643795
250	0x3c8a1e3a	0.016860116
251	0x3c15f5be	0.009152828
252	0x3bce7d4c	0.0063015576
253	0xbcd8499a	-0.026402283
254	0x3cc91c9c	0.024549775
255	0xbc26e297	-0.010185859

layers.0.theta.bias f4 [128]
0	0xb5b1ccb0	-1.32471e-06
1	0xba05f8c4	-0.00051106163
2	0xb78e2068	-1.694281e-05
3	0xb90ef1ab	-0.00013632204
4	0xbbe4af35	-0.006978894
5	0x3b2e84a2	0.0026629348
6	0xb860d913	-5.3607928e-05
7	0x37291844	1.0078835e-05
8	0x3c0d5368	0.008625843
9	0xbb8af350	-0.004240431
10	0x37ca8fca	2.4147233e-05
11	0xbbb56c77	-0.0055366117
12	0xb71d9709	-9.393095e-06
13	0xbba0e84f	-0.004910506
14	0x3a024166	0.00049688516
15	0xba48a467	-0.00076538924
16	0x383049ea	4.2030508e-05
17	0xbb4265f3	-0.0029662817
18	0x38fd8895	0.000120894205
19	0x389f08a4	7.58332e-05
20	0xbbff4b77	-0.0077909785
21	0xb9e94f07	-0.00044500103
22	0x3a039e19	0.0005020812
23	0xb88936f6	-6.542906e-05
24	0x38884e07	6.499519e-05
25	0x3a159465	0.00057060114
26	0x3c14d596	0.009084126
27	0x3bf2ff08	0.007415656
28	0x37bd23c7	2.2547216e-05
29	0x37b34571	2.1370799e-05
30	0x3ac2401c	0.0014820131
31	0xbb0e7cea	-0.0021741935
32	0x3be27fce	0.006912208
33	0x3b2a11c9	0.0025950542
34	0xba1053a3	-0.0005505627
35	0x37a53922	1.9696137e-05
36	0xbc090451	-0.0083628455
37	0xbab23b24	-0.0013597948
38	0xb734d7f1	-1.0779114e-05
39	0x3c21587f	0.009847759
40	0xb748b9df	-1.1964205e-05
41	0x38ca54f9	9.647938e-05
42	0x3aaa9906	0.0013015575
43	0xb78b4068	-1.6600083e-05
44	0x3958a365	0.00020660234
45	0x39b702c3	0.00034906538
46	0x37a0d65e	1.9173309e-05
47	0x39f9244b	0.0004752002
48	0xbc0bb78e	-0.00852765
49	0x3bfd83ee	0.0077366745
50	0xbc0fec05	-0.008784299
51	0x39664989	0.00021961903
52	0x394205e8	0.00018503482
53	0xbc2251b3	-0.009907174
54	0xbbe6546a	-0.007029106
55	0x3b36d0d2	0.0027895463
56	0xb85239bc	-5.012167e-05
57	0x3b18a43e	0.0023291255
58	0xb9c18a56	-0.00036914897
59	0x3c0c90a6	0.008579409
60	0x383d5f7f	4.515005e-05
61	0x3beae883	0.007168831
62	0x391034c7	0.00013752571
63	0xbb0112a2	-0.0019694944
64	0xbbbcb849	-0.005759273
65	0x3743957a	1.16577085e-05
66	0xbc0e9a77	-0.0087038195
67	0xbc138f3d	-0.009006319
68	0x3b34795c	0.0027538156
69	0x3902de17	0.00012480501
70	0x3925360e	0.00015755763
71	0x3b261408	0.002534153
72	0xbb26eb09	-0.0025469682
73	0x3830ab0e	4.2120977e-05
74	0xb8d7ac84	-0.000102841324
75	0xbbcc49df	-0.006234392
76	0xb68a8398	-4.12804e-06
77	0x381b195b	3.6978494e-05
78	0xbb1665e7	-0.0022948922
79	0xb8727d82	-5.7814184e-05
80	0xbb834a07	-0.0040066275
81	0x3ba60622	0.005066649
82	0xbb2206ad	-0.0024723217
83	0x399d31a9	0.00029982373
84	0xb993974e	-0.00028150756
85	0x37829268	1.5565383e-05
86	0xb98127ee	-0.00024634547
87	0x3b609e12	0.0034273905
88	0xb8933ee7	-7.021223e-05
89	0x37a6eca5	1.9898938e-05
90	0x38765ca2	5.873724e-05
91	0xb88c536b	-6.691258e-05
92	0xbbfd4cb6	-0.007730092
93	0xbbfe3651	-0.00775794
94	0xb8a88f28	-8.037529e-05
95	0xb8286d9c	-4.0156403e-05
96	0x3ab422e2	0.0013743306
97	0xb88e0efd	-6.7738794e-05
98	0xbbda2b1a	-0.00665797
99	0x3b1b8767	0.002373183
100	0x3a46a62e	0.0007577863
101	0x3b883e25	0.004157799
102	0xb7c75432	-2.3761855e-05
103	0xbb019f3b	-0.0019778747
104	0x3994a8a9	0.0002835442
105	0xbc167f27	-0.009185589
106	0xb9a58cd2	-0.00031576172
107	0xbb0eaab3	-0.0021769225
108	0xbb97c455	-0.004631559
109	0xbb02208d	-0.0019855828
110	0x3c16ec33	0.009211588
111	0xbbd16051	-0.0063896556
112	0x37dcf6c4	2.6340953e-05
113	0x3bfb73d4	0.00767372
114	0xbbc816bf	-0.006106227
115	0xbb1e40b5	-0.0024147455
116	0x3c1f0279	0.009705179
117	0x3b1d5a86	0.0024010255
118	0x388d4148	6.7355635e-05
119	0xbc25e595	-0.010125537
120	0x3a18ea1a	0.00058332237
121	0x37b0ecb0	2.1091051e-05
122	0xb81499f1	-3.542932e-05
123	0x3b322e0e	0.0027188095
124	0xbb58693e	-0.0033021714
125	0x3b77d74a	0.0037817531
126	0xbb1dda8f	-0.002408657
127	0xbc0b89fd	-0.008516786

layers.1.bn.weight f4 [7]
0	0x3f7faebf	0.99876016
1	0x3f7eeeb2	0.9958297
2	0x3f7ecc2f	0.9953031
3	0x3f811d57	1.0087079
4	0x3f7fc108	0.9990392
5	0x3f80c8bb	1.0061258
6	0x3f7f4147	0.9970898

layers.1.bn.bias f4 [7]
0	0x3b77abd5	0.003779163
1	0xbc1dcde9	-0.009631612
2	0xbc2cdd7a	-0.010550851
3	0x3c82add1	0.015952023
4	0xbc2af897	-0.010435245
5	0x3c01e418	0.007927917
6	0xbc595999	-0.013265991

layers.1.bn.running_mean f4 [7]
0	0x3e810e44	0.25206196
1	0x3eb30de5	0.34971538
2	0x3eb239ed	0.3480982
3	0xbdd54d7b	-0.10415169
4	0xbd1ecff2	-0.03877253
5	0x3e115669	0.14193119
6	0xbea104a6	-0.3144886

layers.1.bn.running_var f4 [7]
0	0x404ed674	3.2318392
1	0x3fbf62b2	1.4951994
2	0x3f8ea6d2	1.114466
3	0x40042b40	2.0651398
4	0x3fb8537a	1.4400475
5	0x3fbeb398	1.4898558
6	0x40006976	2.0064368

layers.1.theta.weight f4 [7, 128]
0	0x3cb9f002	0.022697452
1	0xbd4ce03a	-0.050018527
2	0x3d5f9a13	0.054590296
3	0x3d5c41b1	0.053773586
4	0x3d935398	0.071936786
5	0xbd83ef70	-0.064421535
6	0xbd8ffebe	-0.0703101
7	0xbda6fd66	-0.08153801
8	0x3d62dff6	0.055389367
9	0x3d843b5b	0.06456634
10	0x3d8fcaa0	0.070210695
11	0xbc415bd8	-0.011801682
12	0xbd8fb09f	-0.0701611
13	0xbdb95d0d	-0.09050951
14	0xbd12a447	-0.0358012
15	0x3d83a56e	0.064280376
16	0x3d00a9e5	0.031412024
17	0x3c9c002c	0.01904305
18	0x3ce5a763	0.028033918
19	0xbca78ceb	-0.020452937
20	0xbc539dcb	-0.012916039
21	0xbd8a319f	-0.06747746
22	0x3d0f7a47	0.035028722
23	0x3d9ffe04	0.078121215
24	0x3d917314	0.071020275
25	0xbd5ecdc2	-0.054395445
26	0x3cce7459	0.025201963
27	0x3d84cd38	0.06484455
28	0xbd3f0705	-0.046637554
29	0xbbe7c3e7	-0.007072914
30	0x3ce4bda1	0.027922453
31	0xbdacf095	-0.08444325
32	0x3bfb64d5	0.007671932
33	0x3d83ea01	0.06441117
34	0x3d41c813	0.047309946
35	0x3d93939c	0.07205889
36	0xbb98b560	-0.0046602935
37	0x3d4b2061	0.049591426
38	0xbda750be	-0.08169697
39	0xbc9698cb	-0.018383404
40	0x3c8f29a6	0.017475914
41	0xbc8aac08	-0.016927734
42	0xbd118da6	-0.035535477
43	0xbb3d45cb	-0.0028880711
44	0xbca6892b	-0.020329079
45	0x3a621da5	0.0008625633
46	0xbd90205b	-0.07037421
47	0xbdac047a	-0.08399291
48	0xbdab1b12	-0.083547726
49	0xbcefcd71	-0.029272767
50	0xbc62faa0	-0.013853699
51	0x3db36679	0.087597795
52	0x3d99c244	0.07507756
53	0x3d94e300	0.07269859
54	0xbd9c5c8b	-0.07634839
55	0xbdae8c89	-0.08522899
56	0x3db92883	0.0904093
57	0xbd194d2c	-0.037427112
58	0x3d6a8c5c	0.057262763
59	0x3d291d1c	0.041287526
60	0xbc96a943	-0.018391257
61	0x3b4fe06c	0.003171946
62	0x3d9e7195	0.07736508
63	0x3c4d478c	0.012529265
64	0xbcb5d80f	-0.022197751
65	0x3b445d4a	0.0029962831
66	0xbcf19b38	-0.02949296
67	0xbce8b1cb	-0.02840509
68	0x3d2e5a0f	0.042566355
69	0x3d32342a	0.04350678
70	0x3b926097	0.004467081
71	0x3cda2bef	0.026632277
72	0xbd77a26a	-0.060457624
73	0x3a653ada	0.00087444263
74	0x3d9bbc1c	0.076042384
75	0xbbca5d1f	-0.0061756517
76	0x3d13085f	0.035896655
77	0x3d46fec7	0.04858282
78	0xbc5cfddf	-0.013488262
79	0xbd365e3b	-0.04452346
80	0x3d7113d2	0.058856793
81	0x3d4832a4	0.04887642
82	0x3dae4dfb	0.08510967
83	0xbda9b571	-0.0828656
84	0xbd8e4a9f	-0.069478266
85	0xbc59cf6d	-0.013294083
86	0xbd14b383	-0.03630401
87	0xbd310b9f	-0.043223973
88	0x3d6c67ec	0.057716295
89	0x3d0e138b	0.034686606
90	0x3d92085f	0.07130503
91	0xbd5ed461	-0.05440176
92	0xbb50e9e8	-0.00318777
93	0x3da7f059	0.082001396
94	0xbd4e4463	-0.050358187
95	0x3d2b74f7	0.041859593
96	0x3d6b96eb	0.057516973
97	0x3d7d6c6b	0.061870974
98	0xbdae811c	-0.085207194
99	0xbbab1e14	-0.0052220915
100	0xbd9e02cb	-0.077153765
101	0xbd852441	-0.065010555
102	0xbd31be3b	-0.04339431
103	0x3cdff483	0.027338272
104	0xbc40cee4	-0.011768077
105	0xbc962547	-0.018328322
106	0xbdb1166a	-0.08646853
107	0x3d60f725	0.054923195
108	0x3c9dcab9	0.019261705
109	0xbdb24188	-0.08703905
110	0xbc5b711b	-0.013393666
111	0x3c94904e	0.018135216
112	0x3c1c9bd4	0.009558637
113	0x3d6a84e0	0.057255626
114	0xbca21798	-0.019786641
115	0xbd837e14	-0.06420532
116	0xbc88ede0	-0.01671499
117	0x3d19c7e8	0.03754416
118	0xbc92d3d3	-0.017923271
119	0xbd0cb407	-0.034351375
120	0xbd439465	-0.047748942
121	0xbd7aaa6e	-0.06119769
122	0xbb56bc0e	-0.0032765898
123	0x3d6d75e2	0.05797375
124	0x3dbb48d5	0.09144751
125	0x3cc58b53	0.024114287
126	0x3d785e8e	0.06063705
127	0x3da375b9	0.07981438
128	0x3d609cb5	0.054836947
129	0x3daefc8e	0.08544265
130	0xbc16190e	-0.009161247
131	0xbd730ed9	-0.05934033
132	0xbceb0960	-0.028690994
133	0x3d9134e4	0.07090166
134	0xbd194347	-0.037417676
135	0x3d0f684c	0.035011575
136	0x3cbcbc94	0.02303914
137	0x3d47cb22	0.048777707
138	0xbd9755aa	-0.07389386
139	0xbd2405cc	-0.04004459
140	0xbd727b10	-0.059199393
141	0x3ca6c59d	0.020357901
142	0xbdb02848	-0.08601433
143	0xbc758c4b	-0.014987062
144	0x3d037f71	0.03210396
145	0x3d8157e4	0.06315592
146	0x3d509d22	0.050931104
147	0xbd696ef3	-0.056990575
148	0xbcff686b	-0.03117772
149	0x3c0ee535	0.008721639
150	0xbccb293c	-0.024799936
151	0xbd01ee67	-0.0317215
152	0x3c925778	0.017863974
153	0xbcdaf36c	-0.0267274
154	0xbd4a3cec	-0.049374506
155	0x3c3e763c	0.011624869
156	0xbd0d0918	-0.0344325
157	0xbd5dc6d7	-0.054144707
158	0x3cc38d70	0.023871154
159	0xbcc6d3c6	-0.024270903
160	0x3c8308ff	0.0159955
161	0x3cfabe2b	0.030608257
162	0x3d2fa576	0.042882405
163	0xbb7b2f09	-0.0038327596
164	0xbd18067b	-0.037115555
165	0xbd3c6455	-0.04599412
166	0x3da899ef	0.082324855
167	0xbd1b49cb	-0.03791217
168	0x3caaf182	0.020867113
169	0x3d6c6ea5	0.057722706
170	0x3d2e80d8	0.042603344
171	0x3cf07398	0.029351994
172	0xbc8cbe35	-0.017180542
173	0x3da63468	0.081154644
174	0x3ce2cd12	0.027685676
175	0x3ca69d3d	0.020338649
176	0x3ccb9cec	0.0248551
177	0xbd6fbb80	-0.058528423
178	0xbcf0cf9f	-0.029395876
179	0xbd213a90	-0.03936249
180	0x3d91816b	0.07104763
181	0xbd846339	-0.06464238
182	0xbd89877f	-0.06715297
183	0x3d6be18b	0.05758814
184	0x3d99843a	0.07495923
185	0x3c918161	0.017761888
186	0x3d84fe07	0.06493764
187	0xbd10ceb3	-0.035353374
188	0xbca48744	-0.02008403
189	0x3d80cf0f	0.06289493
190	0xbcce0dcf	-0.025153069
191	0x3c9bb787	0.019008411
192	0x3b546ac4	0.003241227
193	0x3a7e18cb	0.00096930255
194	0xbd9c1870	-0.076218486
195	0x3c0b7892	0.008512633
196	0xbcdf61d7	-0.027268333
197	0x3d7c0812	0.061531134
198	0xbd7bc1c9	-0.061464105
199	0xbbf64862	-0.007515953
200	0x3da8e210	0.08246243
201	0xbd4720d8	-0.048615307
202	0x3cecf519	0.028925465
203	0xbd5e370b	-0.05425171
204	0x3d742ed4	0.05961497
205	0x3cd48fa9	0.025947409
206	0xbc99023e	-0.018677827
207	0x3da0e8a5	0.078568734
208	0x3b10cb28	0.0022093747
209	0xbd796cb0	-0.060894668
210	0x3d9ca986	0.076495215
211	0xbcc4fc42	-0.024046067
212	0x3cf8ef0d	0.030387426
213	0x3c44a9b0	0.012003347
214	0xbcc6c97f	-0.024266003
215	0xbd633b4b	-0.055476468
216	0xbd795d25	-0.060879845
217	0x3d6c6432	0.05771274
218	0x3d3c94e6	0.046040438
219	0x3c9704c4	0.01843489
220	0x3db2384d	0.08702145
221	0x39b8a1be	0.00035215722
222	0x3d0aaa01	0.033853535
223	0xbd825de6	-0.06365566
224	0xbd64aef4	-0.05583091
225	0xbc22e48f	-0.009942188
226	0x3bf8abae	0.007588825
227	0xbb0ebb9c	-0.0021779304
228	0x3dacc5c2	0.08436157
229	0x3d30c2d3	0.04315455
230	0x3cf31649	0.029673712
231	0xbd9adbb2	-0.07561435
232	0xbd3decf4	-0.046368554
233	0x3dae7080	0.085175514
234	0xbd86fa23	-0.065906785
235	0x3d83f994	0.064440876
236	0xbda25352	-0.07926048
237	0x3bec429c	0.007210089
238	0xbd85509b	-0.06509515
239	0xbcf84979	-0.030308472
240	0xbc8e5e1c	-0.01737886
241	0x3caae6e3	0.020862048
242	0x3d9a3162	0.0752895
243	0x3d18acea	0.03727428
244	0xbb2b20a5	-0.0026111987
245	0x3db7434e	0.08948384
246	0x3db13ec1	0.086545475
247	0x3ce5540c	0.027994178
248	0x3d6bb89e	0.05754911
249	0x3c67e158	0.014152847
250	0x3cf5af6c	0.029990874
251	0x3ca3b396	0.019983094
252	0x3d558e25	0.052137513
253	0xbb239a54	-0.0024963813
254	0xbda9a238	-0.08282894
255	0xbc50f6b4	-0.012754131

layers.1.theta.bias f4 [7]
0	0x3d3209cb	0.04346637
1	0xbaa25e2d	-0.0012387686
2	0x3cd6f830	0.026241392
3	0xbd82e19a	-0.06390686
4	0x3d804e78	0.06264967
5	0x3d022cca	0.031780995
6	0xbcd1c2fb	-0.02560567
