src/model/lahgnn_cocitationcitecora_best_model_1229.pth (torch, 388971 bytes, 4 tensors)

hgcn1.theta.weight f4 [64, 1433]
6.634743e-07 2.477484e-06 -1.6013346e-06 -1.1925781e-05 -6.7708165e-06 -4.0425454e-07 -1.2035457e-05 -1.1925702e-06
-1.1477689e-05 1.2322228e-06 -5.8015877e-07 -1.8950759e-06 -1.8215293e-06 -3.2147252e-06 -7.6114134e-07 -2.504546e-06
2.6470373e-06 -4.965415e-06 1.6540431e-06 -0.00013768347 6.840704e-07 1.3907325e-06 -3.990182e-07 -2.984198e-06
3.1013103e-06 1.0175838e-05 -8.045272e-06 2.3741734e-06 -9.980432e-07 6.123653e-06 6.0736306e-06 -3.824113e-07
7.7072275e-07 -1.8692355e-06 1.4755119e-06 -1.3328553e-06 1.031374e-06 2.531315e-07 -6.8258925e-07 3.2595868e-05
9.482516e-06 -9.938663e-06 1.2381103e-06 1.4687238e-06 -2.3169152e-06 -7.9749425e-06 -3.7100149e-06 2.39671e-06
-2.2428876e-06 1.5336028e-06 3.1397733e-06 1.5857706e-06 -2.81482e-05 9.405793e-08 -4.679313e-06 -5.3982717e-06
-3.781386e-06 -3.284865e-06 4.8968845e-06 -4.0348646e-06 -1.5379757e-06 -1.9046227e-05 -1.15498295e-07 -4.786831e-06
-5.896289e-06 -6.6211483e-06 -9.593541e-07 3.037119e-06 -6.361483e-07 7.055289e-08 -4.2135575e-06 8.669835e-07
4.8105903e-06 -3.974552e-06 -2.0539926e-06 -5.0856656e-06 3.7076393e-06 -8.178461e-07 -7.2616344e-06 -6.1337613e-07
3.3655208e-06 1.0634928e-05 -5.4876896e-06 5.988822e-06 -2.580357e-06 -2.8629247e-06 -1.0469801e-05 4.4501794e-06
1.8957602e-05 6.868122e-06 3.7748014e-06 -6.6201363e-07 4.076415e-06 -9.484984e-05 -9.267693e-07 1.2686112e-06
6.008716e-06 2.5728934e-06 -7.653504e-06 2.4622721e-05 2.8967195e-06 -8.962106e-07 -2.0480782e-06 3.5320381e-06
4.0622228e-07 -2.952881e-08 -3.593504e-07 4.651861e-06 -2.302938e-08 1.0119703e-06 -4.7635615e-07 -8.521719e-07
-2.2986096e-06 4.0795194e-07 4.4549693e-06 2.5681225e-06 2.4019544e-06 5.2714097e-07 1.2189315e-05 1.3429047e-07
1.312755e-06 6.8051404e-06 2.459106e-06 1.6544963e-07 -2.3696855e-06 1.5966928e-06 -7.482788e-06 -1.710895e-07
3.8081962e-05 -2.4320143e-06 -2.8782642e-05 3.3425874e-06 4.0564984e-05 -3.9944885e-07 -1.6795141e-07 -2.6578335e-05
-5.8107835e-06 -7.235304e-07 6.3677317e-07 -3.1561945e-06 -1.7072714e-05 -7.746265e-09 8.425316e-08 -3.926983e-07
9.2216254e-07 9.889231e-07 -9.34074e-06 -1.7288842e-06 -5.5957504e-08 -1.1463384e-05 -2.0128734e-06 -3.0987098e-06
-4.509133e-07 -1.8168495e-07 -3.316048e-06 -1.1028492e-06 2.884879e-06 -6.0500483e-06 -2.9247744e-06 1.4179942e-06
3.235825e-06 -2.271002e-06 4.2320903e-06 8.479562e-07 2.9559808e-06 1.1113548e-08 1.0399652e-06 -7.097499e-06
-2.1859283e-05 -1.5216581e-06 9.309378e-07 8.6833115e-06 -1.8690521e-06 4.6164064e-06 -4.797755e-06 -4.614823e-08
-2.1903348e-05 -3.2681764e-06 8.914804e-07 -7.1348895e-06 -9.2203965e-07 1.7554229e-06 -4.230894e-06 3.3654303e-06
-1.5830739e-06 -4.460687e-09 2.4502772e-06 -1.0176846e-05 -1.2980234e-05 1.5939722e-06 -1.4994673e-07 -5.9372333e-06
-1.9194845e-06 -1.9652482e-06 1.1614846e-06 1.6635671e-06 4.4286259e-07 1.8426479e-06 7.8990513e-07 1.9588947e-06
-1.9456731e-06 8.1114126e-07 3.7304304e-07 -4.2821015e-05 -1.929801e-06 3.5099863e-06 9.343959e-07 2.2746212e-06
1.5849153e-06 -3.4289965e-07 -1.5955408e-07 -2.1963715e-05 7.0328826e-07 1.397049e-06 1.5595971e-06 6.324652e-07
-1.5286616e-06 -6.0627594e-06 5.961743e-07 3.8395456e-07 -2.782816e-06 -1.1024046e-06 -2.2106167e-06 6.5736907e-07
6.5289983e-06 4.6980713e-06 -4.1462367e-06 1.0531146e-06 -1.0969233e-05 1.2436929e-06 6.6972616e-06 2.7969518e-06
-7.768591e-07 -1.8796183e-05 -1.0993955e-05 4.8816273e-06 -1.7470154e-06 8.25695e-06 -3.0419813e-05 9.751731e-07
9.845716e-08 9.1574975e-07 6.5918454e-07 -6.2025797e-06 2.0221258e-07 -5.4609825e-07 -2.2571621e-06 1.0322599e-05
-2.8449458e-07 -1.2038506e-06 8.518122e-06 -4.1105077e-06 -6.4289443e-06 2.3074412e-07 3.5763884e-07 -2.1395297e-06
00000000: 9b19 3235 da42 2636 70ed d6b5 d714 48b7
00000010: df30 e3b6 5208 d9b4 e5eb 49b7 6610 a0b5
00000020: 4d90 40b7 da62 a535 35bc 1bb5 505a feb5
00000030: 457b f4b5 8fbc 57b6 3c51 4cb5 c613 28b6
00000040: c1a3 3136 979c a6b6 7d00 de35 205f 10b9
00000050: f6a0 3735 34a9 ba35 a538 d6b4 2244 48b6
00000060: 1b20 5036 e4b8 2a37 2efa 06b7 fd53 1f36
00000070: 81f4 85b5 c779 cd36 17cc cb36 354e cdb4
00000080: aae3 4e35 71e2 fab5 340a c635 8fe4 b2b5
00000090: be6d 8a35 21e6 8734 2d3b 37b5 8cb7 0838
000000a0: 1917 1f37 3cbe 26b7 252d a635 f720 c535
000000b0: 4d7c 1bb6 1ecc 05b7 92f9 78b6 2ad7 2036
000000c0: 8484 16b6 31d6 cd35 e5b4 5236 aad6 d435
000000d0: cd1f ecb7 e5fc c933 fe02 9db6 cd22 b5b6
000000e0: b8c3 7db6 8d71 5cb6 eb4f a436 3963 87b6
000000f0: 716c ceb5 76c5 9fb7 dc07 f8b3 919e a0b6
00000100: bdd8 c5b6 3b2b deb6 28c3 80b5 4fd1 4b36
00000110: c7c3 2ab5 dd82 9733 2f62 8db6 a7ba 6835
00000120: a86a a136 245d 85b6 53d7 09b6 89a5 aab6
00000130: c2d0 7836 f589 5bb5 f7a8 f3b6 e3a6 24b5
00000140: 35db 6136 ab6c 3237 e522 b8b6 97f3 c836
00000150: 322a 2db6 ac20 40b6 74a7 2fb7 c052 9536
00000160: 2407 9f37 b874 e636 9852 7d36 3bb5 31b5
00000170: 23c8 8836 1fea c6b8 1ac7 78b5 2645 aa35
00000180: 7a9e c936 f9a9 2c36 8d67 00b7 e48c ce37
00000190: 4365 4236 2093 70b5 b771 09b6 f407 6d36
000001a0: c416 da34 8aa6 fdb2 beec c0b4 2f17 9c36
000001b0: 24d2 c5b2 09d3 8735 e4bd ffb4 cfc0 64b5
000001c0: d041 1ab6 7d04 db34 e57b 9536 0258 2c36
000001d0: 4331 2136 da80 0d35 b680 4c37 7c31 1034
000001e0: eb31 b035 b657 e436 1f07 2536 73a6 3134
000001f0: e306 1fb6 f24d d635 a914 fbb6 b9b4 37b4
00000200: 32ba 1f38 b035 23b6 4172 f1b7 3751 6036
00000210: 5224 2a38 d573 d6b4 2256 34b4 8af4 deb7
00000220: 40fa c2b6 a138 42b5 b8ee 2a35 02cf 53b6
00000230: 6037 8fb7 6f14 05b2 aaee b433 0bd4 d2b4
00000240: 878a 7735 24bb 8435 2cb6 1cb7 020c e8b5
00000250: ed55 70b3 dc52 40b7 e714 07b6 6ef3 4fb6
00000260: 0d15 f2b4 2e15 43b4 4589 5eb6 9c05 94b5
00000270: d899 4136 8501 cbb6 3e47 44b6 e951 be35
00000280: 0d27 5936 8467 18b6 6101 8e36 1b9f 6335
00000290: 5d5f 4636 e7ed 3e32 ef94 8b35 0d27 eeb6
000002a0: 745e b7b7 c63b ccb5 8fe5 7935 8aae 1137
000002b0: 24dc fab5 a1e6 9a36 67fc a0b6 8434 46b3
000002c0: 15bd b7b7 d852 5bb6 114e 6f35 3c68 efb6
000002d0: 1582 77b5 df9b eb35 1af7 8db6 a7d9 6136
000002e0: 017a d4b5 9e44 99b1 716f 2436 39bd 2ab7
000002f0: aec5 59b7 78f0 d535 0b01 21b4 7238 c7b6
00000300: 7ed0 00b6 b5e2 03b6 4fe4 9b35 bb47 df35
00000310: 92c2 ed34 e650 f735 de09 5435 8e75 0336
00000320: 6992 02b6 34bd 5935 a546 c834 b79a 33b8
00000330: bb81 01b6 1b8d 6b36 33d3 7a35 b2a5 1836
00000340: 46b9 d435 c517 b8b4 e451 2bb4 b83e b8b7
00000350: 9ac9 3c35 3d82 bb35 5953 d135 adc6 2935
00000360: 6a2c cdb5 b56e cbb6 c908 2035 5022 ce34
00000370: 6ac0 3ab6 55f6 93b5 1b5a 14b6 0f76 3035
00000380: ab13 db36 20a4 9d36 e71f 8bb6 be58 8d35
00000390: 7f08 38b7 f6ec a635 0ab9 e036 44b3 3b36
000003a0: 5a89 50b5 7fac 9db7 ad72 38b7 dccc a336
000003b0: fe7a eab5 5587 0a37 0d2e ffb7 b1e2 8235
000003c0: 656f d333 d8d1 7535 d1f2 3035 c11f d0b6
000003d0: c51f 5934 9697 12b5 c079 17b6 3a2f 2d37
000003e0: a3bc 98b4 fe93 a1b5 0ee9 0e37 feec 89b6
000003f0: 36b8 d7b6 76c2 7734 8201 c034 d794 0fb6

hgcn1.theta.bias f4 [64]
-0.00070031954 -7.252798e-05 0.0006775218 -0.00060008676 0.11164163 -0.0018951724 -0.13331518 -0.00017506728
-0.1357712 -0.020685565 -0.0008952042 -0.12982853 0.1469678 -0.1275901 -0.04721434 -0.04345797
-0.004511238 -0.13155855 -0.010891708 -0.00068462396 -0.0009204799 0.13274759 -0.00545039 -0.13143636
-0.006032186 -0.00010576999 -0.12744796 0.13050257 0.1582868 -0.12997313 0.0752744 0.0620454
0.09084219 -0.10740243 -0.0020181506 -0.008828018 0.120852396 0.06667161 -0.11523119 -0.07485317
-0.00012475131 0.0672648 -0.13343602 -0.0044396557 0.09906292 -0.00044313204 -0.13091655 0.06756575
-0.0076230224 -6.406508e-06 -0.0009435617 -0.0012800267 -0.0007793171 -0.0002516499 -0.13109873 0.077649675
-0.0051663956 -0.10775409 -0.013065746 0.083612986 -0.00013437557 -0.00030554924 -0.093077645 0.15020135
00000000: a695 37ba 2a1a 98b8 b89b 313a 244f 1dba
00000010: 5ea4 e43d 6f67 f8ba c683 08be 4492 37b9
00000020: 9b07 0bbe c674 a9bc 23ac 6aba c5f1 04be
00000030: ba7e 163e fba6 02be d363 41bd fc00 32bd
00000040: 02d3 93bb 49b7 06be 2273 32bc 5678 33ba
00000050: 5c4c 71ba fcee 073e 2f99 b2bb 4197 06be
00000060: a5a9 c5bb d5d0 ddb8 b881 02be 77a2 053e
00000070: ef15 223e ad17 05be 7729 9a3d 5123 7e3d
00000080: 780b ba3d cef5 dbbd f342 04bb 64a3 10bc
00000090: 7681 f73d 208b 883d 55fe ebbd 9e4c 99bd
000000a0: adcf 02b9 21c2 893d 74a3 08be 887a 91bb
000000b0: 80e1 ca3d 2d54 e8b9 fd0e 06be e95f 8a3d
000000c0: 8cca f9bb 7cf7 d6b6 5b59 77ba 92c6 a7ba
000000d0: 164b 4cba e1ef 83b9 bf3e 06be cb06 9f3d
000000e0: de4a a9bb 2dae dcbd b611 56bc 493d ab3d
000000f0: 2be7 0cb9 2032 a0b9 7e9f bebd 62ce 193e

hgcn2.theta.weight f4 [7, 704]
-5.7767887e-05 9.080126e-07 0.00019814479 1.0682155e-05 -0.16488332 -0.0017006199 2.056957e-06 -2.0449856e-06
-6.381096e-06 0.0004221057 -1.2181525e-05 -6.110491e-06 -0.34339017 6.2922554e-06 -1.1007345e-05 0.001295835
-8.74537e-07 1.3671791e-05 0.00036032018 -1.8129684e-05 1.120864e-05 -0.51086646 0.0007231188 1.013996e-05
0.00032528996 -1.4805525e-05 -1.040637e-06 -0.33071962 0.18063053 1.3109107e-05 -0.15864834 -0.3778523
-0.05818804 5.74168e-07 -3.651329e-06 -5.9043136e-06 0.5700479 -0.33775356 5.2860896e-06 -6.7974906e-07
-1.221119e-05 -0.060460813 1.1891389e-05 -0.0001911463 -0.1356442 0.0004104977 -1.0079586e-05 0.55702317
-0.00048721713 -1.751666e-06 -4.97842e-05 2.5836391e-06 -1.975088e-06 -0.00031756016 -4.863661e-06 0.56095845
-0.00089665625 3.510759e-06 0.00045522058 0.6927252 2.2287502e-05 2.6557052e-05 1.5483538e-06 -0.5453604
-4.5087752e-05 1.2649597e-05 -2.418466e-05 -4.1342228e-06 -0.15124217 -0.00092953997 -1.6956086e-05 7.1712784e-06
-2.4323424e-06 0.0018793311 -1.0070975e-05 -4.985937e-06 -0.37124002 1.5145541e-05 -1.0518465e-05 0.00149534
-2.608799e-06 4.5158745e-06 0.00075304427 -6.422948e-06 5.497596e-06 -0.5125308 0.0012070996 1.7833505e-08
0.0014907137 -1.0629998e-05 -8.464575e-06 -0.31827915 0.116588585 1.8982875e-05 -0.13558385 -0.35575417
-0.06952961 1.6459476e-06 2.3903303e-06 -1.2079804e-06 0.5879179 -0.3131929 6.5124243e-07 1.9171877e-07
-2.797374e-05 -0.043117505 1.5248692e-05 0.00073458324 -0.15282017 0.00010523128 -3.2862015e-06 0.54072696
0.0003813561 1.9321637e-06 -3.49617e-05 -1.2316892e-06 7.931502e-06 -0.00034706257 -2.062148e-05 0.5805075
-0.0010296742 5.2062255e-06 0.00015693837 0.67934835 2.908315e-05 5.4975403e-06 -1.2158275e-06 -0.5192331
-4.7082804e-06 1.7888941e-06 0.00024056838 4.7880917e-06 -0.13725133 0.00081512984 -1.28588845e-05 -5.4529805e-06
-8.677249e-06 0.0005099624 1.34763495e-05 1.0847446e-06 -0.3686323 1.6480446e-05 -1.3048308e-06 0.002071833
-2.5109173e-06 1.1794225e-05 0.0005201364 5.603213e-05 2.2120012e-05 -0.5006386 0.00087061647 1.5322748e-05
-0.001628783 -1.7589689e-06 1.4360239e-05 -0.3027352 0.12659267 8.038111e-06 -0.14238219 -0.3841296
-0.07644284 1.3400053e-06 1.2074747e-06 4.1275352e-06 0.6269218 -0.29898787 3.4315053e-06 2.42612e-06
-1.851223e-05 -0.016214116 -2.9210116e-06 -7.8577315e-05 -0.16606632 1.4625074e-05 -5.9654476e-06 0.5147202
-9.8194705e-06 7.00791e-06 -2.6540869e-05 8.422964e-07 -1.4305655e-06 0.00022352512 -2.8581693e-05 0.52851206
-0.0012288138 7.2099533e-06 0.00011801625 0.6567425 1.0879114e-05 9.793597e-06 1.0981624e-06 -0.51114506
-2.38554e-05 -2.4125166e-06 0.00011551448 -1.6920551e-06 -0.16455726 0.0013981729 -1.0175399e-05 1.1393286e-05
1.2514691e-05 -0.00080278027 1.1758737e-05 -3.832071e-06 -0.35018924 -3.1011932e-06 -1.10222045e-05 0.0012970658
-2.9459188e-06 1.5945778e-05 0.0006467266 -3.6893445e-05 8.5819165e-06 -0.50968665 0.0005490051 -8.593901e-06
-0.00013106487 -1.5697606e-05 1.3489985e-05 -0.28360888 0.07687195 1.936177e-05 -0.14679147 -0.399246
-0.07318277 9.643765e-07 3.817886e-06 -4.69413e-06 0.5661543 -0.31481403 9.160982e-07 -2.1604199e-06
-1.9863446e-05 -0.030865695 2.0552856e-05 0.0001166236 -0.13328263 -0.0005901867 -8.395764e-06 0.47864956
-0.0014698941 6.8947893e-06 -5.81655e-05 -2.6466507e-06 -3.4211553e-05 0.00025527403 -1.8275156e-05 0.5430574
-0.0018332925 -6.99452e-06 0.00042797634 0.69443697 3.1245181e-06 -4.8763836e-06 -1.74609e-07 -0.5345199
00000000: cc4b 72b8 27be 7335 16c5 4f39 8237 3337
00000010: 2cd7 28be 56e7 deba 410a 0a36 963c 09b6
00000020: 321d d6b6 114e dd39 405f 4cb7 b808 cdb6
00000030: d6d0 afbe 1022 d336 30ac 38b7 02d9 a93a
00000040: bac1 6ab5 e55f 6537 5be9 bc39 3315 98b7
00000050: be0c 3c37 25c8 02bf ae8f 3d3a cc1e 2a37
00000060: ae8b aa39 3f65 78b7 04ac 8bb5 1554 a9be
00000070: 36f7 383e 30ef 5b37 b674 22be db75 c1be
00000080: 9556 6ebd 8620 1a35 5b09 75b6 ab1d c6b6
00000090: a9ee 113f 09ee acbe 2a5f b136 0078 36b5
000000a0: a9de 4cb7 c2a5 77bd 2081 4737 726e 48b9
000000b0: 50e6 0abe 1238 d739 7e1b 29b7 1299 0e3f
000000c0: 2d71 ffb9 c91a ebb5 61cf 50b8 9562 2d36
000000d0: c18b 04b6 347e a6b9 8832 a3b6 f99a 0f3f
000000e0: 950d 6bba 619a 6b36 acaa ee39 7056 313f
000000f0: 0cf6 ba37 d6c6 de37 08d1 cf35 bd9c 0bbf
00000100: 9b1c 3db8 9b39 5437 29e0 cab7 b4b8 8ab6
00000110: 3adf 1abe 5fac 73ba eb3c 8eb7 d0a0 f036
00000120: 533b 23b6 e353 f63a 82f6 28b7 df4c a7b6
00000130: 2c13 bebe 9a19 7e37 7778 30b7 49ff c33a
00000140: d312 2fb6 1187 9736 f267 453a b484 d7b6
00000150: fd77 b836 3835 03bf 8b37 9e3a 4b30 9932
00000160: 0d64 c33a 7e57 32b7 1303 0eb7 7cf5 a2be
00000170: ffc5 ee3d 6a3d 9f37 7ed6 0abe 6925 b6be
00000180: 8a65 8ebd 54ea dc35 9069 2036 e421 a2b5
00000190: ca81 163f d25a a0be 0ad1 2e35 41db 4d34
000001a0: 26a9 eab7 fb9b 30bd a2d4 7f37 0c91 403a
000001b0: e47c 1cbe 9daf dc38 8388 5cb6 156d 0a3f
000001c0: c0f0 c739 52aa 0136 d7a3 12b8 8550 a5b5
000001d0: 8b11 0537 f3f5 b5b9 4bfc acb7 249c 143f
000001e0: 22f6 86ba 23b1 ae36 d38f 2439 c6e9 2d3f
000001f0: 97f7 f337 8377 b836 842f a3b5 76ec 04bf
00000200: d2fb 9db6 ef19 f035 1541 7c39 65a9 a036
00000210: 9d8b 0cbe 70ae 553a 7dbc 57b7 bff8 b6b6
00000220: 8094 11b7 ffae 053a 7b18 6237 8a97 9135
00000230: 5fbd bcbe 7d3f 8a37 a521 afb5 97c7 073b
00000240: 3b81 28b6 d0df 4537 c359 083a 0b04 6b38
00000250: 5d8e b937 da29 00bf 153a 643a 5a89 8037
00000260: e37c d5ba b615 ecb5 c2ec 7037 1c00 9bbe
00000270: 82a1 013e 6ddb 0637 a3cc 11be a3ac c4be
00000280: 108e 9cbd 3bda b335 8410 a235 427f 8a36
00000290: f27d 203f f014 99be d048 6636 6dd0 2236
000002a0: b64a 9bb7 77d3 84bc 9906 44b6 e0c9 a4b8
000002b0: 4a0d 2abe 375e 7537 ce2a c8b6 b4c4 033f
000002c0: 4ebe 24b7 7d25 eb36 15a4 deb7 2b1a 6235
000002d0: db01 c0b5 1162 6a39 b8c2 efb7 914c 073f
000002e0: 2610 a1ba 07ed f136 7e7f f738 4720 283f
000002f0: 7085 3637 2e4f 2437 9364 9335 67da 02bf
00000300: 151d c8b7 b8e6 21b6 5d40 f238 921a e3b5
00000310: b381 28be e642 b73a 02b7 2ab7 ca25 3f37
00000320: 30f6 5137 ac71 52ba 6447 4537 3d95 80b6
00000330: 014c b3be 181e 50b6 02ec 38b7 4e02 aa3a
00000340: 80b2 45b6 4cc3 8537 1689 293a 09be 1ab8
00000350: 0dfb 0f37 d37a 02bf 1ceb 0f3a 862e 10b7
00000360: 756e 09b9 5aae 83b7 0b53 6237 2f35 91be
00000370: 0a6f 9d3d 166b a237 8150 16be f969 ccbe
00000380: d9e0 95bd b96f 8135 641b 8036 4582 9db6
00000390: 7def 103f 4e2f a1be cae9 7535 bbfb 10b6
000003a0: 6da0 a6b7 0eda fcbc ec68 ac37 d293 f438
000003b0: 3e7b 08be c2b6 1aba 88db 0cb7 8e11 f53e
000003c0: 76a9 c0ba ca59 e736 bbf6 73b8 1d9d 31b6
000003d0: 607e 0fb8 4dd6 8539 994d 99b7 cf05 0b3f
000003e0: 174b f0ba 78b2 eab6 0362 e039 9fc6 313f
000003f0: d0ae 5136 d19f a3b6 287c 3bb4 4cd6 08bf

hgcn2.theta.bias f4 [7]
-0.18844241 0.35364714 0.30004632 -0.20672598 0.122065105 -0.4665022 0.37766406
00000000: 0cf7 40be 3d11 b53e ac9f 993e faaf 53be
00000010: 45fd f93d 60d9 eebe 2f5d c13e
