src/model/unisage_cocitationcora_best_model_1229.pth (torch, 375275 bytes, 12 tensors)

layers.0.bn.weight f4 [64]
1.6165224 0.13780935 0.53928715 0.114255086 0.6203095 0.01284767 0.44340423 1.5668416
0.51267034 3.1895778 2.5377116 0.17001832 0.37838453 -0.16603073 1.3290852 2.135146
2.4084122 0.40390188 0.36747727 0.9884178 0.32025462 0.45982346 0.22080599 2.360876
1.3098161 0.27887064 0.2047855 0.5745178 0.18231754 0.0025058116 0.13451925 0.61068565
0.5614467 0.20159175 0.14948358 -0.039655514 0.19305971 0.031159835 0.82294387 0.1701362
1.8690791 0.0113120815 0.5868627 2.8860772 0.46044543 1.6857597 0.43926457 0.6153929
1.0373011 -0.51500225 0.23143144 2.4785085 0.7664006 0.08286764 1.4444969 2.842798
0.27055317 0.20788136 -0.14726359 0.3242342 0.14196785 1.2029413 -0.17812562 -0.1146391
00000000: 35ea ce3f e51d 0d3e b90e 0a3f 92fe e93d
00000010: 9acc 1e3f 097f 523c e105 e33e 448e c83f
00000020: 5d3e 033f 0b22 4c40 de69 2240 4819 2e3e
00000030: 9ebb c13e f603 2abe 771f aa3f 3ba6 0840
00000040: 6d23 1a40 3acc ce3e fb25 bc3e f308 7d3f
00000050: 6af8 a33e fb6d eb3e f71a 623e 9818 1740
00000060: 0ea8 a73f 22c8 8e3e 4ab3 513e 9913 133f
00000070: 73b1 3a3e 8b38 243b 6abf 093e e555 1c3f
00000080: f9ba 0f3f 116e 4e3e 3912 193e d26d 22bd
00000090: 72b1 453e e942 ff3c 73ac 523f 2f38 2e3e
000000a0: fc3d ef3f 4f56 393c a23c 163f 7db5 3840
000000b0: 81bf eb3e f9c6 d73f 49e7 e03e 648a 1d3f
000000c0: 48c6 843f 30d7 03bf 5dfc 6c3e e29f 1e40
000000d0: d432 443f 82b6 a93d 46e5 b83f 67f0 3540
000000e0: f285 8a3e dade 543e 44cc 16be 0602 a63e
000000f0: 0560 113e fbf9 993f 9066 36be e8c7 eabd

layers.0.bn.bias f4 [64]
-0.39509115 0.0196413 0.20213558 -0.017477188 -0.23016636 -0.32259423 -0.27673632 0.2603919
-0.32623774 -1.069907 -0.7394031 -0.34980604 -0.29883996 0.16339822 0.057117075 0.017148143
0.017297138 -0.019946229 -0.36661002 -0.20901205 -0.09909535 -0.31997147 0.15310812 -0.33725235
-0.44208294 -0.4606071 -0.494997 -0.6425506 0.14664733 -0.3014255 -0.33736765 -0.35143197
-0.3323235 0.0032997807 -0.43655363 -0.29980826 -0.53715515 0.012994189 -0.30032784 -0.5618383
0.13882045 -0.6297913 -0.3345117 -0.45090058 -0.24925414 -0.14494783 -0.21479617 -0.20727824
-0.36687684 -0.2023342 0.10460764 -0.6069398 -0.2958738 -0.6537733 -0.22032999 -0.3915716
-0.31140402 -0.73980665 0.03610292 0.091678016 -0.04044127 -0.22309272 -0.16886091 0.18845649
00000000: 6349 cabe cbe6 a03c a1fc 4e3e 522c 8fbc
00000010: bbb0 6bbe 122b a5be 62b0 8dbe 1652 853e
00000020: a208 a7be b6f2 88bf 8649 3dbf c719 b3be
00000030: 8d01 99be dd51 273e 98f3 693d 437a 8c3c
00000040: bab2 8d3c 4666 a3bc 4fb4 bbbe 4107 56be
00000050: 81f2 cabd 4dd3 a3be 60c8 1c3e 57ac acbe
00000060: b258 e2be b2d4 ebbe 3f70 fdbe 327e 24bf
00000070: b82a 163e 7154 9abe 74bb acbe e4ee b3be
00000080: 4e26 aabe 2241 583b f583 dfbe 7880 99be
00000090: 0083 09bf 94e5 543c 92c4 99be a3d4 0fbf
000000a0: f326 0e3e 013a 21bf 1e45 abbe 71dc e6be
000000b0: 7a3c 7fbe 346d 14be 87f3 5bbe bf40 54be
000000c0: 48d7 bbbe b230 4fbe 883c d63d 6860 1bbf
000000d0: c57c 97be b05d 27bf 2f9e 61be 137c c8be
000000e0: 5970 9fbe f863 3dbf a8e0 133d afc1 bb3d
000000f0: bfa5 25bd 6b72 64be e0e9 2cbe bdfa 403e

layers.0.bn.running_mean f4 [64]
0.013325521 -0.07524765 0.023209577 -0.043260843 0.027348312 0.0040177284 0.04892822 -0.007876872
0.08321308 0.03013966 0.02954377 0.055947945 0.09917785 -0.12813881 0.0074711773 0.006133938
0.03335202 0.007899035 0.075573914 0.033956733 -0.020947495 -0.013353554 -0.048167642 0.0313042
0.07985671 0.007728781 0.0038215616 0.0020337927 -0.0033680939 0.033731386 -0.00034190877 0.042744037
0.14829198 -0.033663716 0.0035050935 0.0066322093 0.019065427 -0.106196225 0.057900675 0.001100738
0.017652338 0.022257397 0.126095 0.0033943425 0.042578913 -0.007837433 0.037690222 0.056302425
0.02089663 -0.030335529 -0.05435482 0.018609133 0.07910297 -0.030167324 0.055910017 -0.007511054
0.08221051 0.009297807 -0.110281214 -0.01817187 -0.014401051 0.035286948 -0.042185906 -0.13877152
00000000: 4953 5a3c 711b 9abd 0322 be3c 4832 31bd
00000010: 9109 e03c 26a7 833b f568 483d ff0d 01bc
00000020: 9f6b aa3d 73e7 f63c c705 f23c ac29 653d
00000030: c21d cb3d d236 03be c7d0 f43b 34ff c83b
00000040: 219c 083d f46a 013c 7fc6 9a3d 3716 0b3d
00000050: 159a abbc ddc8 5abc 6f4b 45bd d538 003d
00000060: ea8b a33d b741 fd3b 2a73 7a3b 6149 053b
00000070: 3dbb 5cbb ec29 0a3d 3842 b3b9 5f14 2f3d
00000080: dad9 173e f7e2 09bd b6b5 653b 0153 d93b
00000090: 192f 9c3c 687d d9bd 4229 6d3d a346 903a
000000a0: a39b 903c 2555 b63c 0c1f 013e 9e73 5e3b
000000b0: 3a67 2e3d 9468 00bc 1061 1a3d 5f9d 663d
000000c0: 692f ab3c 3782 f8bc 29a3 5ebd 2e72 983c
000000d0: bd00 a23d 7721 f7bc e701 653d 4a1f f6bb
000000e0: fc5d a83d d455 183c 1edb e1bd 2cdd 94bc
000000f0: 63f2 6bbc 0c89 103d 21cb 2cbd 1f1a 0ebe

layers.0.bn.running_var f4 [64]
0.0039365147 0.004866656 0.005490925 0.0038143876 0.0036775356 0.0046070893 0.003966977 0.004539365
0.004604017 0.002977529 0.004097282 0.0048012603 0.005624378 0.0076536722 0.0033058885 0.0041005113
0.00319953 0.005584269 0.0049475925 0.0036304754 0.004303646 0.0052124187 0.0050789267 0.0037662976
0.0041117067 0.003367069 0.0047205836 0.0037421463 0.00400939 0.003921122 0.003443253 0.00572979
0.0065082926 0.0054992354 0.004179114 0.0049857856 0.0031376907 0.0062121544 0.0047774976 0.0029618714
0.003915419 0.0027029137 0.0069290637 0.00281563 0.0030865339 0.0039255894 0.0047623757 0.004022239
0.0043581543 0.0048053465 0.0055011734 0.0032188448 0.0048303106 0.0025285669 0.005176963 0.002433233
0.007416502 0.0042172577 0.0059818793 0.0040855994 0.0053861737 0.003223732 0.0045297574 0.0070835296
00000000: e1fd 803b 7878 9f3b 38ed b33b cefa 793b
00000010: cf02 713b 11f7 963b 6afd 813b f4be 943b
00000020: 4bdd 963b a622 433b 7e42 863b e453 9d3b
00000030: b44c b83b a8cb fa3b 9ba7 583b 955d 863b
00000040: 35af 513b 3efc b63b 6a1f a23b 45ed 6d3b
00000050: 9905 8d3b f0cc aa3b 206d a63b fdd3 763b
00000060: 7fbb 863b 0baa 5c3b 20af 9a3b cc3e 753b
00000070: 3361 833b c17c 803b 33a8 613b f6c0 bb3b
00000080: 8443 d53b ee32 b43b f3f0 883b cd5f a33b
00000090: b7a1 4d3b 548f cb3b 8e8c 9c3b f51b 423b
000000a0: ea4c 803b 5e23 313b 330d e33b 6f86 383b
000000b0: 7247 4a3b 3ba2 803b b40d 9c3b fccc 833b
000000c0: d9ce 8e3b 2b76 9d3b 3043 b43b 41f3 523b
000000d0: 9547 9e3b 50b6 253b 83a3 a93b e076 1f3b
000000e0: 2106 f33b ec30 8a3b a403 c43b 7ee0 853b
000000f0: 807e b03b 4045 533b 5c6e 943b f41c e83b

layers.0.theta.weight f4 [64, 1433]
0.046008244 0.010340929 0.050823275 0.24214104 0.31494656 -0.0029255268 -0.047389597 -0.049931277
-0.098381534 -0.0012959386 -0.07423521 0.037838094 -0.09220851 -0.12826724 -0.022642784 -0.025550593
0.06476832 0.050639953 0.025385015 0.2679162 -0.043685246 0.046022773 0.003070149 0.07519307
0.006365365 0.14029817 0.13012758 0.13402525 -0.17721342 -0.20392555 -0.00081669533 0.081703976
-0.15090844 -0.07096376 -0.02191536 -0.019042742 -0.02126057 0.0018849313 -0.15564492 -0.15023418
-0.070226744 0.16509703 0.18875317 0.12600842 -0.0034953386 0.06495095 0.031120308 -0.17369604
-0.15669225 0.03287467 -0.023430068 0.4730085 0.1387885 0.007671465 -0.07128323 0.05343248
0.18573768 -0.25546703 -0.07510235 -0.17516036 0.018397225 0.28148943 0.059965853 0.13792133
0.11039941 0.01416582 0.04091617 -0.11363148 0.002056525 0.08371685 -0.20685165 0.06817825
-0.017895747 -0.21065573 -0.21046409 -0.22327739 0.0031790615 -0.040742237 0.24726221 0.08201658
-0.027377995 -0.11529074 0.052227728 0.030321399 0.016084703 -0.108588494 0.0800299 -0.0020816943
0.09768136 0.35669348 0.015767021 -0.0025275208 -0.004717367 -0.15593092 -0.07088138 0.16732787
0.008397036 -0.20233436 0.069128454 -0.11471443 0.049740653 0.011376022 0.18925132 0.11667296
0.03132653 -0.07669019 -0.24067335 -0.22465311 -0.026235934 -0.016547943 0.050151058 0.007075509
0.0019694366 -0.032257084 -0.00016761718 0.035097774 0.102050036 -0.022677347 -0.06570634 -0.0934533
-0.24909256 -0.09210879 -0.16330646 0.035659738 0.0012567142 0.19075812 -0.29239973 0.46192127
-0.042649888 0.11801345 -0.20858349 0.30569434 -0.19832684 0.14748979 -0.06703898 0.33995092
-0.2418628 0.010413812 -0.0050774147 0.0650703 0.00094592734 0.01563284 0.018592615 -0.04259283
-0.02647187 0.057066627 0.006378479 -0.049901456 0.0049230596 -0.18941532 -0.026718471 0.23967652
-0.038067143 -0.002370017 -0.12948182 0.050310943 0.025265174 -0.11208573 0.015419338 0.013485146
0.009598742 -0.02132683 0.085298896 0.01731498 0.00767241 0.0036128561 -0.005696363 -0.098992355
0.024425268 -0.0780984 0.11897698 0.17524745 0.089103445 0.05143943 -0.06975441 -0.12835167
-0.017032767 -0.104903184 -0.008627587 0.08290128 -0.16989034 -0.02078912 0.080931626 0.08656219
-0.0063710855 -0.12534708 0.06064018 0.043755963 0.025041703 0.00022380894 0.025545547 0.006582116
0.25675935 -0.17962658 0.015550025 0.04157697 -0.06485926 0.0019259385 -0.10672005 0.0080729155
0.015663316 0.06190145 -0.02244253 0.17250939 -0.19295448 -0.22679687 0.030615002 -0.13871042
-0.087345265 0.058617234 -0.06976398 0.27528667 -0.084973 -0.08154347 0.020529624 -0.12856317
-0.027550325 0.0054734387 -0.002297887 -0.046159122 -0.05849526 -0.012810247 0.10177814 0.0098752575
-0.11328279 -0.05239731 0.067733735 0.11235984 -0.12091944 -0.13134955 0.069811106 -0.06443353
0.20417157 -0.078551255 -0.06754593 -0.05469428 -0.08821957 0.10010207 0.10674982 0.0061563333
-0.04926745 -0.017569706 -0.015347927 -0.08694293 -0.013808407 0.0037088764 0.32637998 0.12905447
-0.0037950207 -0.02431866 0.25322244 -0.005000533 -0.116199166 -0.016795048 -0.1856479 -0.031513244
00000000: 2473 3c3d 006d 293c 112c 503d d2f3 773e
00000010: ad40 a13e 32ba 3fbb 981b 42bd bd84 4cbd
00000020: 427c c9bd 7cdc a9ba a108 98bd 1efc 1a3d
00000030: d1d7 bcbd 7d58 03be 5c7d b9bc 7a4f d1bc
00000040: 41a5 843d d76b 4f3d 3cf4 cf3c 502c 893e
00000050: 4def 32bd 6082 3c3d 8e34 493b d3fe 993d
00000060: 8d94 d03b 53aa 0f3e 2a40 053e ea3d 093e
00000070: 6f77 35be dcd1 50be 7f17 56ba 6a54 a73d
00000080: be87 1abe 7355 91bd d787 b3bc 86ff 9bbc
00000090: a62a aebc cd0f f73a 6261 1fbe fdd6 19be
000000a0: 0ad3 8fbd 320f 293e 8348 413e 5a08 013e
000000b0: 0d12 65bb 0105 853d 04f0 fe3c 60dd 31be
000000c0: ef73 20be 97a7 063d 6af0 bfbc 2c2e f23e
000000d0: 931e 0e3e ea60 fb3b f1fc 91bd 04dc 5a3d
000000e0: 0532 3e3e 93cc 82be 43cf 99bd 3d5d 33be
000000f0: c7b5 963c 621f 903e c19e 753d 403b 0d3e
00000100: 1619 e23d c117 683c b797 273d 9fb7 e8bd
00000110: c4c6 063b bd73 ab3d ebd0 53be 0aa1 8b3d
00000120: 1a9a 92bc 23b6 57be e683 57be d4a2 64be
00000130: cd57 503b 55e1 26bd 4e32 7d3e 4ff8 a73d
00000140: d147 e0bc 8d1d ecbd beec 553d 9564 f83c
00000150: 11c4 833c a563 debd b7e6 a33d 096d 08bb
00000160: 2a0d c83d 87a0 b63e d729 813c c3a4 25bb
00000170: 2494 9abb 5bac 1fbe 422a 91bd ff57 2b3e
00000180: b993 093c bd30 4fbe 3893 8d3d 66ef eabd
00000190: dbbc 4b3d 7f62 3a3c 19cb 413e 3cf2 ee3d
000001a0: 3f50 003d bf0f 9dbd 1373 76be 770b 66be
000001b0: beec d6bc 8d8f 87bc 326b 4d3d acd9 e73b
000001c0: aa11 013b 0120 04bd 65c2 2fb9 afc2 0f3d
000001d0: 9cff d03d d8c5 b9bc 0c91 86bd 7264 bfbd
000001e0: 1f12 7fbe 89a3 bcbd cf39 27be f20f 123d
000001f0: 55b8 a43a 1956 433e 6bb5 95be f280 ec3e
00000200: a6b1 2ebd 09b1 f13d e996 55be f883 9c3e
00000210: 3116 4bbe 9007 173e bc4b 89bd 0c0e ae3e
00000220: e2aa 77be b19e 2a3c 7160 a6bb 9443 853d
00000230: 1cf8 773a 7110 803c 8a4f 983c d275 2ebd
00000240: 89db d8bc b2be 693d 8f02 d13b 7865 4cbd
00000250: 9e51 a13b 17f6 41be b2e0 dabc c36d 753e
00000260: 4bec 1bbd 4a52 1bbb e296 04be d912 4e3d
00000270: e9f8 ce3c 348d e5bd 64a1 7c3c cdf0 5c3c
00000280: 0b44 1d3c 9bb5 aebc 30b1 ae3d 25d8 8d3c
00000290: d768 fb3b abc5 6c3b 8ea8 babb 81bc cabd
000002a0: 8017 c83c 0ef2 9fbd 34aa f33d 1174 333e
000002b0: de7b b63d 27b2 523d 66db 8ebd 9f6e 03be
000002c0: 4d88 8bbc 7bd7 d6bd b95a 0dbc 25c8 a93d
000002d0: bcf7 2dbe f24d aabc 7bbf a53d 8447 b13d
000002e0: 8ac4 d0bb fc5a 00be d661 783d 7439 333d
000002f0: 4224 cd3c 41ae 6a39 e544 d13c caae d73b
00000300: f675 833e 08f0 37be 88c5 7e3c 9d4c 2a3d
00000310: efd4 84bd c66f fc3a 0b90 dabd 4344 043c
00000320: 5b50 803c 608c 7d3d 66d9 b7bc 4da6 303e
00000330: dc95 45be 703d 68be 50cc fa3c 1b0a 0ebe
00000340: 13e2 b2bd a018 703d 6be0 8ebd 60f2 8c3e
00000350: 5306 aebd 4300 a7bd be2d a83c 10a6 03be
00000360: 38b1 e1bc 885a b33b 2698 16bb 5911 3dbd
00000370: ba98 6fbd 12e2 51bc 0f71 d03d d5cb 213c
00000380: cf00 e8bd 909e 56bd fcb7 8a3d ea1c e63d
00000390: 9da4 f7bd 7f80 06be 20f9 8e3d baf5 83bd
000003a0: 5a12 513e 7bdf a0bd 8555 8abd 1c07 60bd
000003b0: 76ac b4bd 5002 cd3d a69f da3d 11bb c93b
000003c0: aacc 49bd 58ee 8fbc df75 7bbc 230f b2bd
000003d0: a83c 62bc 9f10 733b 471b a73e db26 043e
000003e0: e2b5 78bb ed37 c7bc 5fa6 813e 83db a3bb
000003f0: d4f9 edbd c595 89bc 7c1a 3ebe 0814 01bd

layers.0.theta.bias f4 [64]
-0.00010724803 5.61935e-05 -1.1481889e-05 2.3263512e-07 7.317012e-05 1.5654383e-05 -1.5271025e-05 9.285555e-05
-1.0512326e-05 -0.00021933761 -0.00015821384 -1.749503e-05 -1.4653336e-05 -3.420031e-05 -9.85729e-05 3.5765002e-05
-0.00012792968 -3.2536132e-05 1.7077191e-05 8.40988e-05 3.9684273e-05 8.471019e-06 1.5788435e-05 -7.119687e-05
0.0003887682 2.9778656e-05 -2.0139058e-05 -4.6110745e-06 1.2616919e-05 -1.36160215e-05 1.4868117e-06 1.8420034e-06
-5.7097644e-05 -1.5579506e-05 1.01321875e-05 -4.9697303e-07 -1.7621538e-05 1.3087925e-05 -2.7567581e-05 -1.6006323e-05
-7.7603545e-05 1.2159231e-05 -2.8579012e-05 -8.297193e-05 5.371744e-06 -0.0001550686 1.5940832e-05 1.294664e-06
-1.44130345e-05 -1.0629179e-05 4.7683347e-06 7.065913e-05 -6.525072e-05 1.4072114e-05 2.5803796e-05 1.5487842e-05
-1.7621065e-05 6.120353e-06 -2.5635472e-05 5.570897e-05 2.9708284e-05 -3.1084564e-05 1.1861399e-05 2.5786305e-05
00000000: 59ea e0b8 50b1 6b38 56a2 40b7 41ca 7934
00000010: e972 9938 8851 8337 471a 80b7 72bb c238
00000020: 195e 30b7 fefd 65b9 34e6 25b9 4ac2 92b7
00000030: 99d7 75b7 4e72 0fb8 ecb8 ceb8 6102 1638
00000040: dd24 06b9 6877 08b8 fd40 8f37 335e b038
00000050: aa72 2638 c01e 0e37 6871 8437 874f 95b8
00000060: 96d3 cb39 2dcd f937 4cf0 a8b7 d4b8 9ab6
00000070: 41ad 5337 5e70 64b7 768e c735 c13a f735
00000080: 217c 6fb8 bcb0 82b7 6afd 2937 ba67 05b5
00000090: f7d1 93b7 3694 5b37 ee40 e7b7 5145 86b7
000000a0: 16bf a2b8 80ff 4b37 f6bc efb7 3701 aeb8
000000b0: ee3e b436 e999 22b9 adb8 8537 51c4 ad35
000000c0: 83cf 71b7 fa53 32b7 afff 9f36 d52e 9438
000000d0: 37d7 88b8 4517 6c37 3b75 d837 e3eb 8137
000000e0: f3d0 93b7 6f5d cd36 c20b d7b7 0da9 6938
000000f0: 0e36 f937 cc60 02b8 5200 4737 ab4f d837

layers.1.bn.weight f4 [7]
1.3615946 1.5825418 2.0567923 2.3020356 1.6380918 2.6900928 1.2058535
00000000: bb48 ae3f bb90 ca3f 7ca2 0340 8d54 1340
00000010: feac d13f 7b2a 2c40 6859 9a3f

layers.1.bn.bias f4 [7]
0.05389241 -0.06464891 -0.9819125 0.5564042 -0.15716457 -0.130985 -0.32932797
00000000: 4abe 5c3d a666 84bd 9e5e 7bbf 8170 0e3f
00000010: c0ef 20be ef20 06be ad9d a8be

layers.1.bn.running_mean f4 [7]
-2.7914267 -0.9291682 0.14814357 -0.9726371 5.2825766 2.0080652 -2.3926516
00000000: bca6 32c0 f8dd 6dbf f3b2 173e bffe 78bf
00000010: de0a a940 2484 0040 3421 19c0

layers.1.bn.running_var f4 [7]
171.09688 84.077034 75.24373 194.41531 134.11624 98.753075 82.14766
00000000: cd18 2b43 7127 a842 ca7c 9642 526a 4243
00000010: c21d 0643 9381 c542 9a4b a442

layers.1.theta.weight f4 [7, 64]
-0.1844458 -0.17146145 -0.4040985 0.09581265 0.2954245 -0.06614903 -0.19426057 -0.5517582
0.35359013 -1.1153207 -0.6050857 -0.19304982 0.30108404 0.39861286 0.55355746 0.9970878
-0.9820922 0.21820614 0.22457801 0.64965343 -0.1575071 0.27559468 -0.18018335 -0.2648415
0.19275536 0.06529522 0.1279045 0.4279124 0.17774373 0.2909014 0.034244645 0.42701906
0.16983107 0.5142297 0.26347688 0.29547948 -0.32907906 0.39677465 0.46376663 0.16101912
0.8778404 -0.17632331 0.23114824 -1.2411073 -0.18469554 -0.33013663 0.013517144 0.34080362
0.7012567 0.19731402 0.2552136 -0.7628638 0.4141931 -0.095489495 0.17311572 -0.18537088
0.15417074 0.22747532 0.25263053 -0.33266988 0.27933806 0.01915262 0.31785396 0.121705696
0.21808654 -0.000999192 0.12035203 0.08865854 -0.25834915 0.20084366 0.13012329 0.066650316
0.30261594 -0.78032416 0.5764028 -0.04717763 0.32800654 0.19124512 0.57838154 -0.6188477
-0.5975361 0.077758424 -0.15885527 0.066447146 0.3341845 0.23426434 0.15908426 0.43796906
0.6342529 0.050048042 -0.0036964156 0.008730465 -0.36082375 0.19595917 0.019840166 -0.3616443
-0.2541745 -0.105811715 -0.17700219 -0.24992976 -0.2494161 -0.07776263 -0.7553528 -0.018853782
-0.37449306 0.23981582 -0.0645502 -0.48593313 0.16700535 -0.15884091 0.46621183 -0.16627815
0.22120401 0.34669554 -0.10692091 1.2253345 0.2016128 0.23070595 -0.63804847 -0.39141184
0.289279 -0.44579405 0.19395852 -0.09542269 0.02332081 -0.08096389 -0.1292597 0.12856823
-0.06890043 -0.31379676 -0.0018316973 -0.22643493 -0.17960043 -0.23051299 -0.29582486 0.5455015
-0.29508975 -0.52888614 0.9065621 -0.16333888 -0.10598963 0.21754238 -0.4565363 0.56076187
-0.64290804 0.2500023 -0.012430465 0.013967096 0.08636379 -0.16409184 -0.24781452 -0.69951457
1.4596026 -0.025092576 -0.18943128 0.14839524 0.08735372 -0.3421093 -0.07373185 -0.034981746
-0.17321521 -0.21907154 0.13133648 -0.08386036 -0.40218785 -0.18608503 -0.38151956 0.24671105
-0.03869734 -0.012049707 -0.32476443 0.96499914 -0.32519117 -0.32144645 -0.061036617 -0.06793539
-0.44024152 -0.012669191 -0.11226696 -0.064412616 -0.20561723 0.0052471384 -0.26682323 -0.31994426
0.010506952 -0.22040744 -0.15108208 -0.039340127 -0.18889533 0.39032304 -0.16869509 0.0072133727
-0.14326116 0.19369653 0.11472573 0.018461213 0.10117218 0.27418447 0.09166197 -0.8262838
0.35023773 -1.0914499 -0.8638258 0.16979346 -0.12858061 0.039987832 0.35081765 -0.58139926
0.67617077 -0.44923905 0.3473891 0.053004377 0.28855583 -0.15241413 0.23981783 -0.74017966
-0.54668355 -0.008037655 0.025385404 -0.15140408 -0.4360605 0.2191896 0.14521454 0.097215705
-0.035971176 0.03552872 0.012625714 0.10657474 0.08706257 -0.16651778 0.04893924 0.11887255
-0.33204415 0.11559447 0.38215664 1.2895577 0.2808525 -0.41583648 0.1187566 0.40530503
-0.2754391 0.05716138 0.07651118 -0.38583207 -0.71872085 0.10336925 0.67728734 1.6615835
-0.2366525 0.13606264 0.21713261 0.19877397 0.09279532 -0.32593784 -0.049889043 0.005328319
00000000: 5cdf 3cbe 9793 2fbe 00e6 cebe 6c39 c43d
00000010: e141 973e 2579 87bd 3eec 46be 0740 0dbf
00000020: c409 b53e d4c2 8ebf e5e6 1abf daae 45be
00000030: b027 9a3e fc16 cc3e f1b5 0d3f 2541 7f3f
00000040: 656a 7bbf 6e71 5f3e c7f7 653e b04f 263f
00000050: 8b49 21be bf1a 8d3e fc81 38be 4e99 87be
00000060: a961 453e 80b9 853d 66f9 023e 5617 db3e
00000070: 7402 363e 07f1 943e 1d44 0c3d 3ea2 da3e
00000080: 32e8 2d3e 8fa4 033f 71e6 863e 1649 973e
00000090: 0d7d a8be 0c26 cb3e d272 ed3e 32e2 243e
000000a0: 26ba 603f 198e 34be 20b2 6c3e 9bdc 9ebf
000000b0: d420 3dbe ab07 a9be 0377 5d3c d07d ae3e
000000c0: 8f85 333f b00c 4a3e 5bab 823e 0b4b 43bf
000000d0: 1e11 d43e ff8f c3bd 3f45 313e ddd1 3dbe
000000e0: efde 1d3e 4aef 683e ca58 813e b553 aabe
000000f0: 6605 8f3e f5e5 9c3c c1bd a23e d640 f93d
00000100: 1452 5f3e 52f7 82ba 207b f63d 9c92 b53d
00000110: 5746 84be f6a9 4d3e 0a3f 053e f67f 883d
00000120: 7af0 9a3e 53c3 47bf 228f 133f 553d 41bd
00000130: 79f0 a73e c3d5 433e d010 143f ce6c 1ebf
00000140: 20f8 18bf cf3f 9f3d f5aa 22be 7115 883d
00000150: 3b1a ab3e fee2 6f3e fce6 223e 7b3d e03e
00000160: 665e 223f 2dff 4c3d 903f 72bb 390a 0f3c
00000170: e4bd b8be 85a9 483e d887 a23c 7129 b9be
00000180: 2923 82be d0b3 d8bd 1040 35be 96ed 7fbe
00000190: ef66 7fbe 0442 9fbd cd5e 41bf 3f73 9abc
000001a0: 8ebd bfbe 4792 753e e532 84bd 3acc f8be
000001b0: 7303 2b3e 31a7 22be 51b3 ee3e d244 2abe
000001c0: 4e83 623e 1482 b13e 5af9 dabd c3d7 9c3f
000001d0: 9673 4e3e 2e3e 6c3e 2557 23bf 2267 c8be
000001e0: 611c 943e 1e3f e4be 109d 463e f96c c3bd
000001f0: 490b bf3c 65d0 a5bd a85c 04be 64a7 033e
00000200: ab1b 8dbd f8a9 a0be 9015 f0ba 8fde 67be
00000210: 2de9 37be 990b 6cbe 5b76 97be fca5 0b3f
00000220: 0116 97be 1565 07bf 7414 683f 4f42 27be
00000230: 1711 d9bd 6ec3 5e3e 20bf e9be 178e 0f3f
00000240: 9f95 24bf 4d00 803e 26a9 4bbc 3fd6 643c
00000250: 80df b03d b107 28be 17c3 7dbe 6313 33bf
00000260: 42d4 ba3f f28e cdbc 46fa 41be ecf4 173e
00000270: 82e6 b23d f328 afbe b900 97bd 0549 0fbd
00000280: 545f 31be 4a54 60be 127d 063e fbbe abbd
00000290: 91eb cdbe 138d 3ebe 8856 c3be d2a1 7c3e
000002a0: 1a81 1ebd 226c 45bc 8647 a6be 2f0a 773f
000002b0: 757f a6be a194 a4be 8801 7abd b621 8bbd
000002c0: 5667 e1be 7092 4fbc 38ec e5bd c3ea 83bd
000002d0: 538d 52be 30f0 ab3b 0e9d 88be bccf a3be
000002e0: 5a25 2c3c 7db2 61be 43b5 1abe 1d23 21bd
000002f0: c76d 41be 6cd8 c73e 68be 2cbe 285e ec3b
00000300: 0eb3 12be 6258 463e 53f5 ea3d f83b 973c
00000310: 5c33 cf3d e861 8c3e 45b9 bb3d 5687 53bf
00000320: 5c52 b33e a1b4 8bbf b023 5dbf 56de 2d3e
00000330: a3aa 03be 48ca 233d 5f9e b33e 95d6 14bf
00000340: 8719 2d3f a902 e6be fcdc b13e 1e1b 593d
00000350: 97bd 933e 7312 1cbe ce92 753e 6a7c 3dbf
00000360: 74f3 0bbf 5eb0 03bc 0df5 cf3c ac09 1bbe
00000370: 5243 dfbe 3d73 603e 1fb3 143e 0719 c73d
00000380: 8356 13bd 9086 113d 15dc 4e3c db43 da3d
00000390: dc4d b23d a383 2abe 8374 483d 7473 f33d
000003a0: b101 aabe cbbc ec3d 09aa c33e 3a10 a53f
000003b0: e6cb 8f3e 85e8 d4be a936 f33d 2484 cf3e
000003c0: 5b06 8dbe 0d22 6a3d e5b1 9c3d c88b c5be
000003d0: 17fe 37bf 42b3 d33d b462 2d3f c5ae d43f
000003e0: 0855 72be 0154 0b3e 0358 5e3e 678b 4b3e
000003f0: 790b be3d 53e1 a6be 7458 4cbd 2e99 ae3b

layers.1.theta.bias f4 [7]
-1.6764585e-05 2.5699943e-05 -3.1281266e-05 2.0066336e-05 -1.7933471e-05 -3.352043e-05 3.7227368e-05
00000000: aca1 8cb7 3596 d737 0134 03b8 2154 a837
00000010: d66f 96b7 4a98 0cb8 9524 1c38
