src_new2/model/hgnn_cocitationciteseer_hid64_2hop.pth (torch, 955883 bytes, 12 tensors)

layers.0.bn.weight f4 [64]
00000000: 0140 543f b68a 453f 41ad 523f aca3 503f
00000010: 3eb6 4c3f 44ec 593f fa27 4c3f 8e88 543f
00000020: c818 493f 925d 533f a388 4a3f 7f2d 473f
00000030: bb22 4d3f fedd 613f 4c15 543f 9fda 5c3f
00000040: 754f 583f 1202 4a3f ea27 4e3f 82d7 633f
00000050: 74e1 4d3f d93e 513f 634a 4b3f a6c9 5c3f
00000060: bc23 483f 17d9 483f 94c9 5f3f 86aa 503f
00000070: 9b83 583f f56f 4e3f 99fe 4b3f 1ba3 553f
00000080: 00c5 4b3f e72d 5e3f 5bd1 483f 7ea8 523f
00000090: 2147 4e3f c1e2 593f bfa3 523f 0fb6 4d3f
000000a0: 960d 593f 0774 4f3f bfbf 503f b7f0 583f
000000b0: 6bd2 533f 7dc7 5f3f 3676 473f 51a4 513f
000000c0: da4b 523f f680 4e3f eac9 4d3f 1974 5f3f
000000d0: 8a95 653f 83db 5d3f c6c6 633f b54d 543f
000000e0: 9a14 553f 6d06 623f 2998 513f 27dd 5a3f
000000f0: 04d4 5e3f b5f9 5d3f 605b 593f bd44 4a3f
0.8291016 0.7716478 0.82295614 0.81499743 0.7996558 0.8512614 0.797485 0.83020866
0.7855344 0.8256465 0.7911474 0.77803797 0.8013112 0.8822936 0.82844996 0.8627109
0.8449624 0.7890941 0.80529654 0.89000714 0.8042214 0.8173652 0.7941038 0.8624519
0.78179526 0.7845625 0.8741696 0.815102 0.84575814 0.8063958 0.7968536 0.83452004
0.79597473 0.8678879 0.7844445 0.8228835 0.80577284 0.85111624 0.82281107 0.80355924
0.84786355 0.8103642 0.8154258 0.847423 0.8274295 0.8741377 0.7791475 0.8189135
0.8214699 0.8066553 0.8038622 0.87286526 0.89681304 0.86663073 0.8897518 0.8293107
0.8323456 0.88291055 0.818728 0.854937 0.8704226 0.8670915 0.8490505 0.79011136

layers.0.bn.bias f4 [64]
00000000: f779 e33b d4ab ebbb c9ec 92bc 2f3a bcbc
00000010: 6d2b d2bc 797a 60bc 31f5 fdbb a4f5 debb
00000020: 256b 91bc a420 81ba c9ee 19bd 1bcb 05bd
00000030: 9443 1abc 95dd 72bc 60c9 a8bc e386 b5bb
00000040: e194 12bd c7a4 bcbc 7769 03bd 0a57 94bc
00000050: 6e60 4ebd 76bf b539 d6dd 9bbc 864a d3bb
00000060: 375b 41bc de66 60bb cccb b8bc 4c80 cabb
00000070: e17b cabc 8e99 e2bc c39e 623b 2288 fcbc
00000080: c9c8 50bd 628d 66bc 0c65 45bb 1d32 37bc
00000090: ffba 86bc 2914 d5bc d88c 5bbc 1d67 a8bc
000000a0: 5be7 7cbc 1699 89bc d717 0fbd 37dc c5bc
000000b0: 60cc edbc 31eb 67bc fd72 39bb eb56 2dbd
000000c0: 273d 78bc 3c52 8fbc 8683 cebc 8738 6abc
000000d0: 0677 05bc 0fe8 563a 0a69 97bc cbfa b2bc
000000e0: 0bcd 94bc cc00 9c37 51b1 0ebd 776e 13bd
000000f0: c9bd 05bd 2135 5fbc e794 c93b fed9 ddbc
0.0069420296 -0.0071921144 -0.017935174 -0.022976963 -0.025655473 -0.013701075 -0.0077501764 -0.006804185
-0.017751286 -0.0009851647 -0.03758124 -0.0326644 -0.009415526 -0.014823337 -0.020603836 -0.0055397614
-0.035786513 -0.02302779 -0.032083 -0.01810791 -0.05038493 0.0003466566 -0.019026678 -0.006448093
-0.0118015325 -0.0034241 -0.022558115 -0.006179845 -0.024717273 -0.027661111 0.0034579493 -0.030826632
-0.050972734 -0.014071794 -0.0030120043 -0.0111813815 -0.016446589 -0.02601059 -0.013400279 -0.02055698
-0.015436019 -0.01679663 -0.034934845 -0.024152858 -0.029028118 -0.014155195 -0.0028297298 -0.04231922
-0.015151299 -0.017495267 -0.0252092 -0.014295704 -0.008146053 0.00081980316 -0.018482704 -0.021848103
-0.018164178 1.859702e-05 -0.03483707 -0.03599402 -0.032651696 -0.013623507 0.0061517837 -0.027081486

layers.0.bn.running_mean f4 [64]
00000000: b3ef 7b3a bffc 233a 394b fd39 3020 363a
00000010: c58d 8b36 92b7 f139 7d27 983a e4a8 8d3a
00000020: 3640 273a 6688 3c3a e6e0 523a 6955 423a
00000030: 7d63 263a b810 c13a 53d3 e23a 5eb0 af39
00000040: ba1c f639 5a63 773a 4235 3d3a 6c9d a339
00000050: 91ba 803a 92f2 7a39 b5ba 713a bf3f 9f3a
00000060: 2aab 543a 98e9 093a e399 df39 f6ef 4d3a
00000070: e6a4 9b3a e8aa dfb8 b9ac fd39 6b3c 3a3a
00000080: 6ed3 80b9 2cf3 6a3a 6700 4f3a 9958 d439
00000090: 42b5 9339 e585 753a bcd8 6b3a eda7 8e39
000000a0: 6c32 d339 3aca 0b3a 077a 573a a4af 113a
000000b0: 0441 feb9 4043 7d3a 70c1 303a 75ad 393a
000000c0: 7d9b a339 6431 2f3a 9d7a 09ba 1b29 143a
000000d0: 1549 733a 35b9 343a 2c3e d83a 9ea3 ed39
000000e0: ad53 443a d336 6b3a 4639 573a 3eee 6cb9
000000f0: a9ed 163a c8a1 5c3a aae6 653a f91c ad3a
0.0009610608 0.00062556186 0.00048311966 0.00069475453 4.159027e-06 0.00046103873 0.0011608448 0.001080778
0.00063801126 0.0007191956 0.0008044377 0.000741324 0.00063472224 0.0014729714 0.0017305411 0.00033510005
0.0004694218 0.0009437107 0.0007217714 0.0003120707 0.0009821226 0.00023932222 0.0009221242 0.0012149735
0.00081126636 0.00052609434 0.0004264853 0.00078558864 0.0011874705 -0.000106653024 0.0004838461 0.000710434
-0.0002457159 0.0008962627 0.00078964833 0.000405018 0.00028173072 0.000936596 0.00089968345 0.00027209465
0.00040282623 0.00053325633 0.00082197826 0.00055574835 -0.00048495096 0.0009661205 0.00067426916 0.0007083037
0.0003120563 0.000668308 -0.0005244406 0.0005651877 0.00092806044 0.0006894053 0.0016498021 0.00045326067
0.00074892753 0.0008972708 0.00082101335 -0.00022595466 0.000575746 0.0008416441 0.00087700284 0.0013207487

layers.0.bn.running_var f4 [64]
00000000: 63de b036 ae75 cb36 41ac c536 ca34 b936
00000010: b81b ae36 c4bc cf36 ee9c 9236 bab9 9d36
00000020: 03d4 b936 c7f9 bb36 f991 ae36 7799 be36
00000030: cf96 ae36 f050 bf36 84dd c936 a926 9536
00000040: a894 a636 c045 ba36 4ede ab36 700d a536
00000050: 8068 c436 6ca7 a336 7489 b936 df25 b336
00000060: 60e4 a036 11b5 9b36 276b a636 5820 b936
00000070: 8327 c036 fde7 af36 23ab c336 4494 d036
00000080: ac3d b136 3773 cd36 0e98 af36 b88f ac36
00000090: a1d2 a536 9924 a936 9ac5 bb36 b6aa b136
000000a0: 613d bb36 bdd3 cf36 45fb b536 558f c236
000000b0: d256 9836 1e76 a536 8fb2 b736 f4cf b836
000000c0: 02ab a236 574f bf36 2126 b936 90a2 d136
000000d0: 3e54 a136 c26d b736 46ad c336 4d3f a636
000000e0: 5cc8 c336 f7e5 d536 93f2 ba36 f132 c936
000000f0: 508e b436 6fcb 9e36 eb14 aa36 6753 c136
5.271098e-06 6.063571e-06 5.8911105e-06 5.519575e-06 5.188831e-06 6.191056e-06 4.369408e-06 4.700586e-06
5.538111e-06 5.602112e-06 5.2025975e-06 5.680307e-06 5.2031605e-06 5.701666e-06 6.0160546e-06 4.4450467e-06
4.9644914e-06 5.551352e-06 5.122077e-06 4.9189475e-06 5.8534206e-06 4.877269e-06 5.5294313e-06 5.3390245e-06
4.794958e-06 4.640439e-06 4.9596597e-06 5.517195e-06 5.7266457e-06 5.2424134e-06 5.831376e-06 6.2161434e-06
5.2821906e-06 6.122889e-06 5.233108e-06 5.1427305e-06 4.9419036e-06 5.040853e-06 5.596038e-06 5.2948844e-06
5.5801797e-06 6.1937303e-06 5.423472e-06 5.7983366e-06 4.54006e-06 4.931134e-06 5.474612e-06 5.5078362e-06
4.847884e-06 5.70148e-06 5.5178684e-06 6.24761e-06 4.807981e-06 5.4666025e-06 5.8316245e-06 4.9545547e-06
5.8347778e-06 6.374666e-06 5.5714713e-06 5.996197e-06 5.3809854e-06 4.7324497e-06 5.06883e-06 5.7615575e-06

layers.0.theta.weight f4 [64, 3703]
00000000: e09c 5b3c 32c8 4139 a0ea 42bb 0efb b6bb
00000010: cc3e 6d3c 8750 613b 55e1 e13b d1d6 343c
00000020: 8da7 2c3c 31c1 94bb 42c6 8c3b dda4 08bc
00000030: c8e0 1e3c 9119 5cbc 9963 2dbb 4995 45b9
00000040: 82d9 c8bb 6803 ae37 e8a8 09bc 8ce8 b23b
00000050: ff3f 42bb 0eb3 fe3b 9b02 7f3c 8778 d73a
00000060: 96c1 01bc 1659 f1bb cdec 403c fc44 073a
00000070: 7a2e 6cbb aae8 d93b ab0e 4b3c 6996 1ebc
00000080: 1209 863c 3ac7 523b f175 713c 15a6 08bb
00000090: 8f5a 733a d6d8 823c 3917 983b cf49 3cbb
000000a0: 1803 fb3b 7ffa 2a3b 763e 823a 53a7 bcbb
000000b0: 180c 1bbc effb 95bc 2d20 423b 3ab2 9ebb
000000c0: 66b3 23bc 87ed 8abc e945 f2b9 f24c a0bc
000000d0: 1311 26bc 9373 fc3b b052 3bba 30fc 7ebc
000000e0: a562 e3b9 c8f4 8f3a 8561 3c3b 972d 6fbc
000000f0: 9bd1 54bc 2a36 8bbc 647e 063c 58a9 8dbb
00000100: 6c84 9bbb 48c5 973a 08d4 c53c 0627 ba38
00000110: c194 5cbb 2470 d3bc e6e7 32bb 5e49 e43b
00000120: 672a 0cba 54c0 29bc 83da 36bc 58fe d13a
00000130: a6bd dfbb 62c1 573c a72f 5c3c a2a0 e23b
00000140: 1c12 dbba 90ad 833b e192 f83b 8bd9 dbbb
00000150: b887 b53b a403 0dbb 0283 283c 55fd 82bc
00000160: 8d3c 0abb 54b9 45bc 2b67 14bc 97df 1fbc
00000170: 1446 9f3a 321c eeba 8175 89bc 09e1 5f3b
00000180: c75b 8d3c 46ed 5eba d39d f4bb 568c 1aba
00000190: 1edd eebb d3d7 d43c 13c7 233a 074a 50bc
000001a0: 4f81 efb9 19d5 013b b6af f5bb fb4c 79bc
000001b0: 02ef 39bc 7e0f c43b d315 0f3c 4bcc 3e3c
000001c0: 29e4 713b 429a 443c be51 76bc e8a3 73bb
000001d0: 80a7 8239 7554 29b9 a0e8 11bc b221 d6bb
000001e0: 69fb 8bbb b6be cebb 372a 17bc 5ee8 34ba
000001f0: 1c2b 85bb 3781 11bc aec2 f43b fd7f 4cbc
00000200: 98f4 0a3c 2604 30bc d4b1 963c f31d 27bb
00000210: 036a 90bb ed86 6fbb a9d2 ed39 742b a2bb
00000220: 8c09 fcb9 3c10 c1bb 6c1d 473c 1c74 1cbc
00000230: 6080 3a38 2db9 f5bb ec2d cd3b 2f22 393c
00000240: 964d e83b 3ec8 e43b 2a45 c23b 10f0 92ba
00000250: c8c6 2a3c 1002 4ebb ba6d 0d3b 2fc0 8c39
00000260: f952 03bb ce83 02ba e633 7f3c dc6f d5bb
00000270: aff6 d3ba 2c75 28bb 23d1 e53b 9db4 853a
00000280: 9ba5 b03b 201c c0b6 4bc0 3e3a 7661 42ba
00000290: 1514 113c 947f ca3b 537a f73b 1c51 51b9
000002a0: 51c4 2b3c 313f 7cbc 8881 c3bc d745 c8bb
000002b0: 4d81 243c 8fa7 4b3b 71d6 67bc aaa8 4ebc
000002c0: e93a a4bb b3e7 0e3c 0780 563c d159 5f3a
000002d0: 3318 c8bb e6f8 1d3c 605d 1fba 25dd 3bbc
000002e0: c007 32ba cb21 003c a924 d63b 9038 3d3c
000002f0: 27b3 bdbb d029 053c 79a9 d3bb ead0 7cbb
00000300: 0778 923b 829d 473c 31c9 47bc 4283 03ba
00000310: cf06 993b 36e1 993b 5e2f 803a a302 b93b
00000320: 5eae 9abc bcf9 9bbb 5e49 afbb afdd 723c
00000330: dcbb 0dbc 39f6 a13b fd02 55bc a1e8 33bb
00000340: 6b71 6b3b c856 093c fb34 983b 25b9 1c3c
00000350: 93c9 413c a193 3cbc 44ed d53a 65ec 7d3c
00000360: f839 4db9 6527 713c 2d5f fa3b 022f 00bc
00000370: 6e2d 18bc 01bd f33a 1e62 a1bb 07b8 d63b
00000380: 7084 99bc 2f86 10bc 7854 53ba 33a5 c43b
00000390: 3b79 67bc a3f6 b9bc fc9d a9bc 8bd2 94bb
000003a0: 0d39 763c 2698 353b e735 083c 70f4 53b8
000003b0: fa4d 48bb 64a0 27bc 556f 79bc 1a23 2fbc
000003c0: d303 61bb 18fc 1bbb 02ac 51ba bca8 6dbb
000003d0: 4550 94bb 27ad 0dbc 6066 1fbc b8c3 ad3b
000003e0: fd8a 97ba e084 273b 3c21 6dbb 8846 143c
000003f0: 772d b13b 21f3 dcbb 7a99 2fbc 3a99 e1b9
0.013404101 0.00018480493 -0.0029741898 -0.0055841273 0.014480304 0.0034380273 0.0068933167 0.011037544
0.010537994 -0.004539632 0.004296095 -0.008340088 0.009697147 -0.01343383 -0.002645707 -0.00018842997
-0.0061294446 2.0744003e-05 -0.008402087 0.0054598507 -0.0029640195 0.00777281 0.015564586 0.0016439118
-0.00791969 -0.007365356 0.011775208 0.0005160121 -0.0036038444 0.00665005 0.012393634 -0.009679415
0.016361747 0.0032162205 0.014737592 -0.0020850946 0.00092832086 0.015972536 0.00464144 -0.0028730517
0.007660281 0.0026089249 0.0009936828 -0.0057572513 -0.009463333 -0.018308608 0.002962123 -0.0048430236
-0.009991502 -0.016958965 -0.00046209924 -0.01956794 -0.010135907 0.007704207 -0.0007145805 -0.015563056
-0.0004337031 0.0010982985 0.002874465 -0.014598272 -0.012989427 -0.0169936 0.008208845 -0.004323166
-0.0047460105 0.001157918 0.024148956 8.87644e-05 -0.0033658 -0.025810309 -0.0027298867 0.006966754
-0.00053468946 -0.010360796 -0.011160496 0.0016021235 -0.006828028 0.013168665 0.013439096 0.0069161216
-0.0016713771 0.004018493 0.0075858687 -0.0067092828 0.0055398606 -0.0021517063 0.010285141 -0.015989939
-0.002109322 -0.012068111 -0.0090578 -0.009757898 0.0012151622 -0.0018166362 -0.016779663 0.003416123
0.017255677 -0.00085039844 -0.007465103 -0.00058955455 -0.007289543 0.02598182 0.0006247621 -0.012712962
-0.00045681975 0.0019810854 -0.007497753 -0.0152161075 -0.011348488 0.005983292 0.008733231 0.011645387
0.0036909676 0.011999669 -0.015034137 -0.0037176553 0.0002492033 -0.00016148559 -0.00890556 -0.0065347785
-0.004271914 -0.0063093556 -0.009226373 -0.00069010805 -0.004063977 -0.008880905 0.0074694967 -0.012481687
0.008481167 -0.010743177 0.018395342 -0.002550003 -0.004407169 -0.0036548928 0.00045361117 -0.0049490277
-0.00048072299 -0.005891828 0.012153011 -0.009549167 4.4465414e-05 -0.0074988813 0.006261578 0.011299654
0.007089327 0.0069818785 0.005928655 -0.001121046 0.01042337 -0.0031434335 0.0021580295 0.0002684607
-0.002003847 -0.0004978747 0.015576338 -0.006513579 -0.001617154 -0.0025704606 0.0070134564 0.0010200922
0.0053908355 -5.72532e-06 0.00072765787 -0.00074150355 0.008854886 0.0061797593 0.007552424 -0.00019962009
0.010483817 -0.015395925 -0.023865476 -0.006111841 0.010040593 0.0031075215 -0.014150248 -0.012613455
-0.0050119055 0.008722234 0.013092048 0.00085201586 -0.0061064004 0.009641862 -0.00060792826 -0.011466299
-0.0006791316 0.007820557 0.006535132 0.01154913 -0.005789179 0.008127645 -0.0064594117 -0.003857667
0.004469875 0.012183549 -0.012193964 -0.00050168124 0.004670001 0.0046960367 0.0009779742 0.0056460663
-0.018881973 -0.0047599953 -0.005349322 0.014823361 -0.008650746 0.004942682 -0.013001201 -0.002745189
0.0035925757 0.008382507 0.0046449876 0.009565626 0.011827844 -0.011509807 0.0016321321 0.015498255
-0.00019571919 0.014718865 0.0076407404 -0.007823708 -0.009288175 0.0018595756 -0.0049250266 0.0065526995
-0.018739909 -0.008821054 -0.0008061598 0.0060011386 -0.014128025 -0.022700613 -0.020705216 -0.0045417002
0.01502825 0.0027709096 0.008313633 -5.053397e-05 -0.0030564056 -0.010231111 -0.0152242975 -0.010689521
-0.0034334555 -0.0023801383 -0.00079983484 -0.0036263904 -0.0045261704 -0.00864724 -0.009728998 0.0053028725
-0.0011561807 0.0025561377 -0.003618314 0.009050019 0.005407031 -0.0067428504 -0.010717744 -0.00043029507

layers.0.theta.bias f4 [64]
00000000: 2836 3b38 a6b9 07b8 20bf 50b8 b443 66b7
00000010: 74b0 0b37 40c6 beb5 6c99 15b7 91b0 3c37
00000020: a6b9 92b8 47fd 0138 7070 05b7 f89b f7b6
00000030: 9cef e537 763b dcb7 8ef1 3537 40bf 8237
00000040: 619b d937 ec90 4cb8 4fa4 df36 7080 46b6
00000050: 239b 3b38 b2f3 f437 3a1c c337 e930 a9b7
00000060: 141c f5b7 2699 3535 de17 0b37 d755 e4b6
00000070: 2cf7 0838 3cbb 3037 1b7f 9637 5385 0ab7
00000080: c962 2a37 4f7b 9337 2497 fb35 3c9d d736
00000090: df8e 28b7 daea 99b6 e7a7 1937 cc52 0cb8
000000a0: b6ed 0d37 5f2e bdb7 e430 73b7 290c 11b7
000000b0: 1a13 37b7 bc75 2eb6 a08c 8436 8727 5435
000000c0: ec3f a1b6 b4a9 7c36 d667 29b8 22da 26b8
000000d0: e6a6 c237 b8e4 0c37 22d2 5038 cf96 8a37
000000e0: 1a0e 75b7 3ab1 ac37 2fc9 a637 989d 9737
000000f0: 841f a7b7 e47b 8db7 6dd2 2db7 205a 0ab7
4.463471e-05 -3.2359407e-05 -4.9769063e-05 -1.3724832e-05 8.326129e-06 -1.4213801e-06 -8.916813e-06 1.1246783e-05
-6.996402e-05 3.099188e-05 -7.953597e-06 -7.379331e-06 2.7410504e-05 -2.6253732e-05 1.0844682e-05 1.5586265e-05
2.594077e-05 -4.877236e-05 6.665046e-06 -2.957906e-06 4.4728757e-05 2.9200546e-05 2.3258955e-05 -2.0169146e-05
-2.921935e-05 6.7650615e-07 8.290603e-06 -6.8049226e-06 3.2655124e-05 1.0534011e-05 1.7940582e-05 -8.256483e-06
1.015579e-05 1.7581186e-05 1.8744945e-06 6.425804e-06 -1.0046845e-05 -4.5870956e-06 9.1586035e-06 -3.345571e-05
8.459601e-06 -2.2552149e-05 -1.4495312e-05 -8.645505e-06 -1.0912097e-05 -2.599655e-06 3.9502775e-06 7.9033674e-07
-4.8056154e-06 3.7649706e-06 -4.0389445e-05 -3.9780636e-05 2.320432e-05 8.397903e-06 4.9786766e-05 1.6521108e-05
-1.4606421e-05 2.0586525e-05 1.9882425e-05 1.8073988e-05 -1.9922627e-05 -1.68662e-05 -1.0360597e-05 -8.246425e-06

layers.1.bn.weight f4 [6]
00000000: 4cb3 9d3f e1b5 9c3f 7301 9d3f fac7 9d3f
00000010: 6575 9e3f 33f7 9c3f
1.2320342 1.2243005 1.2266067 1.2326653 1.2379576 1.2262939

layers.1.bn.bias f4 [6]
00000000: c701 0f3e bc4f 2f3e 8e11 18be acb8 233d
00000010: 9653 4c3e e06d 3fbe
0.13965522 0.1712026 -0.14850447 0.03997104 0.1995376 -0.18694258

layers.1.bn.running_mean f4 [6]
00000000: 862e 5b3c 7032 3d3c e2ad 56bc 5087 cab6
00000010: e0fe 473c 78d5 34bd
0.013377791 0.01154767 -0.01310298 -6.0358216e-06 0.012206763 -0.044148892

layers.1.bn.running_var f4 [6]
00000000: baf5 673d 2ed6 3c3d 20fe 453d 2bf3 193d
00000010: dae4 3e3d 4d17 1b3d
0.056630827 0.046102695 0.048338056 0.03758542 0.04660497 0.03786402

layers.1.theta.weight f4 [6, 64]
00000000: e591 7f3d 1adb 84bd be92 40bd 38fc ac3d
00000010: 760d dd3d 7fd5 b83d bc9f d83c 1b82 c23d
00000020: c31c 9f3d bb5d 883d 5492 85bd a4e9 d7bc
00000030: c425 bc3d fca8 853d 7048 b5bd 61cf a1bd
00000040: 7d6c 23bd e89b 89bd fc5d dbbd 9b57 c8bc
00000050: f036 80bb 3d98 a43d 2eae d1bd 49f9 e83d
00000060: 52a8 b03d 6e15 283d b192 a3bd 96e5 ab3d
00000070: 5792 47bc 3964 913c 83d7 993d e313 27bd
00000080: 1eca c13c 7a60 b23d ac7b 1a3d d6e8 9a3d
00000090: 732b 893d 00e6 2cbc f690 5abd 960d a0bd
000000a0: 9a0e 86bd 0fc6 c23d a93e a0bd ba2f 94bd
000000b0: 68a8 623b b49c 92bd a2f1 b73d ff46 8dbd
000000c0: bde6 0a3e 8b0e 6fbd ea69 82bd fefa f13d
000000d0: cef2 d3bd 306a 35bc 9f3b b1bd 666a 37bd
000000e0: 63dd 92bd cc40 9e3d 9923 9ebd 3a51 b1bc
000000f0: 1dbb b5bd f681 bbbb 4976 2f3d 7ce7 afbd
00000100: 65e9 233d 2089 903d 786d 6bbd 79d5 e23b
00000110: 333e 73bd 85da 4fbd 9313 d33d 58ef 913d
00000120: 568e 69bd 470f b43d efb8 7bbd f6f8 193d
00000130: 9033 9c3c 598c b4bd ef1b 613d 15cb ac3d
00000140: 8653 80bd 8580 80bd e4e1 dfbd ea00 983d
00000150: f1be f53d bc70 0f3d bae9 333d 1277 18bd
00000160: a769 56bd dbef b7bd 2fb5 be3d 174a 97bd
00000170: de66 df3d 1485 bd3d 1280 233c 557e 13bd
00000180: 09c1 2dbd fd67 8bbd 1c51 47bd 4523 8abd
00000190: fee9 913d 3991 5ebd bc53 48bd 9023 963c
000001a0: 7888 9a3d 47b1 6fbd 06fa ec3d d6b8 4cbd
000001b0: 48fc bb3d efd8 b6bc 0b03 4fbd e041 58bd
000001c0: 78ea 243c 8eb1 8b3d 7cc0 b73d 3452 8cbc
000001d0: f760 5e3d bc8b 943d 1c02 13bd 6e36 ebbb
000001e0: 0808 51bd 3ddf 77bc f7ac 163c bcf1 75bd
000001f0: b0dc 80bd 9403 babd c231 473d 9c45 cf3d
00000200: 4d35 42bd 3ff8 ab3d 71a9 47bd 35bf c5bd
00000210: b160 913d 1e86 79bd d2c7 b3bd a320 973d
00000220: 38d9 983d 149a 77bd 659c 103d cf07 c7bd
00000230: cb71 fb3d ab51 7cbc b453 0f3d 6e80 d0bd
00000240: c146 f73d da50 b0bd 327d a63d 4f20 9cbd
00000250: 0bbd 28bd edaf 6c3d ef71 edbb 2116 8cbd
00000260: c2ab 0d3d 2562 663d 3bf5 8ebd 01a0 723c
00000270: 6690 b4bd 082e 86bc 6bab 8ebd 8771 4c3d
00000280: be9c aa3d 2ade a8bd df2c cc3d aa68 b9bd
00000290: ec3e 993d c579 cd3d fbf8 b23d 1742 b6bd
000002a0: fc47 b43d e446 a7bd 3ce1 cd3d 82f3 bb3d
000002b0: f2ce 113d ee3b f83d 7406 683c 56e3 8abd
000002c0: e8ae 14bd 06f1 b73d 78e4 80bd 478a 9bbd
000002d0: 3f9d d8bd 8c5f 5cbd 5f4f e5bc 556c bf3d
000002e0: 3c5b 98bd 437b ccbd 38f1 b13d e4be 293c
000002f0: 8743 853d b77e b6bc 13d8 c3bd fbda 8bbc
00000300: acc8 69bd 7b5f d0bc a863 9c3d f87d 933d
00000310: ee43 20bd f103 a03d f3af 80bc 0480 4abd
00000320: fc8b 94bd 39f2 a1bd 767d f63d 418f 89bd
00000330: ae3b 19bd 435d c83d d462 be3d c5d9 8c3d
00000340: cf17 77bd 5b57 5d3d 27c4 ab3d 65ca 89bc
00000350: 27db bd3d d6d1 6ebd 49f7 efbb 75fa 75bd
00000360: 90c5 5f3b 6f79 a43c 040f 7bbd ac4f 8ebd
00000370: 8fa7 e8bc f8ef bebc 8e5d ab3d 45d5 69bd
00000380: f49d 0f3e 1968 84bd 3326 b2b9 53c1 61bd
00000390: ea2d 70bd fa29 08bd 9920 11bd 399c a2bd
000003a0: 8e36 1abd cc3a 6a3d cd8c e4bc 0946 863d
000003b0: 3f20 93bd ae24 d43c 51f8 31bd ccc8 73bd
000003c0: 2548 8bbd fb3b 47bd 8072 dbbc 77f2 0fbd
000003d0: 36c1 ab3d baf4 87bd a068 9e3d ada1 6cbd
000003e0: 8433 ab3d 8dbf 913d 8dcf b33d 4f86 25bd
000003f0: c976 3b3d a6dc 923d 4dcf fa3c 9a86 c83d
0.062394995 -0.06487103 -0.047014944 0.084465444 0.10793583 0.09025096 0.026443355 0.09497472
0.07769158 0.06658503 -0.065220505 -0.026356526 0.09186891 0.06526372 -0.08851707 -0.079008825
-0.039898384 -0.0671919 -0.107112855 -0.024455836 -0.003912799 0.0803685 -0.102383 0.11375672
0.086258546 0.041036062 -0.079869635 0.083933994 -0.012180886 0.017747985 0.07511809 -0.04079045
0.023655947 0.08709808 0.0377156 0.07563941 0.066977404 -0.010552883 -0.0533609 -0.07815091
-0.06545754 0.09510433 -0.078244515 -0.072356656 0.0034585241 -0.07158795 0.08981635 -0.06898307
0.13564582 -0.05836348 -0.06367858 0.11815451 -0.10349046 -0.01107268 -0.0865395 -0.044779204
-0.071711324 0.07727203 -0.077216335 -0.021645177 -0.0887358 -0.0057222797 0.042837415 -0.08589074
0.040017504 0.070574045 -0.057477444 0.0069224206 -0.05938549 -0.050745506 0.10306468 0.07125729
-0.057020508 0.087919764 -0.061455663 0.037590943 0.019067556 -0.08815832 0.05495828 0.08437172
-0.06265931 -0.06274513 -0.10931757 0.07422049 0.1199931 0.03501962 0.04392407 -0.03722293
-0.05234685 -0.08981296 0.09311902 -0.073871784 0.10908292 0.09253898 0.009979265 -0.03600915
-0.04242042 -0.068069436 -0.048661336 -0.067450084 0.071247086 -0.054337714 -0.04890798 0.018327504
0.075455606 -0.058518674 0.11571126 -0.04998096 0.09178978 -0.022320239 -0.05054001 -0.0527972
0.010065667 0.06820975 0.0897226 -0.017129041 0.05429169 0.07253215 -0.035890684 -0.0071781194
-0.05103305 -0.015128908 0.0091965115 -0.06004499 -0.06292093 -0.09082714 0.048631437 0.10120699
-0.047414113 0.083969586 -0.048745576 -0.096556105 0.070985205 -0.06091892 -0.08778347 0.07379272
0.07463306 -0.060449675 0.0353054 -0.09718286 0.12277564 -0.015400331 0.034991935 -0.10180746
0.12074042 -0.08609171 0.08129348 -0.0762335 -0.04119591 0.057784963 -0.007246248 -0.06840158
0.03458763 0.05624594 -0.06980368 0.014808656 -0.08816604 -0.016379371 -0.06966289 0.049912956
0.083306774 -0.082454994 0.09969496 -0.09053166 0.074827045 0.10032991 0.087388955 -0.088993244
0.088027924 -0.08167818 0.10052726 0.09177305 0.03559775 0.12120806 0.014161695 -0.06781642
-0.036299616 0.089815184 -0.06293577 -0.07594734 -0.10576867 -0.053802058 -0.027991949 0.093468346
-0.074392766 -0.09984448 0.08688587 0.010360453 0.065070204 -0.02227722 -0.09562697 -0.017072191
-0.05707614 -0.025436154 0.076361954 0.07201761 -0.039127283 0.07813252 -0.0157089 -0.04943849
-0.072532624 -0.079075284 0.120356485 -0.06716777 -0.03741043 0.09783413 0.09296194 0.06877474
-0.06032544 0.054038387 0.083870225 -0.016820142 0.092703156 -0.058305584 -0.00732318 -0.060053308
0.0034144856 0.020077435 -0.061293617 -0.0694879 -0.02840021 -0.023307785 0.083674535 -0.057088155
0.14025098 -0.064651676 -0.00033979266 -0.05511601 -0.058637537 -0.033243157 -0.03543148 -0.07939953
-0.037649684 0.05718498 -0.02789917 0.06556327 -0.07183885 0.025896396 -0.043449704 -0.059517667
-0.0680087 -0.048641186 -0.026787996 -0.035143342 0.083864614 -0.06638475 0.077347994 -0.057771374
0.08359435 0.071166135 0.087798215 -0.04041129 0.04576758 0.071709916 0.030616427 0.09791298

layers.1.theta.bias f4 [6]
00000000: eafb a736 3a8e f5b6 1420 66b6 ec8b bb36
00000010: 09e3 fab5 3c7d f1b5
5.0063145e-06 -7.3181263e-06 -3.4291343e-06 5.5893233e-06 -1.8692527e-06 -1.7992347e-06
