src_new2/model/hgnn_highschool_best_model_0117.pth (torch, 92347 bytes, 12 tensors)

layers.0.bn.weight f4 [64]
00000000: da9b 853f e273 7d3f 8d89 6e3f 8cd6 563f
00000010: 1c0c 673f 345e 653f b1ac 733f 1bfe 773f
00000020: 8cd7 703f 0f0a 703f 6da9 693f 4e51 723f
00000030: 05e6 5f3f 6bde 6e3f d227 6e3f e7ce 763f
00000040: 8120 5c3f b60a 813f a1e9 6d3f ad43 683f
00000050: 325c 763f 1c22 6e3f a904 7a3f cb09 5f3f
00000060: 3781 6a3f 3c48 6c3f c704 623f 64c4 783f
00000070: 5120 693f 91f2 703f 090e 6b3f 3871 693f
00000080: 6799 623f c849 6f3f 02be 6d3f b3cf 6e3f
00000090: 3de7 6e3f 374c 743f f9fc 5d3f 35e0 763f
000000a0: 3e4c 5a3f e60e 653f ce2c 6f3f 53af 6a3f
000000b0: d6dd 7a3f 789f 5f3f 92e5 533f 174f 703f
000000c0: d898 5d3f bbdc 693f 2d76 7a3f 19c9 7f3f
000000d0: 969e 593f beb5 683f d93c 6b3f ca13 803f
000000e0: e199 6b3f 2cc0 683f a2c4 653f e0db 5e3f
000000f0: 6c08 5b3f b11c 6f3f aa8f 6f3f 891f 723f
1.0438187 0.9900495 0.93178636 0.8392112 0.9025285 0.8959687 0.9518538 0.9687211
0.940789 0.9376535 0.9127415 0.9465531 0.87460357 0.9330813 0.9302951 0.9640946
0.859871 1.0081394 0.92934614 0.90728265 0.9623443 0.93020797 0.9766336 0.8712432
0.91603416 0.9229772 0.8828854 0.9717467 0.91064936 0.94120127 0.9181829 0.91188383
0.88515323 0.93471956 0.92868054 0.93285674 0.9332159 0.95428795 0.8671413 0.9643586
0.85272586 0.8947586 0.9342774 0.91673774 0.97994745 0.87352705 0.8277217 0.9387068
0.86561346 0.9135243 0.9783657 0.99916226 0.8500761 0.90902317 0.9188972 1.0006039
0.92031676 0.9091823 0.8975316 0.8705425 0.85559726 0.93403155 0.9357859 0.9457937

layers.0.bn.bias f4 [64]
00000000: 691e bf3b 7d0f 253d b192 67bc 462f a63d
00000010: b0b3 0e3d b5d4 84bc 8086 9fbc d5bb 01bc
00000020: 70c1 d9bb c4df 093d df16 2f3c fb4e 2a3c
00000030: 9315 f23c 72c8 b03d 6ea8 40bd 26a7 783d
00000040: 1a79 b33d 173a 973c 90bf acb7 1f30 ba3d
00000050: 8b13 8fbb b649 8dbc a1a7 493d 70d5 613d
00000060: 827e 493d a552 c7bb fa2a 783d fe6d 6e3d
00000070: 6d87 6a3d 000b 9a3d 5ea4 833c e4aa 2e3d
00000080: 8b19 c6bb d280 fabb c256 573d 32c0 393d
00000090: 9ed0 23bd 3a4d 05bc ff64 213e 80bf 5f3d
000000a0: f484 da3d 1d7e 08bd 6c21 e53c 2a9b ef3d
000000b0: 0aa5 d23d 4d53 31ba 4936 36bd a6aa 373d
000000c0: d9a2 873d c63c 523d dfa1 7a3d 9cad 1a3d
000000d0: ca6f 1a3d b62c af3c 7db5 7abb 3abc a23d
000000e0: 88bd 6d3d 041b 473d 0732 99bc e15b 2e3d
000000f0: a39b 993d 7ae4 163d 8f94 40bd 961b 233d
0.0058324826 0.040297974 -0.014134095 0.081144854 0.034839332 -0.016214708 -0.019473314 -0.007918318
-0.006645374 0.033660665 0.010686605 0.010394807 0.029551303 0.08631982 -0.047035627 0.06070628
0.08763333 0.018460317 -2.0593201e-05 0.090912096 -0.0043663434 -0.017247062 0.04923213 0.05513519
0.049192913 -0.00608285 0.06058786 0.058210365 0.05725806 0.07521629 0.016069587 0.042643443
-0.0060455254 -0.007644751 0.052572973 0.045349307 -0.039993875 -0.008136088 0.15761183 0.054625988
0.1066989 -0.033323396 0.027970038 0.11699517 0.10285385 -0.0006764427 -0.044485364 0.044840477
0.066228576 0.05132749 0.06118953 0.037763223 0.037704267 0.021383625 -0.0038255148 0.079460576
0.05804208 0.04860975 -0.018700613 0.04256809 0.075003885 0.036838986 -0.047016677 0.03982123

layers.0.bn.running_mean f4 [64]
00000000: 419c 13bc e456 24bc f970 0ebc e29e b2bb
00000010: 35cf d7bb 09b5 b739 268c 0abc db00 02bc
00000020: fda5 b9bb 0680 14bc 0fb2 29bc 6444 2cbc
00000030: da5e 45bb efbc 35bc 64ef 08bc 36d4 15bc
00000040: f8d0 06bb d5a9 65bc 6ae3 a5bb 52e3 fcbb
00000050: 8412 05bc 3043 93bb ec31 01bc c732 e6bb
00000060: 0176 82bb 23b5 b9bb cc75 bdbb 6d99 a5bb
00000070: 7785 00bc 2b67 1abc 32e6 efbb 5ea3 a5bb
00000080: be87 64b9 d561 e9bb e0a0 d2bb 129b 3dbc
00000090: 840a 41bc e18e 1cbc df4f 22bb 6349 4fbc
000000a0: 9f04 cabb 1850 b2ba e7c3 20bb b05a 00bc
000000b0: 3780 1cbc e592 a2bb cbf6 513b 24a2 39bc
000000c0: 0b10 c9ba 5d0c aabb 0ac8 65bc 9189 4bbc
000000d0: e5d2 adb9 9ca2 abbb b5fe bfba 4d56 21bc
000000e0: 2f75 10bc 6c55 afbb 0efe 873b cca1 25bc
000000f0: 1466 633a 375f 11bc 6714 2dbc d927 f4bb
-0.009009422 -0.010030482 -0.008693927 -0.005451069 -0.0065859803 0.00035039362 -0.008456266 -0.007934774
-0.0056655393 -0.009063726 -0.010357394 -0.0105143525 -0.003011635 -0.011092409 -0.008357856 -0.009144833
-0.0020571332 -0.014017542 -0.0050625103 -0.0077175284 -0.00812209 -0.0044940934 -0.007885437 -0.007025096
-0.0039813523 -0.005667345 -0.0057818647 -0.00505369 -0.0078443205 -0.009424011 -0.0073211426 -0.0050548753
-0.00021794342 -0.007122258 -0.006427869 -0.011572616 -0.011782292 -0.009555549 -0.0024766845 -0.012651774
-0.0061651017 -0.0013604192 -0.002453083 -0.007834122 -0.009552053 -0.004961359 0.003203797 -0.011330161
-0.0015339864 -0.005189462 -0.014024744 -0.012422935 -0.0003315426 -0.0052378904 -0.0014648052 -0.009847236
-0.008817001 -0.0053507593 0.0041501587 -0.010109376 0.00086745736 -0.008872799 -0.010563946 -0.0074510393

layers.0.bn.running_var f4 [64]
00000000: 5415 f43a 8f67 083b 5f88 0a3b df2b 0d3b
00000010: c9b3 033b 3344 093b 83e7 ff3a e741 043b
00000020: e46d 013b fcbf 0e3b dd2c 0b3b 4d4a 0a3b
00000030: f438 113b a209 123b 37e5 fd3a a649 103b
00000040: f91e 0b3b a696 0b3b 7c2c f43a 9ac6 063b
00000050: db92 023b 080b 0c3b 533f 0b3b b6e8 083b
00000060: 138f 053b 55a9 083b f865 073b de1d 013b
00000070: 83a1 0a3b f150 0c3b 653c 023b c0aa 093b
00000080: 3e8a 023b 6a84 fb3a c1ac 023b 2963 113b
00000090: 9c68 fd3a 3a72 013b bdbd 053b 3c07 013b
000000a0: 26f3 123b 2de5 0e3b f3eb 053b c686 143b
000000b0: 9cf5 093b 3e20 083b 3cca 073b c85d 133b
000000c0: 574d 083b e27d 093b f4ec 1f3b d807 133b
000000d0: 4d10 133b e1fa 133b dda6 0d3b 78bb 033b
000000e0: b6c7 093b f374 063b 8d52 043b 7a3f 013b
000000f0: 2f80 0c3b 8953 043b 60e4 003b ba7f 0f3b
0.0018622079 0.002081368 0.0021138412 0.0021541042 0.0020096174 0.002094519 0.0019523952 0.0020180882
0.0019749338 0.0021781912 0.0021236457 0.0021101416 0.002215919 0.0022283574 0.001937068 0.0022016554
0.0021228178 0.002129951 0.001862898 0.0020565153 0.0019923958 0.002136888 0.002124746 0.002089066
0.0020379468 0.0020852883 0.0020660143 0.001970164 0.0021153397 0.002141055 0.0019872424 0.0021006316
0.0019918825 0.0019189243 0.0019939395 0.0022184348 0.0019333544 0.0019751922 0.0020407282 0.001968815
0.002242276 0.002180408 0.0020434826 0.002266334 0.0021050936 0.002077117 0.0020719906 0.0022486318
0.0020798051 0.0020979573 0.002440271 0.0022435095 0.0022440136 0.0022579955 0.002161435 0.0020100754
0.0021023578 0.0020516485 0.0020190806 0.0019721673 0.0021438708 0.0020191392 0.0019667372 0.00218962

layers.0.theta.weight f4 [64, 327]
00000000: 8245 253e b101 183e af24 4bbd 5d46 11bc
00000010: e399 243d caa1 49bd ab5a 51bd a183 253c
00000020: 7f80 34bd 97d7 84bc 3066 56bd 408b a13d
00000030: 254a 1e3e 5fc9 0bbd 03d7 23bd 174a 1cbd
00000040: 3799 4bba b03d 24bd 154f 86bd d746 fe3c
00000050: 0b41 3a3c be6a 153d 3619 a63c f196 2a3e
00000060: 416e 13bd 9c89 78bd a41d 863d 9d8c 8ebd
00000070: d82e 23bd 5ec5 8fbd f8a5 4cbc 4b0c 82bd
00000080: f2c7 56bc b0c6 8fbd 4701 c7bd 6a3f 01bd
00000090: 1b63 04bd d78a 95bc 3b77 c73c 28ea 01bd
000000a0: 5e1f 2abd 8448 93bd 7378 39bc e665 893e
000000b0: 280f 583e aa6d 7abc ef76 03bd 8a69 f1bc
000000c0: 5a6d e5bc 4864 9cbd b7ad f43d e884 303e
000000d0: 71c8 ccbd b39a 7fbd 96e8 46bd b656 10bd
000000e0: c412 e5bc dcb0 51bd c9dd 8fbc 8b6e 13bc
000000f0: d1ed 3cbd cfcf a5bd 2859 1dbd 1066 5dbd
00000100: 741f bcbc a7a2 81bd 9dbb 1d3d 3f31 2bbc
00000110: 5248 febd 97b7 4bbd def0 c53d e6b3 98bd
00000120: 07e9 103d b0a2 c3bd d212 733d 078d abbd
00000130: 4a12 86bd 4da6 dabc 2ac6 41bd 7f2c 79bd
00000140: 1bbd 873c 0de8 86bd bade 2bbd a12f 7dbd
00000150: 465b 31bd 60ca 5ebd 1e9d 16bd 535a 8dbd
00000160: 9c53 103d f3d2 e73d 31da eabc 514a 68bd
00000170: f468 e5bd 66a9 bbbc 58a5 b9bd 3dcc 353e
00000180: 185d b5bb 82bd 59bd d686 18bb f812 0cbd
00000190: 658e 8abd 2908 1fbb f580 cb3d c1e4 a43d
000001a0: 96ce 67bd 94de c53d d566 4bbd 9c36 77bd
000001b0: 10b9 d5bd 0280 50bd 54fa 99bc 6433 b8bc
000001c0: 4e1e e43a 7d59 7ebd 263d 5ebd 562b 5cbd
000001d0: 7f5b 33bd 6e15 9fbd dae1 fabd 55af 92bd
000001e0: d791 63bd a296 bcbd f116 15bd e418 6cbd
000001f0: 3310 76bd a3ae 9abd 97b3 56bd e98f a53d
00000200: a4c9 35bd 96d3 5dbd 69df f53d bb92 24bd
00000210: 77af 083c 0cd1 903c 7041 6ebd 9952 81bd
00000220: d16a e4bd a8bd a7bd 5d67 75bd b016 2dbb
00000230: 217a 04bd edd6 ddbc 9d25 4e3e a324 d4bc
00000240: 1204 8bbc 3d5f a83d 5dc6 7f3d f0f4 15bc
00000250: 2c18 993c 8ea4 8ebd f7e2 3b3e 7ed9 9b3c
00000260: ed9c 8f3c caad dcbc 06f2 993d d3b8 253d
00000270: 12eb 853e 76bf dc3c e22b c3bb 4e71 903e
00000280: d7a9 74bb 97d0 1c3e 9525 47bd f191 1cbb
00000290: 7a77 c73c 799a 8cbc 8dc1 8fbc 0391 383d
000002a0: 2e4a f93d 4f27 07bd 1dc0 89bd 633e 65bd
000002b0: 6376 7ebc 718f 55bd d855 84bd a2d6 89bd
000002c0: faa7 95bc 9856 12bd 37a4 c1bc f3b9 cbbd
000002d0: 4158 43bd 85e1 1dbd b29f 5bbd 3eaa 6fbd
000002e0: 39c7 7fbd bfce 05bd 9943 c4bd 59c3 15bd
000002f0: 03a7 52bd 7bda 7a3e aecf 7bbd a0d2 85bd
00000300: c277 13bd 2cfa e2bd cf1c 53bd be0c 8fbc
00000310: 1e71 d93a 0e9f 93bd 017b 11bd acc2 843d
00000320: fcbf 71bd 0c9f 4f3d a9a5 44bd 5017 25bd
00000330: 2600 84bd 44cc 6ebd 50d7 8abd 72a3 40bd
00000340: 7038 7fbd ebff 34bd 8f69 1c3d 8dee efbd
00000350: 3586 c1bc 89ea edbd 37c0 dbbc 92ec c43d
00000360: 931e d43d 114d 4d3d 6708 323d 3f22 b2bd
00000370: 4f89 c4bd 2fb6 82bd cdf1 473d 4c83 083e
00000380: 5ed1 9abd 14df 64bd 498c 143d 0131 4fbc
00000390: 97bf d9bd 6dde dcbd daa8 cabd bd71 aabc
000003a0: 0c8c bcbd cea5 583c 6f5d 8dbd c83d 5cbd
000003b0: 530e 12bd 0c0f 56bd 9ade aebd 0463 03bd
000003c0: 8230 59bd 6cba e1bd f39a 8d3d ba3e 29bd
000003d0: adc5 edbc eaae 4fbd 134f 67bd e9e7 d7bd
000003e0: 2f3a bfbd 328a 91bd 9e99 adbd 5d66 1dbd
000003f0: 6f11 bdbd 5b70 e7bc 7c89 5ebd 3f10 2cbe
0.16139796 0.14844395 -0.04959553 -0.008866874 0.04018582 -0.04922656 -0.05111186 0.010102184
-0.044067856 -0.016216082 -0.052343547 0.07887888 0.15457971 -0.03412759 -0.039999973 -0.038156595
-0.0007766666 -0.040097892 -0.065580525 0.031039638 0.0113680465 0.03647875 0.020275693 0.16659142
-0.03599382 -0.06067811 0.06548622 -0.069604136 -0.039839596 -0.07020067 -0.012490742 -0.06350001
-0.013109194 -0.070203185 -0.097170405 -0.031554617 -0.032321077 -0.01825468 0.024348846 -0.03171745
-0.04153382 -0.07191566 -0.011320221 0.26835555 0.21099532 -0.015284935 -0.032095846 -0.02946927
-0.028006244 -0.07636315 0.11947196 0.172382 -0.09999169 -0.062403392 -0.048561655 -0.035238944
-0.02796305 -0.051194057 -0.01756181 -0.0089985235 -0.046125237 -0.08096277 -0.038415104 -0.054052413
-0.022964217 -0.063298516 0.038509 -0.010448753 -0.12416138 -0.04973563 0.096650824 -0.07456188
0.035378482 -0.095525146 0.05934412 -0.08376508 -0.06546457 -0.026690627 -0.047308125 -0.06083345
0.016569665 -0.06587229 -0.041960455 -0.061813 -0.043299936 -0.05439222 -0.036770932 -0.069019936
0.035235986 0.11319532 -0.028668495 -0.0567115 -0.11201659 -0.022907924 -0.0906474 0.17753692
-0.0055347793 -0.053159244 -0.0023273728 -0.034197778 -0.06765441 -0.0024266338 0.09936706 0.08051444
-0.0565935 0.09661594 -0.049658615 -0.060354814 -0.104356885 -0.050903328 -0.018796124 -0.022485442
0.0017404051 -0.06209706 -0.054257534 -0.053752266 -0.04378843 -0.07767759 -0.12250109 -0.07162348
-0.055559006 -0.092084184 -0.03639883 -0.057640925 -0.060074043 -0.075528406 -0.052417364 0.08084089
-0.044381753 -0.054156862 0.12005503 -0.040178996 0.008342615 0.017677806 -0.058167875 -0.063145824
-0.11153186 -0.08190471 -0.059913028 -0.0026411228 -0.032343034 -0.027080024 0.20131536 -0.025896376
-0.016969714 0.0822129 0.062445033 -0.009152636 0.018688284 -0.0696498 0.18348299 0.019024607
0.017530883 -0.026938338 0.075168654 0.040459465 0.26155907 0.026946764 -0.005956159 0.28211445
-0.0037332678 0.15313946 -0.048619825 -0.0023890699 0.024348963 -0.017163502 -0.017548347 0.04506017
0.12172352 -0.032996472 -0.06726096 -0.0559677 -0.015531155 -0.05213875 -0.06461686 -0.06730391
-0.018268574 -0.035727113 -0.023637874 -0.099475764 -0.047691587 -0.03854515 -0.053619094 -0.058511965
-0.062445853 -0.03266787 -0.09583206 -0.03656325 -0.051428806 0.24497406 -0.061477356 -0.06534314
-0.03600288 -0.11082873 -0.051541146 -0.01746213 0.0016589498 -0.07208072 -0.035517696 0.06482443
-0.05902098 0.05068879 -0.04800955 -0.040305436 -0.06445341 -0.05830027 -0.06779349 -0.047030874
-0.062309682 -0.044189375 0.038186606 -0.11715422 -0.023623565 -0.11617 -0.026825054 0.09615435
0.10357394 0.050122324 0.043465044 -0.08697938 -0.09596502 -0.06382405 0.048814584 0.13331336
-0.07559465 -0.055876806 0.0362666 -0.012645961 -0.10632246 -0.10784612 -0.09895487 -0.020806188
-0.09206399 0.013223125 -0.06902587 -0.053769857 -0.035658192 -0.052260444 -0.08538552 -0.03207685
-0.053024776 -0.11021885 0.0691432 -0.041319586 -0.029024923 -0.05070392 -0.056471895 -0.1054228
-0.093372695 -0.07106437 -0.08476566 -0.0384277 -0.09231841 -0.028251817 -0.054330334 -0.16803072

layers.0.theta.bias f4 [64]
00000000: ea92 8eb8 2869 8639 57e0 1db8 9fe9 a539
00000010: f778 be38 8a86 6a39 4049 11ba 81ed 7238
00000020: 2dc0 3e39 e6d0 e539 305d 15b9 0426 7e38
00000030: c1ff 11b9 509c 90b6 8aa3 ddb8 2516 7139
00000040: 9e7b a0b8 932f 22b9 2465 1039 ac0d 073a
00000050: cbfb 39b9 0e2f d939 28e8 4a37 a458 1939
00000060: 3286 5fb8 5146 cbb9 656e bbb9 6c5e 52b9
00000070: f4bd 9f39 761e 7cb9 e7c3 6eba 3da9 b1b9
00000080: f61a aab9 adf9 4038 0022 7e36 2ce8 8a38
00000090: c40c 62ba 004a 23b7 7ee4 d3b9 a052 9bb9
000000a0: c2c9 08ba 124b fbb9 bf3e 0eba 7bcc 9fb8
000000b0: 6167 6e38 5a2d 76ba ddbe e039 9e9f 66b8
000000c0: 853a 6ab9 cc3e 1839 1f08 b4b9 80a0 a1b9
000000d0: acd9 dfb9 5b8b 7c38 0c0f c8b9 260a 8eb9
000000e0: efda 12ba dcfe 15b9 a68d 1fb9 32dd 86ba
000000f0: a649 183a 2662 b7b9 cb19 76b9 9c3a 3837
-6.7984525e-05 0.0002563682 -3.764065e-05 0.00031645314 9.0824375e-05 0.00022366099 -0.0005542226 5.791849e-05
0.00018191403 0.00043833925 -0.00014244462 6.0593724e-05 -0.00013923553 -4.3097316e-06 -0.00010568563 0.000229918
-7.65242e-05 -0.00015467247 0.00013770588 0.00051518786 -0.00017736775 0.00041424524 1.2094191e-05 0.00014624238
-5.3292322e-05 -0.00038771567 -0.0003574967 -0.00020062336 0.0003046837 -0.0002404394 -0.0009108171 -0.00033886163
-0.00032445014 4.6008896e-05 3.786874e-06 6.623598e-05 -0.0008623118 -9.732787e-06 -0.00040415296 -0.00029625464
-0.00052180525 -0.00047930382 -0.000542622 -7.619798e-05 5.68399e-05 -0.0009390913 0.00042866814 -5.498493e-05
-0.00022337779 0.00014519243 -0.00034338326 -0.00030827895 -0.00042696053 6.0211267e-05 -0.00038158183 -0.00027091912
-0.00056020817 -0.0001430469 -0.0001521619 -0.001028931 0.00058093143 -0.00034977606 -0.00023469997 1.0980901e-05

layers.1.bn.weight f4 [9]
00000000: 5dbc ad3f 30c8 ad3f 0ce2 b13f f591 b53f
00000010: c5f8 b13f 46d0 ab3f 346f ab3f 3228 b13f
00000020: 3087 b13f
1.3573109 1.3576717 1.3897109 1.4185168 1.3904043 1.3422935 1.3393312 1.3840392
1.3869381

layers.1.bn.bias f4 [9]
00000000: 1710 0dba a50b dc3b 2543 d43d 70d0 64be
00000010: c164 273e 460d 4d3c 43a6 6d3e 6693 89bd
00000020: d422 f0bd
-0.0005381121 0.0067152553 0.10364369 -0.22345138 0.16347028 0.012515372 0.23207955 -0.06717567
-0.11725393

layers.1.bn.running_mean f4 [9]
00000000: 4c90 5f3e 2c8d ee3d a047 0d3c 0fe1 14bf
00000010: 9c92 773d dca3 e2bd 9020 183d 7dd2 523d
00000020: a27f 8a3e
0.21832389 0.1164802 0.008623034 -0.5815591 0.060442552 -0.1106641 0.03714043 0.05147027
0.270505

layers.1.bn.running_var f4 [9]
00000000: 6d10 473f e301 3d3f 2450 6e3f 73e6 1d3f
00000010: d89b 463f fbfa 423f 34c6 593f 260e 403f
00000020: 0504 3f3f
0.7775944 0.73831004 0.93091035 0.6167976 0.7758155 0.76164216 0.8506806 0.7502159
0.7461551

layers.1.theta.weight f4 [9, 64]
00000000: 5ee7 82bd b4c6 9abd 221e a6bd 5a9d e7bc
00000010: 69f5 b2bd ea95 c43d a5a7 3a3e 06b3 33bd
00000020: f735 50bd 3880 b2bd ad96 1b3e 64fa f13d
00000030: 9d73 81bd 3376 a6bd dd9b aabd b0c2 023e
00000040: 5549 da3d 11c7 a4bd 85c0 1e3e f270 c6bd
00000050: c9a0 0b3e 8d1a 43bd ae61 61bd 5488 ca3d
00000060: 3a96 87bd 40f7 83bd 37a1 99bd 0020 1b3e
00000070: 4cf5 8ebd 9b13 1c3e 6fa8 17bd 2fa5 043e
00000080: b07d 353e 1f1c c13d d52d d7bd 7592 d93d
00000090: e0e2 5bbd 6d0f 43bd 6fd1 c1bd 1d3d e9bd
000000a0: 4ac3 713d 5ce8 723d f04e 40bd e275 97bd
000000b0: abde 84bd 91f7 dd3d 49f3 823c e25a 083e
000000c0: 6ab3 5f3d 7ce9 d8bd 4d2a bf3d 5a73 393e
000000d0: 6abc ef3d 03c9 f43d 3ecf 5e3d 909b a0bd
000000e0: 5b5e 503d 9fd5 b23c e4d1 3fbd fbc3 b73d
000000f0: 6174 97bd fb73 b8bd 5e8a 53bd efa4 a13d
00000100: 20d2 a5bd 5963 d6bd 632f d73d 174f c0bd
00000110: 3644 303e 0174 a53d d719 bbbd 1e7a bfbd
00000120: cbc5 933d 315c 8d3d b063 1d3e f475 eebd
00000130: f5d5 bb3d aa63 903d 16ce 1ebd 9112 ef3d
00000140: c33f b13b 382f 243e b079 debd 9044 d9bd
00000150: 5593 e6bd d8a3 88bd 465a dabd 5adb 3f3e
00000160: 9791 ae3c 9b4f a2bd d395 ef3d 91a5 c3bd
00000170: 9d6b 963d 6c08 2a3e c69c 9abd 8d9f 7cbd
00000180: ba3c 6dbc 12fb f1bd 761c ca3d 6232 833d
00000190: bf8d 353e 1dd7 5dbd cff6 f7bd 19bb 133e
000001a0: 91d1 b53d c439 f9bd f154 8abd e0fa 8e3d
000001b0: 8be3 afbd 6891 01be 4b98 2d3d a0d4 743d
000001c0: 0565 1bbe 0c17 e63d f196 6dbd 2db5 a6bd
000001d0: fd70 373d a6b2 003e 8bcc d9bd 8a77 8a3d
000001e0: 7ca2 0d3e 5661 903d 7b87 e0bc 2b94 03be
000001f0: c9df f3bd abb6 013e 4468 643e 7e67 8fbc
00000200: ddaf 7abd 99be c9bd 423a 13bd b031 a33d
00000210: 63ea a8bd e82a a43d 483c 90bd 3fc8 8cbd
00000220: aaa2 443e bca6 a7bd e7e1 613d d15e 8ebd
00000230: 2a10 07bd 6516 2fbd 7f88 65bd ebbe d9bd
00000240: cfa0 d93d 9d5a adbd 91c1 84bd de99 acbd
00000250: ec19 c13b 27fd 403e 0683 93bd ea8b 47bc
00000260: 477d 3e3e c887 4fbd 3ca1 403e e6e4 d7bd
00000270: ce89 4b3e cd46 1bbd 4a38 db3d 318e bdbd
00000280: 46d4 bd3d b5cb f8bc dd7a 14bd 0c6b 59bd
00000290: dc88 a2bd 18ff 863b ca31 093e 3f4a b9bd
000002a0: 0272 d03d 6312 893e 5ffb acbd d60b 373e
000002b0: 9bd5 313e 683c 1dbd 9690 d33d 73a1 cabd
000002c0: 25e5 0d3c a309 d7bd 9480 c6bd f605 92bd
000002d0: 4226 46bd c2dd ecbd a688 debd 6495 a5bd
000002e0: 0cea b6bd e1f4 6ebd 49e1 663d c100 a23d
000002f0: 78ee 243e b5e6 f9bd 8011 5dbd 87de 313e
00000300: 1d30 373e e4c9 4f3e 489c 85bd 1c9e 6d3d
00000310: a60a cdbd c2f8 f1bd 0c07 83bd 8ec4 223e
00000320: 0ac5 c2bd 50b5 c4bd ea0c 9bbd 7873 85bd
00000330: bdeb 09be d561 333d 319a d2bd ae89 dbbd
00000340: 3aa1 cdbd 54d2 693e 30af b1bd 16a0 f43d
00000350: 1376 eebd 29f1 a73d 6fd3 ccbd afa1 6ebd
00000360: 4b45 babd 3c72 b7bd cec3 9cbd f5fa 413e
00000370: 327a 38bd 3929 953d 2fdc e8bd e236 0cbe
00000380: 58c8 cebd 795a dbbd 35f8 43be e380 473e
00000390: 11a9 4abd 1b13 b4bd 836b 31be 247f 053e
000003a0: 5ad4 cf3d 8dda a2bd cb4a 24be 919e dcbd
000003b0: ea8e 323e fb44 1fbe 00bc 9bbd 2e65 8a39
000003c0: f63d 2a3d b74e c9bd cbb5 163e 9426 b9bd
000003d0: 5299 00be 8a1d 60bd a64c 0ebe 2eb3 4dbd
000003e0: 549a cbbd 4c80 873b 2f3c d7bd c805 b1bd
000003f0: c95d fcbd 0d60 b4bd 10a0 94bd ae0a 54bd
-0.06391786 -0.07557431 -0.08111216 -0.028273273 -0.087382145 0.09598906 0.18228014 -0.043871902
-0.050832715 -0.08715862 0.15194197 0.11815336 -0.063208796 -0.081280135 -0.0833051 0.1276958
0.10658518 -0.080457814 0.15503128 -0.09689511 0.13635553 -0.047632743 -0.055024795 0.09889284
-0.0662045 -0.064436436 -0.075014524 0.15148926 -0.069803804 0.15241854 -0.037025865 0.12953638
0.17723727 0.09429192 -0.10506789 0.106236376 -0.05368316 -0.047622133 -0.094637744 -0.113886096
0.059024133 0.059303626 -0.04695028 -0.07395531 -0.06487783 0.10838235 0.015985148 0.13315919
0.054614462 -0.105914086 0.0933424 0.1811041 0.11705859 0.119524024 0.05439686 -0.07842171
0.050871234 0.021830378 -0.046831027 0.08972927 -0.073952444 -0.090064965 -0.05164563 0.07892787
-0.08096719 -0.10468168 0.10507085 -0.09390085 0.1721352 0.080787666 -0.09135788 -0.09349464
0.072154604 0.0690235 0.15370059 -0.116435915 0.091716684 0.070502594 -0.038770758 0.11673463
0.0054092123 0.16033638 -0.10863054 -0.106087804 -0.1125857 -0.06671876 -0.106617495 0.1873602
0.021309657 -0.0792534 0.116984986 -0.09553064 0.07344744 0.16604775 -0.075494334 -0.061675597
-0.01447981 -0.11815466 0.0986871 0.06406094 0.17729853 -0.054160226 -0.12107622 0.14426841
0.08877862 -0.12169221 -0.067544825 0.06981444 -0.08588322 -0.12653124 0.042381566 0.059773088
-0.15175255 0.112348646 -0.058005277 -0.08140025 0.04478549 0.12568149 -0.106347166 0.067610815
0.13831514 0.07049815 -0.027408352 -0.1284949 -0.11907918 0.12667339 0.22305399 -0.017505404
-0.061202873 -0.09850807 -0.03594423 0.079684615 -0.08247831 0.08015996 -0.07042748 -0.068741314
0.19202676 -0.08186099 0.055147078 -0.069516785 -0.0329744 -0.042745966 -0.056038376 -0.10632118
0.10626375 -0.08464549 -0.06482232 -0.08427785 0.0058929827 0.1884657 -0.07202725 -0.012179354
0.18602477 -0.0506666 0.18811506 -0.10541706 0.19876787 -0.037909318 0.10704096 -0.092556365
0.092690036 -0.030370573 -0.036249984 -0.053080603 -0.0793626 0.004119765 0.133979 -0.090473644
0.10177995 0.2677184 -0.08446383 0.17875609 0.1736664 -0.038387686 0.10330312 -0.09894075
0.008660589 -0.10499885 -0.09692493 -0.07130043 -0.04837633 -0.115657344 -0.10865907 -0.080851346
-0.0893136 -0.058339003 0.056367192 0.079103 0.16106594 -0.12202207 -0.053971767 0.17370044
0.17889448 0.20291859 -0.06523949 0.058012113 -0.10011797 -0.11815025 -0.063978285 0.15895292
-0.095102385 -0.09604895 -0.075708225 -0.065161645 -0.13468833 0.04379447 -0.10283316 -0.1071962
-0.10040517 0.2283414 -0.086759925 0.119445965 -0.116436146 0.082002945 -0.10001265 -0.058259662
-0.09095248 -0.08957335 -0.07654534 0.18943389 -0.04503841 0.07283253 -0.11370122 -0.13692811
-0.10096806 -0.10710616 -0.19137652 0.1948276 -0.04947764 -0.087927066 -0.17326169 0.13036782
0.10147925 -0.079518415 -0.16044156 -0.10772432 0.1743733 -0.15553658 -0.076042175 0.00026396796
0.041562997 -0.09829467 0.14717786 -0.09040561 -0.12558487 -0.05471567 -0.13896427 -0.050219707
-0.09941545 0.004135167 -0.10509526 -0.08643681 -0.123225756 -0.08807383 -0.07257092 -0.051767997

layers.1.theta.bias f4 [9]
00000000: ba87 c93b b8cd a5b8 789e d3ba b944 c93b
00000010: 6ba2 c0b9 909e 2a39 78e5 e13a fab8 edba
00000020: 9e5a e9b9
0.006150213 -7.906131e-05 -0.001614525 0.0061422256 -0.00036742105 0.00016271533 0.0017234525 -0.0018136792
-0.00044508738
