src_new2/model/hypergcn_coauthorcora_hid64_0104.pth (torch, 370997 bytes, 4 tensors)

layers.0.theta.weight f4 [64, 1433]
0.017978303 0.0718733 0.16777566 -0.0602433 0.5921352 -0.048058417 -0.3215011 0.082747325
0.19366227 0.0053893905 0.07388527 0.057257604 0.1407182 0.10060583 0.069378756 0.012928325
0.05870156 0.011339998 0.028462887 0.46348965 0.029730566 -0.03523893 -0.058127657 -0.06362831
-0.009654325 -0.0880514 -0.020907369 -0.05182357 0.07846052 -0.010422064 -0.12189072 0.021753607
0.049057696 0.00988486 0.09779161 -0.11764975 0.06842133 -0.036730397 -0.03655424 -0.06147059
0.23566408 0.10810398 0.010818892 0.09945133 0.036833994 -0.050887294 -0.010357445 -0.18456973
0.31739807 -0.08104031 -0.1548024 0.1566002 -0.021297444 0.05460356 0.191479 0.025540927
-0.21579483 -0.09098941 0.25764695 0.18778686 -0.017711634 -0.22667478 -0.093121 -0.11632529
-0.030536892 0.039587542 0.04576549 0.052696355 0.006197724 0.07253715 0.028836776 0.03246332
0.050815396 0.024543328 -0.021295581 0.026527908 -0.2524826 0.083699405 0.0018949918 -0.0334808
0.020290408 -0.13101286 0.12095912 -0.13826564 -0.07283838 0.114896744 0.15978408 0.17333524
0.03408318 -0.109989524 0.016277451 -0.029513339 -0.07153075 -0.103674866 -0.12139882 0.031181123
-0.03699006 0.14361537 -0.122875825 0.037307087 0.015769629 0.018610746 0.11626817 0.023789918
-0.047225386 -0.07125984 -0.310847 -0.11172931 -0.20333147 0.032265484 -0.068406746 0.11926364
0.018580696 0.000532781 -0.004200223 0.08168573 -0.016866663 0.017605841 -0.18462504 0.03988927
0.009728478 -0.16605787 -0.083056726 0.017654613 0.054093506 0.20708095 -0.14940616 0.09398531
0.03594256 0.035215273 0.030342225 -0.030309765 0.037902996 0.07702734 0.030757952 0.12137659
0.13611221 -0.030990332 -0.021364424 -0.054254856 -0.44514158 0.055295177 0.07210589 0.03853183
0.052865576 0.027016914 -0.043968245 -0.017900243 -0.037070364 0.10413451 0.038271602 0.1827221
-0.04492964 0.1738809 -0.0328633 -0.06914155 -0.116497956 0.09875414 0.028941603 0.014800517
0.008134321 -0.057543218 0.072060615 -0.021018274 -0.015459474 -0.09518616 0.040050212 -0.028016165
0.4794917 0.07547301 0.024241026 0.0959867 0.15899889 -0.05773307 -0.033701576 0.0843658
0.06909807 0.0955914 -0.175284 -0.13122144 -0.04276435 0.012882837 0.16892359 0.03373301
-0.06283073 -0.0022419305 -0.046409033 0.024983296 -0.1849458 0.056670498 -0.06797001 -0.09743598
-0.14221612 -0.0663551 -0.017403614 -0.17636184 0.07558036 0.03731129 -0.088119194 -0.08929881
-0.13620174 0.018653952 0.010648897 -0.03695724 -0.09943886 -0.34280625 0.07422534 -0.020109758
0.2296712 0.048278157 0.011683878 -0.26347545 0.14413305 -0.16228762 -0.022462685 -0.014456214
0.03286994 -0.011630792 0.035864223 0.019500598 0.021203069 -0.09254493 0.19781771 0.002617202
0.12841195 0.09986045 0.045797624 -0.041005116 0.06317923 0.0448051 0.30066305 0.04003834
0.055136777 0.065667585 0.0057517486 0.04377317 0.06985413 -0.14515696 0.12539834 0.05046192
-0.020726401 0.015456139 -0.06205597 -0.013807837 -0.0023674497 -0.07004736 0.06261728 -0.08860038
0.07830959 -0.048777983 -0.27641714 0.11232894 0.021444539 0.056337915 0.0009347371 -0.22760072
00000000: 3c47 933c 4f32 933d 62cd 2b3e aec1 76bd
00000010: 2c96 173f e7d8 44bd cb9b a4be 6e77 a93d
00000020: 674f 463e 7c99 b03b 2951 973d f386 6a3d
00000030: 6f18 103e 6e0a ce3d 7316 8e3d 53d1 533c
00000040: 0c71 703d 66cb 393c 002b e93c 844e ed3e
00000050: 848d f33c b256 10bd 4417 6ebd 8f4f 82bd
00000060: 2d2d 1ebc 4b54 b4bd ee45 abbc f444 54bd
00000070: e9af a03d 4ec1 2abc d8a1 f9bd 9f34 b23c
00000080: b9f0 483d 1cf4 213c f846 c83d 5af2 f0bd
00000090: 7b20 8c3d 9d72 16bd e6b9 15bd 96c8 7bbd
000000a0: ed51 713e 9f65 dd3d b941 313c 24ad cb3d
000000b0: 3edf 163d 326f 50bd 46b2 29bc d9ff 3cbe
000000c0: 0082 a23e 76f8 a5bd 8584 1ebe ce5b 203e
000000d0: fa77 aebc fca7 5f3d 1213 443e 353b d13c
000000e0: 52f9 5cbe a858 babd 4dea 833e 334b 403e
000000f0: fd17 91bc 6f1d 68be 39b6 bebd f43b eebd
00000100: 8128 fabc 8c26 223d 9874 3b3d 22d8 573d
00000110: 4716 cb3b 5b8e 943d 1a3b ec3c 42f8 043d
00000120: ce23 503d 170f c93c 1274 aebc 0e51 d93c
00000130: 6645 81be 986a ab3d 6061 f83a 2a23 09bd
00000140: 1238 a63c 3c28 06be 6ab9 f73d 8295 0dbe
00000150: 4a2c 95bd fc4e eb3d 709e 233e cb7e 313e
00000160: ce9a 0b3d 3042 e1bd 4a58 853c f5c5 f1bc
00000170: b77e 92bd 7d53 d4bd f29f f8bd 8e6f ff3c
00000180: e482 17bd e80f 133e 52a6 fbbd 51cf 183d
00000190: 4f2f 813c 9075 983c 021e ee3d 13e3 c23c
000001a0: 686f 41bd aef0 91bd 5727 9fbe 56d2 e4bd
000001b0: 2036 50be d028 043d d618 8cbd 7f40 f43d
000001c0: 8b36 983c 54aa 0b3a 06a2 89bb d94a a73d
000001d0: f52b 8abc 203a 903c 590e 3dbe ee62 233d
000001e0: 3264 1f3c 130b 2abe a519 aabd 68a0 903c
000001f0: 2791 5d3d 070d 543e eefd 18be 5f7b c03d
00000200: 8138 133d e43d 103d 4290 f83c 2f4c f8bc
00000210: 2c40 1b3d 83c0 9d3d 1af8 fb3c 4a94 f83d
00000220: 0061 0b3e 70df fdbc 7204 afbc 573a 5ebd
00000230: 99e9 e3be 327d 623d 41ac 933d 8dd3 1d3d
00000240: 9389 583d 9352 dd3c 0c18 34bd 88a3 92bc
00000250: 18d7 17bd 7944 d53d afc2 1c3d 811b 3b3e
00000260: 2408 38bd d60d 323e ab9b 06bd 169a 8dbd
00000270: 7b96 eebd 9c3f ca3d f116 ed3c de7d 723c
00000280: d145 053c 70b2 6bbd 8494 933d 842e acbc
00000290: bc49 7dbc f6f0 c2bd b10b 243d 2882 e5bc
000002a0: f07f f53e 9891 9a3d 1e95 c63c ad94 c43d
000002b0: 9bd0 223e 8379 6cbd aa0a 0abd fac7 ac3d
000002c0: 4a83 8d3d 6dc5 c33d a67d 33be ea5e 06be
000002d0: ac29 2fbd 8912 533c 4efa 2c3e a02b 0a3d
000002e0: 66ad 80bd 5aed 12bb 6617 3ebd c5a9 cc3c
000002f0: 6f62 3dbe 531f 683d dc33 8bbd 848c c7bd
00000300: 1aa1 11be 2fe5 87bd 0692 8ebc 3398 34be
00000310: e0c9 9a3d b9d3 183d d677 b4bd 4be2 b6bd
00000320: 7878 0bbe 2cd0 983c b678 2e3c 7a60 17bd
00000330: 9aa6 cbbd 4d84 afbe 7403 983d 38bd a4bc
00000340: ed2e 6b3e 51bf 453d bc6d 3f3c 41e6 86be
00000350: 9d97 133e ba2e 26be aa03 b8bc c2d9 6cbc
00000360: a1a2 063d 148f 3ebc 5de6 123d b8bf 9f3c
00000370: 0fb2 ad3c 3288 bdbd ba90 4a3e 5d85 2b3b
00000380: 6c7e 033e a383 cc3d 4a96 3b3d fbf4 27bd
00000390: 1d64 813d 8d85 373d 82f0 993e 3eff 233d
000003a0: 1ad7 613d ba7c 863d 2a79 bc3b 7f4b 333d
000003b0: af0f 8f3d 07a4 14be 6c68 003e 29b1 4e3d
000003c0: 6aca a9bc bf3b 7d3c 672e 7ebd 443a 62bc
000003d0: 3727 1bbb fe74 8fbd 7d3d 803d 1e74 b5bd
000003e0: c760 a03d 6ccb 47bd 8c86 8dbe b70c e63d
000003f0: 75ac af3c 96c2 663d 2509 753a 2a10 69be

layers.0.theta.bias f4 [64]
0.08823806 0.05334723 0.053762067 0.0925302 0.08350455 0.057685 0.05179305 0.050180778
0.08729034 0.044750303 0.07408117 0.052525382 0.058506858 0.045664568 -0.023903703 0.06654299
0.05951715 0.06454105 -0.0095529 0.047412787 -0.017972432 0.05102247 0.09051779 0.06127145
0.08766591 -0.0070215883 0.084475115 0.04971508 0.06626546 0.046144456 0.06364591 0.061387233
0.053595502 0.07519114 0.06115094 0.022915961 0.041475978 0.046158794 0.079265326 0.042417403
0.07354155 0.05432553 0.035820942 0.035397258 0.079136774 0.07700743 0.06598398 -0.008987092
0.06702234 0.08209995 0.08347928 0.095112674 -0.036664806 0.06710912 0.07135983 0.05000817
0.091024704 0.060764227 0.05200727 0.056425057 0.07752191 0.042539585 0.08494335 0.065178394
00000000: 28b6 b43d a082 5a3d 9d35 5c3d 7980 bd3d
00000010: 6f04 ab3d 1b47 6c3d f324 543d 5c8a 4d3d
00000020: 47c5 b23d 184c 373d deb7 973d db24 573d
00000030: e3a4 6f3d c50a 3b3d b3d1 c3bc b147 883d
00000040: 41c8 733d 192e 843d c483 1cbc e933 423d
00000050: ec3a 93bc f0fc 503d 6461 b93d c6f7 7a3d
00000060: 2f8a b33d 5a15 e6bb 4a01 ad3d 0aa2 4b3d
00000070: 2fb6 873d f801 3d3d c958 823d 2e71 7b3d
00000080: f586 5b3d d0fd 993d 6879 7a3d 41ba bb3c
00000090: b7e2 293d 0111 3d3d dc55 a23d dfbd 2d3d
000000a0: f49c 963d 7284 5e3d fbb8 123d b7fc 103d
000000b0: 7612 a23d 12b6 9d3d 9c22 873d 993e 13bc
000000c0: 0243 893d 0524 a83d 2ff7 aa3d 6fca c23d
000000d0: d62d 16bd 8270 893d 1a25 923d 5ed5 4c3d
000000e0: 296b ba3d e9e3 783d 9305 553d f61d 673d
000000f0: cfc3 9e3d fd3d 2e3d c7f6 ad3d 407c 853d

layers.1.theta.weight f4 [7, 64]
-1.3330914 1.2587795 1.3503942 -1.1062878 -1.1481113 -1.1544317 -0.14656694 1.4209611
-1.0388684 -1.112229 1.3479803 1.2439775 1.16798 1.1070862 -2.7668516e-06 1.2233773
1.3318617 1.2166427 -4.3291487e-07 0.85050696 1.1949219e-06 1.1316537 -1.186873 1.2045293
-1.2083075 7.087642e-07 -1.0810121 -1.1286361 -1.1986731 -1.1633476 -1.1928128 1.2027421
-1.383202 1.075695 -1.0908693 1.1511774 1.3225439 1.2254295 -1.0218732 -1.1506102
-1.1694714 1.1777232 -0.43636498 -0.5941993 1.2178248 -1.082082 1.1173598 1.205444e-06
1.1379858 -1.2681587 -1.1216694 -1.1787839 -5.5491876e-07 1.2741119 1.3071582 0.90038323
-1.1653776 1.26445 1.3477224 -1.1638008 -1.1451243 1.0830305 -1.1532885 1.1102698
-1.3527404 -0.86559236 1.2435901 -1.11205 -1.3919661 1.2427222 -0.042774044 1.3518803
-1.4642718 1.2996603 -1.1818321 -1.1679523 -1.1807103 -1.3103824 -1.5062646e-07 -1.217146
-1.0490367 -1.3375949 7.954281e-07 -0.27031136 -1.9201457e-07 -1.1695817 1.2121791 -1.0014757
1.5286719 2.9630028e-06 -1.2282387 -1.1974658 0.39852634 0.9647547 -1.2032971 -1.165561
-1.5370804 -1.3555082 0.32684237 1.382462 0.4687112 1.4547395 -1.1243057 1.1077435
1.3393553 -1.2230237 0.5185054 0.45975816 -1.2649676 0.8733483 1.1100907 3.7426398e-06
-1.3113366 1.1010842 1.2736424 1.111192 -1.6929116e-07 -1.0693872 -0.9066387 0.32316396
-1.611191 1.5669861 -1.112263 1.3833843 -1.4112154 1.3810055 0.95457596 1.1302632
-1.3720403 -0.4949898 -1.2164086 -1.2007216 -1.4174793 -0.41903275 1.246736 -1.2651095
1.3096782 -1.5129213 -0.66974014 0.04730239 -1.4536393 -0.3663261 -6.316082e-06 -1.2090192
-0.032578286 1.0568415 -3.6895716e-07 1.0170767 -4.5737528e-07 -1.2504156 -1.4905864 -1.2940648
-1.5195106 -1.9425743e-06 -1.198634 -1.1374307 1.1903988 1.0503106 1.1411926 -0.7453936
1.1828809 1.3437715 1.374966 -1.3439295 -0.8828056 -1.1301415 -0.71720016 1.1004825
-1.1591543 -1.1017548 1.1806438 -0.047393832 -0.6232741 -0.74022883 1.5058132 1.4613953e-06
-1.1011679 -1.346468 -1.2682191 0.9263427 -2.9179232e-06 -0.97923577 -0.7887068 1.3920481
1.6309206 -1.3947905 -0.3399955 0.4428935 -1.1109823 -1.5608033 0.6065325 1.2643709
0.9459981 1.0989428 -0.12248853 0.9413569 0.84355277 1.1994822 -1.4889133 -1.2624879
1.139784 -1.419635 0.53487825 1.1461682 0.96392447 -1.2776471 1.0516549e-05 -1.2894117
1.1626406 0.9643604 -1.8429369e-06 -1.3381927 -1.8712767e-06 1.0556961 0.8651254 1.1024833
1.2022568 1.913964e-06 0.81313133 1.1190732 -1.3409287 -1.1187183 1.2023344 1.0425727
-1.7284809 -1.2999886 1.1999842 -1.2754453 -0.9563807 -1.2666961 1.1545017 -1.015275
1.0426011 1.1918011 -1.2794337 -0.3278218 0.65971977 0.9048121 -1.3029383 2.8591984e-07
-0.09871546 0.80668765 1.0240414 0.8620475 1.8644077e-06 -1.0471379 0.44243133 -1.3611827
0.9046045 1.1918893 1.0983857 1.3159853 0.93278927 -1.2209078 0.9208735 -1.1540723
00000000: bda2 aabf b01f a13f b8d9 ac3f d79a 8dbf
00000010: 50f5 92bf 6bc4 93bf a515 16be 0ee2 b53f
00000020: a4f9 84bf 855d 8ebf 9e8a ac3f a83a 9f3f
00000030: 5e80 953f 00b5 8d3f 26ae 39b6 a197 9c3f
00000040: 727a aa3f f3ba 9b3f 5e6b e8b4 d3ba 593f
00000050: 3461 a035 07da 903f 74eb 97bf 042e 9a3f
00000060: d2a9 9abf e841 3e35 9b5e 8abf 2677 90bf
00000070: 1f6e 99bf 93e8 94bf 17ae 98bf 74f3 993f
00000080: c30c b1bf 60b0 893f 9ba1 8bbf c859 933f
00000090: 1e49 a93f e0da 9c3f becc 82bf 3247 93bf
000000a0: 3db1 95bf a2bf 963f 3b6b dfbe 721d 18bf
000000b0: afe1 9b3f aa81 8abf a505 8f3f beca a135
000000c0: 85a9 913f 0653 a2bf dd92 8fbf 64e2 96bf
000000d0: baf5 14b5 1916 a33f f650 a73f 847f 663f
000000e0: 182b 95bf 7fd9 a13f 2b82 ac3f 6df7 94bf
000000f0: 6f93 92bf bea0 8a3f f59e 93bf 521d 8e3f
00000100: 9926 adbf 7697 5dbf f62d 9f3f a857 8ebf
00000110: f22b b2bf 8511 9f3f d633 2fbd 6a0a ad3f
00000120: 426d bbbf 455b a63f 4646 97bf 767f 95bf
00000130: 8421 97bf 9cba a7bf e3bb 21b4 71cb 9bbf
00000140: d646 86bf 4f36 abbf 6785 5535 4066 8abe
00000150: 902c 4eb4 dab4 95bf af28 9b3f 5b30 80bf
00000160: 85ab c33f 00d8 4636 ed36 9dbf 8f46 99bf
00000170: a50b cc3e 2afa 763f a405 9abf 1a31 95bf
00000180: 0dbf c4bf 4b81 adbf e257 a73e 84f4 b03f
00000190: eafa ef3e e734 ba3f 40e9 8fbf 8aca 8d3f
000001a0: ff6f ab3f 0a8c 9cbf c5bc 043f 6c65 eb3e
000001b0: 75ea a1bf c193 5f3f 7417 8e3f 102a 7b36
000001c0: e1d9 a7bf 54f0 8c3f b706 a33f 8a3b 8e3f
000001d0: 66c6 35b4 aee1 88bf 7919 68bf bf75 a53e
000001e0: 823b cebf 0093 c83f a25e 8ebf bd12 b13f
000001f0: b5a2 b4bf cac4 b03f 175f 743f 77ac 903f
00000200: 049f afbf 4e6f fdbe 47b3 9bbf 3fb1 99bf
00000210: f66f b5bf 768b d6be 0c95 9f3f 1cef a1bf
00000220: 89a3 a73f 68a7 c1bf 1774 2bbf 27c0 413d
00000230: da10 babf 188f bbbe bbee d3b6 24c1 9abf
00000240: cf70 05bd 9546 873f 1615 c6b4 922f 823f
00000250: 2e8d f5b4 9e0d a0bf 89cb bebf eaa3 a5bf
00000260: 537f c2bf 2c5d 02b6 d76c 99bf 5497 91bf
00000270: fd5e 983f 9470 863f 9912 923f 1dd2 3ebf
00000280: a468 973f b400 ac3f e3fe af3f e205 acbf
00000290: 8cff 61bf 7aa8 90bf 6e9a 37bf 9cdc 8c3f
000002a0: 2b5f 94bf 4d06 8dbf 561f 973f 0920 42bd
000002b0: e48e 1fbf a37f 3dbf 7dbe c03f 2925 c435
000002c0: 12f3 8cbf 1059 acbf 0155 a2bf cc24 6d3f
000002d0: 8ad1 43b6 32af 7abf b0e8 49bf a22e b23f
000002e0: 02c2 d03f 7f88 b2bf e413 aebe f0c2 e23e
000002f0: ab34 8ebf 67c8 c7bf b745 1b3f e8d6 a13f
00000300: ee2c 723f 28aa 8c3f 44db fabd c4fc 703f
00000310: 13f3 573f a288 993f b694 bebf 3499 a1bf
00000320: 71e4 913f 9ab6 b5bf c8ed 083f a4b5 923f
00000330: c1c3 763f f189 a3bf 3c70 3037 710b a5bf
00000340: 68d1 943f 53e0 763f d45a f7b5 e649 abbf
00000350: 9428 fbb5 0d21 873f dc78 5d3f 2c1e 8d3f
00000360: 8de3 993f a771 0036 6029 503f ca3d 8f3f
00000370: 8da3 abbf 2932 8fbf 18e6 993f 0673 853f
00000380: dd3e ddbf 0766 a6bf 1599 993f cb41 a3bf
00000390: 5ed5 74bf 1923 a2bf b6c6 933f 88f4 81bf
000003a0: f473 853f f08c 983f 7cc4 a3bf 42d8 a7be
000003b0: 65e3 283f c4a1 673f afc6 a6bf 8680 9934
000003c0: 552b cabd 1583 4e3f ca13 833f 25af 5c3f
000003d0: 903c fa35 9d08 86bf 5c86 e23e 3c3b aebf
000003e0: 2994 673f d48f 983f e797 8c3f 3572 a83f
000003f0: 47cb 6e3f b546 9cbf 5ebe 6b3f a4b8 93bf

layers.1.theta.bias f4 [7]
-0.46820238 0.22425738 0.20436609 -0.056992512 0.26624992 -0.56783223 0.07490328
00000000: 39b8 efbe baa3 653e 5845 513e fb70 69bd
00000010: e951 883e 745d 11bf e466 993d
