src_new2/model/hypergcn_highschool_best_model_0117.pth (torch, 88455 bytes, 4 tensors)

layers.0.theta.weight f4 [64, 327]
0.22288933 0.268057 -0.16315445 -0.29918462 0.34759954 0.2907378 -0.26776657 -0.3009619
0.3508724 0.070825435 0.29239404 0.3228188 0.3133298 -0.3003873 -0.32299942 -0.25396582
-0.34632087 0.36062756 0.10961865 0.31502736 0.35072032 0.39480504 0.07036818 0.042733733
0.30063888 0.27211946 0.3453885 -0.36095285 -0.33269584 -0.3223714 -0.33726442 -0.32323155
-0.2844986 0.037382912 0.22314458 -0.31988913 -0.32681412 -0.29317448 0.11849867 0.081159666
-0.3471456 -0.28633958 -0.31193912 0.08281613 0.19620469 0.087192304 -0.34002966 -0.29195622
0.2961321 0.04932599 0.18753803 0.09499234 0.12621689 0.076035686 -0.37993973 -0.375694
-0.33647868 -0.37098688 0.095357694 0.30197248 -0.35693794 0.06827337 0.1436436 -0.32405138
-0.31055465 -0.27876896 0.12447259 0.066673964 0.036056492 -0.23406684 0.3854663 0.33527616
0.21080408 0.23992918 0.34926024 -0.3429836 -0.37342 -0.3764699 -0.28078607 0.26088393
0.33140802 -0.370018 -0.3666539 -0.32891133 -0.3489775 -0.28213373 -0.37649077 -0.3517916
0.36382768 0.2662825 -0.27293137 -0.3293891 0.17339656 -0.3453766 0.14233723 0.041303076
-0.26581272 0.054838143 0.06303195 0.1376284 -0.36327347 0.32019937 0.3429054 0.34002316
0.28693524 0.20052217 -0.38838047 -0.37954497 0.24642427 -0.20169574 -0.33485633 0.37110004
0.32742706 -0.32621214 -0.32930067 -0.32904717 -0.26812273 0.10952068 0.027553702 0.06143409
-0.3167076 -0.372179 -0.23146445 -0.3583231 0.118059546 0.21471828 -0.36564627 0.28545243
-0.07974455 -0.31755918 0.26325086 -0.34649205 0.20745625 0.3851929 -0.38434032 0.26900876
0.02338998 -0.26469913 -0.18013187 0.0903785 0.3073176 0.3485251 0.045553207 0.3225437
0.3532093 0.033411656 0.2446433 0.16581914 0.3436527 0.2885927 0.14577521 0.35675794
0.25363058 0.10456439 0.3617418 0.051506538 0.051091973 0.122342825 0.18553911 0.014592849
-0.3569089 0.031903163 -0.39633018 0.061145023 0.02453606 0.3014362 0.3591857 0.056033198
0.20415282 0.2106329 0.17322229 0.33635283 0.16585602 0.24445991 -0.3523996 -0.36376196
0.15704203 -0.36954364 -0.36286122 0.11203136 -0.3459994 -0.19198851 0.1026372 0.2296963
0.038446087 -0.38442773 0.2135188 0.12694457 0.097236186 0.009897122 -0.33653045 -0.20383665
-0.19525003 0.14456417 0.08053115 0.2541317 0.17592342 -0.18508801 0.13893494 0.051208317
0.07169038 0.33684126 0.25690603 0.024708658 0.34684473 -0.2999075 0.3512734 0.119053
-0.32281435 -0.18916385 0.10303172 0.13564757 0.2360049 0.18424927 0.31514028 0.32890314
0.31204098 0.36763486 0.34507608 -0.3163818 -0.3051926 0.15646203 0.19971852 0.14179336
-0.34530663 0.30040526 0.20767207 0.21863128 0.28905627 0.1300002 0.15566953 -0.36829597
-0.11900711 0.087177865 0.19345522 -0.34868065 -0.3161251 -0.23617247 -0.32812256 -0.011909477
-0.3359295 0.07007984 0.37634912 0.1279925 -0.36038768 -0.21166794 -0.34824595 0.100273386
0.36922377 0.111705005 0.23332435 -0.24045 0.08686098 0.13894413 0.12067126 0.21397065
00000000: 1a3d 643e c43e 893e f611 27be ba2e 99be
00000010: 91f8 b13e 96db 943e b318 89be ae17 9abe
00000020: 8ca5 b33e ed0c 913d acb4 953e 8148 a53e
00000030: c36c a03e 5dcc 99be 2e60 a5be cf07 82be
00000040: f850 b1be 2da4 b83e be7f e03d 444b a13e
00000050: 9d91 b33e e323 ca3e 311d 903d 9109 2f3d
00000060: 57ed 993e 3e53 8b3e c3d6 b03e d0ce b8be
00000070: 1c57 aabe dd0d a5be ecad acbe 9b7e a5be
00000080: cda9 91be d31e 193d 0380 643e 82c8 a3be
00000090: 2e54 a7be f71a 96be 6eaf f23d 0a37 a63d
000000a0: 11bd b1be 1a9b 92be 7cb6 9fbe 819b a93d
000000b0: e2e9 483e e191 b23d 5e18 aebe 497b 95be
000000c0: a09e 973e 0d0a 4a3d f809 403e 588b c23d
000000d0: 003f 013e 99b8 9b3d 7687 c2be f75a c0be
000000e0: ef46 acbe fef1 bdbe e54a c33d 239c 9a3e
000000f0: 92c0 b6be e9d2 8b3d 4f17 133e 10ea a5be
00000100: 0501 9fbe ceba 8ebe 7ceb fe3d 5c8c 883d
00000110: f9af 133d 38af 6fbe d75b c53e 51a9 ab3e
00000120: 06dd 573e ffaf 753e 3dd2 b23e 8c9b afbe
00000130: e830 bfbe aac0 c0be 31c3 8fbe 9492 853e
00000140: 50ae a93e 0073 bdbe 0fba bbbe 1167 a8be
00000150: 2ead b2be d573 90be 66c3 c0be 071e b4be
00000160: 9f47 ba3e 2e56 883e a9bd 8bbe b0a5 a8be
00000170: de8e 313e 34d5 b0be dac0 113e 6a2d 293d
00000180: 9b18 88be f69d 603d e516 813d 76ee 0c3e
00000190: fbfe b9be 2cf1 a33e 4c91 af3e 8417 ae3e
000001a0: 2de9 923e af55 4d3e ced9 c6be b853 c2be
000001b0: a556 7c3e 5489 4ebe 4a72 abbe d300 be3e
000001c0: 85a4 a73e 4705 a7be 199a a8be df78 a8be
000001d0: 6247 89be 614c e03d 4db8 e13c 50a2 7b3d
000001e0: 8027 a2be 3f8e bebe 0405 6dbe 2076 b7be
000001f0: 34c9 f13d 1cdf 5b3e fd35 bbbe d226 923e
00000200: 1c51 a3bd 1e97 a2be d1c8 863e 6867 b1be
00000210: 696f 543e 0138 c53e 41c8 c4be 84bb 893e
00000220: 589c bf3c a586 87be 7d74 38be 5d18 b93d
00000230: bc58 9d3e e271 b23e 0096 3a3d 7324 a53e
00000240: d9d7 b43e a9da 083d c683 7a3e 7ecc 293e
00000250: 3ff3 af3e 6cc2 933e 1946 153e faa8 b63e
00000260: dedb 813e db25 d63d 3936 b93e 85f8 523d
00000270: d145 513d e08e fa3d f7fd 3d3e d816 6f3c
00000280: c3bc b6be e4ac 023d caeb cabe 3473 7a3d
00000290: d9ff c83c d855 9a3e 30e7 b73e 1183 653d
000002a0: 700d 513e 27b0 573e 2f61 313e 7036 ac3e
000002b0: 29d6 293e b353 7a3e b86d b4be 023f babe
000002c0: a0cf 203e d334 bdbe f2c8 b9be b370 e53d
000002d0: d526 b1be a398 44be 7433 d23d 8235 6b3e
000002e0: a579 1d3d b6d3 c4be aca4 5a3e c2fd 013e
000002f0: c423 c73d 8a27 223c b84d acbe 8eba 50be
00000300: a0ef 47be a108 143e 84ed a43d 8d1d 823e
00000310: 4525 343e b687 3dbe f644 0e3e d0bf 513d
00000320: 68d2 923d 7576 ac3e 3089 833e d069 ca3c
00000330: a295 b13e 7a8d 99be 1bda b33e 0fd2 f33d
00000340: ec47 a5be 2bb4 41be 4b02 d33d 32e7 0a3e
00000350: 45ab 713e d7ab 3c3e 115a a13e fe65 a83e
00000360: d6c3 9f3e a33a bc3e d0ad b03e ccfc a1be
00000370: 3442 9cbe 9537 203e 0383 4c3e 4732 113e
00000380: 08cc b0be b8ce 993e fda7 543e e1e0 5f3e
00000390: 2fff 933e c61e 053e d567 1f3e 4a91 bcbe
000003a0: 00ba f3bd 4f8a b23d 2019 463e 4586 b2be
000003b0: 26db a1be 32d7 71be aeff a7be f81f 43bc
000003c0: f4fe abbe 0586 8f3d d5b0 c03e 7710 033e
000003d0: bc84 b8be 7bbf 58be 4b4d b2be 225c cd3d
000003e0: e60a bd3e 98c5 e43d 94ec 6e3e 8638 76be
000003f0: 2be4 b13d 5f47 0e3e 7e22 f73d 1f1b 5b3e

layers.0.theta.bias f4 [64]
0.15780222 0.12323736 0.09702282 0.096087396 0.13071607 0.090708196 0.1335544 -0.04281642
0.13556062 0.14208704 -0.024501069 0.14037386 0.08037131 -0.037022054 -0.044271808 0.0910039
-0.0068313247 0.12481617 0.16941875 -0.043704867 0.18138985 0.1329574 0.116047055 0.14031823
-0.04155342 0.14715603 0.088395335 0.07874416 0.1104621 0.13856527 0.19640726 -0.03886898
-0.04300592 0.110223345 0.09142262 0.14515685 0.14404184 0.07369704 0.1310361 -0.026591672
0.13332878 0.1412055 0.118990615 0.114164025 0.13002315 0.13567866 0.12561578 0.0895484
0.13533045 0.13852654 0.18085752 0.10239719 0.077494554 -0.050171863 -0.018012812 0.21382782
0.11919881 0.13854358 -0.037530333 0.23714565 0.11987079 0.15234369 0.18922363 0.1490401
00000000: e896 213e de63 fc3d e6b3 c63d 78c9 c43d
00000010: 6fda 053e 38c5 b93d 7cc2 083e 4560 2fbd
00000020: 67d0 0a3e 447f 113e 77b6 c8bc 2abe 0f3e
00000030: b799 a43d 70a4 17bd 5b56 35bd 4160 ba3d
00000040: 4ed9 dfbb 9f9f ff3d 1c7c 2d3e e003 33bd
00000050: 43be 393e fc25 083e 14aa ed3d 95af 0f3e
00000060: eb33 2abd 12b0 163e 9d08 b53d 9e44 a13d
00000070: f439 e23d 0ee4 0d3e fc1e 493e 1435 1fbd
00000080: fa26 30bd c7bc e13d c83b bb3d ffa3 143e
00000090: b47f 133e 79ee 963d 542e 063e c7d6 d9bc
000000a0: 5787 083e 2d98 103e 5ab1 f33d d4ce e93d
000000b0: ca24 053e 59ef 0a3e 6ca1 003e 2765 b73d
000000c0: 1194 0a3e e7d9 0d3e b732 393e 9eb5 d13d
000000d0: 77b5 9e3d 0381 4dbd 9b8f 93bc aef5 5a3e
000000e0: 811e f43d 5ede 0d3e 68b9 19bd 4fd6 723e
000000f0: d17e f53d fcff 1b3e d7c3 413e f89d 183e

layers.1.theta.weight f4 [9, 64]
-0.41016012 -0.36968234 -0.35860097 -0.32899627 -0.4569762 0.39114195 0.34149772 0.0052103596
0.3533015 -0.4035899 -0.0032817954 0.20191503 -0.3487898 0.015726054 0.002166733 0.33682042
0.009758791 -0.37349197 -0.08770767 -0.007692242 0.42175525 -0.2695781 -0.4111031 0.30864096
0.005565758 -0.40344173 -0.32427818 0.41236106 -0.05233994 0.4068763 -0.3876766 0.002947351
-0.0049361675 0.12979001 -0.4008481 0.4589066 0.28004548 -0.24095204 -0.4082478 0.003938079
0.4397024 0.37922826 -0.37358215 0.36431962 0.30306324 0.23865518 0.36120272 0.37530038
0.17462131 -0.43622342 0.4111135 0.33908856 -0.32473606 -0.009671199 -0.0012072689 -0.3355742
0.0741634 -0.2608154 0.007439476 -0.28492674 -0.4901176 -0.49924946 0.017525278 0.43804482
-0.38024634 -0.38362205 0.28262678 -0.39121515 -0.28370526 0.31496623 -0.35673845 8.851261e-05
0.43676493 0.27125958 0.009814069 -0.41556877 0.37480986 0.0054105218 -0.00016334275 0.34750834
0.0030414015 0.44916913 -0.4575895 0.00032086158 -0.45417574 -0.34097221 -0.3399263 0.32357532
0.0043952893 -0.46267954 0.4062542 -0.5088966 0.4188474 0.39878845 -0.41626063 -0.00091153913
0.0036451397 0.27405795 -0.11302918 0.38654682 0.39361724 -0.25266308 -0.39634252 0.0031146342
0.45562318 0.22899026 -0.2869798 0.37176934 0.37814358 0.123266466 0.42196295 0.059139024
-0.39508078 -0.37955505 -0.36692435 -0.0324336 0.3615667 0.00583927 0.006798338 0.22317617
0.34424108 0.419908 0.007580623 -0.44816595 -0.4339289 -0.20677644 0.31915992 0.3703891
-0.425526 -0.35571972 -0.37448922 -0.32778323 -0.4428122 0.42155334 -0.40783155 -0.0032890977
0.45872784 -0.40137917 0.00041329343 -0.43308485 0.3839912 -0.00491154 -0.010332007 0.33004916
-0.0043935846 0.31159806 -0.4536753 -0.0029035024 -0.42509407 0.38572013 -0.35727355 0.3162485
0.005814789 -0.4933124 0.40553597 0.3166042 0.4934771 0.34196898 0.23707308 0.0013958628
0.002695435 0.26972732 0.3995307 0.20998493 0.40432042 -0.21106699 0.2375234 0.00025921152
0.47792682 0.42518303 -0.3630159 0.49187684 0.5036551 0.30486584 0.4241491 -0.37796193
-0.16157052 -0.49008322 -0.38867334 -0.23598455 -0.35063678 -0.008930631 0.0038385808 0.3706124
-0.37100866 0.43603885 0.0006576412 -0.22756663 0.3181875 -0.44894397 -0.43556646 0.4872514
0.19290707 0.12336286 -0.09273875 0.26731735 -0.04197435 -0.19705352 0.10627186 0.005457852
-0.27036 -0.35372013 -0.0069243484 -0.17803945 -0.2952562 0.001795521 0.0022425354 -0.22929803
0.0014801903 0.27299595 -0.050893016 -0.004943267 0.06828796 0.2922666 -0.050330967 -0.23519064
-0.003409801 0.033475634 -0.32249847 0.031120107 -0.37288985 -0.081323355 -0.18245222 -0.0057631065
-0.0013093549 -0.14455675 -0.069479376 0.07641766 -0.16577265 -0.15783295 -0.10351448 -0.0050269533
-0.086224526 -0.0560352 0.03682234 -0.42195293 -0.16906348 -0.3132056 -0.25966036 0.04417401
-0.2475015 0.058101878 0.30071273 -0.32681033 -0.26246002 -0.008260124 0.004112192 -0.24693365
-0.30762628 -0.22443648 0.0025005469 -0.17526144 -0.057032157 -0.059988175 -0.032777406 -0.4126329
00000000: 8200 d2be 0147 bdbe 8c9a b7be 3372 a8be
00000010: c9f8 e9be c243 c83e cad8 ae3e aabb aa3b
00000020: efe3 b43e 56a3 cebe 6413 57bb d0c2 4e3e
00000030: 9494 b2be edd3 803c bfff 0d3b ba73 ac3e
00000040: 56e3 1f3c 573a bfbe 14a0 b3bd 340f fcbb
00000050: 4ef0 d73e 2406 8abe 1b7c d2be 3006 9e3e
00000060: f660 b63b ea8f cebe ca07 a6be fd20 d33e
00000070: 6862 56bd 1752 d03e 8c7d c6be 5828 413b
00000080: 93bf a1bb ace7 043e f63b cdbe cef5 ea3e
00000090: 1f62 8f3e 22bc 76be db05 d1be 000b 813b
000000a0: ac20 e13e 352a c23e 2946 bfbe 1a88 ba3e
000000b0: 1b2b 9b3e 0662 743e 90ef b83e 5f27 c03e
000000c0: eecf 323e ad58 dfbe 787d d23e 049d ad3e
000000d0: ce43 a6be f373 1ebc 393d 9eba 62d0 abbe
000000e0: fbe2 973d 9989 85be d9c6 f33b ebe1 91be
000000f0: b2f0 fabe a09d ffbe 2c91 8f3c 6947 e03e
00000100: a6af c2be 1c6a c4be 75b4 903e 5a4d c8be
00000110: d141 91be 4143 a13e 6ca6 b6be d89f b938
00000120: a79f df3e 89e2 8a3e 30cb 203c 6ec5 d4be
00000130: 14e7 bf3e bf4a b13b fc46 2bb9 9dec b13e
00000140: 4052 473b 7ff9 e53e 2c49 eabe 5039 a839
00000150: b989 e8be e993 aebe d20a aebe aaab a53e
00000160: 5c06 903b 55e4 ecbe 8d00 d03e 0c47 02bf
00000170: 2b73 d63e 002e cc3e 1d20 d5be 5bf4 6eba
00000180: 4ce3 6e3b 5351 8c3e d87b e7bd 77e9 c53e
00000190: 3388 c93e 0e5d 81be 68ed cabe e41e 4c3b
000001a0: 7147 e93e 6c7c 6a3e 04ef 92be 8d58 be3e
000001b0: 099c c13e 2173 fc3d 870b d83e c33b 723d
000001c0: 0748 cabe 0a55 c2be 82dd bbbe 18d9 04bd
000001d0: 451f b93e 5957 bf3b 98c4 de3b 4b88 643e
000001e0: 5e40 b03e 2efe d63e e066 f83b 0276 e5be
000001f0: ee2b debe 34bd 53be ee68 a33e a4a3 bd3e
00000200: 8bde d9be e520 b6be 0dbd bfbe 34d3 a7be
00000210: 48b8 e2be d7d5 d73e 4ccf d0be e78d 57bb
00000220: 60de ea3e 9281 cdbe 4eaf d839 4cbd ddbe
00000230: 7f9a c43e fcf0 a0bb 9447 29bc 34fc a83e
00000240: 0ff8 8fbb c889 9f3e 2148 e8be b048 3ebb
00000250: eea5 d9be 1c7d c53e 8fec b6be 53eb a13e
00000260: fc89 be3b 7193 fcbe 69a2 cf3e f219 a23e
00000270: 08a9 fc3e 8f16 af3e 49c3 723e 62f5 b63a
00000280: e5a5 303b b319 8a3e 4a8f cc3e 4a06 573e
00000290: 1603 cf3e f221 58be 5639 733e c8e6 8739
000002a0: d3b2 f43e 97b1 d93e 38dd b9be 48d7 fb3e
000002b0: 8aef 003f 6017 9c3e 122a d93e 3a84 c1be
000002c0: be72 25be 30ec fabe 3100 c7be efa5 71be
000002d0: aa86 b3be c851 12bc b390 7b3b e9c0 bd3e
000002e0: d9f4 bdbe 7c40 df3e 8e65 2c3a 3a07 69be
000002f0: 79e9 a23e fcdb e5be 9102 dfbe 0479 f93e
00000300: 6e89 453e aba5 fc3d d0ed bdbd d2dd 883e
00000310: 4ced 2bbd 66c8 49be 10a5 d93d c8d7 b23b
00000320: a06c 8abe ce1a b5be a5e5 e2bb f94f 36be
00000330: d22b 97be b057 eb3a 80f7 123b 1acd 6abe
00000340: f202 c23a 20c6 8b3e 3275 50bd 21fb a1bb
00000350: 8fda 8b3d f8a3 953e d827 4ebd d1d5 70be
00000360: f876 5fbb bf1d 093d 851e a5be 98ef fe3c
00000370: 6beb bebe dc8c a6bd c1d4 3abe 71d8 bcbb
00000380: a99e abba af06 14be 344b 8ebd dd80 9c3d
00000390: 4ec0 29be f69e 21be 66ff d3bd 24b9 a4bb
000003a0: 7c96 b0bd 2a85 65bd 06d3 163d 370a d8be
000003b0: fa1e 2dbe 7c5c a0be 34f2 84be cfef 343d
000003c0: 0971 7dbe 3cfc 6d3d 05f7 993e af53 a7be
000003d0: 2961 86be 7955 07bc 91bf 863b 2ddc 7cbe
000003e0: 3181 9dbe add2 65be 37e0 233b bc77 33be
000003f0: 8d9a 69bd 29b6 75bd 9a41 06bd 9f44 d3be

layers.1.theta.bias f4 [9]
0.23011693 -0.11041269 -0.16348055 0.029559724 -0.0064064185 0.3536689 -0.0716744 0.35845676
-0.09720029
00000000: c6a3 6b3e 0c20 e2bd 7267 27be 3c27 f23c
00000010: efec d1bb 1714 b53e 07ca 92bd a587 b73e
00000020: f210 c7bd
