src_new2/model/lahypergcn_coauthorcora_hid64_0107.pth (torch, 385281 bytes, 4 tensors)

hygcn1.theta.weight f4 [64, 1433]
0.019487195 0.026462272 -0.23633829 0.04331137 -0.17069419 0.009483094 0.1226673 0.041860342
-0.2392617 0.03669929 -0.13986924 -0.024817314 0.05219755 0.07870809 -0.07427818 -0.038824134
-0.07959125 0.027324362 -0.010535147 0.10125421 -0.017443586 -0.099312395 0.0041824374 -0.075679064
0.047573894 0.10425345 0.105125636 0.10892348 -0.013842207 0.02964174 -0.07346539 -0.013921205
0.04036566 -0.0427588 0.011361507 0.021460937 0.017348306 -0.0011540793 0.05049244 0.08091534
-0.009507679 -0.30033365 -0.009862101 0.06299515 -0.027077032 -0.06774839 0.046178795 -0.05345333
0.064137086 -0.032822877 -0.04990371 -0.28410116 0.0006277011 -0.025251418 -0.031638417 0.014499987
0.016801419 0.06412656 -0.27193853 -0.015867904 -0.040889755 0.034547236 0.077692084 -0.10711231
-0.05047425 0.08528303 0.0036615483 0.028459776 0.007817583 -0.0009646204 0.008456942 0.0012919416
0.04551286 0.03772087 0.00060020655 0.039248645 -0.1456503 -0.102048896 -0.09439078 0.0037642866
-0.07886365 -0.04099543 0.008297607 0.0106017515 0.02220607 0.09367119 0.0039183553 0.021850608
0.09322512 0.050257042 0.0034651705 -0.14094475 0.10571249 0.00023176172 -0.067918 -0.010331023
-0.080976345 0.08130712 0.10291602 0.22814889 -0.0030363505 0.043693144 -0.072638266 -0.03158527
-0.013975162 -0.028278241 0.010086376 -0.013953172 -0.11187873 0.078997344 0.030083066 -0.11314684
-0.05167187 0.07602348 0.04562649 0.016520923 -0.011455095 0.066185676 0.19054352 0.023634218
0.00826701 0.012362921 0.008895133 0.014986033 -0.03893005 -0.07809514 0.10090766 -0.09040459
0.2297468 -0.11143637 0.2161829 0.10833978 0.112930045 -0.029864509 0.08570717 -0.33203056
0.093453914 0.09223592 0.0335283 -0.0029810148 0.28801814 0.062426053 -0.049097843 0.19366646
-0.12851499 -0.029992782 0.14298424 -0.030611087 0.04967969 -0.05973552 0.008043295 -0.074944645
-0.020998899 -0.10852123 -2.033799e-05 0.1087474 -0.058895525 0.039136384 0.016044537 0.016858235
0.0639829 0.07025412 -0.023082772 0.039346825 0.007907143 -0.0566996 0.027809309 0.12829292
-0.15250112 -0.11455405 0.0067784004 -0.0857777 -0.040760014 -0.12858494 0.012989087 0.033223134
0.14988615 -0.08230221 -0.10469015 -0.047596402 -0.0041562063 0.015511239 -0.1125128 -0.05464053
-0.06223306 -0.0009547261 0.017852174 -0.037441976 -0.1216882 -0.0016331428 -0.04150369 0.18996444
0.046870805 -0.09087946 -0.080912225 -0.0112421205 -0.11553588 0.029047927 0.00044794648 0.004979739
-0.101483926 0.012400586 -0.054687817 0.23126088 -0.011739804 0.03523817 -0.065344356 -0.03842991
-0.033486724 -0.027418623 -0.018882152 -0.07561496 0.0012373875 0.025291998 0.051467795 -0.006710309
0.0642259 0.09499614 0.023887938 -0.009122725 -0.0028273838 -0.055199586 -0.11293656 0.066906035
0.09321538 0.18756415 0.045403115 -0.08648622 -0.08641466 -0.063693285 0.045002162 -0.015963266
-0.042621367 -0.028015304 -0.06674423 0.02437038 -0.0150743285 -0.14624812 -0.0027483464 0.05151727
0.064099446 -0.05027554 -0.017847393 -0.0065343585 -0.033653162 -0.044710565 -0.038914215 0.09996242
0.036717337 0.03417687 -0.04196095 -0.059164513 -0.013021869 -0.022492401 -0.044385053 0.09648237
00000000: 9ca3 9f3c 68c7 d83c aa02 72be 4367 313d
00000010: 75ca 2ebe fb5e 1b3c fe38 fb3d c075 2b3d
00000020: 0501 75be ff51 163d e239 0fbe ae4d cbbc
00000030: 19cd 553d b531 a13d 291f 98bd 0e06 1fbd
00000040: bd00 a3bd 57d7 df3c 9c9b 2cbc 5e5e cf3d
00000050: dae5 8ebc 4c64 cbbd d40c 893b a0fd 9abd
00000060: d8dc 423d d582 d53d 1c4c d73d 4613 df3d
00000070: 6dca 62bc 3cd3 f23c 0675 96bd c415 64bc
00000080: 7656 253d da23 2fbd 9d25 3a3c d9ce af3c
00000090: 091e 8e3c 7a44 97ba 29d1 4e3d f1b6 a53d
000000a0: 19c6 1bbc 55c5 99be a694 21bc 9a03 813d
000000b0: a7d0 ddbc abbf 8abd fa25 3d3d e1f1 5abd
000000c0: 4e5a 833d 4871 06bd d567 4cbd b575 91be
000000d0: 4f8c 243a 10dc cebc 4997 01bd 5a91 6d3c
000000e0: 21a3 893c c954 833d 873b 8bbe 68fd 81bc
000000f0: 047c 27bd 6781 0d3d 071d 9f3d b35d dbbd
00000100: 16be 4ebd dfa8 ae3d 96f6 6f3b 7a24 e93c
00000110: 5215 003c 94de 7cba fc8e 0a3c 5e56 a93a
00000120: b16b 3a3d 3381 1a3d 2e57 1d3a 30c3 203d
00000130: 5a25 15be 03ff d0bd f44f c1bd 40b2 763b
00000140: 4483 a1bd d3ea 27bd b0f2 073c f8b2 2d3c
00000150: 81e9 b53c aed6 bf3d 8c65 803b 0c00 b33c
00000160: d0ec be3d 54da 4d3d ea17 633b d253 10be
00000170: ca7f d83d 1005 7339 9818 8bbd 7343 29bc
00000180: edd6 a5bd 5984 a63d a2c5 d23d dd9f 693e
00000190: 82fd 46bb 95f7 323d 5fc3 94bd 8e5f 01bd
000001a0: 14f8 64bc c5a7 e7bc 5441 253c d89b 64bc
000001b0: ad20 e5bd 5cc9 a13d c370 f63c 88b9 e7bd
000001c0: e2a5 53bd 33b2 9b3d d8e2 3a3d e356 873c
000001d0: 27ae 3bbc 5b8c 873d d71d 433e 8c9c c13c
000001e0: 5a72 073c d98d 4a3c e4bc 113c fa87 753c
000001f0: 1e75 1fbd 58f0 9fbd ada8 ce3d 0b26 b9bd
00000200: bf42 6b3e c038 e4bd 0d5f 5d3e 3fe1 dd3d
00000210: de47 e73d 6aa6 f4bc 3e87 af3d e9ff a9be
00000220: c464 bf3d 30e6 bc3d f854 093d 215d 43bb
00000230: 1d77 933e 76b2 7f3d d21a 49bd 8050 463e
00000240: 6f99 03be 6cb3 f5bc 766a 123e 1ac4 fabc
00000250: ee7c 4b3d 3cad 74bd 06c8 033c 947c 99bd
00000260: e205 acbc 6140 debd 809b aab7 f5b6 de3d
00000270: 6f3c 71bd 794d 203d d56f 833c 481a 8a3c
00000280: 7709 833d 64e1 8f3d 1518 bdbc 232a 213d
00000290: f68c 013c d73d 68bd 59d0 e33c 385f 033e
000002a0: 4129 1cbe 509b eabd 581d de3b 38ac afbd
000002b0: f9f3 26bd c5ab 03be 2ed0 543c fb14 083d
000002c0: c17b 193e 108e a8bd ca67 d6bd 72f4 42bd
000002d0: c930 88bb da22 7e3c 1c6d e6bd c0ce 5fbd
000002e0: 18e8 7ebd 9646 7aba b93e 923c c25c 19bd
000002f0: aa37 f9bd 2e0f d6ba c6ff 29bd 0a86 423e
00000300: 9afb 3f3d 031f babd 4fb5 a5bd df30 38bc
00000310: 139e ecbd ebf5 ed3c 5cda ea39 142d a33b
00000320: ced6 cfbd d42b 4b3c 5500 60bd a7cf 6c3e
00000330: 4f58 40bc e655 103d 43d3 85bd ae68 1dbd
00000340: 6029 09bd 059d e0bc beae 9abc 04dc 9abd
00000350: d62f a23a 2a31 cf3c e5cf 523d 27e2 dbbb
00000360: de88 833d 568d c23d a3b0 c33c 7b77 15bc
00000370: a14b 39bb f618 62bd 484b e7bd 0806 893d
00000380: b5e7 be3d d110 403e 9ef8 393d b01f b1bd
00000390: 2bfa b0bd a071 82bd 3054 383d 65c5 82bc
000003a0: be93 2ebd 5a80 e5bc 33b1 88bd 64a4 c73c
000003b0: 51fa 76bc 11c2 15be 9a1d 34bb c603 533d
000003c0: 9246 833d baed 4dbd b234 92bc 2c1e d6bb
000003d0: e6d7 09bd 6d22 37bd 8364 1fbd 19b9 cc3d
000003e0: eb64 163d 0cfd 0b3d 3fdf 2bbd 7d56 72bd
000003f0: ad59 55bc fc41 b8bc 1acd 35bd 8c98 c53d

hygcn1.theta.bias f4 [64]
0.04096461 -0.0138295945 0.054667655 0.03814534 0.047005206 0.04488533 -0.002689165 0.04258488
0.02508767 0.05603941 0.055503286 0.0400036 0.038553298 0.05041132 0.034822416 -3.5182606e-05
0.06545985 0.040004026 0.046366077 0.04730857 0.043553166 0.033624783 0.044526614 0.06276721
0.053706553 -0.004308523 0.04564018 0.06660185 0.047319494 0.03325271 0.05995175 0.054182444
0.055266194 0.041453965 0.04593862 0.03293801 0.043682776 0.042333283 0.04269803 0.038255185
0.033568814 0.041411813 0.0431449 0.06604605 0.04599092 0.05731266 0.059766598 0.052514836
0.05667456 0.03849174 0.03794702 0.042725712 0.040476225 0.03874295 0.020096565 0.039493214
0.04718994 0.034217294 0.047086835 0.056947865 0.04854359 0.07007464 0.0377805 0.044809133
00000000: 82ca 273d 8695 62bc 31eb 5f3d 4a3e 1c3d
00000010: 8888 403d aed9 373d b43c 30bb 7c6d 2e3d
00000020: a884 cd3c 9589 653d 6a57 633d d1da 233d
00000030: 10ea 1d3d 1a7c 4e3d f3a1 0e3d 0991 13b8
00000040: d00f 863d 43db 233d 5bea 3d3d a2c6 413d
00000050: ce64 323d 24ba 093d 8a61 363d 188c 803d
00000060: 67fb 5b3d 832e 8dbb 33f1 3a3d 8d66 883d
00000070: 16d2 413d fe33 083d f78f 753d 69ee 5d3d
00000080: ce5e 623d a2cb 293d 222a 3c3d 02ea 063d
00000090: b6ec 323d aa65 2d3d 21e4 2e3d 78b1 1c3d
000000a0: 747f 093d 6f9f 293d b5b8 303d 2743 873d
000000b0: fa60 3c3d aec0 6a3d d2cd 743d cc19 573d
000000c0: 9523 683d 84a9 1d3d 566e 1b3d 2801 2f3d
000000d0: 66ca 253d edb0 1e3d 8da1 a43c a3c3 213d
000000e0: 3d4a 413d 6f27 0c3d 20de 403d 2a42 693d
000000f0: a5d5 463d 4b83 8f3d babf 1a3d c889 373d

hygcn2.theta.weight f4 [7, 576]
0.367318 -0.0010340685 -0.30335936 -0.073711865 -0.21159227 0.2736452 -3.3075266e-06 0.31097227
-0.1469003 -0.2580757 -0.14963351 0.25082627 0.3708739 0.21981452 -0.23447904 -7.2301273e-06
-0.1059888 -0.08225071 -0.262084 0.13585712 0.3019879 -0.14711495 0.27152216 0.16163445
-0.252467 -1.05301145e-23 0.302932 -0.11511441 -0.24494374 -0.16115808 -0.15692212 -0.2304703
-0.2700941 0.2461604 -0.14443381 -0.16019717 0.3229999 -0.14404936 0.173438 -0.07324359
0.33663142 -0.18547261 0.28427014 -0.2830687 0.17156917 -0.22966033 -0.20088364 -0.2272971
-0.18179038 0.36499232 -0.18742721 -0.16557114 0.1743832 -0.20784225 -0.070096195 0.22449669
0.15608354 0.2597657 0.16122529 -0.22038983 0.124950334 -0.14275613 0.34545204 0.32250202
0.35426188 -0.0008053946 -0.3158736 -0.08282875 -0.14402749 0.3123371 2.1329952e-06 0.29413858
-0.15426943 -0.24937738 -0.17203873 0.24789858 0.3648639 0.21555762 -0.2333799 -9.628431e-06
-0.12052112 -0.100866824 -0.261825 0.14173983 0.2814512 -0.13974589 0.26785785 0.21339276
-0.24572162 -4.8694656e-24 0.292062 -0.11881999 -0.2503234 -0.16264537 -0.15716761 -0.22800839
-0.255965 0.21233785 -0.17643751 -0.16478075 0.29377344 -0.13507351 0.147448 -0.05791345
0.34974933 -0.19570482 0.30321503 -0.3186748 0.17930628 -0.25589293 -0.20264834 -0.23760171
-0.17504357 0.35379773 -0.18020156 -0.15277945 0.18951926 -0.19619623 -0.068763115 0.22282107
0.16891944 0.26269552 0.16170901 -0.22167094 0.13564986 -0.122414745 0.35559896 0.293606
0.34333172 0.00016526872 -0.31281945 -0.08339405 -0.17225151 0.26708516 -2.2682947e-05 0.28087768
-0.15398677 -0.23981845 -0.14841898 0.24311969 0.34407553 0.20693381 -0.2528404 1.6921485e-06
-0.11912602 -0.095089585 -0.274783 0.14930555 0.25613213 -0.14760014 0.26630428 0.20726056
-0.25911546 -4.967747e-25 0.27608895 -0.114164814 -0.23671262 -0.15465912 -0.15301286 -0.21116778
-0.26502958 0.2331383 -0.16679038 -0.13929696 0.33252087 -0.1355278 0.18767394 -0.08528119
0.32323492 -0.20378372 0.28986627 -0.31676877 0.14908221 -0.24584033 -0.20359993 -0.22885402
-0.18218277 0.36599487 -0.19337513 -0.15269092 0.20670718 -0.19590275 -0.050374024 0.2211179
0.16228041 0.30697286 0.17501515 -0.21521674 0.15984464 -0.107777566 0.34857196 0.2836877
0.3261344 -0.0008214344 -0.3078071 -0.0806558 -0.17153358 0.29340678 2.9216872e-06 0.29629606
-0.14078675 -0.24773318 -0.1609171 0.2803646 0.34637454 0.21800236 -0.21032763 -1.850736e-06
-0.12955904 -0.08276094 -0.27979958 0.13638835 0.2824615 -0.14551301 0.2549155 0.17631939
-0.25774845 -7.342728e-24 0.26086622 -0.1445716 -0.24645601 -0.15651271 -0.14414589 -0.21776254
-0.25834572 0.23443986 -0.15976347 -0.17008685 0.32377788 -0.11898046 0.17258255 -0.06317042
0.34772778 -0.21763328 0.29013473 -0.29998824 0.16455437 -0.25848243 -0.18656315 -0.23575893
-0.16525432 0.35408095 -0.20447929 -0.14008018 0.18978153 -0.19120102 -0.047661014 0.2298815
0.15802966 0.28570253 0.1609767 -0.22532554 0.1330877 -0.1217891 0.36468828 0.30137914
00000000: 1b11 bc3e 9589 87ba eb51 9bbe 3ff6 96bd
00000010: a5ab 58be 391b 8c3e e0f6 5db6 c237 9f3e
00000020: 086d 16be 8022 84be 8739 19be 4d6c 803e
00000030: 2fe3 bd3e 0f17 613e 461b 70be 529a f2b6
00000040: a810 d9bd 0f73 a8bd e02f 86be 211e 0b3e
00000050: 289e 9a3e 4da5 16be f404 8b3e 8083 253e
00000060: 5b43 81be 9aae 4b99 e719 9b3e 1bc1 ebbd
00000070: 88d2 7abe a006 25be 31b0 20be 6800 6cbe
00000080: c649 8abe 7911 7c3e 75e6 13be ba0a 24be
00000090: 3e60 a53e ad81 13be bb99 313e bc00 96bd
000000a0: f45a ac3e 88ec 3dbe db8b 913e 61ee 90be
000000b0: d4af 2f3e 142c 6bbe 71b4 4dbe 92c0 68be
000000c0: 4227 3abe 46e0 ba3e ebec 3fbe 7b8b 29be
000000d0: 8291 323e 99d4 54be 988e 8fbd 76e2 653e
000000e0: 5dd4 1f3e 0300 853e 3e18 253e dfad 61be
000000f0: f6e5 ff3d aa2e 12be 17df b03e fc1e a53e
00000100: d061 b53e 1e21 53ba 2fba a1be 1fa2 a9bd
00000110: f17b 13be a6ea 9f3e 9424 0f36 5599 963e
00000120: cef8 1dbe c95c 7fbe ec2a 30be 20d9 7d3e
00000130: 71cf ba3e 23bb 5c3e 24fb 6ebe cc89 21b7
00000140: c7d3 f6bd 4493 cebd ed0d 86be 3f24 113e
00000150: 5f1a 903e 8c19 0fbe aa24 893e a283 5a3e
00000160: 739e 7bbe da60 bc98 2789 953e e557 f3bd
00000170: 642a 80be 828c 26be 8cf0 20be 087b 69be
00000180: d80d 83be 186f 593e 09ac 34be 49bc 28be
00000190: 7969 963e b650 0abe 9cfc 163e a736 6dbd
000001a0: 5812 b33e d866 48be 003f 9b3e 5829 a3be
000001b0: 119c 373e 6604 83be 0c83 4fbe dd4d 73be
000001c0: 9f3e 33be fa24 b53e c286 38be 3772 1cbe
000001d0: 5611 423e aae7 48be add3 8cbd 352b 643e
000001e0: 38f9 2c3e 0780 863e 0c97 253e b5fd 62be
000001f0: cce7 0a3e 95b4 fabd 1111 b63e 8753 963e
00000200: 2dc9 af3e fc4b 2d39 df29 a0be 80ca aabd
00000210: b362 30be 63bf 883e 4247 beb7 33cf 8f3e
00000220: b5ae 1dbe f892 75be 25fb 17be 5ef4 783e
00000230: ab2a b03e 75e6 533e 4c74 81be c81d e335
00000240: 58f8 f3bd 54be c2bd 5bb0 8cbe 8ee3 183e
00000250: c023 833e 7e24 17be 0959 883e 1d3c 543e
00000260: c8aa 84be 8cbe 1997 885b 8d3e 3ecf e9bd
00000270: cb64 72be f65e 1ebe 67af 1cbe 5e3c 58be
00000280: f5b1 87be cebb 6e3e 19cb 2abe dda3 0ebe
00000290: 2d40 aa3e cdc7 0abe 992d 403e e8a7 aebd
000002a0: 0c7f a53e aeac 50be 5a69 943e 842f a2be
000002b0: 02a9 183e 91bd 7bbe 807c 50be b558 6abe
000002c0: 1f8e 3abe ae63 bb3e 2104 46be 025b 1cbe
000002d0: 0cab 533e bb9a 48be fe54 4ebd bb6c 623e
000002e0: d62c 263e 8c2b 9d3e 2c37 333e c761 5cbe
000002f0: 50ae 233e 7cba dcbd 0678 b23e 843f 913e
00000300: 17fb a63e 8855 57ba e498 9dbe de2e a5bd
00000310: 80a6 2fbe 6a39 963e 3412 4436 1eb4 973e
00000320: 672a 10be c4ad 7dbe 74c7 24be f38b 8f3e
00000330: 0158 b13e 033c 5f3e 2060 57be ce66 f8b5
00000340: 20ab 04be 917e a9bd e441 8fbe 63a9 0b3e
00000350: cb9e 903e 5d01 15be 4984 823e 128d 343e
00000360: 9bf7 83be 6e07 0e99 4290 853e 940a 14be
00000370: f75e 7cbe de44 20be fb9a 13be 25fd 5ebe
00000380: e445 84be 0111 703e 0999 23be 3f2b 2ebe
00000390: 37c6 a53e 07ac f3bd 7bb9 303e 7e5f 81bd
000003a0: 6009 b23e 42db 5ebe 8a8c 943e 0f98 99be
000003b0: f180 283e cf57 84be 690a 3fbe ca6a 71be
000003c0: 6e38 29be 194a b53e 0563 51be 2e71 0fbe
000003d0: 1756 423e 33ca 43be 3238 43bd 0e66 6b3e
000003e0: 87d2 213e 9a47 923e 13d7 243e bdbb 66be
000003f0: 2448 083e 906c f9bd 6cb8 ba3e 5e4e 9a3e

hygcn2.theta.bias f4 [7]
-0.07855693 0.49781305 0.40189177 -0.40978256 0.19242577 -0.10184001 0.054230925
00000000: 75e2 a0bd 5ae1 fe3e c2c4 cd3e 05cf d1be
00000010: 430b 453e 7f91 d0bd 3f21 5e3d
