src_new2/lahgcn_cociteseer_hid64_C2_0106.pth (torch, 967151 bytes, 4 tensors)

hgcn1.theta.weight f4 [64, 3703]
0.02329857 -0.064103656 -0.01380049 -0.028589763 0.00020506355 0.0182702 0.031299822 0.04736547
-0.0034411696 -0.006955441 0.004671338 0.0062632086 -0.0063410066 -0.02237695 0.00015227473 -0.00453614
0.0027466724 0.0019612417 -0.021552399 -0.02752367 -0.0100225285 -0.019793257 -0.0032829987 -0.0066257883
-0.0070683714 -0.015273229 0.039848473 0.015807817 -0.0068274094 0.02445128 0.0038569225 0.0007648794
0.05391549 0.023561694 -0.038229052 -0.11453325 -0.030359015 0.020322762 -0.025766954 -0.021952515
-0.03272942 0.020903785 -0.023356924 0.033701736 0.077002764 0.026924126 0.05587543 -0.008741438
-0.03070521 -0.021565465 -0.013556389 0.033692874 0.01251263 -0.028112616 -0.029669523 0.0120124705
-0.04427782 -0.05645302 0.035408553 -0.0148415845 0.015895663 0.013372222 -0.0052291006 0.008403841
-0.0013396693 0.2942508 -0.014636008 -0.018930474 0.019121107 -0.011747587 0.018549033 0.018698152
-0.010010395 -0.016174827 -0.005405397 -0.008312071 -0.008890444 0.001452737 0.008041406 0.037359647
-0.021396035 0.017443484 0.015046395 0.027564099 0.0029983702 -0.018440107 -0.009760337 0.014042197
0.01699537 -0.03537302 -0.0020576734 0.016479792 -0.003487918 -0.0001598429 -0.03140297 -0.058105852
-0.04165632 0.009171437 0.0014185105 -0.0010486839 0.0067501804 -0.036417115 -0.20485815 -0.008549114
0.019619288 -0.019276315 0.0041664336 -0.032107368 0.0070275627 0.022625573 -0.0559146 -0.0038073098
-0.007919993 -0.03910516 0.013338216 0.003101552 -0.009836288 0.014017876 -0.0039536087 -0.0137984445
-0.0336863 -0.0119600305 -0.0079939 0.012568144 -0.030827612 -0.05494471 -0.016065244 0.00856246
-0.012862156 -0.0444605 0.029683055 -0.0247919 -0.031172771 -0.04213555 0.023353929 -0.037465997
-0.0069074435 0.02796879 0.0030404262 0.008964947 -0.0742584 0.014739627 0.044437665 0.016926998
-0.022544855 0.018246645 -0.055755485 -0.02259356 -0.018799901 0.028302865 -0.013847422 -0.029484887
0.0134405885 0.01705538 0.036605746 0.0020166948 0.029023148 -0.01781551 -0.019193506 -0.0017146909
0.0074939276 0.0047925552 -0.0028112372 -0.019225055 0.032243412 -0.11474196 -0.06330894 -0.01324057
-0.006319574 -0.0812236 -0.02956536 -0.007219768 -0.025941085 -0.009766668 0.029935569 0.023288358
0.027948044 0.14990497 0.037195846 -0.07165819 -0.046308838 -0.028276173 -0.0064803762 0.0054290923
-0.00956652 -0.037608553 -0.050400008 -0.019111644 0.010713772 0.042667463 -0.017387075 -0.012425231
0.013759591 -0.020674527 -0.018395318 0.014276731 0.07067242 0.10565511 -0.0020596166 -0.020625025
-0.12127148 0.007650028 0.025046455 -0.037652418 0.02265251 0.00846109 0.06376608 0.008493682
0.043459907 0.0108823255 0.025784507 -0.02910142 -0.009339822 -0.0010467335 0.0039659305 0.018966932
0.007925961 0.0005024795 0.038322408 -0.007975742 -0.014242306 -0.03803052 -0.05561433 -0.008187949
-0.0066280994 0.00659235 0.0146749485 0.00337261 -0.012573924 0.044670142 0.07081134 -0.002422301
0.03593109 -0.0036059974 -0.010446236 0.012220188 0.08427317 -0.026070464 0.05702975 0.021020994
0.01940888 0.010540742 -0.044649936 0.021934323 0.014951758 0.034160722 0.012183371 0.18074222
0.031303953 -0.18743907 0.029426737 -0.029522758 -0.047135226 -0.0008635395 0.12615679 -0.00029612682
00000000: a5dc be3c c748 83bd 731b 62bc 1435 eabc
00000010: 5406 5739 63ab 953c 3e34 003d 4c02 423d
00000020: 3f85 61bb 78ea e3bb 0612 993b 9a3b cd3b
00000030: 38c8 cfbb de4f b7bc f0ab 1f39 e6a3 94bb
00000040: 8401 343b 2d88 003b a88e b0bc 5279 e1bc
00000050: 8835 24bc 7825 a2bc 9427 57bb 241d d9bb
00000060: cc9d e7bb 913c 7abc 2738 233d 657f 813c
00000070: 76b8 dfbb 0d4e c83c 6cc4 7c3b 3082 483a
00000080: 7dd6 5c3d 7404 c13c 1196 1cbd 6990 eabd
00000090: 78b3 f8bc ec7b a63c 3815 d3bc c3d5 b3bc
000000a0: 490f 06bd 6a3e ab3c 0557 bfbc d50a 0a3d
000000b0: a0b3 9d3d fc8f dc3c a3dd 643d 4038 0fbc
000000c0: 7e89 fbbc 0faa b0bc 9e1b 5ebc 8a01 0a3d
000000d0: c601 4d3c 6e4c e6bc 800d f3bc f4cf 443c
000000e0: a95c 35bd 483b 67bd 8f08 113d 1e2a 73bc
000000f0: 9f37 823c 2a17 5b3c e058 abbb 44b0 093c
00000100: d897 afba 0aa8 963e decb 6fbc 1514 9bbc
00000110: dea3 9c3c f378 40bc 24f4 973c de2c 993c
00000120: a402 24bc 1281 84bc c21f b1bb 5a2f 08bc
00000130: 3aa9 11bc c469 be3a 1ac0 033c 6e06 193d
00000140: bd46 afbc a3e5 8e3c 2885 763c 1bce e13c
00000150: 4e80 443b b50f 97bc d2e9 1fbc 3e11 663c
00000160: e039 8b3c 4de3 10bd 08da 06bb a100 873c
00000170: 8e95 64bb 809b 27b9 67a0 00bd 6700 6ebd
00000180: d19f 2abd cb43 163c 50ed b93a fe73 89ba
00000190: 9e30 dd3b 1d2a 15bd 56c6 51be 9511 0cbc
000001a0: a1b8 a03c 5de9 9dbc 9486 883b 0483 03bd
000001b0: 7847 e63b 4459 b93c b506 65bd 0f84 79bb
000001c0: dcc2 01bc bb2c 20bd 8888 5a3c 6843 4b3b
000001d0: 6228 21bc 3cab 653c 468d 81bb df12 62bc
000001e0: a5fa 09bd 01f4 43bc d9f8 02bc 9eea 4d3c
000001f0: 308a fcbc b40d 61bd 429b 83bc 8f49 0c3c
00000200: cbbb 52bc 371c 36bd e129 f33c 6218 cbbc
00000210: 0a5e ffbc 5496 2cbd bd50 bf3c f275 19bd
00000220: d657 e2bb ce1e e53c e341 473b b7e1 123c
00000230: ca14 98bd 7a7e 713c 4504 363d 7daa 8a3c
00000240: fdaf b8bc fd79 953c dd5f 64bd 2116 b9bc
00000250: 4002 9abc 69db e73c 4ce0 62bc 4a8a f1bc
00000260: ea35 5c3c b9b7 8b3c e8ef 153d 862a 043b
00000270: f4c1 ed3c d5f1 91bc b33b 9dbc 7bbf e0ba
00000280: 9f8f f53b de0a 9d3b bc3c 38bb dd7d 9dbc
00000290: ab11 043d d5fd eabd 1ea8 81bd faee 58bc
000002a0: 6e14 cfbb 8f58 a6bd 0e33 f2bc ce93 ecbb
000002b0: 6682 d4bc 6004 20bc 703b f53c 3ac7 be3c
000002c0: 4cf3 e43c b080 193e ac5a 183d 87c1 92bd
000002d0: 56ae 3dbd 6fa3 e7bc 5659 d4bb 87e6 b13b
000002e0: e5bc 1cbc 6d0b 1abd 3d70 4ebd 0690 9cbc
000002f0: d188 2f3c 14c4 2e3d 576f 8ebc 3293 4bbc
00000300: e86f 613c a05d a9bc c7b1 96bc f3e8 693c
00000310: b4bc 903d b561 d83d a2fa 06bb d0f5 a8bc
00000320: 2f5d f8bd 16ad fa3b 392e cd3c 6c39 1abd
00000330: c291 b93c 62a0 0a3c ca97 823d 1629 0b3c
00000340: 0403 323d c84b 323c 083a d33c 1a66 eebc
00000350: 0e06 19bc 8c32 89ba a3f4 813b 8a60 9b3c
00000360: e4db 013c d4b8 033a f5f7 1c3d b0ac 02bc
00000370: 9058 69bc e4c5 1bbd dacb 63bd bf26 06bc
00000380: 8730 d9bb a404 d83b 326f 703c 0207 5d3b
00000390: dc02 4ebc 0af8 363d 8905 913d 78bf 1ebb
000003a0: 7b2c 133d 9952 6cbb b026 2bbc 2f37 483c
000003b0: 6997 ac3d ba91 d5bc 0798 693d 3834 ac3c
000003c0: 5fff 9e3c 14b3 2c3c dae2 36bd 9caf b33c
000003d0: 38f8 743c 1dec 0b3d c39c 473c 7d14 393e
000003e0: 9338 003d 07f0 3fbe 5710 f13c b6d9 f1bc
000003f0: de10 41bd 285f 62ba 3f2f 013e 7841 9bb9

hgcn1.theta.bias f4 [64]
0.10884627 0.07552362 0.045033198 0.05905919 0.12638032 0.06049738 0.056886025 0.06327023
0.08661809 0.07129999 0.060426045 0.1448986 0.0705081 0.06611732 0.13895875 0.064179316
0.112636775 0.08196157 0.11875151 0.09423459 0.091094464 0.079892226 -0.0028058845 0.13795952
0.0900834 0.1399833 0.13538396 0.12187745 0.075740576 0.08075419 0.06961334 0.06886916
0.06671583 0.10395119 0.091217905 0.093977906 0.062181972 0.052452855 0.08514348 0.1115756
0.036675345 0.073481336 0.069709085 0.09701083 0.11260651 0.10127189 0.03847151 0.07534061
0.06901855 0.065681875 0.0478816 0.11041913 0.1323286 0.07202728 0.06860687 0.08909137
0.07406147 0.14047012 0.09628821 0.060957815 0.067091115 0.07930665 0.062207453 0.056194544
00000000: cbea de3d 21ac 9a3d bb74 383d 0de8 713d
00000010: d869 013e 1acc 773d 5201 693d d393 813d
00000020: d364 b13d bb05 923d 4d81 773d 4c60 143e
00000030: 8d66 903d 8468 873d 344b 0e3e 7270 833d
00000040: 1cae e63d 78db a73d fe33 f33d 11fe c03d
00000050: bc8f ba3d 899e a33d eee2 37bb 4345 0d3e
00000060: a57d b83d c857 0f3e 18a2 0a3e e29a f93d
00000070: e01d 9b3d 7462 a53d 7091 8e3d 460b 8d3d
00000080: 4fa2 883d 5de4 d43d 74d0 ba3d 7d77 c03d
00000090: 86b2 7e3d ced8 563d b45f ae3d c081 e43d
000000a0: e338 163d 627d 963d a3c3 8e3d 9dad c63d
000000b0: 3e9e e63d a367 cf3d 4d94 1d3d 2e4c 9a3d
000000c0: 9959 8d3d 3884 863d 7f1f 443d 6d23 e23d
000000d0: 2681 073e 0a83 933d c281 8c3d 8975 b63d
000000e0: 8aad 973d 66d7 0f3e c132 c53d e7ae 793d
000000f0: 1167 893d 866b a23d 3ecd 7e3d 402c 663d

hgcn2.theta.weight f4 [6, 704]
-0.20987177 0.25212017 -0.18962234 0.29694924 -0.17924021 0.2552318 0.30377048 0.31633347
0.17539892 0.16182998 0.28691992 -0.21435785 0.33201268 0.29301655 -0.21249567 0.30361876
-0.12271787 -0.18522552 -0.18388647 0.23331228 0.288037 -0.21972048 -0.003056812 -0.2162101
0.27495956 -0.19262055 -0.18752559 -0.25075886 -0.06625217 -0.2371386 0.29712665 0.29723167
0.32410654 -0.21492697 -0.23210391 0.104084015 0.31464332 -0.1864182 0.20880727 -0.26359427
-0.21415712 -0.15345229 0.26057193 0.19789688 -0.19848725 0.2863103 0.057586 -0.22127526
0.32129082 0.2836966 -0.32228994 -0.14947093 -0.1814312 0.0009521991 0.25672513 0.20324421
-0.014343111 -0.21406353 -0.040463537 0.22430445 -0.24226992 -0.2034013 0.31960362 0.2792848
-0.23509592 0.27329883 -0.052494932 0.26853487 -0.24738424 0.2726299 0.29594794 0.32380328
0.22260036 -0.007885877 0.31215954 -0.22129235 0.3067907 0.11358419 -0.18944763 0.32292312
-0.027666755 -0.15801986 -0.18683079 0.25271642 0.31427282 -0.18382949 -0.10042185 -0.2102181
0.25981966 -0.19786814 -0.20883417 -0.19350675 -0.031405266 -0.19544302 0.3077645 0.28502235
0.30399328 -0.17998229 -0.25096962 -0.11355434 0.32112396 -0.18494366 0.22993857 -0.24546918
-0.14636256 -0.2349343 0.32152358 0.2214244 -0.2047508 0.30939153 0.0035608476 -0.21334797
0.31375545 0.28772056 -0.18452483 -0.1923021 -0.2162674 0.053747956 0.28582156 0.23097013
0.14878023 -0.20422243 0.1574615 0.14460655 -0.2078478 -0.13796201 0.3232873 0.28965437
-0.22639379 0.2740206 -0.11106809 0.25449485 -0.20827119 0.2665391 0.29824278 0.3154582
0.17677158 -0.1398523 0.3077017 -0.25171766 0.3190307 0.27052975 -0.20445843 0.27711454
-0.02951364 -0.17251979 -0.2103014 0.17874734 0.29045895 -0.1697472 -0.00845385 -0.19591616
0.23913005 -0.24528293 -0.16693948 -0.20176286 -0.18741992 -0.22513473 0.29287067 0.30895457
0.3268239 -0.18030854 -0.22143914 -0.067567065 0.32696816 -0.21103726 0.2136551 -0.26044554
-0.15991506 -0.21693799 0.32324514 0.25349924 -0.20116237 0.3248563 0.048550412 -0.22790664
0.30258915 0.31502458 -0.22394016 -0.23629768 -0.18760313 -0.032830168 0.27496725 0.20441334
0.069336444 -0.18211667 0.17038195 0.24636695 -0.18208197 -0.18498032 0.2698205 0.27296925
-0.19721894 0.27451357 -0.08066496 0.32422724 -0.2466585 0.32327852 0.30915788 0.2984261
0.07834862 -0.15926164 0.32693228 -0.21677384 0.31024858 0.28455147 -0.20361726 0.31074667
-0.16419777 -0.17919627 -0.2024169 0.21651532 0.29052284 -0.1742916 -0.0073118694 -0.19468336
0.2871972 -0.21054666 -0.1850577 -0.19463472 -0.14943643 -0.24081498 0.30454245 0.26722723
0.32373208 -0.17492254 -0.2282966 0.030698292 0.2817756 -0.19438992 0.2052934 -0.2628564
-0.16228811 0.04265309 0.2973722 0.25343293 -0.18284571 0.31184494 0.1166667 -0.21334659
0.27265424 0.28982523 -0.18516488 -0.22055684 -0.20802303 -0.11476402 0.27307948 0.1948075
0.21774943 -0.18940946 0.15438671 0.13683097 -0.19937189 -0.10797625 0.31372306 0.29681313
00000000: a0e8 56be e515 813e 5c2c 42be bb09 983e
00000010: bf8a 37be bead 823e ce87 9b3e 76f6 a13e
00000020: c69b 333e c2b6 253e 2be7 923e a080 5bbe
00000030: 91fd a93e 4406 963e 7798 59be eb73 9b3e
00000040: 8253 fbbd c2ab 3dbe bc4c 3cbe 6ae9 6e3e
00000050: 9679 933e 68fe 60be cc54 48bb 2e66 5dbe
00000060: 80c7 8c3e 523e 45be b506 40be 7763 80be
00000070: 38af 87bd 76d4 72be fc20 983e c02e 983e
00000080: 4bf1 a53e d115 5cbe a6ac 6dbe 002a d53d
00000090: ee18 a13e 6ae4 3ebe 93d1 553e d4f5 86be
000000a0: 014c 5bbe 9922 1dbe af69 853e 7ba5 4a3e
000000b0: 3e40 4bbe 4397 923e 4cdf 6b3d fb95 62be
000000c0: 3b80 a43e ae40 913e 3003 a5be e80e 19be
000000d0: 1ac9 39be 009d 793a 7a71 833e 401f 503e
000000e0: 5eff 6abc 7833 5bbe 18bd 25bd 11b0 653e
000000f0: 9b15 78be 6e48 50be 16a3 a33e 6bfe 8e3e
00000100: fcbc 70be d3ed 8b3e ed04 57bd 677d 893e
00000110: 4b52 7dbe 2596 8b3e 7d86 973e 8bc9 a53e
00000120: 59f1 633e c433 01bc 60d3 9f3e 769a 62be
00000130: ac13 9d3e d49e e83d 8ffe 41be 2e56 a53e
00000140: 64a5 e2bc f5cf 21be 9250 3fbe 0c64 813e
00000150: 5ee8 a03e cc3d 3cbe f9a9 cdbd 6a43 57be
00000160: 1507 853e f29d 4abe a0d8 55be a226 46be
00000170: cfa2 00bd 3722 48be 4f93 9d3e 73ee 913e
00000180: 02a5 9b3e 474d 38be 177f 80be 2e8f e8bd
00000190: 5c6a a43e df61 3dbe 0475 6b3e 465c 7bbe
000001a0: 11e0 15be 9e92 70be bd9e a43e 14bd 623e
000001b0: 32aa 51be 9168 9e3e 1c5d 693b e477 5abe
000001c0: 8ea4 a03e 1c50 933e 14f4 3cbe d7ea 44be
000001d0: 3475 5dbe d126 5c3d 3457 923e 6f83 6c3e
000001e0: d859 183e af1f 51be 963d 213e bd13 143e
000001f0: 0ed6 54be ea45 0dbe ea85 a53e 944d 943e
00000200: c6d3 67be 6e4c 8c3e ab77 e3bd 264d 823e
00000210: 0b45 55be d077 883e 47b3 983e bd83 a13e
00000220: 9c03 353e 7135 0fbe 148b 9d3e 23e1 80be
00000230: fe57 a33e e082 8a3e 8d5d 51be f5e1 8d3e
00000240: 97c6 f1bc 07a9 30be 4059 57be 8b09 373e
00000250: 09b7 943e 36d2 2dbe 0482 0abc 3f9e 48be
00000260: 82de 743e 732b 7bbe 2ff2 2abe ec9a 4ebe
00000270: 02eb 3fbe b889 66be 25f3 953e 4b2f 9e3e
00000280: 7655 a73e cda2 38be f1c0 62be 9a60 8abd
00000290: 5f68 a73e 271a 58be 67c8 5a3e 1e59 85be
000002a0: c6c0 23be fe24 5ebe 6380 a53e a7ca 813e
000002b0: 82fd 4dbe 9153 a63e ccdc 463d 5c60 69be
000002c0: f7ec 9a3e e74a a13e 9250 65be 05f8 71be
000002d0: 091b 40be ed78 06bd 82c8 8c3e bb51 513e
000002e0: 4400 8e3d cb7c 3abe 9b78 2e3e 9e47 7c3e
000002f0: b273 3abe 7b6b 3dbe ea25 8a3e a0c2 8b3e
00000300: c3f3 49be 0b8d 8c3e ac33 a5bd 1d01 a63e
00000310: 0c94 7cbe c384 a53e f149 9e3e 4ecb 983e
00000320: 3e75 a03d 7c15 23be ab63 a73e f6f9 5dbe
00000330: e7d8 9e3e bbb0 913e 0b81 50be 301a 9f3e
00000340: 7623 28be 3a7f 37be 6046 4fbe 31b6 5d3e
00000350: 69bf 943e 7f79 32be 6898 efbb 135b 47be
00000360: 830b 933e 8b99 57be c47f 3dbe 534e 47be
00000370: dd05 19be 3498 76be fdec 9b3e 02d2 883e
00000380: 36c0 a53e e51e 33be 95c6 69be fc7a fb3c
00000390: e444 903e 270e 47be 6f38 523e 1d95 86be
000003a0: db2e 26be 02b5 2e3d 2b41 983e f6c1 813e
000003b0: e83b 3bbe 24aa 9f3e f3ee ee3d 8777 5abe
000003c0: 5699 8b3e f963 943e dd9b 3dbe a7d9 61be
000003d0: fd03 55be 6609 ebbd 13d1 8b3e 9e7b 473e
000003e0: b5f9 5e3e 8ef4 41be 8d17 1e3e 6b1d 0c3e
000003f0: 2528 4cbe a722 ddbd 4fa0 a03e e4f7 973e

hgcn2.theta.bias f4 [6]
-0.044297766 0.011237297 0.0007984179 0.1733133 0.1435704 -0.09084306
00000000: 9371 35bd a41c 383c eb4c 513a 0b79 313e
00000010: 1e04 133e ed0b babd
