src_new2/lahgnn_coauthorcora_hid64_0108.pth (torch, 388841 bytes, 4 tensors)

hgcn1.theta.weight f4 [64, 1433]
0	0x3ca32208	0.019913688
1	0x3cba487f	0.022739647
2	0xbd7dfdce	-0.062009625
3	0xbd5efc10	-0.054439604
4	0xbe23840d	-0.15968342
5	0xbc2be01e	-0.010490445
6	0xbc645dbf	-0.013938366
7	0xbd116086	-0.035492443
8	0x3d5602eb	0.052248877
9	0xbc32abd8	-0.010905229
10	0xbce9f27f	-0.028558014
11	0xbae16977	-0.0017197569
12	0xbaecbbae	-0.0018061304
13	0xbd1ee9e5	-0.038797278
14	0xbcabd907	-0.02097751
15	0xbc25b31d	-0.010113505
16	0x3d32d3b0	0.043658912
17	0x3ca97fe2	0.020690862
18	0x3d0d9a07	0.03457072
19	0x3ea9adf0	0.33140516
20	0x3c0f17dc	0.008733716
21	0xbd44c05e	-0.04803502
22	0xbc031287	-0.008000023
23	0xbb584547	-0.0033000277
24	0xba99a8e6	-0.0011723309
25	0x3c420117	0.01184108
26	0x3d104bc6	0.035228513
27	0x3d4910d6	0.04908832
28	0xbcac9711	-0.021068128
29	0xbc3d86c3	-0.011567774
30	0xbd3a4d3e	-0.04548382
31	0x3c4478a7	0.011991656
32	0xb9cd2aeb	-0.00039132623
33	0x3ae5c33a	0.0017529496
34	0x3c4c08a1	0.012453229
35	0xbbf309a6	-0.0074169217
36	0x3ccd66b3	0.025073385
37	0xb9ff0f74	-0.00048648904
38	0x3d9efe43	0.0776334
39	0x3d9c3d12	0.07628836
40	0xbda7a9ad	-0.0818666
41	0xbde5b64f	-0.11216413
42	0xbb8c8888	-0.0042887367
43	0xbb32408e	-0.0027199122
44	0x3cdc04a4	0.026857682
45	0xbd13bdb9	-0.036069605
46	0xbcd4d8bd	-0.025982255
47	0xbc55b343	-0.013043228
48	0xbb41436d	-0.0029489652
49	0xbd09aebf	-0.033613916
50	0xbb9edfe6	-0.004848468
51	0x3e8af2b7	0.27138302
52	0xbd4809c7	-0.04883745
53	0x3c32f450	0.010922506
54	0xbde3f9d9	-0.11131639
55	0xbbaedfbe	-0.0053367307
56	0xbc3985cd	-0.0113234045
57	0x3d9b5360	0.07584262
58	0x3e35b1d8	0.17743623
59	0x3c4923e2	0.012276622
60	0xbc43127e	-0.011906264
61	0x3e30e8ca	0.17276302
62	0x3a72b3d6	0.0009258365
63	0xbd1a05b4	-0.037603095
64	0xbd6a1899	-0.057152364
65	0xbcfee9d0	-0.03111735
66	0xbb14c339	-0.002269937
67	0xbd008a99	-0.031382177
68	0x3be608a7	0.0070200744
69	0x3d1fc8d0	0.03900987
70	0xbb79f137	-0.003813816
71	0xbd11a359	-0.03555617
72	0xbd042cf9	-0.03226945
73	0xbca32252	-0.019913826
74	0x3b5ca2ae	0.00336663
75	0xbc7ae2d1	-0.015312866
76	0xbc0865f7	-0.008325092
77	0x3daad3d0	0.08341181
78	0xbd28cf4d	-0.041213322
79	0xbbdb07ca	-0.006684278
80	0x3bec1fc2	0.0072059343
81	0xbc9ea3e9	-0.019365268
82	0xbc1dda88	-0.009634621
83	0xbc901f51	-0.017593058
84	0x3c81c920	0.015842974
85	0xbd4b9630	-0.049703777
86	0xba066623	-0.0005126914
87	0xbd0af2aa	-0.03392283
88	0xbd8eb238	-0.06967586
89	0x3de2fc7a	0.11083312
90	0x3c890ad2	0.016728792
91	0xbca7b9d4	-0.020474352
92	0x3c0ba558	0.008523308
93	0xbd729da6	-0.059232377
94	0x3c22f162	0.009945245
95	0x3c808fd9	0.015693592
96	0xbb550477	-0.0032503882
97	0x3ddd4dec	0.10805878
98	0xbd7706af	-0.06030911
99	0x3e0e7f9b	0.13915865
100	0x3cff701e	0.031181391
101	0xbc18fb06	-0.009337192
102	0x3d4cce9d	0.05000173
103	0xbd8feb3a	-0.07027288
104	0xbd2f608b	-0.04281668
105	0x3c86b3f7	0.016443236
106	0xbd2dca5c	-0.042429313
107	0x3b067b68	0.0020520333
108	0xbd3643a3	-0.044498097
109	0xbb30881e	-0.00269366
110	0x3c05d9b9	0.008169585
111	0xbd02397e	-0.03179311
112	0x3d478a84	0.048716083
113	0x3d8cc6dc	0.06873867
114	0xbb0517be	-0.002030834
115	0x3c6f6e5f	0.014613717
116	0x3ac8f2e7	0.001533118
117	0xbc38a4f7	-0.011269799
118	0x3cc9ddea	0.02464195
119	0xbcc00d3a	-0.023443807
120	0xbb2833b3	-0.002566558
121	0xbd46a371	-0.048495714
122	0x3c9bd2d7	0.019021435
123	0x3c1356c3	0.008992854
124	0x3c720191	0.014770881
125	0x3d4cf5b1	0.050038997
126	0x3dbb0353	0.091314934
127	0xbccdef6d	-0.025138581
128	0x3d2d4336	0.042300425
129	0x3d68d88d	0.056847144
130	0x3c77f614	0.015134353
131	0x3de0bc36	0.109733984
132	0xbc5ca56c	-0.013467174
133	0x3d140bcc	0.036144063
134	0x3a2393ea	0.00062399975
135	0x3e264b1b	0.16239588
136	0xbc0c5970	-0.008566245
137	0xbc665d9d	-0.014060405
138	0xbae67659	-0.0017582878
139	0xbc434792	-0.011918919
140	0x3ea695c1	0.32536128
141	0xbc280b15	-0.010256548
142	0xbc660158	-0.014038406
143	0x3c82d29c	0.015969567
144	0x3c81b363	0.015832609
145	0x3d4bfc46	0.049801134
146	0xbd0fffa3	-0.035155904
147	0xbcaa6f6a	-0.02080508
148	0x3d0b341c	0.033985242
149	0xbb66169d	-0.0035108693
150	0xbc3c1bb6	-0.011481216
151	0x3d963711	0.07334722
152	0xbc4a09f2	-0.012331473
153	0xbd53c562	-0.05170191
154	0xbc089117	-0.008335373
155	0xbc1bd314	-0.009510774
156	0xbca9c5cb	-0.020724198
157	0x3c842d20	0.016134799
158	0x3c613514	0.013745565
159	0x3b53de9d	0.0032328733
160	0x3c191ef8	0.009345762
161	0xbc83e090	-0.01609829
162	0x3d297877	0.04137465
163	0x3d107aa0	0.035273194
164	0x3c08893d	0.008333501
165	0xbc850d4b	-0.01624169
166	0x3a37fb7a	0.0007018369
167	0xba0f4d05	-0.0005466494
168	0xbdadb659	-0.08482046
169	0xbd57b5d2	-0.05266363
170	0xbc3a909b	-0.011387016
171	0x3cd8e926	0.026478361
172	0x3c33b69a	0.010968829
173	0xbd691f27	-0.056914475
174	0xb9faea45	-0.0004785826
175	0xbb91713c	-0.0044385474
176	0x3da8f3fb	0.082496606
177	0xbc980ec9	-0.018561738
178	0x3a33c3e0	0.0006857496
179	0x3c1766c6	0.009240812
180	0xbb27bbc6	-0.00255941
181	0x3c0466b4	0.008081127
182	0xbd13c1bc	-0.03607343
183	0x3c046dff	0.008082866
184	0xbc6d6352	-0.014489012
185	0x3c6233f3	0.013806331
186	0xbda85a96	-0.08220403
187	0xbdd81f2e	-0.10552822
188	0xbcffc9e9	-0.031224208
189	0xbcd98ca2	-0.026556317
190	0xbbe92e81	-0.0071161394
191	0x3c1cc884	0.009569291
192	0x3b5aa9ec	0.0033365441
193	0x3b0539a0	0.0020328537
194	0x3d035d28	0.032071263
195	0xbc8b444b	-0.017000338
196	0xbd9a9ca3	-0.07549407
197	0xbc3e7e9c	-0.011626866
198	0x3bc56111	0.006023534
199	0x3badd1b4	0.0053045396
200	0xbd200d55	-0.039075214
201	0xbc62a64a	-0.013833592
202	0xbc17b0e5	-0.009258484
203	0x3e48b113	0.19598798
204	0x3c2f561f	0.010701685
205	0xbe557eb6	-0.20849118
206	0x3b706a52	0.0036684466
207	0x3bb3a95e	0.0054828366
208	0xbbdd8322	-0.006760017
209	0x3cd6d1a6	0.026223015
210	0xbbaee83e	-0.005337744
211	0xbe25c996	-0.1619018
212	0xb980b5f2	-0.00024549622
213	0x3caba369	0.020951943
214	0x3c6a45a3	0.014298829
215	0xbd3498ad	-0.044090915
216	0xbbf129ef	-0.007359735
217	0xbd3feb02	-0.04685498
218	0xbc2c8967	-0.010530806
219	0x3bfd4b6c	0.0077299383
220	0x3bb51e06	0.0055272607
221	0xbc19d10e	-0.009388221
222	0x3d925c27	0.07146483
223	0xbb7580fc	-0.0037460914
224	0xbd52bcc9	-0.05144957
225	0xbd646e7e	-0.055769436
226	0xbd10c93b	-0.03534816
227	0xbc3efc73	-0.011656868
228	0xbdbd5d57	-0.09246319
229	0xbc84bb60	-0.016202629
230	0xbd05fef3	-0.03271384
231	0x3cbdf7b9	0.023189412
232	0xbb57d620	-0.0032934025
233	0xbd87281f	-0.06599449
234	0xbdf3dc2f	-0.11907231
235	0xbd2f3f14	-0.042784765
236	0xbcd41adc	-0.025891714
237	0xbd683063	-0.05668677
238	0x3e0fb788	0.14034855
239	0xbb3fcc74	-0.002926615
240	0x3bfab01a	0.0076503875
241	0xbbffed02	-0.007810236
242	0xba92b13f	-0.001119174
243	0xbc857ac2	-0.016293887
244	0x3d77f488	0.060535938
245	0xbc87f71a	-0.01659732
246	0x3d2c68e6	0.042092226
247	0xbcc0731a	-0.023492385
248	0xbca0d9da	-0.01963513
249	0xbca65086	-0.020302068
250	0x3d0ea645	0.034826536
251	0xbd146ff5	-0.036239583
252	0xbc95a661	-0.018267812
253	0x39a3bea4	0.0003123182
254	0xbc32aa2e	-0.010904832
255	0xbc45132e	-0.012028499

hgcn1.theta.bias f4 [64]
0	0x3d72530e	0.05916124
1	0x3d522299	0.051302526
2	0x3d629450	0.055317223
3	0x3d95766c	0.07297978
4	0x3d2ad291	0.041704718
5	0x3d50ce3e	0.050977938
6	0x3d3392b8	0.043841094
7	0x3da4304f	0.08017027
8	0x3da1204a	0.07867487
9	0x3d1c2c46	0.03812816
10	0x3d3ae8dd	0.045632232
11	0x3d6c02cb	0.05761985
12	0x3d360538	0.04443857
13	0x3d700696	0.05860003
14	0xb671f896	-3.6056495e-06
15	0x3d3ecf2e	0.0465843
16	0x3d461db4	0.04836817
17	0x3d18f414	0.037342146
18	0x3d526538	0.05136606
19	0x3d339be6	0.04384985
20	0x3d2d37f8	0.042289704
21	0x3d2ffabf	0.04296374
22	0x3d4732ef	0.04863256
23	0x3d75c4ed	0.060002256
24	0x3d6708ab	0.05640475
25	0x3dac66bd	0.08418033
26	0x3d28e53d	0.041234244
27	0x3d65adea	0.05607406
28	0x3d4775e5	0.048696417
29	0x3d1ddfa5	0.038543362
30	0x3d41292d	0.04715841
31	0x3d6a5825	0.057212967
32	0x3d4361d7	0.04770073
33	0xb99a9995	-0.00029487596
34	0x3d73bf6d	0.05950873
35	0x3da53adf	0.080678694
36	0x3d47d68c	0.048788592
37	0x3d8fa8fa	0.070146516
38	0x3d45308c	0.048142
39	0x3daa9b0c	0.08330354
40	0x3d4108d2	0.047127552
41	0x3d98e58e	0.07465659
42	0x3d224da4	0.039624825
43	0x3d949b0b	0.072561346
44	0x3d676a07	0.0564976
45	0x3d203361	0.0391115
46	0x3d92d2d8	0.071691215
47	0x3d4433eb	0.047901075
48	0x3d140773	0.036139917
49	0x3d3845b7	0.04498836
50	0xb3f911f4	-1.1598232e-07
51	0x3d1e7214	0.038683012
52	0x3d4f4a1d	0.05060779
53	0x3d738812	0.05945594
54	0x3d791ff1	0.060821477
55	0x3d9c64dc	0.07636425
56	0x3dcb2f13	0.09921088
57	0x3d49ae40	0.049238443
58	0x3d8dc76d	0.06922803
59	0x3d545087	0.05183461
60	0xba7e58ac	-0.0009702544
61	0x3d5113df	0.05104434
62	0x3d400a94	0.046885088
63	0x3d340271	0.04394764

hgcn2.theta.weight f4 [7, 704]
0	0x3e998625	0.29985157
1	0x3e8e8928	0.27839017
2	0xbe885784	-0.2662927
3	0x3ed67446	0.41885585
4	0x3e7f997b	0.24960892
5	0x3e6841ee	0.226814
6	0xbe77a6d9	-0.24184741
7	0x3e898c28	0.26864743
8	0xbe93b5ae	-0.28849548
9	0xbdae6bdd	-0.08516667
10	0xbe88ac46	-0.26693934
11	0x3e9ff0b8	0.3123834
12	0x3e9c9bb8	0.30587554
13	0xbe9f4ce2	-0.31113344
14	0xa3e5ab18	-2.490069e-17
15	0xbe78b112	-0.24286297
16	0x3e89e5ec	0.2693323
17	0xbe3b6c23	-0.1830297
18	0xbe8fec47	-0.28109953
19	0xbeb4b389	-0.35293224
20	0xbe66e217	-0.22547184
21	0xbe86a2e8	-0.26296163
22	0x3e8e2c37	0.27768108
23	0xbea7eef9	-0.3279951
24	0xbea6b917	-0.32563087
25	0xbe7c143c	-0.24617094
26	0xbe637c64	-0.2221542
27	0x3e8d3ba9	0.2758458
28	0xbe4fde14	-0.2029956
29	0xbe7502b6	-0.23926815
30	0x3e61ed1e	0.2206311
31	0xbed37ff4	-0.41308558
32	0xbe8d6a00	-0.27619934
33	0xa5edaa13	-4.1228193e-16
34	0x3e9d1b43	0.30684862
35	0xbe93f266	-0.28895873
36	0xbe728449	-0.23683275
37	0x3e9c9d0d	0.3058857
38	0x3e8c288a	0.2737468
39	0xbe764894	-0.24051124
40	0xbe748dc2	-0.23882201
41	0x3e8c64ac	0.27420557
42	0xbe3c57fd	-0.1839294
43	0xbeb22c71	-0.3479953
44	0x3e461049	0.1934215
45	0xbe930b12	-0.28719383
46	0xbe9a67db	-0.3015736
47	0xbe806a3f	-0.2508106
48	0xbe702556	-0.23451743
49	0xbd84d858	-0.06486577
50	0xa525d38a	-1.4383141e-16
51	0xbe825fac	-0.25463617
52	0x3da76783	0.0817404
53	0xbe93035f	-0.2871351
54	0xbe8a5f60	-0.2702589
55	0x3e94ab06	0.2903673
56	0x3e7598b3	0.23984031
57	0x3e9b0497	0.3027694
58	0x3e915ecd	0.2839264
59	0x3e895743	0.26824388
60	0xa544ea09	-1.7079584e-16
61	0x3e500d11	0.20317484
62	0x3e91e092	0.28491646
63	0x3e9b9c75	0.30392805
64	0x3eac382e	0.33636612
65	0x3e9960d3	0.29956684
66	0xbe77162c	-0.24129552
67	0x3ebfd9c0	0.37470818
68	0x3e89aa5e	0.26887792
69	0x3e83a471	0.25711396
70	0xbe6ca01d	-0.23107953
71	0x3e82e5f5	0.25566068
72	0xbe97b024	-0.29626572
73	0xbd7a8892	-0.0611654
74	0xbe8fdad3	-0.28096637
75	0x3ea222a8	0.31667066
76	0x3ea75ab3	0.32686386
77	0xbe9a227b	-0.30104432
78	0x2565bbd6	1.9926225e-16
79	0xbe65014d	-0.22363777
80	0x3e74215a	0.23840848
81	0xbe32c7a7	-0.17458974
82	0xbe9f86b9	-0.31157473
83	0xbebaf395	-0.36513963
84	0xbe633cf1	-0.22191216
85	0xbe6728f8	-0.22574222
86	0x3e8e2841	0.27765086
87	0xbea22d1c	-0.3167504
88	0xbe94f205	-0.29090896
89	0xbe831ae6	-0.2560646
90	0xbe7a7a28	-0.24460661
91	0x3e8e8604	0.2783662
92	0xbe3e7b9e	-0.18601844
93	0xbe6c4802	-0.23074344
94	0x3e84adf3	0.25913963
95	0xbecdf6b6	-0.40227288
96	0xbe95d27d	-0.29262152
97	0xa696699c	-1.0436966e-15
98	0x3e9ef25f	0.3104429
99	0xbe92f88b	-0.28705248
100	0xbe61c462	-0.2204757
101	0x3e9c15b7	0.30485317
102	0x3e8a653f	0.2703037
103	0xbe7e284e	-0.24820063
104	0xbe6ae2fa	-0.22938147
105	0x3e879132	0.26477963
106	0xbe5e1f49	-0.21691622
107	0xbeb3e9b2	-0.35139233
108	0x3e487267	0.19574891
109	0xbe821df9	-0.25413492
110	0xbea11c44	-0.31466877
111	0xbe870ed8	-0.26378512
112	0xbe8379ed	-0.2567896
113	0xbd2f16e4	-0.04274644
114	0x25386553	1.5993786e-16
115	0xbe8f2b19	-0.27962568
116	0x3dfb1896	0.12260549
117	0xbe8a99e8	-0.27070546
118	0xbe81cc71	-0.2535129
119	0x3e8aa4e8	0.27078938
120	0x3e622972	0.22086123
121	0x3e93eb6e	0.28890556
122	0x3e899018	0.26867747
123	0x3ea63645	0.3246328
124	0x2649ffe2	7.008267e-16
125	0x3e65bec9	0.2243606
126	0x3ea2a195	0.31763902
127	0x3e9bf179	0.30457667
128	0x3ea7859c	0.32719123
129	0x3e8f107e	0.2794227
130	0xbe82a752	-0.2551828
131	0x3ebd3afd	0.36959067
132	0x3e90a1fb	0.2824858
133	0x3e802599	0.25028685
134	0xbe5aded8	-0.2137407
135	0x3e6b3f00	0.22973251
136	0xbe8f597c	-0.2799796
137	0xbd2d9bdd	-0.04238497
138	0xbe7fe9d5	-0.24991544
139	0x3e949bbc	0.29025066
140	0x3e93ed79	0.28892115
141	0xbe95be10	-0.2924657
142	0xa33a2efc	-1.00930295e-17
143	0xbe5a8d1b	-0.2134289
144	0x3e7a3dff	0.24437712
145	0xbe1bccb7	-0.15214811
146	0xbe9bb7cd	-0.30413666
147	0xbeb13ee6	-0.346183
148	0xbe3d894b	-0.18509404
149	0xbe8180e5	-0.2529365
150	0x3e70b398	0.2350601
151	0xbe9cf988	-0.30659127
152	0xbe8e695a	-0.27814752
153	0xbe7ef618	-0.24898565
154	0xbe4a6dce	-0.1976845
155	0x3e758b2d	0.23978873
156	0xbe3af55c	-0.1825766
157	0xbe410263	-0.18848567
158	0x3e5fca53	0.21854524
159	0xbed01ebc	-0.40648448
160	0xbe838cfa	-0.25693494
161	0x2637b49e	6.373566e-16
162	0x3e9c7bdc	0.30563247
163	0xbe880295	-0.2656447
164	0xbe429a25	-0.19004114
165	0x3e8c33fd	0.27383414
166	0x3e8a59bc	0.27021587
167	0xbe7f6361	-0.24940254
168	0xbe578245	-0.21045788
169	0x3e75f506	0.2401925
170	0xbe3adf70	-0.18249297
171	0xbeb60dee	-0.35557503
172	0x3e472fee	0.19451877
173	0xbe781883	-0.242281
174	0xbe8915bc	-0.26774395
175	0xbe7ab09f	-0.24481438
176	0xbe78fc0b	-0.24314897
177	0xbcadf493	-0.021234786
178	0xa64a6208	-7.0215686e-16
179	0xbe90abd1	-0.28256086
180	0x3de30b48	0.11086136
181	0xbe89ce35	-0.26915136
182	0xbe7b0f9a	-0.2451767
183	0x3e790d89	0.2432157
184	0x3e5b917a	0.21442214
185	0x3e9929bd	0.29914656
186	0x3e81d052	0.25354248
187	0x3e8c0c16	0.2735297
188	0x24a23a45	7.035501e-17
189	0x3e65f4e2	0.22456697
190	0x3e946bdc	0.2898854
191	0x3e942dde	0.28941244
192	0x3ea08145	0.31348625
193	0x3e99558e	0.29948086
194	0xbe7b75f6	-0.24556717
195	0x3eb4e47f	0.3533058
196	0x3e6d75bd	0.23189445
197	0x3e82c241	0.2553883
198	0xbe484133	-0.19556122
199	0x3e6eacff	0.2330818
200	0xbe8cc303	-0.27492532
201	0xbd2ad543	-0.04170729
202	0xbe8608b8	-0.26178527
203	0x3e964de5	0.29356304
204	0x3e9d3bf3	0.307098
205	0xbe8ce3c2	-0.27517515
206	0xa639ee25	-6.4507515e-16
207	0xbe4dfeb7	-0.20116697
208	0x3e860970	0.26179075
209	0xbe1e82a0	-0.15479517
210	0xbe8da747	-0.27666685
211	0xbeb33f0b	-0.35009035
212	0xbe4c4178	-0.1994685
213	0xbe7974d8	-0.24360979
214	0x3e8d101f	0.27551362
215	0xbe9538a9	-0.2914479
216	0xbe88ff65	-0.2675735
217	0xbe781a97	-0.24228893
218	0xbe4b3d6c	-0.1984765
219	0x3e8ab0ea	0.270881
220	0xbe3632a8	-0.17792761
221	0xbe424f21	-0.18975498
222	0x3e82706f	0.25476405
223	0xbed3f5f9	-0.413986
224	0xbe85e957	-0.26154587
225	0xa5f3b112	-4.2273768e-16
226	0x3e97a507	0.29618093
227	0xbe85c7c7	-0.2612898
228	0xbe475be3	-0.19468646
229	0x3e8ebc99	0.27878264
230	0x3e882c47	0.2659628
231	0xbe6b38d8	-0.22970903
232	0xbe605676	-0.21907982
233	0x3e833363	0.25625142
234	0xbe2a50a2	-0.16632321
235	0xbeb0deb0	-0.34544897
236	0x3e4271f1	0.18988778
237	0xbe72676c	-0.23672265
238	0xbe8efaf2	-0.2792583
239	0xbe581c0b	-0.21104448
240	0xbe5b17e8	-0.21395838
241	0xbd18ff98	-0.03735313
242	0x258330fe	2.2758076e-16
243	0xbe73b574	-0.23799688
244	0x3de9c66e	0.114148006
245	0xbe89276b	-0.26787886
246	0xbe819c31	-0.25314477
247	0x3e80a475	0.2512547
248	0x3e66d2fc	0.22541422
249	0x3e9cf335	0.30654302
250	0x3e8140c7	0.25244734
251	0x3e8c3802	0.2738648
252	0x25958209	2.5935495e-16
253	0x3e45117e	0.19244954
254	0x3e97daaa	0.29659015
255	0x3e9ba6ae	0.30400604

hgcn2.theta.bias f4 [7]
0	0x3c310aa6	0.010805761
1	0xbbb4274f	-0.00549785
2	0xbd29e351	-0.04147655
3	0xbccf91e0	-0.025338113
4	0x3c852e71	0.016257497
5	0x3d0194d1	0.031636063
6	0xbcab6b74	-0.020925261
