src_new2/lahgnn_coauthorcora_hid64_0104.pth (torch, 388841 bytes, 4 tensors)

hgcn1.theta.weight f4 [64, 1433]
0	0xbc209076	-0.009800067
1	0xbc82d921	-0.015972676
2	0xbcb787cd	-0.022403622
3	0xbe7c299c	-0.24625248
4	0x3f0150f9	0.5051418
5	0xbd1e0bbb	-0.038585406
6	0x3d6a2737	0.057166304
7	0xbd7d2037	-0.0617983
8	0x3e87d138	0.2652681
9	0x3b15d2bb	0.00228612
10	0xbca012c8	-0.019540206
11	0x3d0a5f0f	0.03378206
12	0x3df65b3e	0.12029122
13	0xbe12caba	-0.14335147
14	0x3cae1c05	0.021253595
15	0xbc9df489	-0.019281643
16	0x3d6d7da8	0.057981163
17	0x3da0d541	0.07853175
18	0x3d1a348a	0.03764776
19	0x3e73d628	0.23812163
20	0x3d136fbd	0.035995234
21	0xbdbe6e3c	-0.09298369
22	0xbadb0f4f	-0.0016712936
23	0xbdd653e9	-0.10465223
24	0xbc7cee76	-0.015437713
25	0x3e1b2bfb	0.15153496
26	0x3e24de20	0.16100359
27	0x3d591199	0.052995298
28	0xbccc6f5c	-0.024955444
29	0xbd288b93	-0.041148733
30	0xbd83e7ad	-0.06440673
31	0x3c8de3e6	0.017320585
32	0xbb03a59f	-0.0020087732
33	0x3b2148d3	0.0024610057
34	0x3d08152e	0.033223324
35	0xbab82448	-0.0014048899
36	0xbd1e0590	-0.038579524
37	0xbb38a14a	-0.0028172308
38	0x3e244e42	0.16045478
39	0xbcf211f4	-0.029549576
40	0x3daf371f	0.085554354
41	0x3e2c7681	0.1684208
42	0xbcd0705a	-0.025444198
43	0xbdbb1468	-0.091347516
44	0x3dba5b97	0.090995006
45	0xbd583731	-0.05278701
46	0xbd895ef4	-0.06707564
47	0xbd8738ac	-0.06602606
48	0x3c2551e2	0.010090323
49	0xbce19402	-0.027536396
50	0xbdad7afe	-0.084707245
51	0x3f21634c	0.6304214
52	0x3c665983	0.014059427
53	0xbce5a8a3	-0.028034514
54	0x3deb9e3d	0.11504791
55	0xbd334e25	-0.043775696
56	0xbd21e26a	-0.039522566
57	0x3bb43997	0.0055000293
58	0x3e5e2293	0.21692877
59	0x3d8d9c47	0.06914573
60	0x3b3b0192	0.0028534872
61	0x3e8b1649	0.2716544
62	0x3c0f7ce0	0.0087578
63	0xbd93cd61	-0.07216907
64	0xbddda353	-0.10822167
65	0xbe0f6c46	-0.14006147
66	0x3d2e11be	0.04249739
67	0xbd309d1d	-0.043118585
68	0xbbb3af46	-0.0054835407
69	0x3d6de790	0.058082163
70	0xbd780197	-0.06054839
71	0x3b01a407	0.0019781606
72	0xbd66c2bf	-0.056338068
73	0xbe05e798	-0.13076627
74	0x3c06b8da	0.008222783
75	0xbdcc52e6	-0.09976749
76	0xbd1aba6d	-0.037775446
77	0x3e0f3bbf	0.13987635
78	0x3d820532	0.06348647
79	0xbc408ae2	-0.011751862
80	0x3bbd01cb	0.005768036
81	0x3b3719ec	0.0027939035
82	0x3cb65e12	0.022261653
83	0xbd85d706	-0.06535153
84	0x3c193f6f	0.009353503
85	0xbd35cb7c	-0.04438351
86	0xbd88194f	-0.06645452
87	0x3dfa9652	0.122357026
88	0xbe9f6d49	-0.31138065
89	0x3e5762d5	0.21033795
90	0xbcb9fcfd	-0.022703642
91	0xbcf5f3fc	-0.030023567
92	0x3d3963d1	0.045261208
93	0x3e72ffdb	0.23730414
94	0x3d9cd335	0.07657472
95	0x3ceea586	0.029131662
96	0xbc3bd1a4	-0.011463556
97	0x3e38c50d	0.18043919
98	0xbdcba90a	-0.09944351
99	0x3d8d8254	0.06909624
100	0x3e1471f4	0.14496595
101	0xbd6bfcba	-0.057614066
102	0x3e0d025c	0.13770431
103	0xbe5a90a2	-0.21344236
104	0xbe2ad60a	-0.16683212
105	0xbcbd299a	-0.023091126
106	0xbc8d40ef	-0.017242877
107	0xbd0b1493	-0.033955168
108	0xbdb014f5	-0.08597747
109	0xbcc0e306	-0.023545753
110	0xbce8fac4	-0.028439887
111	0xbcbab504	-0.022791393
112	0x3e2267d4	0.1585992
113	0x3e0c9a6f	0.13730787
114	0xbd0126cd	-0.031531144
115	0xbceec96d	-0.029148782
116	0xbd3958c8	-0.045250684
117	0xbd2ed173	-0.042680215
118	0x3cb93b30	0.02261123
119	0x3be14eef	0.0068758647
120	0x3c550b86	0.013003236
121	0x3d0d484e	0.034492783
122	0x3da62089	0.08111674
123	0xbaaa100e	-0.0012974755
124	0xbb969c2c	-0.004596254
125	0xbc0f3e6b	-0.008742909
126	0x3d83fe5e	0.06445001
127	0xbdcef213	-0.10104766
128	0xbe2278d3	-0.15866403
129	0x3dc47bd4	0.09593931
130	0xbd2d8309	-0.042361293
131	0x3e5eba15	0.21750672
132	0xbe3225c2	-0.17397216
133	0xbccfdf0c	-0.025374912
134	0x3c3a982e	0.0113888215
135	0x3eb1d362	0.34731585
136	0xbe09d685	-0.13460739
137	0xbdcd46d6	-0.100232765
138	0x3b4d7c08	0.0031354446
139	0x3c6dbc07	0.014510161
140	0x3e28371c	0.16427273
141	0x3c687726	0.014188563
142	0xbd90bce6	-0.070672795
143	0xbde669ec	-0.11250672
144	0x3dda3139	0.1065392
145	0x3ce06fdd	0.02739709
146	0xbbb38d2a	-0.0054794746
147	0xbbd07798	-0.006361913
148	0x3d1618ed	0.036644865
149	0x3da3c846	0.079971835
150	0xbcd1ec3d	-0.025625343
151	0x3e80c17d	0.2514762
152	0xbcd30c29	-0.025762634
153	0xbdc58765	-0.09644965
154	0x3d1e9f4c	0.038726136
155	0xbcde08f8	-0.027103886
156	0xbd5506a9	-0.052008305
157	0xbcb00c1e	-0.021490153
158	0x3ce62718	0.028094813
159	0x3c91ce0d	0.017798448
160	0xbd340978	-0.043954343
161	0xbd46a796	-0.048499666
162	0x3de52322	0.11188342
163	0x3d095343	0.03352667
164	0x3c67f80b	0.014158259
165	0xbc288ce5	-0.010287498
166	0xbd15396f	-0.036431726
167	0xbcf02ee2	-0.02931923
168	0x3ce8f5a2	0.02843744
169	0x3b1585fa	0.0022815452
170	0xbba30657	-0.004975121
171	0x3d7c7459	0.061634395
172	0x3d6207f0	0.05518335
173	0x3a549c4a	0.0008110447
174	0xbca2ea92	-0.019887242
175	0xbcecaf69	-0.028892236
176	0xbd3d5fd4	-0.046233967
177	0xbcf22bae	-0.029561844
178	0xbcf2872f	-0.029605476
179	0xbc930f2a	-0.017951567
180	0xbaf82fa8	-0.0018935101
181	0x3ca6eac1	0.020375611
182	0x3d98945c	0.07450172
183	0x3d9cf28b	0.07663449
184	0xbd48dacb	-0.049036782
185	0xbaf82fac	-0.0018935106
186	0x3c7c97fe	0.015417097
187	0xbd7d6a1c	-0.061868772
188	0x3bb3465c	0.005471034
189	0xbd431a0a	-0.047632255
190	0xbd0ca444	-0.034336343
191	0x3e588d24	0.21147591
192	0x3dca7965	0.098864354
193	0xbce6586b	-0.028118333
194	0x3d4f7796	0.050651155
195	0xbcc95b61	-0.024579706
196	0xbd7d1276	-0.061785184
197	0x3cf2a124	0.029617853
198	0xbcf17672	-0.029475424
199	0xbd08701a	-0.033310033
200	0xbcf07c96	-0.029356282
201	0xbd25c077	-0.040466752
202	0x3b112249	0.002214568
203	0x3b33d69f	0.0027441157
204	0x3d341b8c	0.043971583
205	0xbed1e5b0	-0.4099555
206	0xbc7ecf1d	-0.015552309
207	0x3d2fbd95	0.04290541
208	0xbe3ed86b	-0.18637244
209	0xbcbc2d04	-0.022970684
210	0xbc9f3ab2	-0.019437168
211	0x3e17f055	0.14837773
212	0xbd5fde66	-0.054655455
213	0x3ca0d0e4	0.019630857
214	0x3c4c7a61	0.012480349
215	0xbd721838	-0.059105128
216	0xbd920891	-0.0713054
217	0xbda09464	-0.07840803
218	0xbe034aff	-0.12821577
219	0x3cccb89d	0.024990374
220	0x3cd5183a	0.026012529
221	0xbbd2d718	-0.0064343326
222	0x3e254949	0.16141237
223	0xbcfddc67	-0.030988885
224	0xbc9bdb7b	-0.019025555
225	0xbd193eec	-0.037413523
226	0xbdf21277	-0.11819928
227	0xbcc1aa12	-0.023640666
228	0xbce71277	-0.028207047
229	0xb9e5d372	-0.00043835823
230	0xbdf90023	-0.12158229
231	0xbda3201f	-0.07965111
232	0xbc4d0df9	-0.012515538
233	0xbe36da6f	-0.17856763
234	0x3db9887e	0.09059237
235	0xbdab68f5	-0.08369628
236	0x3cf94851	0.030429991
237	0xbe05579a	-0.13021699
238	0xbedbc9ea	-0.42927486
239	0xbc42db27	-0.01189307
240	0xbda09f19	-0.078428455
241	0xbc53050f	-0.012879624
242	0xbce838b2	-0.028347347
243	0xbd062304	-0.032748237
244	0x3dee6208	0.11639792
245	0xbc8605f7	-0.016360266
246	0x3d780aa1	0.06055701
247	0xba8ce22f	-0.001074856
248	0x3ccd32ab	0.025048574
249	0xbc28713d	-0.010280904
250	0xbb4f97bc	-0.0031676134
251	0x3d19acb6	0.037518226
252	0xbd04068e	-0.032232814
253	0x3c4795f4	0.012181748
254	0xbb639a02	-0.0034729247
255	0xbc222d18	-0.0098984465

hgcn1.theta.bias f4 [64]
0	0x3d9715f4	0.07377234
1	0x3d63e3a5	0.05563702
2	0x3d57a535	0.052647788
3	0x3d6e7d9f	0.05822527
4	0x3d40e446	0.0470927
5	0x3d7be931	0.061501686
6	0x3d614bd7	0.055003967
7	0x3d9f01f1	0.07764042
8	0x3d5a567f	0.053305145
9	0x3d814c74	0.063134104
10	0x3d506a57	0.050882664
11	0xb936637a	-0.0001739393
12	0x3d5f7948	0.054559022
13	0x3d424b14	0.04743488
14	0xb21156a8	-8.459814e-09
15	0x3d28d9e8	0.041223437
16	0xb8353fb8	-4.3213106e-05
17	0x3d0083c3	0.031375658
18	0x3d8acb79	0.067770906
19	0x3d39cafe	0.045359604
20	0x3d823860	0.06358409
21	0x3d209391	0.03920323
22	0xbabc6a77	-0.0014374991
23	0x3d6a5492	0.05720956
24	0x3d5a48db	0.053292137
25	0x3d7ac98b	0.061227363
26	0x3d8ad2ae	0.06778465
27	0x3d8450b6	0.06460707
28	0x3d84aa69	0.06477816
29	0x3d2a3359	0.041552875
30	0x3d832364	0.064032346
31	0x3d9f7fdb	0.07788058
32	0x3d93df57	0.07220333
33	0xb12966b0	-2.4651108e-09
34	0xab2615cd	-5.90053e-13
35	0xbbedb35b	-0.007254047
36	0x3d84cc77	0.06484311
37	0x3d9098f5	0.07060424
38	0x3d9fec05	0.07808689
39	0xb0fe65e9	-1.8509897e-09
40	0x3d491e59	0.049101207
41	0x34b6a4e0	3.4020104e-07
42	0x3d373edb	0.044737678
43	0xbbccae92	-0.0062463963
44	0x3d3b8562	0.0457815
45	0x3d5cb5e1	0.05388439
46	0xbb41e434	-0.0029585483
47	0x3d866c69	0.06563646
48	0x3d8249e7	0.06361752
49	0x3d4b61ab	0.04965369
50	0x3da2d27a	0.079503015
51	0x3d4746b0	0.048651397
52	0x3d51e4ec	0.051243708
53	0x3d12d618	0.035848707
54	0x3d746acc	0.059672162
55	0xbacb62ff	-0.0015517174
56	0x3d8229a9	0.06355602
57	0xb539bce0	-6.919272e-07
58	0xb2135ef1	-8.578113e-09
59	0x3d489392	0.04896886
60	0xad58fe02	-1.23345795e-11
61	0x3d630aae	0.055430107
62	0x3d76b70e	0.06023317
63	0x3d6b3f0e	0.05743318

hgcn2.theta.weight f4 [7, 704]
0	0x3ea090bb	0.3136042
1	0x3eb44bee	0.3521418
2	0xbe7aa413	-0.24476652
3	0x3be2cd36	0.0069214357
4	0x3e8fb40b	0.2806705
5	0x3e6b1305	0.22956474
6	0xbe936824	-0.2879039
7	0x3e0a5812	0.13510159
8	0xbe80df81	-0.2517052
9	0x3e8c021c	0.2734536
10	0xbdc1f8e6	-0.09471302
11	0x242d5f70	3.7594234e-17
12	0x3eb84a53	0.35994205
13	0xbe445a9d	-0.19175191
14	0xa655443d	-7.39917e-16
15	0xbe94a793	-0.290341
16	0xa6f4cdda	-1.6986697e-15
17	0xbe3a610b	-0.18201081
18	0xbe95d563	-0.29264364
19	0xbe669a21	-0.22519733
20	0xbde6ed17	-0.1127569
21	0xbe876975	-0.26447645
22	0x26825a0a	9.044967e-16
23	0xbe24bbca	-0.16087261
24	0x3e859da3	0.2609683
25	0x3c85e40d	0.016344095
26	0xbcfd2607	-0.030901922
27	0x3e9ec735	0.31011358
28	0x3e954d1f	0.291604
29	0xbdcbcf12	-0.09951605
30	0x3e91f368	0.28506017
31	0x3e84a430	0.25906515
32	0xbea18544	-0.31546986
33	0xa6397fc2	-6.4357913e-16
34	0xa95d383e	-4.912064e-14
35	0x25c7feb2	3.4693585e-16
36	0xbe8572cf	-0.26064155
37	0x3e945841	0.28973582
38	0x3e9474f6	0.28995484
39	0xae815664	-5.881587e-11
40	0xbe8f425c	-0.27980316
41	0xb6861852	-3.9963425e-06
42	0xbe51bd99	-0.20482482
43	0xa617e276	-5.269556e-16
44	0xbdb70297	-0.08936041
45	0xbe970726	-0.2949764
46	0xa5e20f54	-3.9215137e-16
47	0xbe9bba23	-0.3041545
48	0xbe9e918c	-0.30970418
49	0xbdd0b4c7	-0.101907305
50	0x3df1c81c	0.11805746
51	0xbe4953bc	-0.19660848
52	0x3d028b5b	0.03187118
53	0xbe67cad7	-0.22635971
54	0xbbc5404c	-0.0060196277
55	0x27a773f0	4.647751e-15
56	0x3d9644ad	0.073373176
57	0x34bc6642	3.509213e-07
58	0xaf6142eb	-2.0487405e-10
59	0xbcc124a4	-0.023577042
60	0xac409026	-2.736486e-12
61	0x3e064ce4	0.13115269
62	0x3e8319ff	0.2560577
63	0x3e9ee5c1	0.31034663
64	0x3eaf62da	0.34255105
65	0x3eb6694a	0.35627204
66	0xbe8c9908	-0.27460504
67	0xbc731e44	-0.014838759
68	0x3e90459f	0.28178117
69	0x3e6e6b0c	0.23283023
70	0xbeacb346	-0.33730525
71	0x3e264dd2	0.16240624
72	0xbe9f7e57	-0.31151077
73	0x3e99adcc	0.3001541
74	0xbdc6594c	-0.09685001
75	0x262c2d21	5.973565e-16
76	0x3eb35b88	0.3503077
77	0xbe44a335	-0.19202884
78	0x25e3fa78	3.9547947e-16
79	0xbeb540dd	-0.3540105
80	0x26a55df6	1.1474643e-15
81	0xbe53cf77	-0.2068461
82	0xbeabf2f2	-0.3358379
83	0xbe87feb0	-0.265615
84	0xbdee0693	-0.11622348
85	0xbe960210	-0.2929845
86	0x26cf0f04	1.436758e-15
87	0xbe3abaf8	-0.18235385
88	0x3e95d911	0.2926717
89	0x3d0c50f3	0.034256887
90	0xbba4d963	-0.0050307973
91	0x3e981f2b	0.2971128
92	0x3ea90b64	0.33016503
93	0xbde8d9bd	-0.11369655
94	0x3e8f66b4	0.28008044
95	0x3ea04a3c	0.31306636
96	0xbeb3e611	-0.35136464
97	0xa60fd947	-4.9907557e-16
98	0x2a1c3fa8	1.3877669e-13
99	0x250162e2	1.1222469e-16
100	0xbe8b244c	-0.2717613
101	0x3e944dbd	0.2896556
102	0x3eab0f06	0.334099
103	0xad20b230	-9.134513e-12
104	0xbea2f914	-0.31830657
105	0xb716a51d	-8.97914e-06
106	0xbe71f8b5	-0.2363003
107	0xa66816b2	-8.0521927e-16
108	0xbe08e619	-0.13369025
109	0xbeb9d04c	-0.3629173
110	0x2693a178	1.024394e-15
111	0xbea6aa8f	-0.32552
112	0xbeab99dd	-0.33515826
113	0xbdcbb185	-0.099459685
114	0x3e29bad8	0.16575181
115	0xbe68ec0a	-0.22746292
116	0x3d872d4f	0.06600439
117	0xbe89f47c	-0.2694434
118	0x3cb341a1	0.02188188
119	0xa78870ac	-3.786974e-15
120	0x3d86a65a	0.06574698
121	0xb35ba3c8	-5.113887e-08
122	0xafb67bc6	-3.3193553e-10
123	0x3c8a1a8f	0.016858367
124	0xab5c9530	-7.836674e-13
125	0x3de7572c	0.112959236
126	0x3e9d5d82	0.30735403
127	0x3e9f6f20	0.3113947
128	0x3ea1b5ca	0.31584007
129	0x3ea541eb	0.32276854
130	0xbe6f003f	-0.23339938
131	0xbcc2fba5	-0.023801634
132	0x3e885ae6	0.2663185
133	0x3e484edf	0.19561337
134	0xbe7b7946	-0.24557981
135	0x3db2ced5	0.08730856
136	0xbe80fa4b	-0.25190958
137	0x3e8b5fd0	0.27221537
138	0xbd92e884	-0.07173255
139	0x25fe3d90	4.4103693e-16
140	0x3ea7ef8a	0.3279994
141	0xbe3e5efa	-0.18590918
142	0x2630fa32	6.1401344e-16
143	0xbe884368	-0.26613927
144	0x26d238f0	1.458711e-15
145	0xbe2aa20e	-0.16663381
146	0xbe7f0d1b	-0.24907343
147	0xbe53fd9a	-0.2070221
148	0xbdee6f67	-0.11642342
149	0xbe747ce3	-0.23875766
150	0x2631ba1d	6.166144e-16
151	0xbe4b1ad3	-0.19834451
152	0x3e87c96e	0.26520866
153	0xbca26360	-0.019822776
154	0xbcaa34fb	-0.020777216
155	0x3e991dc7	0.2990553
156	0x3e8d771a	0.2762993
157	0xbd802c35	-0.06258432
158	0x3e8167c9	0.25274494
159	0x3e8a9080	0.2706337
160	0xbe92b2c1	-0.28652003
161	0xa680c857	-8.936086e-16
162	0x291b9845	3.4548987e-14
163	0xa6f24e17	-1.681329e-15
164	0xbe6a398e	-0.22873518
165	0x3e8baab5	0.27278677
166	0x3e958f11	0.29210714
167	0x2cbc1d5e	5.346542e-12
168	0xbe844688	-0.2583506
169	0x37430351	1.1623678e-05
170	0xbe478247	-0.1948329
171	0x26a935d9	1.1741326e-15
172	0xbd7b89cf	-0.06141072
173	0xbe85a55b	-0.2610272
174	0x21cb6300	1.378202e-18
175	0xbe88da5f	-0.26729104
176	0xbe912e8d	-0.28355828
177	0xbda962c6	-0.08270793
178	0x3df6f86a	0.120591
179	0xbe370e16	-0.17876467
180	0x3d2ac566	0.04169216
181	0xbe6c80f4	-0.23096067
182	0x3c24074f	0.010011508
183	0xa7944bd2	-4.1160456e-15
184	0x3d4200a1	0.04736388
185	0xb3964a78	-6.998465e-08
186	0xb04e7f16	-7.5122963e-10
187	0xbc5cd214	-0.013477821
188	0x2c7a852c	3.5601062e-12
189	0x3e0a4fd1	0.1350701
190	0x3e71954c	0.23592108
191	0x3e84296f	0.2581286
192	0x3ea2111e	0.31653684
193	0x3e93eb88	0.28890634
194	0xbe7487c3	-0.23879914
195	0xbb14b996	-0.0022693626
196	0x3e7ba684	0.2457524
197	0x3e57a43a	0.21058741
198	0xbe7872be	-0.2426252
199	0x3dc16961	0.094439276
200	0xbe636047	-0.22204696
201	0x3e8a4955	0.27009073
202	0xbd81b100	-0.06332588
203	0x24c27ea8	8.434865e-17
204	0x3e9c9ff7	0.30590793
205	0xbe39e505	-0.1815377
206	0xa61856e8	-5.2853374e-16
207	0xbe8b8c45	-0.27255455
208	0xa72644ba	-2.3074385e-15
209	0xbe21eb89	-0.15812506
210	0xbe5a3317	-0.21308552
211	0xbe2c2249	-0.16809954
212	0xbde8343f	-0.1133809
213	0xbe73a22f	-0.23792337
214	0x26ec94d7	1.6416133e-15
215	0xbe374fb3	-0.17901497
216	0x3e7a4b59	0.24442805
217	0x3c91dc29	0.017805176
218	0xbb80e364	-0.003933357
219	0x3e926bee	0.2859797
220	0x3e90acf0	0.2825694
221	0xbd9a4cd6	-0.075341865
222	0x3e895ddc	0.26829422
223	0x3e860ff4	0.26184046
224	0xbe81c4bc	-0.2534541
225	0x24c56158	8.560004e-17
226	0xaa2eb72b	-1.5517854e-13
227	0x2610aa24	5.019062e-16
228	0xbe5b9642	-0.21444038
229	0x3ea3505f	0.31897256
230	0x3e988a9b	0.29793248
231	0xac39bec0	-2.6395969e-12
232	0xbe7556a9	-0.2395884
233	0x37944caa	1.7678674e-05
234	0xbe38de5b	-0.18053572
235	0xa6ce517a	-1.4316206e-15
236	0xbd4df28e	-0.050280146
237	0xbe84eb36	-0.25960702
238	0xa4bf55dc	-8.29785e-17
239	0xbe8690c4	-0.26282322
240	0xbe8cbd36	-0.27488106
241	0xbdaa2385	-0.08307556
242	0x3e087ffa	0.13330069
243	0xbe178a58	-0.14798868
244	0x3d39a9e7	0.045328047
245	0xbe63725f	-0.22211598
246	0x3c305101	0.0107615
247	0x27a31af9	4.527083e-15
248	0x3db2631d	0.087103106
249	0x34eff129	4.4692686e-07
250	0x2ff63cd6	4.4790366e-10
251	0x3c383aff	0.0112445345
252	0x2c024698	1.8513299e-12
253	0x3def6397	0.11688917
254	0x3e7f9ee2	0.24962953
255	0x3e84bc04	0.25924695

hgcn2.theta.bias f4 [7]
0	0xbbea9b7f	-0.00715965
1	0x3cb58588	0.0221584
2	0x3da8e244	0.08246282
3	0xbe0781a4	-0.13233048
4	0x3dc2fa96	0.09520452
5	0x3e9b0f11	0.30284932
6	0xbe7a18f2	-0.24423578
