src_new2/lahgnn_cociteseer_hid64_0105.pth (torch, 967133 bytes, 4 tensors)

hgcn1.theta.weight f4 [64, 3703]
00000000: 1fbe 9f3c a0eb 8e3d ab6a f9bc 1b15 25bc
00000010: aecf 823c ec94 073d c86c f13b 35ad c73c
00000020: 07aa 53bc 0de8 24bd a966 51bb 627a 5cbb
00000030: d0f3 8bbc c0f3 ff3c 8633 97bc d1a4 10bc
00000040: e3db 03bd 88e3 3e3b 371b f8bc 0dd7 a13c
00000050: 9ea2 1c3c 9699 0d3d 91aa 20be 1e8a 17bc
00000060: 607d af3c ca36 dcbb 80f7 20b9 2d38 083d
00000070: ecb0 18bc 0de2 16bc ed9b 943c 3b4f 513c
00000080: 9e5c 4bbe 64ce 45bb b325 a23c 78ea 613d
00000090: d2c9 553d 9bae ba3c bcad 75bd 1e5c 9f3c
000000a0: fe05 7abc 87a5 1d3c 0069 ff3c c872 4a3b
000000b0: fda2 ca3c 88b7 d63c 0f64 13bd f68c 263b
000000c0: b3fd cbbb b41c 353b 7867 c138 e5d7 a13c
000000d0: 5474 303a 9f36 d7bd 66fa 963a 285e 48ba
000000e0: 55dd f33b 4383 a73b 1e63 1b3c 72f9 3fbc
000000f0: 099c 393c ba60 143d 56a2 f9bb 876c 79bc
00000100: 5404 fabb c2f6 833f a601 083c 389a f4bb
00000110: f35b 943c be3a 033c 39a1 bbbc 9c0c 1c3b
00000120: 2e9e 2339 df82 303d 6bbc 963c 4802 dc3c
00000130: b854 103d e892 31bb 0058 e1bb 9d63 06bd
00000140: 3a47 f7bb 9725 9b3c e5ff 613d 3dd7 3fbc
00000150: bcea 69bc 5e9b 983c bd39 a83c 0395 30bd
00000160: f883 cf38 c81e 7cbc 5948 9cbc e2f3 d2bb
00000170: a3e7 37bc 407d f9bc 771a 04bd c92f edbb
00000180: f2a4 cabc c47f d4bb 98c9 19ba d235 30bb
00000190: f462 edbc df13 1bbc 8e65 cb3e 1e83 ba3c
000001a0: b218 14bc 5df7 863c 5faf 6dbc 06ee d13a
000001b0: 56e5 11bc 5673 1c3d acd5 15bd e2b0 0b3c
000001c0: 893f cbbc 64e4 c5bc ec0c 1abd 31ba deba
000001d0: c89b 0d3a b4a5 bebb 4ab3 aebc cd70 9d3b
000001e0: af4f d6bc c5dd 1bbd 8c31 083d e590 933c
000001f0: 023d ad3c 4fbc d13c 52a6 57bc c60c a13b
00000200: d5a1 21bb dabb 463c 85d4 0c3d 1274 4e3d
00000210: 0768 d83c a42a 953d 7be3 653c e292 7fbc
00000220: 8d30 82bb 18f2 523c ef5d 0b3c 3134 e6bb
00000230: b457 b53c 6892 4dbc 2f25 bb3c e359 14bc
00000240: 75a3 91bb f132 3dbc e73b bdbc 83bd a73b
00000250: 060d 3c3b d9ea ddbc c950 df3c 8803 1bbd
00000260: 3a1a af39 9f36 04bc a0ee 553c b1ea 88bb
00000270: ce5c 863c 71ae 8f3b b6b9 0e3c a003 fa38
00000280: d1bc 043d 3cb8 9a3b 0c67 8139 04a7 91b9
00000290: 2c71 483c 218b 233c 3411 e33d c93f c3bc
000002a0: bf59 d13c e976 983e 6b4d 033d e188 023e
000002b0: c08d abbb 6ad5 38bc 94ba 18bd c54a c63b
000002c0: c972 ba3b 2ba2 373e 1408 9f3c 2126 9e3d
000002d0: f463 49ba edef 43bc 99b6 ed3c fdc5 903a
000002e0: 2af2 43bc e006 a4bc 6b9a 73bc 1027 cebb
000002f0: 2286 fdbb 9224 c33c 1344 f53b 4af8 4bbc
00000300: 05ca 73bc 9e19 23bc e5b9 03bd 7896 9539
00000310: a186 083c 7f3e 91bc 1e6e 013c 9277 4a3c
00000320: b64a 1a3e 1859 f13b 292b cd3b 8637 34bb
00000330: a024 0ebc 2f6f a03a 39d7 b2ba 4d4b 133c
00000340: 7696 24bd 7c9d a23c ace0 0b3d c6c9 ac3d
00000350: 0c08 043b dedf 1d3d 9244 f53b 8d52 4c3d
00000360: d210 9d38 9c47 ed3a 56a5 9dbd 9f52 f3bb
00000370: c633 1fbc d44e 583c ad7a e83c de90 62bb
00000380: 736b 5a3c c425 903c e526 373b 6a4b a43b
00000390: 8a97 4fbc 81ab ca3c f256 afbc 4579 b1bc
000003a0: 7118 b23b b018 823b c8a1 35bd 1d18 66bc
000003b0: fd49 f5bd 2e60 77bd d202 9c3b b0f9 b3bb
000003c0: cf76 6cbc 00c6 ccbb c287 8a3c affc ecba
000003d0: 423e 3a3d 0dbb 0e3d 2cc4 843a ebc0 353e
000003e0: 0ecc fb3b b689 c1bd b2b5 ef3c 6172 b13c
000003f0: 360e b8bb 9000 3abc f61f 16be 8935 3539
0.019499836 0.06978536 -0.030446371 -0.010075833 0.01596817 0.033101007 0.007367704 0.024374584
-0.012918956 -0.040260363 -0.003195206 -0.0033642282 -0.017084032 0.031244159 -0.018457185 -0.008828358
-0.032192122 0.0029127318 -0.030286415 0.019755865 0.009560255 0.0345703 -0.15690066 -0.009249238
0.021422088 -0.0067203986 -0.0001535099 0.0332567 -0.009319525 -0.009209168 0.018140757 0.012775238
-0.1985955 -0.0030182833 0.019793367 0.055155247 0.052194424 0.022788337 -0.05998014 0.019453105
-0.015260218 0.009621984 0.031177998 0.003089117 0.024735922 0.026210561 -0.035984095 0.002541361
-0.0062253117 0.0027635517 9.22223e-05 0.019756267 0.00067312014 -0.10508465 0.0011518716 -0.0007643425
0.0074421563 0.005112083 0.009484081 -0.011717187 0.011328706 0.03622506 -0.007618229 -0.015223629
-0.0076299105 1.030968 0.008301174 -0.0074646734 0.018110251 0.008009611 -0.022904025 0.0023811227
0.00015603818 0.04309356 0.018400392 0.026856557 0.035237044 -0.002709562 -0.0068769455 -0.032809842
-0.0075463327 0.018938823 0.05517568 -0.011709032 -0.014277156 0.018628772 0.020535344 -0.04311086
9.89511e-05 -0.015388198 -0.019077467 -0.0064377645 -0.01122466 -0.030455232 -0.0322518 -0.0072383625
-0.024736855 -0.0064849574 -0.00058665266 -0.0026887548 -0.028977849 -0.009465187 0.39725918 0.0227676
-0.009039091 0.016475374 -0.014507144 0.0016016371 -0.008904776 0.03819593 -0.036580727 0.008526059
-0.02481057 -0.024156757 -0.03760998 -0.0016992745 0.00054019364 -0.005818093 -0.021325726 0.0048047067
-0.026161043 -0.038053293 0.033250377 0.018013427 0.021147255 0.025602488 -0.013162212 0.004914853
-0.002466311 0.012129748 0.034382362 0.050403662 0.026416792 0.07283524 0.014031286 -0.015598984
-0.003973073 0.012875102 0.008506282 -0.0070252647 0.022136547 -0.012547113 0.022844879 -0.009054634
-0.0044445344 -0.01154779 -0.023099853 0.005119027 0.0028694286 -0.027089523 0.027260201 -0.037845165
0.0003339814 -0.008069663 0.013057381 -0.004178368 0.016401675 0.0043848087 0.008711269 0.00011921604
0.03240663 0.0047216695 0.00024681573 -0.00027780992 0.0122340135 0.009981901 0.110872656 -0.023834126
0.02555549 0.2977822 0.032056253 0.12747528 -0.005235404 -0.011281351 -0.03728731 0.0060513937
0.005689953 0.17932956 0.019413032 0.07722116 -0.00076824357 -0.011959058 0.029017733 0.0011045333
-0.011959592 -0.02002281 -0.014868359 -0.0062912777 -0.007736937 0.023821149 0.0074849217 -0.012449333
-0.014879708 -0.009954838 -0.032159705 0.00028531603 0.008332879 -0.017729996 0.007899789 0.012357609
0.15067562 0.007365357 0.0062612486 -0.0027498915 -0.008675724 0.0012240167 -0.0013644464 0.008990121
-0.040182553 0.019850485 0.03414981 0.08436923 0.0020146398 0.038543575 0.007484981 0.049883414
7.4894764e-05 0.0018103006 -0.07697551 -0.0074256207 -0.009716934 0.013202388 0.028378809 -0.003457121
0.013331282 0.017596133 0.0027946767 0.005013873 -0.012670407 0.024739983 -0.021403763 -0.021664271
0.0054350425 0.003970228 -0.04434374 -0.014043835 -0.11977003 -0.06039446 0.0047610784 -0.0054924116
-0.014432623 -0.0062491894 0.016910437 -0.0018080677 0.04546953 0.034846354 0.0010129265 0.17749374
0.0076842373 -0.094500944 0.029261444 0.021660985 -0.0056169285 -0.011352673 -0.1466063 0.00017281449

hgcn1.theta.bias f4 [64]
00000000: 6910 103d 6e84 083d 2961 91b8 62f9 0e3d
00000010: 08c3 773d 3f3e 703d 5ce3 073d be29 7a3d
00000020: e00e 4d3d b056 05b8 55b2 0b3d 3fe6 e5ba
00000030: 3d19 013d 1450 3a3d 4cf9 353d b02c 333d
00000040: d6b8 813d a262 003d ad96 033d a815 8a3d
00000050: ad8c 0d3d 6b4b 103d a470 f937 6fd5 163d
00000060: c511 023d f999 543d a691 1f3d 3395 2d3e
00000070: 6a02 143d 533a 053d dce0 523d 9b3b 0c3d
00000080: d3f0 8d3d fe67 153d a395 2f3d dd94 0b3d
00000090: 4380 8f3d c8c9 0b3d 56e2 6e3d c7c7 57ba
000000a0: c64a 4d3d 3c69 44b9 cec9 55b8 cdca 1e3e
000000b0: 6b54 463d b033 583d 3060 283e ad15 103d
000000c0: befc 873d 9330 153d e3a9 1d3e 5c5c 913d
000000d0: 599e 0e3d fd29 8c3d 758e 553d 2208 3b3d
000000e0: a6d6 f03c 9908 2c3d 3cc5 863d 55e5 4f3d
000000f0: 0b02 0e3d d8e9 87b9 b04e 113d 7aff 2a3d
0.0351719 0.03332942 -6.932236e-05 0.0349058 0.06048873 0.058653113 0.03317581 0.061074965
0.050063014 -3.1790405e-05 0.034105618 -0.0017539932 0.03151821 0.045486525 0.0444272 0.04374379
0.06334083 0.031344064 0.032126117 0.06742412 0.034557987 0.035228174 2.9735565e-05 0.03682464
0.031755228 0.051904652 0.03895726 0.16951446 0.036135115 0.032526325 0.051483974 0.03423653
0.06930699 0.036476128 0.042867314 0.034077514 0.07006886 0.03412798 0.05832132 -0.0008231368
0.050120138 -0.0001873122 -5.0971103e-05 0.1550705 0.04842035 0.052783668 0.16442943 0.03517692
0.066400036 0.036423277 0.15396838 0.07097694 0.03481898 0.06843946 0.05213781 0.045662053
0.029399227 0.042000387 0.06580588 0.050755817 0.034669917 -0.00025923434 0.035475433 0.041747548

hgcn2.theta.weight f4 [6, 704]
00000000: 44c3 9dbd 225e cabd 5d96 1eb7 ea7a ae3e
00000010: 7943 4b3d c9cf b53e e624 19be 1872 de3c
00000020: 4438 15be b09c 0437 b325 77bd 6254 dd38
00000030: 0c90 c5bc 06f3 043e 9a40 243e 671c 183e
00000040: 047f 733e fb03 82bd 492a 0ebe 43e2 943e
00000050: d88d 083e 982d a23e c396 f3b8 e685 acbd
00000060: bc9d a73d 2b57 78be cbec cb3c 796f 8cbe
00000070: de20 fd3d d5d8 09bd 85a4 9f3e a3e6 023e
00000080: 4bf9 cb3e 3ad3 1d3e 3dfc 753d 26e0 0e3e
00000090: 0c30 d23e ed20 a0bd 84d0 7b3d bc05 5b37
000000a0: 736f 18be e0bd af37 4be5 66b7 3143 8bbe
000000b0: 4f59 88be e9c8 243e f8ae 92be adc8 09be
000000c0: 1376 c23e dd5f 823e 58a0 87be 559a 42be
000000d0: 6da3 e2bd 483e d83e 1f50 3e3e afb1 fabd
000000e0: 7de4 403e 5ee1 4ebe 009f 903e aee7 50bd
000000f0: e78e 683d c5ef 4038 c4d3 1f3e 5538 b7bd
00000100: 194a 99be e417 ddbc 5329 3fb7 2c96 44be
00000110: b76b ca3d c3a1 823b d7a2 2abe 8d4a 323e
00000120: c655 d93d ba82 5337 01fc 6bbc c249 8638
00000130: e959 ee3c d07e 1b3e 3f14 41be fa89 163e
00000140: 5a28 2a3e c0b5 8ebe 7145 4bbe 9659 563e
00000150: 3c3c 9c3d 3d37 4fbd 6038 d638 5cf4 04be
00000160: 99dd 1b3e fc7b c43d 8fdd 19be 9844 74bb
00000170: 7b2b 3e3d 0dd7 9abd 3680 233e 8b89 963d
00000180: c2c3 7d3e 50d3 82be 1d6b 4bbe 4e4e 8f3d
00000190: 9d73 663e 549f ffbc a443 ed3d 2b44 77b9
000001a0: 6f9a f73d 1263 0a37 d891 8fb6 aad4 b23b
000001b0: 6582 8f3d 736b 6b3e 0de6 9abb 0223 35be
000001c0: a5ac 743e c823 7b3d 773e c7bc 3eb5 1a3d
000001d0: d6a7 2bbe 701a 823e 55bb 553e 1045 8fbe
000001e0: 2b38 2e3e 3f04 aebe 74aa 223e 72cd f93d
000001f0: 8ac2 87be dd6a 1e39 d45b 843d 6761 90be
00000200: 421a 93be fbee 81bd 055c ee35 9a65 53be
00000210: 6de7 dd3c 82a9 46bc f02a 13be 26b5 cb3d
00000220: 4bb7 40bd 0073 f235 7274 56bd 12b5 74b8
00000230: a5ce 6abc 5d07 d0bd bd41 c6bd fe01 f6bd
00000240: b9fa cc3d d443 88be bd03 a0be 2f66 303e
00000250: ed58 a4bb a0f5 bcbd 43e8 80b8 4cad 8bbe
00000260: 56c0 c9bd a9ee c73c a866 f5bd ead8 3e3e
00000270: dd1f dbbb 67c3 acbc 3aeb 923c 4a1a 02bd
00000280: 9b2f 3c3e 00fa 51be d5e7 57be dd9d 3abb
00000290: 3c76 253e 1fb0 4fbd ad3c 653d 2c22 b1b8
000002a0: 343f 11bd 8ca7 b736 4941 a0b6 6274 163e
000002b0: cc6a c43c efb3 163e f201 663e bbc5 2cbe
000002c0: 845d 2b3e 4eae 76bd bf71 1c3e 5dd0 913d
000002d0: 489f 20be d89e 433e 869b 0e3e f713 17be
000002e0: b101 8d3d 3202 1fbe 1a87 0e3e fa66 6ebd
000002f0: 8002 94be a803 9837 e239 343c 8605 47bd
00000300: 2cde bcbe acdc 13bc 3c47 15b7 96a3 8abe
00000310: af13 953d acf3 3cbe 92ae dcbd a50e 9f3d
00000320: 344f 82bb 2198 20b8 9997 01bd 60d8 fa38
00000330: e8da c23d 122a 81be 393d 46be 3ee7 5cbe
00000340: 2ad0 743e 9462 a5be c68c 91be 3437 623e
00000350: a53b 053d 62bf f9bd a442 ba36 016f b5be
00000360: f694 6bbd 2a9d 7a3d c5f3 39be d376 923d
00000370: 2320 463d 8307 183e a1a6 2ebd 5c04 953d
00000380: 9c0c 7c3d 3400 88be 6e82 16be ae2f 1a3d
00000390: 641a cc3d 4cb5 6a3c b74b c53d 81f1 16b9
000003a0: 29df a03c 2a54 2637 808c 6f36 b11c 1b3d
000003b0: 35f1 573d 7ecd a23e ae26 f03c 65e2 16be
000003c0: e68b 7a3d 87a2 efba 7a0c fd3c 89b4 b43c
000003d0: e7f2 22be 1ae4 943d b66e a73e b46d 82bc
000003e0: ce27 883e ab55 43be 85a5 2c3e da4d eebc
000003f0: 9ddf 76be 80b2 a638 ae91 d93c 08c1 933d
-0.077032596 -0.09881236 -9.452543e-06 0.3407815 0.049624894 0.3551009 -0.14955482 0.027154014
-0.14572245 7.904295e-06 -0.060338687 0.00010553819 -0.024116538 0.12983331 0.16040269 0.14854585
0.23778921 -0.063484155 -0.13883318 0.29078874 0.13335359 0.3167541 -0.000116152245 -0.084239766
0.08184382 -0.24252002 0.024893185 -0.27428797 0.123597845 -0.033654053 0.31180206 0.12783293
0.39838633 0.15412608 0.060055006 0.13952693 0.41052282 -0.0781878 0.061478153 1.3054752e-05
-0.14886265 2.0950043e-05 -1.3762455e-05 -0.271997 -0.26630637 0.16092266 -0.28649116 -0.13455458
0.37980708 0.25463763 -0.2648952 -0.19004185 -0.11066327 0.42235017 0.18585251 -0.12240922
0.18837161 -0.20203158 0.28246307 -0.051002197 0.056776907 4.599967e-05 0.15608126 -0.08946291
-0.29939345 -0.026988931 -1.1394109e-05 -0.19197911 0.09883826 0.0039865687 -0.16663681 0.17411251
0.10612063 1.2607017e-05 -0.014403344 6.4033564e-05 0.029095607 0.15185094 -0.1885538 0.14701071
0.16616955 -0.2787304 -0.19850709 0.20932612 0.07628676 -0.05058979 0.00010214816 -0.1298384
0.15221252 0.09593961 -0.15025924 -0.003727233 0.046428185 -0.07560549 0.15966877 0.07350453
0.24781707 -0.25551844 -0.19865079 0.06997357 0.2250504 -0.031203903 0.11585167 -0.0002358115
0.12090003 8.248508e-06 -4.2787105e-06 0.0054574804 0.07007293 0.22990207 -0.004727131 -0.17689136
0.23893984 0.06131342 -0.024321778 0.037770502 -0.16763243 0.25410795 0.20872243 -0.27982378
0.17013614 -0.33987615 0.15885335 0.12197389 -0.2651561 0.00015107864 0.06462827 -0.28199312
-0.2873097 -0.0634441 1.7759163e-06 -0.20644227 0.027087891 -0.012125375 -0.14371848 0.09946661
-0.0470498 1.8063874e-06 -0.052357145 -5.8342768e-05 -0.014331494 -0.101576544 -0.09680507 -0.12012099
0.10008759 -0.2661425 -0.31252852 0.1722648 -0.0050154836 -0.09226537 -6.146778e-05 -0.27280653
-0.09851138 0.024405794 -0.11982471 0.18637434 -0.006687148 -0.021089269 0.01793443 -0.031763352
0.18377535 -0.20505524 -0.2108453 -0.0028475442 0.16158384 -0.05070507 0.055966068 -8.446383e-05
-0.035460666 5.47333e-06 -4.775972e-06 0.14692834 0.023976706 0.14717077 0.2246168 -0.16872303
0.16734892 -0.060224824 0.15277766 0.0711982 -0.15685761 0.19103563 0.13926515 -0.1475371
0.06885088 -0.15528181 0.13918725 -0.058203675 -0.28908157 1.8121515e-05 0.011000128 -0.048589252
-0.36888254 -0.00902478 -8.897678e-06 -0.2707793 0.07279145 -0.18452328 -0.10775484 0.07766465
-0.003976727 -3.8288654e-05 -0.031638715 0.00011961232 0.09514409 -0.2522741 -0.19359292 -0.21572587
0.23907533 -0.32301772 -0.28427714 0.22091371 0.032527585 -0.121947065 5.55099e-06 -0.35436252
-0.057515107 0.06118504 -0.18159397 0.0715157 0.04837049 0.14846615 -0.04263938 0.07276222
0.061535463 -0.26562655 -0.14698192 0.037643127 0.09965971 0.014325451 0.09633582 -0.00014395082
0.019637661 9.913967e-06 3.5695557e-06 0.03786916 0.052720267 0.31797403 0.029315319 -0.147348
0.061168574 -0.001828269 0.030889738 0.022058742 -0.15912972 0.072700694 0.32701653 -0.015921451
0.2659287 -0.19075648 0.16860016 -0.029089857 -0.24108739 7.948745e-05 0.026558723 0.07214552

hgcn2.theta.bias f4 [6]
00000000: a6c8 27bf bca6 d33d dda9 46be c7c3 bfbe
00000010: 4067 c43f 3dca d1be
-0.6554054 0.103345364 -0.19400735 -0.37454054 1.5344009 -0.40974608
