src_new2/unigin_cocitationciteseer_hid64_2hop.pth (torch, 955915 bytes, 12 tensors)

layers.0.bn.weight f4 [64]
000000 f5 ea 81 3f c3 3b 82 3f 6b 9b 89 3f 4f 36 86 3f
       1.0149828 1.0174488 1.0750555 1.0485324
000010 c4 b1 82 3f 2b 7e 7e 3f 87 76 87 3f 1c c0 85 3f
       1.02105 0.9941127 1.0583047 1.0449252
000020 18 b0 82 3f c7 70 82 3f 2d 84 7f 3f c1 33 81 3f
       1.020999 1.0190667 0.9981106 1.0093919
000030 65 40 81 3f 19 e1 81 3f 8f 0d 7b 3f b4 6e 75 3f
       1.0097777 1.0146819 0.98067564 0.95872045
000040 a5 88 84 3f 57 23 7f 3f d0 79 80 3f 05 4e 7b 3f
       1.0354201 0.996633 1.0037174 0.98165923
000050 8e 81 85 3f 47 93 86 3f ea 44 7f 3f 49 1d 80 3f
       1.0430162 1.0513695 0.9971453 1.0008937
000060 b1 11 84 3f bf 8d 84 3f 96 6c 86 3f 70 87 84 3f
       1.0317899 1.0355757 1.0501888 1.0353832
000070 8b 67 7b 3f 5b 51 81 3f c9 cb 80 3f c7 4e 86 3f
       0.9820487 1.0102953 1.006219 1.0492791
000080 4d 1e 85 3f 70 35 7e 3f d5 2a 80 3f 93 38 88 3f
       1.0399872 0.9930029 1.0013071 1.0642265
000090 9d 70 7f 3f 97 5b 87 3f ec 26 85 3f e0 76 81 3f
       0.9978121 1.0574826 1.0402503 1.0114403
0000a0 d2 cb 79 3f 9f ac 86 3f dc 34 82 3f b2 1f 7d 3f
       0.9757663 1.052143 1.0172381 0.9887649
0000b0 d3 59 88 3f 53 c3 77 3f 27 e4 84 3f d3 04 89 3f
       1.0652412 0.96782416 1.0382127 1.0704597
0000c0 72 1a 81 3f 6b 7a 81 3f f5 96 83 3f 38 03 80 3f
       1.0086195 1.0115484 1.0280443 1.0000982
0000d0 6a 26 74 3f 44 38 79 3f ab 09 7d 3f a4 4d 80 3f
       0.95371115 0.9735148 0.9884288 1.0023694
0000e0 13 02 88 3f e9 8b 7e 3f 8f 94 85 3f ea 0c 78 3f
       1.0625633 0.99432236 1.0435961 0.96894705
0000f0 72 7b 85 3f ab 85 77 3f b8 c1 81 3f 75 2b 83 3f
       1.0428298 0.96688336 1.0137243 1.0247637

layers.0.bn.bias f4 [64]
000000 5c a3 58 3b 24 3b 33 bb 6a 7b 7a 3c b3 86 a8 ba
       0.0033056354 -0.0027348483 0.015288213 -0.0012857526
000010 42 29 24 bb 22 b4 d7 bb 0b ca 10 3d 19 64 b9 3a
       -0.0025049006 -0.006582753 0.035348933 0.0014144211
000020 93 ad 65 bb c2 49 b1 ba c1 31 c4 bb c2 65 24 3c
       -0.0035046085 -0.001352601 -0.0059873764 0.010034027
000030 dd 85 e1 bb 49 5f 7a bb 53 5f 3d 3a f4 19 f6 bb
       -0.006882413 -0.0038203767 0.0007223982 -0.007510418
000040 e2 c9 c3 bb a9 ac f7 bb ae ae c6 ba b5 af ab ba
       -0.005974994 -0.0075584245 -0.001515826 -0.001309863
000050 30 50 fc bb 47 7c d2 ba 47 ef 14 bc 71 8b c6 bb
       -0.007699989 -0.0016058766 -0.009090251 -0.006059103
000060 74 9a ae ba 77 af 2e 3b fb be b1 ba 11 7d 66 3c
       -0.0013321177 0.0026654878 -0.0013560945 0.014067904
000070 12 ec 22 3b 6e fa 83 bb f5 28 95 3b d2 a6 b9 3c
       0.0024859947 -0.0040276563 0.0045520016 0.022662554
000080 11 5b 12 bc 08 3c ce bb ab 1d b9 bb 88 a7 df 3c
       -0.008932845 -0.0062937774 -0.0056492887 0.027301565
000090 ba 4b b3 bb 40 08 9a 3c 23 9d d6 bc c9 12 b0 3a
       -0.005471674 0.018802762 -0.026197976 0.0013433333
0000a0 c8 fc 04 bb f1 69 bc 3b dc 76 32 3b d8 52 b4 b8
       -0.002029227 0.005749934 0.002723149 -8.5985e-05
0000b0 73 df 96 3b 6c bf 4e ba 55 c5 50 3b 25 43 5b 3d
       0.004604274 -0.00078868004 0.00318559 0.05353083
0000c0 44 6c 94 bb 53 6b fe 3b 88 e7 36 3b dd 7f ae bb
       -0.004529508 0.007764259 0.0027909 -0.005325301
0000d0 88 7a 52 ba 8b 7e 8b bb dc 3f a1 bb 2d fc a8 3b
       -0.0008029123 -0.0042570285 -0.0049209427 0.005157015
0000e0 97 e0 d4 3c 3a bd d1 bb 16 3a 0f b8 d3 d0 35 39
       0.025985999 -0.0064007314 -3.4147954e-05 0.00017339298
0000f0 b5 d7 32 3c 26 7b f6 39 54 71 fc 3a 62 b3 de bc
       0.010915686 0.0004701253 0.0019259849 -0.027185146

layers.0.bn.running_mean f4 [64]
000000 c0 64 8f 3a 9d 24 15 3b 6e a4 21 3b 64 77 14 3b
       0.001094006 0.002275742 0.0024664658 0.002265417
000010 8c af 03 3b 7c b1 2d 3b ce 10 d7 3a b7 ca aa 3a
       0.0020093648 0.0026503494 0.0016408206 0.0013030384
000020 d8 d1 cc 39 13 f0 eb 3a 1d 5a 50 3b ce 7d 82 3a
       0.00039066258 0.0018000625 0.0031791993 0.0009955706
000030 29 32 15 3b fd 6e cb 3a 13 01 68 b9 da 58 3f 3b
       0.0022765493 0.0015520748 -0.00022125644 0.0029197247
000040 fa 8a 21 3b 49 c7 23 3b 6e 91 40 3b 0c a3 bc 3a
       0.0024649487 0.002499061 0.0029383558 0.0014391853
000050 65 fb 50 3a 5f 34 dd 3a a4 01 2e 3b eb 5f 55 3b
       0.0007972031 0.001687657 0.002655127 0.0032558392
000060 9c 80 9b 3a 0a dd 51 3a 85 5c af 3a e2 de 9f 38
       0.001186389 0.00080056547 0.0013379013 7.623226e-05
000070 dd af af ba e8 e5 b3 3a d6 68 27 3b 1e 9d 90 3b
       -0.0013403852 0.0013725134 0.0025544665 0.004413261
000080 9c 69 b1 3a 62 e8 37 3b c9 8d 47 3b c0 94 ea 3a
       0.0013535502 0.0028062095 0.00304495 0.0017897114
000090 96 4c 25 3b f2 81 07 3b 60 0b 6b 3a e4 2e e9 3a
       0.002522265 0.0020676819 0.00089662336 0.0017790464
0000a0 da 65 24 3a 64 74 2a 3a e0 a2 4e 3a b5 cb 23 3a
       0.00062712806 0.0006502329 0.00078825466 0.0006248311
0000b0 a6 50 be 3a 78 f0 7e ba 51 1e 0c 3b 2d 36 70 3a
       0.0014519885 -0.00097251637 0.0021380375 0.0009163346
0000c0 84 16 2b 3a 2f 82 6c 3a a7 da 77 3a a8 47 34 3b
       0.00065264874 0.00090220844 0.0009454884 0.002750853
0000d0 f6 f2 7a b9 72 c3 4f 3a 64 97 a5 3a 56 b3 14 ba
       -0.00023932368 0.0007925547 0.0012633619 -0.0005672475
0000e0 62 2c e4 3a 48 9f 4a 3b 83 cf d2 3a c3 ad af ba
       0.0017408247 0.0030917693 0.0016083572 -0.0013403225
0000f0 60 d4 22 3b 87 36 bb ba f7 ca 6d 3a 2c 4e a4 3a
       0.0024845824 -0.0014283218 0.00090710766 0.0012535504

layers.0.bn.running_var f4 [64]
000000 75 5d b5 37 e4 f0 ba 37 60 43 ce 37 ea 2d c3 37
       2.16204e-05 2.2285101e-05 2.4588488e-05 2.3267192e-05
000010 0c d6 c1 37 32 ad 9d 37 92 25 d3 37 ab fc cc 37
       2.3107066e-05 1.8796509e-05 2.5170655e-05 2.4436353e-05
000020 b5 b8 b8 37 c5 c6 bb 37 32 0f 9e 37 68 be cb 37
       2.202052e-05 2.2384696e-05 1.8842144e-05 2.428815e-05
000030 c2 1f bf 37 11 ea b3 37 9d 4d a0 37 89 20 9e 37
       2.2783763e-05 2.1447458e-05 1.9109628e-05 1.8850218e-05
000040 aa ae a9 37 88 cd a8 37 69 63 d4 37 a3 03 b3 37
       2.0227704e-05 2.0122869e-05 2.531866e-05 2.1340156e-05
000050 d5 be c3 37 4a 8e c1 37 02 3c a3 37 70 80 a1 37
       2.3334675e-05 2.3073651e-05 1.9459058e-05 1.9252504e-05
000060 6e da c1 37 f3 6b c1 37 49 3f c1 37 51 69 d4 37
       2.3109107e-05 2.305766e-05 2.3036862e-05 2.5321411e-05
000070 23 fc a5 37 4a 93 c4 37 e4 1d c8 37 11 03 03 38
       1.9786943e-05 2.3433608e-05 2.3855777e-05 3.123569e-05
000080 12 b0 bc 37 92 65 98 37 20 3f a1 37 a3 bf de 37
       2.2493336e-05 1.816711e-05 1.922209e-05 2.65537e-05
000090 37 fa a2 37 78 00 cc 37 4e ea bd 37 97 31 de 37
       1.942842e-05 2.4318913e-05 2.2639662e-05 2.6487554e-05
0000a0 8e 50 a7 37 d4 3e c7 37 d8 86 c4 37 9b 2e af 37
       1.9945463e-05 2.3751905e-05 2.3427812e-05 2.0883328e-05
0000b0 74 ff da 37 84 c4 c2 37 0c 2a c7 37 68 ed ca 37
       2.610658e-05 2.3218112e-05 2.3742228e-05 2.4190827e-05
0000c0 a7 f9 e6 37 be 02 c4 37 52 6f ba 37 39 15 a4 37
       2.753439e-05 2.3366298e-05 2.2224765e-05 1.9560206e-05
0000d0 23 67 a0 37 4b 69 aa 37 4e ff ca 37 ba be e4 37
       1.9121513e-05 2.031461e-05 2.4199162e-05 2.7268532e-05
0000e0 24 76 d7 37 92 57 96 37 06 75 c4 37 03 d2 ae 37
       2.568501e-05 1.7922172e-05 2.3419514e-05 2.084021e-05
0000f0 23 92 d0 37 2b 35 a5 37 b1 a4 c6 37 5f 37 bd 37
       2.4863582e-05 1.9694291e-05 2.368013e-05 2.255634e-05

layers.0.theta.weight f4 [64, 3703]
000000 cb 33 68 3c 39 57 b6 b9 ca 82 ca 3b 5f 70 d4 bc
       0.014172505 -0.0003477873 0.006180142 -0.025932489
000010 cd 91 94 3b dd 82 b9 3b ed 0e ad bc d3 cd 53 3b
       0.0045339824 0.005661352 -0.021125281 0.0032318726
000020 f6 37 63 3c 17 2f d8 3b 39 6f 31 bb c8 fc 09 3c
       0.013868323 0.0065974104 -0.002707435 0.008422084
000030 33 3b 41 bc 3d 66 b8 bc 07 6f 13 bc 72 4c 04 3c
       -0.011793899 -0.022509689 -0.008998639 0.008074867
000040 1d 2e 99 bc 03 e9 5f 3c 64 e2 99 ba b8 8f c5 3c
       -0.018698746 0.013666394 -0.0011740443 0.024116382
000050 dd 5d 24 3c 4b e1 6d bc 19 b1 01 3b 84 11 54 3c
       0.010032144 -0.014519046 0.0019789396 0.012943629
000060 2b 61 22 3d 53 15 2a bc 4c 82 e6 3c 66 14 af 3c
       0.039643448 -0.010381061 0.028138302 0.021372031
000070 cc 0f 36 bc a6 e5 0a 3c 8c 62 2d 3c 33 07 af bc
       -0.011112165 0.008477604 0.010582577 -0.021365738
000080 c4 2a 83 bb 47 83 d0 3c 53 e8 82 3c a8 cc 29 3b
       -0.004002901 0.025453223 0.015979921 0.0025909338
000090 be e0 9f 3b 1d 86 17 bc 6f 78 5d 3c 28 52 68 bb
       0.0048790863 -0.009248284 0.013517483 -0.003544936
0000a0 75 c3 a3 3c 6f af 26 3c ce c6 72 3c 56 5b 53 bc
       0.019990662 0.010173663 0.014817907 -0.012900194
0000b0 70 e2 8c 3c 5c b2 bf bc b5 4f bf 3b e6 42 3f bc
       0.017197818 -0.023400478 0.0058383592 -0.011673665
0000c0 63 95 b1 3c 93 14 0e 3c 36 dd 56 3b 52 96 a3 bb
       0.021677678 0.008671897 0.003278566 -0.004992285
0000d0 f6 20 44 bc 8e b1 48 bc 8a 82 73 38 54 3b 7e bc
       -0.011970749 -0.012249364 5.805729e-05 -0.015517075
0000e0 4b 74 1b 3d 16 8e aa bc 94 db 0e 3c 7a 24 82 bb
       0.037952702 -0.020819705 0.008719344 -0.0039716335
0000f0 74 4f 98 3a f9 3a 38 3c 58 32 76 3c 85 96 91 3c
       0.0011620359 0.011244529 0.015026651 0.017771969
000100 60 e5 02 bc 71 c5 93 bc 24 cb 17 bb 4f 38 54 bc
       -0.007989258 -0.018038483 -0.0023161853 -0.012952878
000110 ca 14 fa bb 78 5f 52 3c f5 54 57 3c 1e fb 90 3c
       -0.007631873 0.012840144 0.013142814 0.017697867
000120 f4 5b 10 3b 98 07 ae bc c8 33 86 3c 83 3c 1f bc
       0.0022027465 -0.021243855 0.016382113 -0.009719017
000130 6e 11 8f 3c af 52 b1 bc cc 34 47 3b 29 c1 34 ba
       0.017464366 -0.021645872 0.003039646 -0.0006895238
000140 6d 1b 1f ba fc 61 84 bc af d9 13 3c e9 2f a9 3a
       -0.00060694554 -0.016160004 0.009024068 0.0012907955
000150 61 ee 8b 3c 29 0e 79 bc 8a b3 34 3b 86 11 c0 3c
       0.017081441 -0.01520113 0.0027572834 0.023445856
000160 7b db b9 bc c9 28 96 bc 0a 4d 97 bb 02 24 cb bc
       -0.022687664 -0.018329995 -0.004617338 -0.024797443
000170 7c 09 a1 3c d4 00 74 bc 1f ba 08 b8 e4 b5 07 bb
       0.019657843 -0.014892776 -3.2598266e-05 -0.002070778
000180 d0 0d 84 3c 30 54 46 3c 62 9c 65 bc 34 c4 78 ba
       0.016119868 0.012105033 -0.014014335 -0.0009489686
000190 82 fb a3 39 1b 40 7b 3c db a4 8d 3c d4 07 5e bc
       0.0003127717 0.015335108 0.017290523 -0.013551671
0001a0 04 b7 ef 3c 44 d4 3a 3b 3c 0d cf ba f3 b2 3d bb
       0.029262073 0.0028507868 -0.0015796791 -0.0028945773
0001b0 3a bb ad bb bb 12 96 3c 8a 50 73 3c ba 14 8d 3c
       -0.00530186 0.018319478 0.014850745 0.017221797
0001c0 8c 86 94 bc 20 85 2e ba 10 29 89 3b 33 a6 af 39
       -0.018130563 -0.00066574104 0.0041858032 0.0003350243
0001d0 40 55 b0 bc eb 76 85 bc 9b 87 98 3c b3 0e a1 bc
       -0.021525025 -0.016292056 0.01861935 -0.01966033
0001e0 b5 ad c7 b9 74 63 ab 3c 52 13 69 bc 2d ee f1 3b
       -0.0003808566 0.020921446 -0.014225798 0.007383129
0001f0 a4 20 ad bb 44 00 04 3c 0b b6 a9 bc 34 be 94 bc
       -0.005283432 0.008056704 -0.020716688 -0.018157102
000200 26 30 68 bc b3 e9 c5 bc 87 1f 85 bc a4 af 0b 3b
       -0.014171636 -0.024159288 -0.016250385 0.0021314407
000210 60 0e 11 bc 59 11 8e 3b ec 9d a7 bb 79 51 1f bc
       -0.008853525 0.004335564 -0.0051152613 -0.009724014
000220 9b 58 df ba ae 5f c1 3c ce 88 4f bc 6f 93 96 bc
       -0.0017039956 0.023605194 -0.012666894 -0.018380849
000230 92 45 0a bc 72 1b 07 ba e5 8c 70 bc 1c 00 7e bc
       -0.008439438 -0.0005153931 -0.014682029 -0.015502956
000240 9e 08 62 bb a4 93 62 bc da 7f bd bc a2 85 8b 3c
       -0.003449 -0.013829146 -0.023132253 0.017031495
000250 2c a8 28 3d d8 19 91 bb 2f 66 c9 bc 83 38 c2 3c
       0.041176006 -0.0044281296 -0.024584858 0.023708588
000260 2f ee 30 bc 98 1d 26 3b 8d 31 a2 bc 01 36 c8 3a
       -0.010798975 0.002534723 -0.019799018 0.0015274883
000270 95 64 74 3c db 06 68 3c 2f 43 3e bc e1 e3 a2 3a
       0.014916559 0.014161791 -0.0116126975 0.0012427532
000280 8b 11 d4 3b 09 00 f5 3c da 4b fa b9 1b 66 26 bc
       0.006471818 0.029907243 -0.0004774023 -0.01015618
000290 b4 bd 43 ba 7c 75 dc 3b ff 1b 58 bb e2 51 9d 3c
       -0.00074669276 0.0067278724 -0.0032975671 0.019204084
0002a0 d4 d2 c5 3b 81 83 1b 3c f0 77 86 3c 1e 22 fc bb
       0.0060370956 0.009491802 0.016414613 -0.007694497
0002b0 67 75 0a 3d 59 39 8c bc 7b 69 22 3c 47 c3 8a 3c
       0.03380337 -0.01711719 0.009912844 0.016938819
0002c0 95 35 2c 3c 5a 92 ed 3b 65 87 07 3c a0 04 c1 bc
       0.010510822 0.0072501125 0.008272027 -0.023561776
0002d0 58 ba e4 bc b3 18 84 3c df 46 37 3b ee 5b d3 bc
       -0.027920887 0.016125059 0.0027965826 -0.025800671
0002e0 1a dc f8 bc 6f e4 b8 3a 37 05 58 bc 75 38 2c 3c
       -0.03037839 0.0014106164 -0.013184837 0.010511507
0002f0 c9 18 56 bc e4 e2 be bc ed d2 bf 3c b3 48 e6 3c
       -0.013067433 -0.02330155 0.023416007 0.028110838
000300 bc 46 ac bc 23 ad 2f 3c c7 89 73 bc e7 8d 35 bc
       -0.021029823 0.010722431 -0.014864392 -0.011081195
000310 b9 39 38 3b 7d 9a c2 bc ec 2f 6a bd ad 3f e6 3c
       0.0028110577 -0.023755306 -0.057174608 0.028106535
000320 5a b1 00 bc 7d 92 91 bc ad cc 1d bb 9c 32 46 38
       -0.007854784 -0.017770046 -0.0024078295 4.7254012e-05
000330 2a 6e ca bb ad 67 38 bc 45 b5 9b 3b 2f 84 08 bc
       -0.0061776834 -0.011255187 0.0047518336 -0.008332296
000340 6a 5a b8 3b 85 0c 9f bc cf 24 89 3b ba 5c fd bb
       0.0056260126 -0.01941515 0.004185296 -0.007732001
000350 36 2c fa 3c 85 f1 27 3a be fd c9 bc 56 65 b9 3b
       0.03053866 0.00064065336 -0.024657127 0.005657832
000360 18 ae 96 bc d6 87 4d 3c 31 af cf 3c 18 9e 5e bb
       -0.018393561 0.012544593 0.025352092 -0.0033968743
000370 0d 72 85 3a 9c 20 85 3c c6 89 d1 3b dc e0 8a 3c
       0.0010181085 0.0162509 0.0063945977 0.016952924
000380 48 ac 63 3b 05 06 a1 bc 8a 24 6c 3c d0 7f 62 bb
       0.0034740139 -0.01965619 0.0144130085 -0.0034561045
000390 d4 f9 20 3c 5a 79 26 ba b9 57 9b 3b 21 62 18 3c
       0.009825189 -0.000635048 0.004740682 0.0093007395
0003a0 5b fc a3 bb e9 96 31 3c a0 6b 90 bc 1a 5f 11 bd
       -0.0050044484 0.010839202 -0.017629445 -0.035491087
0003b0 89 f1 b7 3c 47 15 ac bc f6 9f 49 3c 3a 44 82 3c
       0.02245404 -0.02100624 0.012306204 0.015901674
0003c0 a9 9b 12 3c dc dc d4 3c 49 5d 3d 3d 02 98 7b bb
       0.008948245 0.02598422 0.04623154 -0.0038390164
0003d0 f0 27 c7 3b 71 0d 8a 3b 84 99 fe 3c 71 a7 13 bc
       0.006077759 0.004213028 0.031079061 -0.009012089
0003e0 dd e6 6c bc c4 3a 10 3c 0c f6 a4 b8 df 93 02 bc
       -0.014459339 0.008803073 -7.865959e-05 -0.0079698255
0003f0 16 e2 a4 3c a0 51 b1 bb 39 b0 6f 3c da 2b 05 3b
       0.020127337 -0.005411342 0.014629417 0.0020320327

layers.0.theta.bias f4 [64]
000000 84 16 c0 37 70 82 a4 38 30 78 6a 38 fd 33 00 b9
       2.2898668e-05 7.844425e-05 5.590188e-05 -0.00012226398
000010 aa f7 52 b8 9e 66 e5 37 b8 59 26 b7 58 13 cc 38
       -5.0298557e-05 2.7346712e-05 -9.91526e-06 9.731081e-05
000020 c0 f1 3d b8 c8 cc 95 b7 a0 3e fe 38 d7 ef c5 b9
       -4.528626e-05 -1.7857543e-05 0.000121233286 -0.00037753463
000030 70 e4 aa 38 55 bb 72 37 06 9e b9 39 06 1a 43 38
       8.1487815e-05 1.4467941e-05 0.00035403686 4.651586e-05
000040 78 aa 41 38 da 1c 09 b7 69 3c 45 38 ea b1 ff 37
       4.6173547e-05 -8.172554e-06 4.702472e-05 3.0481217e-05
000050 0a 5c 83 b8 58 5c a0 38 02 65 ec b7 c5 83 aa b8
       -6.2637104e-05 7.646595e-05 -2.8180428e-05 -8.130776e-05
000060 e1 a1 00 39 46 c1 3f 38 05 bc b6 38 a1 a1 17 3a
       0.00012267336 4.571795e-05 8.713458e-05 0.00057842775
000070 ae 73 8d 39 0d 1a b2 b7 53 f3 9e 38 13 5c a1 38
       0.00026979804 -2.1231384e-05 7.57935e-05 7.6942284e-05
000080 b0 73 b5 35 0c c1 d8 b8 57 b6 2b b7 de 9d 29 b9
       1.351922e-06 -0.000103356404 -1.0234849e-05 -0.00016175906
000090 75 22 9d 36 3a f4 3b 38 5e 3f 25 b8 a8 f0 8f b8
       4.682976e-06 4.4811728e-05 -3.939808e-05 -6.863597e-05
0000a0 21 f4 fc b8 d2 dc d7 b6 78 f4 9c b8 f1 78 b2 38
       -0.00012061769 -6.433206e-06 -7.4841955e-05 8.5102285e-05
0000b0 dd 72 3a 38 1a 01 ac b9 96 ef e3 b6 08 25 ef b7
       4.445283e-05 -0.00032807217 -6.7930187e-06 -2.8508264e-05
0000c0 ea 88 6c 38 8a bd 86 38 5c 7c ea 37 b9 72 ee b7
       5.6394296e-05 6.424922e-05 2.7952883e-05 -2.8425233e-05
0000d0 aa 6a 2a 39 a6 65 0d b7 0e 55 82 38 48 7e d4 b5
       0.00016252199 -8.427922e-06 6.214726e-05 -1.5831984e-06
0000e0 8c 61 46 b8 50 60 73 37 87 7c a5 b8 68 2f 18 ba
       -4.7297726e-05 1.4506353e-05 -7.891008e-05 -0.0005805404
0000f0 35 23 90 b8 1b 30 fc b8 20 aa a0 37 0d 00 0f b9
       -6.873013e-05 -0.00012025257 1.9152707e-05 -0.00013637562

layers.1.bn.weight f4 [6]
000000 0e e8 8a 3f 06 59 8a 3f 3a e9 84 3f a9 11 85 3f
       1.0852067 1.0808418 1.0383675 1.0396014
000010 c2 4c 82 3f af 31 80 3f
       1.0179675 1.0015162

layers.1.bn.bias f4 [6]
000000 08 6e 8a 3d e3 b3 0c 3c cb 7d 24 bd 43 db 82 3d
       0.06759268 0.00858781 -0.040159028 0.06389477
000010 4d fe 7c 3d 6a d5 a4 bd
       0.061765958 -0.08048518

layers.1.bn.running_mean f4 [6]
000000 da 2b 9b 3d ae cd 86 3e a2 1a c9 3e e6 94 06 be
       0.075767234 0.26328796 0.39278132 -0.13142738
000010 ab c3 86 be 14 0c 1f 3e
       -0.26321158 0.15531951

layers.1.bn.running_var f4 [6]
000000 2e 9d 5a 3f be b8 5b 3f 2c b0 87 3f d4 3c 71 3f
       0.8539609 0.8582877 1.0600638 0.9423344
000010 f8 da b0 3f 97 36 49 3f
       1.3816824 0.7859892

layers.1.theta.weight f4 [6, 64]
000000 cb b1 2e 3d e7 d6 b6 3d 58 c0 a0 3b 46 5e 1f be
       0.042650025 0.08927708 0.0049057417 -0.15563306
000010 7c 15 fb 3d d3 ea 13 bd 46 4e ee 3d 2a ea c4 bd
       0.12259957 -0.036112618 0.11636023 -0.09614976
000020 49 76 90 bd 52 10 90 bd 16 7c fc 3c bd 4d c9 3d
       -0.07053811 -0.07034363 0.030820888 0.098292805
000030 78 11 d1 3d f9 26 e5 3d ff 3e 10 bd 79 7c 10 be
       0.1020841 0.11189074 -0.035216328 -0.14109983
000040 54 7f c5 3d 64 97 a7 bd 39 14 ad 3d d5 e8 eb 3b
       0.096434265 -0.08183172 0.08451123 0.0071993866
000050 ae ad c1 bd c8 80 e3 bd 6c f8 d6 bd 75 eb 96 bd
       -0.09456955 -0.111085474 -0.104966015 -0.073691286
000060 f3 b7 05 be 64 7f 98 3c a0 21 c1 3a af a6 71 3d
       -0.13058452 0.018615432 0.0014734752 0.058996852
000070 ca 0b ae 3c 2c 52 2f 3c d0 09 bf 3d fb 1d 34 bc
       0.021245856 0.010700744 0.093280435 -0.010993476
000080 91 41 e2 bd 62 61 bd 3d 76 08 23 bd 53 0f c4 bd
       -0.11047662 0.0924709 -0.03980299 -0.09573235
000090 f8 b4 0f 3e 4d 21 a2 bd 85 10 df bd 88 25 65 bd
       0.14033878 -0.07916508 -0.10891823 -0.055943996
0000a0 e9 18 ff 3c 11 95 b1 bd 2c f8 cc 3d e0 fd 30 ba
       0.031139808 -0.0867101 0.100082725 -0.00067516975
0000b0 02 53 3e bd 2f 34 3d 3c e1 4e 0c 3e 4b 10 01 3e
       -0.04646588 0.011548086 0.13701965 0.12603872
0000c0 fd 81 d5 bc 03 ec 7a bd 6b d1 38 3d 97 01 a3 bc
       -0.02606296 -0.061260235 0.04512159 -0.019898219
0000d0 8f e9 91 bd 5b b9 59 3d d2 c7 21 3d d5 a3 31 3d
       -0.07124626 0.053155284 0.039497204 0.043369133
0000e0 70 1c 72 bd 2a 31 c9 bc d9 16 b4 3d 95 f0 ad bd
       -0.05910915 -0.024559576 0.0879342 -0.08493153
0000f0 23 57 f1 3c eb f1 1b bc 81 ff f1 3d 74 48 22 3e
       0.029460495 -0.009518127 0.11816312 0.15847951
000100 d3 9b 8b bd 4c a2 f5 3d 6b 1d 0f 3e f1 7d 09 3d
       -0.068168305 0.11993846 0.13976066 0.033567373
000110 29 ca 93 bd 15 17 00 3d 18 55 cd 3c 64 6b a5 bd
       -0.07216293 0.031272013 0.02506499 -0.08077124
000120 39 26 e6 3d 7c 4e 15 3a 6e 76 45 3c ee 2e 47 bc
       0.11237759 0.0005695594 0.012052162 -0.012157185
000130 ba fa d9 bd f9 a3 13 be 73 26 3e 3d b3 ca 3e bd
       -0.106435254 -0.1441802 0.046423387 -0.046580028
000140 7a 32 13 3a 21 a9 f1 3d 9a 4e 25 3d fe f5 79 3d
       0.00056151266 0.11799837 0.040358163 0.061025612
000150 9a 02 e5 bd 25 d7 18 bd b8 01 57 bd 98 30 f1 bb
       -0.11182137 -0.037314553 -0.052491874 -0.007360529
000160 f9 3d c4 bd 78 5c 0a 3e fe 93 d3 bd 7c e6 18 bc
       -0.09582133 0.13511837 -0.10330962 -0.0093322955
000170 14 ca 1a bc 3e 4b b5 bc dc 75 0e 3b ac a0 b3 bd
       -0.009447593 -0.022130605 0.002173773 -0.0877088
000180 a6 29 b8 bd 4e b2 08 3c bd c9 aa 3d 1f 18 e3 3d
       -0.08992319 0.008343292 0.0833926 0.11088585
000190 2a 6f c0 3d 64 f2 0a 3e dd 02 1a 3e 78 87 9e 3d
       0.09396203 0.13569027 0.15040155 0.07740682
0001a0 2e 2b fb 3c a9 4c 4b 3c 3f ee b4 bd 8f 33 8e 3d
       0.030660238 0.012408414 -0.08834504 0.06943428
0001b0 f2 4e f5 3d 1a 72 9e 3d 4a 03 d9 3d 1f b3 59 bd
       0.11977948 0.07736607 0.105963305 -0.05314934
0001c0 f0 53 6b bd 37 70 74 3c 9e 89 cd bd 41 3b 29 bd
       -0.057453096 0.014919332 -0.10036014 -0.041316275
0001d0 fd 3d 47 bd 5c ae af bc 49 24 0a 3e 17 e4 04 bd
       -0.0486431 -0.021445446 0.13490404 -0.032444086
0001e0 11 2d d9 3d 5b 62 8d 3b 78 75 0e bd 44 e2 72 3d
       0.10604299 0.0043147034 -0.034779996 0.059297815
0001f0 de 9b 80 bd b8 4d 21 bd a2 d5 e1 3d dc b0 ad bc
       -0.06279729 -0.03938076 0.11027075 -0.021202497
000200 1a 69 04 3e f9 47 a7 bd 62 e7 f0 3d d0 1f 9d bd
       0.12930718 -0.081680246 0.11762883 -0.076720834
000210 ba 40 1d bd 23 39 ba 3c 1d 1b 0b 3c 00 28 8b 3d
       -0.038391806 0.022732323 0.008490351 0.06794739
000220 4f a0 20 bd f6 a2 af 3d 21 e2 b3 bb 81 f7 2d 3e
       -0.039215382 0.08576004 -0.005489603 0.16988946
000230 84 96 93 bd 69 5c 90 3d 81 0b a5 ba 6b 2d ab 3c
       -0.07206443 0.07048876 -0.0012591929 0.02089568
000240 62 de 23 3e 87 77 e7 3d 32 09 9e bd 78 2c 9d bd
       0.16002801 0.11302095 -0.077165976 -0.07674497
000250 7c ba b9 3c df f7 86 3c 62 08 7f bd 45 bc 23 3d
       0.02267193 0.016475616 -0.062263854 0.03997447
000260 b0 b4 13 3e 86 98 10 3e 34 cf 71 bd 75 d3 ed bd
       0.14424396 0.14120683 -0.059035495 -0.11612598
000270 a3 82 42 bd 0f 96 d8 3d db 0f 07 3e 28 d7 12 3e
       -0.047487866 0.105754964 0.13189642 0.14339888
000280 96 cb 01 be 78 88 cd 3c 22 da 8f 3c 23 07 06 3d
       -0.12675318 0.025089487 0.017560069 0.03272165
000290 84 6b 95 3d a2 b2 ab 3d 70 df 11 bd 00 0d b0 bd
       0.072958976 0.08383681 -0.035613477 -0.085962296
0002a0 99 fa a5 bd 77 ce e4 bd 39 db ab 3c f8 9e d8 bd
       -0.08104438 -0.111721925 0.020978557 -0.10577196
0002b0 f3 6c 32 3e af e4 5c 3d c0 05 9c bd a6 9c c0 3d
       0.17424373 0.053929027 -0.07618284 0.09404878
0002c0 17 78 e0 3d 31 6e 8f 3b 12 ad cd bd e9 0f d3 3d
       0.10960405 0.0043771495 -0.10042776 0.10305769
0002d0 23 16 30 bd 33 2e 1c 3d e1 e3 8f 3c 01 d5 3d 3d
       -0.04298986 0.038129997 0.017564716 0.046345714
0002e0 bc b0 25 3d 70 2c 39 3d a4 6b 14 3c 3f 0b 06 bb
       0.04045175 0.045208395 0.009058867 -0.002045348
0002f0 47 cb 21 3e 18 24 b6 bd 78 07 02 be af c0 21 3c
       0.158002 -0.08893603 -0.12698162 0.0098725995
000300 ee ad 5b 3d a3 5d 12 3e a1 28 9b bd 44 d4 9f 3c
       0.05363267 0.14293532 -0.07576109 0.019510396
000310 c0 1f c1 3d 08 a8 10 be f9 8c d8 bd 7c 71 e1 bd
       0.09429884 -0.14126599 -0.105737634 -0.110079736
000320 b7 2d df bd 2e c6 08 be 16 45 0d 3e 00 4b 8f 3d
       -0.10897391 -0.1335685 0.13795885 0.06996727
000330 5b 67 f9 bc f2 04 c3 bd d9 9d 3a 3d 72 a3 b3 bd
       -0.030444792 -0.095224276 0.04556069 -0.08771409
000340 ea 1c a5 3c f9 32 ab bd 47 c2 8d bc 29 f9 06 bd
       0.020155389 -0.08359332 -0.017304553 -0.03295246
000350 8f 27 01 be d8 ed 17 3e 1c f1 c2 3d b3 9b e8 bd
       -0.12612747 0.14836824 0.09518644 -0.11357822
000360 55 72 0a 3d 00 f4 d8 bd b0 c3 85 3b 59 20 81 bd
       0.03380044 -0.10593414 0.0040821657 -0.06304998
000370 59 66 f7 bb 40 2c cf bb 55 38 f5 bd c5 75 b5 3c
       -0.0075500426 -0.0063224137 -0.11973635 0.022150883
000380 c6 a6 28 3e 34 3b 05 bd 8e 8d 63 3d c7 53 01 3e
       0.16469869 -0.032527164 0.05555492 0.12629615
000390 d0 6b b0 bd 70 60 11 3e 0b bf 90 bd 99 d5 ac 3d
       -0.086143136 0.14196944 -0.070676886 0.08439178
0003a0 53 f7 7b 3d fa 90 62 bd a9 e8 fc bd bc bc 3c bc
       0.061515164 -0.05531404 -0.12349064 -0.011519607
0003b0 75 0d 96 bd 56 39 b3 3c 27 f6 dc bd 92 ae d8 3d
       -0.073267855 0.021877926 -0.10789137 0.10580172
0003c0 c9 4b a0 bd f0 1d e6 3d e0 52 b4 3d 08 8a 0d 3d
       -0.07826955 0.11236179 0.0880487 0.034555465
0003d0 8b 8e 8a b9 db f0 db 3d 5f 84 82 bd fb fd 1d bd
       -0.00026427614 0.10739299 -0.06372904 -0.038572293
0003e0 de ae cb 3c 9c aa 9d bd 08 56 17 be cf 6e 79 3d
       0.024863657 -0.07698557 -0.14778912 0.06089669
0003f0 f8 7d 04 bd eb 93 08 3d df 5b 9e bc 5a f7 56 bc
       -0.032346696 0.03334419 -0.019330917 -0.013120497

layers.1.theta.bias f4 [6]
000000 99 ae 85 b6 7a 7e 1a 37 c8 5b 82 38 31 11 a4 37
       -3.9840347e-06 9.208563e-06 6.215979e-05 1.9558329e-05
000010 46 e7 58 3b 30 19 0b ba
       0.0033096834 -0.00053061824
