src_new2/unigin_coauthorcora_hid64_0104.pth (torch, 374955 bytes, 12 tensors)

layers.0.bn.weight f4 [64]
0.6608193 0.61872053 0.5994668 0.7085241 0.69763 0.5044635 0.67356926 0.5334157
0.67035735 0.70049554 0.62552446 0.7381273 0.600832 0.54799104 0.5811139 0.64988834
0.6988029 0.6550746 0.5652076 0.62939954 0.6010083 0.60537535 0.74654835 0.5807726
0.71958345 0.6649784 0.6086002 0.66953224 0.60607356 0.64296055 0.578568 0.6748896
0.65269226 0.6338992 0.6780823 0.6917562 0.7002571 0.6846523 0.7067113 0.56566864
0.7090167 0.7285113 0.6777634 0.64259696 0.6302457 0.57463384 0.5710186 0.65260285
0.5837369 0.61304665 0.57700115 0.55047965 0.68361896 0.68480027 0.6812059 0.66744566
0.70966184 0.5862069 0.58590937 0.5682715 0.5497953 0.6850038 0.39208603 0.41936746
00000000: 742b 293f 7864 1e3f a876 193f d661 353f
00000010: e197 323f 8524 013f 096f 2c3f ee8d 083f
00000020: 8a9c 2b3f ad53 333f 5f22 203f e9f5 3c3f
00000030: 20d0 193f 2449 0c3f e1c3 143f 155f 263f
00000040: bfe4 323f f8b2 273f 72b1 103f 5420 213f
00000050: aedb 193f e1f9 1a3f cb1d 3f3f 83ad 143f
00000060: 9f36 383f 063c 2a3f 39cd 1b3f 7766 2b3f
00000070: a327 1b3f 1099 243f 081d 143f 91c5 2c3f
00000080: d716 273f 3847 223f cd96 2d3f ef16 313f
00000090: 0d44 333f 6045 2f3f 08eb 343f a9cf 103f
000000a0: 1e82 353f b77f 3a3f e781 2d3f 3c81 243f
000000b0: c857 213f 341b 133f 462e 123f fb10 273f
000000c0: c86f 153f a0f0 1c3f 59b6 133f 3cec 0c3f
000000d0: a701 2f3f 124f 2f3f 8363 2e3f b8dd 2a3f
000000e0: 66ac 353f a811 163f 28fe 153f 3e7a 113f
000000f0: 63bf 0c3f 695c 2f3f 80bf c83e 55b7 d63e

layers.0.bn.bias f4 [64]
-0.3113052 -0.1836109 -0.3487708 -0.056471076 -0.27336586 -0.1312535 -0.09961827 -0.18405536
-0.25917402 -0.38131112 -0.18953073 -0.2894859 -0.22314836 -0.11409848 -0.173444 -0.22124842
-0.17035176 -0.16590512 -0.13766095 -0.22603208 -0.1825967 -0.10044418 -0.12890689 -0.15405175
-0.31091094 -0.24458684 -0.2667832 -0.3235878 -0.10615672 -0.25383627 -0.20482108 -0.14378193
-0.2026313 -0.212411 -0.2654483 -0.14621603 -0.3192083 -0.17613152 -0.18358831 -0.2613913
-0.24020658 -0.29695523 -0.21173751 -0.34038925 -0.20996596 -0.19455506 -0.08923493 -0.19114694
-0.22772671 -0.19291185 -0.20839988 -0.32553107 -0.28875744 -0.18158476 -0.25805393 -0.15299004
-0.19317366 -0.37300694 -0.18667714 -0.110868774 -0.1005686 -0.26469758 -0.1615968 -0.094002046
00000000: 6563 9fbe 7f04 3cbe 1692 b2be 374e 67bd
00000010: 9cf6 8bbe 5167 06be aa04 ccbd 0279 3cbe
00000020: 75b2 84be 363b c3be 5814 42be 7f37 94be
00000030: 0181 64be 77ac e9bd 4e9b 31be f28e 62be
00000040: b170 2ebe 08e3 29be fef6 0cbe f474 67be
00000050: a1fa 3abe aeb5 cdbd 2b00 04be bebf 1dbe
00000060: b82f 9fbe f974 7abe cf97 88be 4dad a5be
00000070: b268 d9bd d4f6 81be 9ebc 51be 923b 13be
00000080: 947e 4fbe 4582 59be d7e8 87be a8b9 15be
00000090: 456f a3be d25b 34be 93fe 3bbe 15d5 85be
000000a0: b7f8 75be 840a 98be b8d1 58be 8047 aebe
000000b0: 5101 57be 7139 47be cec0 b6bd 06bc 43be
000000c0: 3131 69be af8a 45be c766 55be 02ac a6be
000000d0: 04d8 93be 5bf1 39be a51f 84be 6ca9 1cbe
000000e0: 51cf 45be c4fa bebe 4b28 3fbe 2b0f e3bd
000000f0: e9f6 cdbd 7186 87be a279 25be 2584 c0bd

layers.0.bn.running_mean f4 [64]
0.0017229739 0.015477401 0.0053490414 0.0032974642 0.004999784 0.0033984748 0.001709531 0.0057866494
0.005149318 0.0031731569 0.0055686953 0.0047217067 0.0022623949 0.0031775534 0.005854648 0.0064665005
0.004711564 0.0041851345 0.0036035199 0.0067958357 0.0035488938 0.0049897986 0.0027854538 0.00014295998
0.004508277 0.0069727963 0.0017827029 0.003251845 0.0035159742 0.005549533 0.008886782 0.0012866997
0.0024589906 0.00364626 0.0058244932 0.0023715412 0.0070068585 0.0029557617 -0.0003717951 0.001674422
0.0038830887 0.007542709 -0.00041639598 0.00490323 0.0027494992 0.0020498282 0.005896364 0.0041662506
0.009923974 0.0037787003 0.00042831525 0.0060087014 0.0046124244 0.008377764 0.0032768087 0.009785846
0.0066374987 0.009313622 0.0035693282 0.006540512 0.0075482116 0.004287587 -0.0011186462 0.0013758944
00000000: 69d5 e13a ed94 7d3c 0347 af3b 451a 583b
00000010: 3ad5 a33b f2b8 5e3b 5712 e03a ef9d bd3b
00000020: 9cbb a83b bdf4 4f3b 9a79 b63b 8cb8 9a3b
00000030: b044 143b 803e 503b 59d8 bf3b f0e4 d33b
00000040: 7763 9a3b 7423 893b 0829 6c3b 9aaf de3b
00000050: 8f94 683b 7781 a33b 298c 363b 87e7 1539
00000060: 2bba 933b 0e7c e43b 95a9 e93a e81c 553b
00000070: 426c 663b dbd8 b53b de99 113c 7aa6 a83a
00000080: 0427 213b 17f6 6e3b 64db be3b dc6b 1b3b
00000090: ca99 e53b 74b5 413b 7eed c2b9 4778 db3a
000000a0: 6b7b 7e3b d428 f73b b94f dab9 46ab a03b
000000b0: f130 343b 6956 063b 4936 c13b 0b85 883b
000000c0: 2a98 223c 12a4 773b 808f e039 a4e4 c43b
000000d0: d223 973b e442 093c babf 563b d054 203c
000000e0: 607f d93b 2998 183c 64eb 693b cb51 d63b
000000f0: fd56 f73b e37e 8c3b 8a9f 92ba 5b57 b43a

layers.0.bn.running_var f4 [64]
0.00023094339 0.00028059655 0.00021788852 0.00031167368 0.00025219625 0.00021256262 0.00021483327 0.00023682888
0.0002001057 0.00018297229 0.00034671387 0.00025181737 0.0002155026 0.00021620534 0.0001937466 0.00022175234
0.00023742297 0.00024928187 0.00025262314 0.0002851774 0.00020958639 0.00024403841 0.00024334609 0.0002781534
0.000226762 0.00026860923 0.00026908415 0.00016428187 0.00021242716 0.00025328723 0.00025492528 0.0002634295
0.00026408624 0.00019876698 0.00017060046 0.00024015992 0.00022826057 0.00023144254 0.00020389119 0.0001686059
0.00020216101 0.00023169372 0.00023555249 0.00019797978 0.00025536018 0.0002575127 0.0002766292 0.00023996596
0.00025451853 0.00024299689 0.00022289157 0.00022654355 0.0002542874 0.00021082998 0.00016008795 0.0002402919
0.00026911905 0.00020777079 0.0001845405 0.0002712856 0.00020413239 0.0002068491 0.00020086397 0.00019036468
00000000: 6529 7239 081d 9339 0179 6439 2268 a339
00000010: 3539 8439 58e3 5e39 de44 6139 4555 7839
00000020: 77d3 5139 40dc 3f39 26c7 b539 5b06 8439
00000030: 8af8 6139 2eb5 6239 7528 4b39 3186 6839
00000040: bef4 7839 0cb2 8239 8172 8439 dd83 9539
00000050: 6bc4 5b39 90e4 7f39 b82a 7f39 1ed5 9139
00000060: f6c6 6d39 1fd4 8c39 dd13 8d39 1443 2c39
00000070: fbbe 5e39 a3cb 8439 7ea7 8539 e91c 8a39
00000080: 0e75 8a39 1b6c 5039 36e3 3239 70d3 7b39
00000090: 3b59 6f39 62af 7239 a0cb 5539 cdcb 3039
000000a0: 2ffb 5339 cff2 7239 a4fe 7639 cb98 4f39
000000b0: dde1 8539 c502 8739 8b08 9139 5f9f 7b39
000000c0: e670 8539 fbcc 7e39 00b8 6939 528c 6d39
000000d0: e151 8539 3e12 5d39 48dd 2739 def6 7b39
000000e0: 8c18 8d39 0cdd 5939 3781 4139 563b 8e39
000000f0: 5f0c 5639 a2e5 5839 039f 5239 a19c 4739

layers.0.theta.weight f4 [64, 1433]
-0.04284093 0.006011087 -0.0006095364 -0.03911215 -0.023503695 -0.0014470745 -0.08855105 -0.021986507
0.048190176 0.0042947354 -0.0010897064 0.05016165 -0.02510121 0.106385544 -0.0040533864 0.015093559
-0.07252585 -0.0038463525 0.016230216 0.011168839 -0.0005657996 -0.052206196 0.0025051674 0.035078004
0.016986407 -0.02558176 0.011563505 -0.008082785 -0.022184644 -0.04567996 -0.016847335 -2.7464732e-05
0.05492344 -0.0073803505 0.08957118 0.039135046 -0.0044215056 -0.009319464 0.031908687 0.029915757
-0.03285796 -0.10302705 0.021971116 0.012150033 0.022086538 0.032489564 0.03348863 -0.020154765
0.04271398 -0.04671669 -0.019896446 -0.052578695 -0.09780169 0.0080555435 -0.07360023 0.06463423
-0.074897446 -0.10726445 0.060047667 -0.04694106 -0.0060281297 -0.025834806 0.02037723 -0.03727875
0.003287684 0.05417005 0.02312561 0.03404358 -0.008876555 -0.009343336 0.00729366 -0.050264813
-0.015252156 0.0022603238 0.06769145 -0.015541235 0.09942004 -0.032347478 0.027477853 -0.016589759
0.0125267655 0.09426633 -0.03428407 0.05511457 -0.029393679 0.027151624 -0.039030492 -0.0218421
0.042374313 0.024537161 0.07288347 -0.08592827 0.03570744 0.012116944 -0.020892749 -0.020441458
-0.06463162 0.06165169 -0.013255964 -0.019297393 -0.016369283 0.039808657 0.005034162 -0.054921158
0.019930128 0.021397376 -0.11832244 -0.00026276195 0.025826672 0.031484157 0.000547547 -0.003492093
-0.049794186 -0.0010560041 -0.0035315505 0.0799693 0.054476056 0.066558436 -0.03697332 0.0011810675
0.019981466 0.015379232 -0.0055910093 0.000740067 -0.03036872 -0.027922325 0.009461981 0.030777136
-0.016075235 -0.022519713 -0.009271333 0.009089462 -0.04667854 -0.03170544 -0.012717439 -0.034637757
0.06622214 -0.022997143 -0.0012559211 -0.005862674 -0.07586056 -0.004455401 -0.035960592 0.04151873
0.001810836 -0.033132408 0.017800452 0.012984833 -0.0301591 0.023026086 0.02975482 -0.034000747
0.001787097 0.009954318 0.024636164 0.04155264 -0.04422789 0.08536199 -0.012338815 -0.0014589815
0.04008109 -0.044755176 -0.012633585 -0.002797166 -0.0053857183 -0.030924745 -0.0073217656 0.043752592
0.058927126 -0.012553057 -0.029092593 -0.051638808 -0.012650607 0.0845466 -0.043727603 -0.009599087
0.03376212 0.052349202 0.03120642 -0.09352234 -0.0066360757 0.0010032282 -0.055036794 -0.0012287607
0.015423663 0.004992539 -0.028149467 -0.051977053 -0.032020427 0.12883973 0.06746798 0.034228005
0.022483947 0.096297905 0.03196838 -0.07672094 0.081465065 -0.012533888 0.008747788 0.0076703792
0.075444035 0.08076547 -0.02360638 0.06270725 -0.012350401 -0.02676377 -0.0032770683 -0.05824566
0.0712588 0.018822465 0.012000473 -0.022947175 -0.0015220582 -0.048449125 -0.010022681 0.018288454
0.009516211 0.005860876 0.0062139165 -0.015421618 -0.02577391 0.007910213 0.116543934 0.014574556
0.032076657 0.07602381 -0.013948492 -0.008655375 0.025626536 -0.052954275 0.02480435 0.07979139
0.01221421 0.07668111 -0.014135912 -0.014838136 -0.030928748 -0.041102268 0.059242982 0.04412004
0.070819095 -0.091271944 -0.010126676 -0.016491726 -0.029194435 -0.037224315 0.013563171 0.007110195
0.044541236 -0.07276875 -0.033688277 -0.05885388 0.029844861 -0.0011488626 0.035540625 -0.05586156
00000000: f979 2fbd a7f8 c43b 4cc9 1fba 1034 20bd
00000010: d28a c0bc c3ab bdba 415a b5bd 0c1d b4bc
00000020: 1063 453d daba 8c3b 7bd4 8eba 4d76 4d3d
00000030: 0ea1 cdbc aae0 d93d 45d2 84bb fa4a 773c
00000040: 6f88 94bd 1613 7cbb 3bf5 843c 82fd 363c
00000050: 2b52 14ba 2ad6 55bd bc2d 243b f4ad 0f3d
00000060: 1427 8b3c d790 d1bc db74 3d3c a86d 04bc
00000070: 92bc b5bc e91a 3bbd 6c03 8abc 1064 e6b7
00000080: 67f7 603d ded6 f1bb 1871 b73d 124c 203d
00000090: 47e2 90bb aab0 18bc afb2 023d e411 f53c
000000a0: 1196 06bd d9ff d2bd c5fc b33c ef10 473c
000000b0: d4ee b43c c713 053d 602b 093d 9b1b a5bc
000000c0: dbf4 2e3d 005a 3fbd dffd a2bc c25c 57bd
000000d0: 414c c8bd 66fb 033c b8bb 96bd f45e 843d
000000e0: d563 99bd 77ad dbbd 8bf4 753d 4545 40bd
000000f0: 9e87 c5bb 84a3 d3bc 26ee a63c 9ab1 18bd
00000100: 2f76 573b 6ae1 5d3d eb71 bd3c 4871 0b3d
00000110: f86e 11bc cb14 19bc a8ff ee3b 7ae2 4dbd
00000120: 2ee4 79bc f121 143b d1a1 8a3d aaa0 7ebc
00000130: bc9c cb3d ca7e 04bd 3c19 e13c 3fe7 87bc
00000140: 103d 4d3c b50e c13d 746d 0cbd d1bf 613d
00000150: 03cb f0bc 156d de3c 70de 1fbd 34ee b2bc
00000160: b090 2d3d 2802 c93c ee43 953d 29fb afbd
00000170: f741 123d 2686 463c 4527 abbc d874 a7bc
00000180: 955d 84bd 7c86 7c3d 8b2f 59bc 9115 9ebc
00000190: e018 86bc 670e 233d 9df5 a43b 02f5 60bd
000001a0: 8244 a33c 8d49 af3c 0953 f2bd 50c3 89b9
000001b0: 7592 d33c 88f5 003d 4289 0f3a 99db 64bb
000001c0: fdf4 4bbd 9e69 8aba 9671 67bb f2c6 a33d
000001d0: 4922 5f3d ca4f 883d 5671 17bd 0dce 9a3a
000001e0: 2cb0 a33c 2df9 7b3c c934 b7bb 0e01 423a
000001f0: d2c7 f8bc 5cbd e4bc 6d06 1b3c 5520 fc3c
00000200: 36b0 83bc 437b b8bc cae6 17bc f8eb 143c
00000210: ff31 3fbd 90dd 01bd ce5c 50bc 52e0 0dbd
00000220: 799f 873d 8164 bcbc b89d a4ba ad1b c0bb
00000230: c85c 9bbd 9dfe 91bb 6a4b 13bd 8b0f 2a3d
00000240: 9359 ed3a d9b5 07bd 41d2 913c 56be 543c
00000250: 3810 f7bc 34a1 bc3c 61c0 f33c 5e44 0bbd
00000260: 063d ea3a 7017 233c c8d1 c93c 1a33 2a3d
00000270: 4e28 35bd 44d2 ae3d be28 4abc 4c3b bfba
00000280: 122c 243d 3451 37bd 19fd 4ebc a850 37bb
00000290: ae7a b0bb e455 fdbc 6ceb efbb eb35 333d
000002a0: 925d 713d 56ab 4dbc 9753 eebc 3783 53bd
000002b0: 7e44 4fbc c526 ad3d b71b 33bd 7d45 1dbc
000002c0: 264a 0a3d 1e6c 563d 9ba4 ff3c a488 bfbd
000002d0: 7073 d9bb c17e 833a 436e 61bd 5e0e a1ba
000002e0: 88b3 7c3c 7498 a33b b699 e6bc e4e5 54bd
000002f0: da27 03bd 90ee 033e a72c 8a3d aa32 0c3d
00000300: 4130 b83c d637 c53d 47f1 023d de1f 9dbd
00000310: 28d7 a63d f05a 4dbc e252 0f3c ce57 fb3b
00000320: 6782 9a3d 5e68 a53d 2b62 c1bc a96c 803d
00000330: 5659 4abc b23f dbbc 15c4 56bb 0093 6ebd
00000340: 22f0 913d 9231 9a3c a29d 443c b7fb bbbc
00000350: cc7f c7ba 9772 46bd 2c36 24bc abd1 953c
00000360: e2e9 1b3c 970c c03b 1c9e cb3b f4aa 7cbc
00000370: cf23 d3bc d799 013c 96ae ee3d 1eca 6e3c
00000380: d062 033d 5fb2 9b3d 3788 64bc 46cf 0dbc
00000390: beee d13c 95e6 58bd 7e32 cb3c ab69 a33d
000003a0: 1c1e 483c fc0a 9d3d 509a 67bc a71b 73bc
000003b0: 495e fdbc da5a 28bd c5a8 723d 37b7 343d
000003c0: 9a09 913d c9ec babd 5cea 25bc a819 87bc
000003d0: 2b29 efbc 8678 18bd 1038 5e3c a3fc e83b
000003e0: df70 363d c807 95bd b8fc 09bd c410 71bd
000003f0: 367d f43c 6f95 96ba 0c93 113d 17cf 64bd

layers.0.theta.bias f4 [64]
-0.00025948172 3.1254902e-05 0.00014014948 -9.8863355e-05 0.00014780927 5.4702443e-05 -8.269185e-05 -5.634292e-05
0.00022223865 -0.00017633982 -3.182762e-05 8.39825e-06 -1.6491249e-06 -0.00019910638 7.762355e-05 -0.00012301332
-0.00010416834 -3.2321586e-06 -6.605835e-05 0.00011916603 4.19696e-05 -1.579542e-05 8.30767e-06 0.0004279913
-1.3209647e-05 -0.000114704824 6.3743115e-05 0.00012233345 1.3957455e-05 8.676806e-05 -0.00022334626 4.896909e-05
-4.694455e-05 6.5823726e-05 -8.343396e-05 -3.8553306e-05 -0.0001169848 -9.157235e-05 -4.1258943e-05 -4.3550106e-05
-0.00015201015 1.9956904e-05 -0.00011795046 3.8788465e-05 -0.00010725131 0.00011404655 -0.0001054616 7.6253884e-05
0.0001702229 -0.000113498325 -1.9741885e-05 -4.201733e-05 0.00010512126 5.2070864e-05 9.411722e-05 -1.7607352e-05
0.00017471609 3.533779e-05 -8.4755084e-05 -8.258961e-05 -5.4636417e-05 -0.00022167289 -8.140138e-05 -5.3506476e-05
00000000: 0c0b 88b9 b217 0338 17f5 1239 dc54 cfb8
00000010: 40fd 1a39 4d70 6538 d96a adb8 c051 6cb8
00000020: bc08 6939 dce7 38b9 a67e 05b8 36e6 0c37
00000030: 8057 ddb5 36c7 50b9 d3c9 a238 23fd 00b9
00000040: f474 dab8 10e8 58b6 ce88 8ab8 c6e8 f938
00000050: 8408 3038 6880 84b7 2c61 0b37 0564 e039
00000060: 009f 5db7 af8d f0b8 d3ad 8538 a346 0039
00000070: d02a 6a37 3ff7 b538 0e32 6ab9 2964 4d38
00000080: 54e6 44b8 d80a 8a38 44f9 aeb8 4cb4 21b8
00000090: bc55 f5b8 880a c0b8 740d 2db8 92a9 36b8
000000a0: ea64 1fb9 2069 a737 2c5c f7b8 ccb0 2238
000000b0: 1cec e0b8 462c ef38 442b ddb8 7eea 9f38
000000c0: dd7d 3239 f305 eeb8 609b a5b7 c43b 30b8
000000d0: 8c74 dc38 aa66 5a38 cc60 c538 80b3 93b7
000000e0: fe33 3739 aa37 1438 8abe b1b8 f633 adb8
000000f0: 6829 65b8 dd70 68b9 08b6 aab8 246c 60b8

layers.1.bn.weight f4 [7]
1.7476116 1.7343727 1.5979459 1.9403453 1.6389041 1.8163981 1.5032089
00000000: bdb1 df3f edff dd3f 7e89 cc3f 3c5d f83f
00000010: 9cc7 d13f bc7f e83f 2669 c03f

layers.1.bn.bias f4 [7]
-0.034376677 -0.24402146 -0.478561 0.41119444 -0.23002394 -0.03707536 -0.27605262
00000000: 8fce 0cbd c3e0 79be f305 f5be 1488 d23e
00000010: 658b 6bbe 55dc 17bd c556 8dbe

layers.1.bn.running_mean f4 [7]
-0.009290852 -0.15333045 0.0697135 -0.4097634 0.14060815 -0.07306009 0.35569987
00000000: a838 18bc a802 1dbe f4c5 8e3d 82cc d1be
00000010: 95fb 0f3e 87a0 95bd 4b1e b63e

layers.1.bn.running_var f4 [7]
0.83340806 0.7489344 0.44615772 1.076915 0.6653055 0.7814995 0.5295911
00000000: 3b5a 553f 2aba 3f3f c96e e43e 5ad8 893f
00000010: 7651 2a3f 5a10 483f 4893 073f

layers.1.theta.weight f4 [7, 64]
-0.07336968 -0.13217428 0.06803675 0.07553018 -0.09828997 0.11138722 -0.079979256 -0.11025387
-0.15607229 -0.0495435 0.11193544 -0.038653236 -0.11800977 -0.11352724 -0.10641792 0.048433162
-0.09803689 -0.09793383 0.12638669 0.034087148 0.09437312 -0.076789625 0.13653778 0.1382096
-0.066672266 -0.075146034 -0.10998218 0.1915422 -0.15245453 0.20661908 0.039604645 -0.065791145
-0.042342197 0.1621047 0.19522345 -0.057920046 -0.022979913 0.052570846 0.17124897 0.17414597
0.14987221 -0.1220121 -0.024422668 -0.01734474 -0.06609297 0.08609798 0.10541697 -0.09012822
-0.07659498 -0.13935168 -0.080996335 -0.09453419 -0.044632874 0.008870741 -0.09645853 0.07809697
-0.11497197 -0.10300249 -0.10204495 -0.12167541 0.1240997 0.16361311 0.10961167 0.06758521
-0.063392095 0.15553525 -0.087377414 -0.07491024 -0.083788946 -0.01705586 -0.09220821 0.083526395
0.07796169 -0.078911416 -0.07452197 0.08723981 -0.10552204 0.15091448 0.1609254 -0.10210874
-0.02228389 0.17417434 -0.059111804 0.15102807 -0.10945758 -0.14381918 -0.13651673 0.13331148
0.14143921 -0.079914965 -0.13345852 -0.007998115 -0.047230713 -0.11771291 -0.1381582 -0.05571215
-0.10570133 -0.038638476 0.14696269 -0.08097427 -0.15409327 0.14005533 -0.08700728 -0.044141755
-0.104886174 0.11555608 0.13264647 0.013982344 0.10316007 0.11030897 0.078634836 0.12554932
-0.11068487 0.07714336 -0.14553857 0.18555115 0.13172881 -0.15988068 -0.19078031 -0.08988509
0.11632758 -0.1406859 -0.1234803 0.1366752 -0.14363174 -0.11126247 -0.050915398 -0.090069756
0.17677668 -0.13248086 -0.14676437 0.02357222 -0.069480404 -0.077016465 0.12944011 0.16805755
0.16765983 -0.042044528 0.06699766 0.16815211 0.05103146 -0.08264575 0.09777422 -0.11666962
-0.07730309 0.0664247 0.06574306 0.1274162 0.13492264 -0.018653037 0.084606096 -0.0587001
-0.07018331 0.18681107 0.16356176 -0.08366292 -0.058068585 0.14980564 -0.05017788 -0.046752162
0.15004538 -0.034754653 -0.10169088 -0.08414994 -0.07791271 -0.03704823 -0.045919415 0.1512706
-0.06522687 -0.08346288 -0.047806825 -0.045482423 0.15006946 -0.073516935 0.10648527 0.12905407
0.1253271 -0.050217453 -0.00807421 -0.024183504 -0.08528519 0.05883939 -0.08248268 -0.09711955
-0.090355344 0.09297387 -0.031333808 -0.100153215 -0.051148236 -0.072019845 -0.06933571 0.020026058
0.22406235 0.12428603 0.089953296 0.061111145 0.1984963 0.06814375 0.12724553 0.11286229
-0.07106078 -0.10378157 -0.1307452 -0.12384525 0.16493368 -0.12604515 0.10659132 -0.090187155
-0.10720042 -0.12109324 -0.094743714 -0.17619106 -0.059684947 0.10748053 -0.120896176 -0.037927773
-0.14466348 -0.03168357 -0.12883916 -0.09556124 0.08798249 -0.13461916 -0.09442765 0.09595358
-0.14433232 -0.10105446 -0.12462368 -0.10038928 0.13082366 -0.14360374 -0.06031325 -0.09151717
-0.16054684 -0.1453586 -0.054173235 -0.18990454 -0.108696856 -0.122607246 -0.10885043 -0.11988562
-0.11251721 -0.10934192 0.042792764 0.042688627 0.06278834 -0.1367152 0.03801014 0.07443115
-0.07827193 0.21099138 0.18485197 0.16572692 0.10584851 -0.11757023 0.06613517 -0.030645473
00000000: d842 96bd b258 07be da56 8b3d 91af 9a3d
00000010: 404c c9bd fc1e e43d 2acc a3bd c8cc e1bd
00000020: 6ad1 1fbe 20ee 4abd 683e e53d db52 1ebd
00000030: 1baf f1bd f880 e8bd a3f1 d9bd da61 463d
00000040: 91c7 c8bd 8891 c8bd 836b 013e f79e 0b3d
00000050: b246 c13d e143 9dbd 8fd0 0b3e d186 0d3e
00000060: 788b 88bd 2ae6 99bd 563e e1bd a323 443e
00000070: 0a1d 1cbe f493 533e 7b38 223d 82bd 86bd
00000080: 036f 2dbd c6fe 253e a8e8 473e 923d 6dbd
00000090: 5f40 bcbc 8754 573d e45b 2f3e 5253 323e
000000a0: 1a78 193e 7be1 f9bd 0c12 c8bc 8e16 8ebc
000000b0: c05b 87bd 2354 b03d dae4 d73d 2595 b8bd
000000c0: d4dd 9cbd 35b2 0ebe 68e1 a5bd 249b c1bd
000000d0: f6d0 36bd 9656 113c 0d8c c5bd 4ef1 9f3d
000000e0: 6d76 ebbd f8f2 d2bd f1fc d0bd f530 f9bd
000000f0: fc27 fe3d 328a 273e 157c e03d 1d6a 8a3d
00000100: b7d3 81bd a244 1f3e eef2 b2bd 8a6a 99bd
00000110: 8a99 abbd bbb8 8bbc a8d7 bcbd e30f ab3d
00000120: 61aa 9f3d 4f9c a1bd f99e 98bd c9aa b23d
00000130: f01b d8bd 5389 1a3e a1c9 243e 631e d1bd
00000140: b48c b6bc c25a 323e 381f 72bd 1aa7 1a3e
00000150: 4c2b e0bd 5645 13be 0bcb 0bbe ce82 083e
00000160: 71d5 103e 75aa a3bd 5aa9 08be 870a 03bc
00000170: fe74 41bd 7713 f1bd 5879 0dbe 6c32 64bd
00000180: f079 d8bd 6143 1ebd 637d 163e d7d5 a5bd
00000190: a0ca 1dbe aa6a 0f3e df30 b2bd fccd 34bd
000001a0: 90ce d6bd aba8 ec3d 7ad4 073e 3416 653c
000001b0: 9645 d33d abe9 e13d 4d0b a13d 0090 003e
000001c0: c0ae e2bd 57fd 9d3d 1008 15be 1f01 3e3e
000001d0: ebe3 063e c3b7 23be ea5b 43be ad15 b8bd
000001e0: 273d ee3d f70f 10be 3de3 fcbd 95f4 0b3e
000001f0: 3314 13be 94dd e3bd aa8c 50bd 7e76 b8bd
00000200: f204 353e 10a9 07be 6649 16be 871a c13c
00000210: be4b 8ebd cfba 9dbd f38b 043e 4717 2c3e
00000220: 05af 2b3e e236 2cbd 1236 893d 1130 2c3e
00000230: 5d06 513d 2d42 a9bd da3d c83d 7bf0 eebd
00000240: 1551 9ebd ac09 883d 4ca4 863d 6479 023e
00000250: 2929 0a3e 41ce 98bc f645 ad3d 846f 70bd
00000260: 44bc 8fbd 674b 3f3e bc7c 273e 7757 abbd
00000270: 53d9 6dbd a666 193e 5287 4dbd 327f 3fbd
00000280: 7fa5 193e e55a 0ebd 4f43 d0bd ce56 acbd
00000290: b390 9fbd e3bf 17bd ff15 3cbd aee6 1a3e
000002a0: aa95 85bd 96ee aabd 17d1 43bd c74b 3abd
000002b0: cfab 193e 0c90 96bd f314 da3d c026 043e
000002c0: bf55 003e d1b0 4dbd b149 04bc 7c1c c6bc
000002d0: 00aa aebd 9201 713d aeec a8bd 9de6 c6bd
000002e0: 390c b9bd 1669 be3d e157 00bd 211d cdbd
000002f0: d080 51bd 247f 93bd e1ff 8dbd b00d a43c
00000300: 9a70 653e ad89 fe3d 6f39 b83d ae4f 7a3d
00000310: 9d42 4b3e f38e 8b3d a74c 023e 5824 e73d
00000320: 5088 91bd 6f8b d4bd 12e2 05be 94a2 fdbd
00000330: 60e4 283e fb11 01be 8d4c da3d 0bb4 b8bd
00000340: e58b dbbd bcff f7bd fe08 c2bd 6e6b 34be
00000350: 3478 74bd c11e dc3d 6a98 f7bd 275a 1bbd
00000360: aa22 14be a2c6 01bd 6aee 03be 9db5 c3bd
00000370: 2a30 b43d 9bd9 09be 4963 c1bd 5083 c43d
00000380: dacb 13be a4f5 cebd b33a ffbd e598 cdbd
00000390: a3f6 053e dc0c 13be 070b 77bd 5b6d bbbd
000003a0: 6466 24be e3d8 14be c1e4 5dbd 5676 42be
000003b0: 759c debd 8219 fbbd f9ec debd 9886 f5bd
000003c0: 6c6f e6bd a8ee dfbd 7747 2f3d 45da 2e3d
000003d0: 2c97 803d 12ff 0bbe 85b0 1b3d 5c6f 983d
000003e0: 094d a0bd 200e 583e d649 3d3e 51b4 293e
000003f0: 1bc7 d83d a9c8 f0bd e071 873d 370c fbbc

layers.1.theta.bias f4 [7]
5.7144907e-06 -4.0331156e-06 -3.6082154e-06 2.7205183e-06 3.9408906e-07 -2.0856278e-06 -6.8648296e-06
00000000: 1abf bf36 3354 87b6 ab24 72b6 2692 3636
00000010: 3093 d334 d0f6 0bb6 7058 e6b6
