src_new2/unisage_coauthorcora_hid64_0104.pth (torch, 374971 bytes, 12 tensors)

layers.0.bn.weight f4 [64]
00000000: 25a5 5d3f ec17 403f 8aa7 623f 8b48 3c3f
00000010: 904f 4b3f 01ed 5b3f 16ef 6b3f ed38 503f
00000020: 30dc 453f 5850 613f 6a04 6d3f dfc5 543f
00000030: ba2e 633f 439a 363f 50f5 643f 1a1f 673f
00000040: 05d9 583f 3f2a 483f dc47 653f 50c1 443f
00000050: 347a 423f 4586 363f e769 353f affa 643f
00000060: a769 4b3f 9f7d 5e3f 80f6 663f ece3 6e3f
00000070: f6fc 243f 42aa 483f e8f3 4a3f 89c0 423f
00000080: 0bf1 4d3f 524a 593f a0df 443f ebbd 3f3f
00000090: 62e1 5a3f 8aa7 373f cdf4 443f 424d 673f
000000a0: 8c9c 483f 44ba 6d3f a1f3 2f3f 6485 303f
000000b0: 3c87 643f 938a 543f 8275 403f 3e39 3e3f
000000c0: aa96 353f ea57 4e3f 72c4 6a3f 25ff 5f3f
000000d0: 0b0b 493f b55d 3f3f 51d7 283f 1eb7 553f
000000e0: 7d1c 5c3f af5c 573f 127b 2e3f 5836 483f
000000f0: 38b9 1c3f 9cfe 423f 8656 623f 8c40 543f
0.86580116 0.750365 0.88536894 0.7354819 0.7941828 0.85908514 0.9216169 0.8133686
0.77289104 0.8801322 0.9258486 0.8311443 0.88743174 0.71329135 0.8943682 0.9028183
0.84706146 0.7818946 0.89562774 0.7685747 0.7596772 0.7129863 0.7086472 0.8944501
0.7945809 0.8691043 0.9021988 0.9331653 0.6444849 0.7838479 0.7927842 0.76075035
0.8044593 0.8487903 0.76903725 0.74899167 0.85500157 0.7174002 0.76936036 0.9035226
0.7836387 0.92862344 0.68731123 0.6895354 0.8926885 0.8302395 0.751793 0.74306095
0.7093302 0.80602896 0.91706 0.87498695 0.78532475 0.7475236 0.65953547 0.8348254
0.8598097 0.841258 0.6815654 0.7820792 0.6122012 0.76169753 0.88413274 0.8291099

layers.0.bn.bias f4 [64]
00000000: d139 24bd bea8 7ebe db3a 68be 4c2b cfbd
00000010: 34ef eabd 1e8a b8bd 2987 aabd 879f 17be
00000020: bfc9 3ebe b353 bcbd ec07 76bd 7ad7 bdbd
00000030: 62a3 4cbd 2e57 2dbe 5113 cabd 3d3c c2be
00000040: 64a3 4bbe 323c afbd c675 c6bd 8c9d afbd
00000050: f99e 82be a463 2cbe 3052 90bd 4eb6 ecbd
00000060: b0ff 6ebd 5072 b1bd 46ad 92be 0c2a 1fbe
00000070: 0fa6 61be ee21 17be 669b 66bd 1039 c9bd
00000080: 03ca 70be 0466 bfbd a445 8bbe f20d 13bd
00000090: 49e2 2abe 19d4 f8bd 3ba8 46be 90b1 5cbe
000000a0: c35c 68be a24b 91be 89dd 26be e42e 07be
000000b0: 7f1f 87bd 2df0 4ebe 238b 1fbe e8f4 76be
000000c0: 6323 15be 21ca 1abe 8d02 91be 3241 e0bc
000000d0: 35a7 fbbd ee05 b4bd 9748 e7bd 99b3 f5bd
000000e0: 94d2 76be 1dd8 05be f2da 08be 8fe2 b5bd
000000f0: 2ffd 0ebe d40e e3bd 5e8a 43be ffc0 78be
-0.0400942 -0.24869058 -0.22678702 -0.1011568 -0.114714056 -0.09010719 -0.08326561 -0.14806949
-0.18631648 -0.09195652 -0.06006615 -0.092696145 -0.0499605 -0.16927788 -0.098669656 -0.37936583
-0.19886547 -0.08556403 -0.09690432 -0.085749716 -0.25511912 -0.16834885 -0.07046926 -0.11558209
-0.05834931 -0.086643815 -0.28647822 -0.15543383 -0.22036003 -0.14759037 -0.056300543 -0.09825337
-0.23514561 -0.0934563 -0.2720157 -0.03590197 -0.16687883 -0.121498294 -0.19400112 -0.2155211
-0.22691636 -0.28378016 -0.16295446 -0.13201481 -0.06597804 -0.20208807 -0.1558042 -0.24116862
-0.1456428 -0.15116169 -0.2832226 -0.027374838 -0.122877516 -0.087901935 -0.11293142 -0.11997146
-0.24103767 -0.13070722 -0.13364771 -0.08881103 -0.1396377 -0.110868126 -0.19095752 -0.24292372

layers.0.bn.running_mean f4 [64]
00000000: a2a1 fd3b 4299 463b 6a3b 053c bbde 393c
00000010: 5f54 b83b d2f7 3a3b d801 073c 823e 263b
00000020: 269a 653a 1d32 193c 5b2e b13b cfb7 693b
00000030: 4e3a 9c3b 85a7 613a 0a3b e23b 68e6 a23b
00000040: b602 053c ccb9 953b e68b a93b c927 093c
00000050: fc40 903b a686 063b 1c31 683a 47c3 233c
00000060: 0f98 b73b ce46 183b 7465 5a3a 62a7 143c
00000070: 51e6 df3b 5179 da3b b459 b83b c488 2c3b
00000080: f784 143c 0133 183b dd42 b03a 5ebe 6e3b
00000090: e830 f93b 4b30 463b a264 f63b 2872 d13b
000000a0: ef6d 453b cf3c 773b ade3 113b a145 323c
000000b0: c78a 203b d884 e83b e870 0cba 6040 cb3b
000000c0: df98 4a3b 2960 bc3a 8dac bc3b 662c fc3b
000000d0: 93a2 a23b 1a20 833a 2416 0d3b eaaf a43b
000000e0: 1a95 193c 3d11 533b 74d0 bb3b dd73 a13a
000000f0: 71a2 083c 13df b73b f712 533b 7529 c53b
0.0077402154 0.003030375 0.008131841 0.011344607 0.005625292 0.002852906 0.008240186 0.0025366847
0.00087586266 0.009350327 0.0054071373 0.0035662537 0.0047676926 0.0008608031 0.0069040107 0.004971314
0.008118322 0.004569268 0.005174148 0.008371302 0.004402278 0.0020527034 0.00088574155 0.009995288
0.0056028436 0.0023235562 0.0008331158 0.00907311 0.006832876 0.006667294 0.005625928 0.0026326636
0.009064904 0.002322376 0.0013447661 0.0036429386 0.007604707 0.0030241187 0.0075193206 0.0063917823
0.003012534 0.0037725454 0.002226095 0.010880859 0.002449678 0.0070959143 -0.00053574005 0.0062027425
0.0030913872 0.001437192 0.0057578743 0.0076957224 0.004963228 0.0010004074 0.002152809 0.0050258534
0.0093739275 0.003220632 0.0057316367 0.0012317855 0.00833951 0.0056113093 0.003220735 0.006016905

layers.0.bn.running_var f4 [64]
00000000: 7ffd cf39 4a84 aa39 aa15 9f39 2490 c139
00000010: 00a4 c639 7a21 ef39 4240 ab39 6528 ed39
00000020: 4ed1 eb39 6f77 d039 94d4 ac39 6175 ca39
00000030: 229e cf39 fe32 f139 d7a6 d139 0207 8e39
00000040: f732 aa39 2f5a e239 1840 aa39 98ac c239
00000050: 6ebc c739 7aa8 ad39 521d f539 7b59 9439
00000060: 2a7d b139 1f24 a039 75f8 9439 73b5 ab39
00000070: 1ff1 a539 822b d939 a7b8 aa39 ad9c a739
00000080: 603f ae39 d203 bd39 8e7d 9839 f8ec ca39
00000090: bce4 ac39 8b2f d439 2843 b739 a0ee be39
000000a0: 11b6 d139 9273 9d39 6118 b539 be59 ba39
000000b0: 4f0c a339 5dfa c739 8922 af39 653d cb39
000000c0: 1df4 b539 ab1b c339 cb18 ce39 fcbc cb39
000000d0: 0a6c ca39 bb01 dd39 f528 c239 be3a bf39
000000e0: 7a38 8e39 8a32 bd39 80b0 e339 0d69 e139
000000f0: cf40 c939 8b1e e839 2564 8d39 98c5 db39
0.00039670986 0.0003252349 0.00030342984 0.00036919222 0.00037887692 0.00045610574 0.00032663537 0.0004523426
0.00044978637 0.00039761837 0.0003296478 0.00038615896 0.00039599935 0.00046005094 0.00039987892 0.00027089572
0.00032462899 0.0004317327 0.0003247268 0.00037131156 0.0003809663 0.00033122656 0.00046751887 0.00028295428
0.00033853325 0.0003054449 0.00028413875 0.00032750852 0.00031650902 0.0004142188 0.00032562503 0.00031969455
0.00033235084 0.00036051736 0.00029085245 0.00038704998 0.00032976817 0.00040471213 0.00034954515 0.00036417414
0.00039999236 0.0003003148 0.00034541174 0.00035543548 0.00031098953 0.00038142773 0.00033404332 0.0003876492
0.0003470489 0.00037213913 0.00039309854 0.00038859982 0.00038608938 0.00042153694 0.0003703308 0.00036474125
0.0002712643 0.00036086544 0.00043428317 0.00042993613 0.00038385994 0.00044273245 0.0002696823 0.00041918154

layers.0.theta.weight f4 [64, 1433]
00000000: a2f6 d83a e0ac 29bd bd2c b9bb ca51 993c
00000010: 3203 883d c92f 2dbd a9bb 393d 502e cfbc
00000020: 4f1c 0bbd a5fb 40bb 3173 ffbc b94b 713c
00000030: 3473 6d3d 6f66 4bbd da1e 37bc af07 99bd
00000040: fe70 8a3d 6873 2b3d 4063 94bd aeeb 80bd
00000050: 520b 4d3d a041 96bb e2a9 54bd 9ced 7ebd
00000060: e65a 4d3d 8ad7 013b 08aa 633d 689a 6c3d
00000070: ae23 77bc 3675 bfbc 0271 cebc 198f 8a3d
00000080: 6819 3fbd e45d 4a3d 128e 5cbc a199 d53b
00000090: 10c7 d9bc 70b4 213d 69c2 183d f8b6 b93c
000000a0: 7bab 3c3d d3d8 2a3d ffa4 67bd a95d eabc
000000b0: 3b87 57bd 5818 a63c 06a8 9cbd 4881 10bd
000000c0: 9f42 38bd e538 4f3c f3a1 86bd 4537 823d
000000d0: 523c 01bd 729b 09bd 2237 323d 5990 633d
000000e0: 77fc 263d 7fb5 793d 9086 da3d 3f9a 4ebb
000000f0: 1d8b 493d 0a80 19bd 88fd 9b3d 8767 2c3d
00000100: 814f 203d 7fbb 32bd 48a1 8c3d 5b27 35bd
00000110: 8a5e 0cbd 85f8 533d 89d8 7d3b 8895 013d
00000120: 4c46 03bd 7f5a 7dbd ac97 093d 10f7 17bd
00000130: d0d0 84bd 4676 943d 5f6e 04ba 0b12 133d
00000140: 6797 913d c649 49bd 10fe 0a3d 9762 9cbd
00000150: 72de 5e3b b2a1 a2bd 47b5 52bd 4831 343d
00000160: 7340 0ebd 5c0a 733d 7ff3 8bbd 87d5 b73d
00000170: 62aa 343d 3626 113d 4fa4 913c 5050 ba3c
00000180: 5908 83bc f001 d73c be6c ed3c e3c9 8cbd
00000190: d0ad f33c b033 8cbd 6e3c eb3c 5958 a5bd
000001a0: 21d8 b8bc f2db 3ebd dc17 59bd 0cd3 4abd
000001b0: a998 4ebd ed50 90bb 3908 0b3d 165b 763d
000001c0: 374b f2bc 8ce0 843b 3066 e7bc b6ec 183d
000001d0: 0351 2cbd 455f dabc fe60 64bc d72a 6e3c
000001e0: 8552 e13c 56bd 47bd c01b 7b3d 726a 51bd
000001f0: b7ea a43c d740 143d 7aa6 223d e821 fa3d
00000200: a9bb 86bd bbdd 233d 8d23 95bd 9ef2 823d
00000210: e7cc c5bd 4bd9 5b3d 8af2 2cbc 779a 423d
00000220: 3e4b ecbc 2852 e139 b907 973d f090 323d
00000230: db28 1dbc a5c3 d13d 9cb8 67bd 1676 27bd
00000240: fc37 523d 70fc e63c ed11 f2bd fcff 61bd
00000250: e1ab acbc e887 843c c71d 13bd d78c aa3d
00000260: 85af dc3c 7b3b f7bc ff2a ac3d e242 b13c
00000270: c040 6d3d 3e05 b8bd 8916 853d b94b 253d
00000280: d3dd 29bd 2e00 2b3c f641 0d3e 5ce8 043d
00000290: 830e 743d 5628 db3c c790 fdbc 3a60 7a3d
000002a0: 7833 5c3e c434 08bd 8d1c 663d ab8d 7abd
000002b0: 57af c03d 2736 8e3d 06c0 84bd a74f 39bd
000002c0: c833 81bd edac ab3d d8fd c93c dc7f 0a3a
000002d0: 227a c0bc 8f9d 743d 01c6 303d 889d ea3c
000002e0: 6f15 2b3d 6a89 7d3c ac11 b53d 3487 473d
000002f0: 792c 1bbd 221f cebc 97c2 7f3d e110 63bd
00000300: a52f 5abd 557a f33c 07a2 223d 04fc 87bd
00000310: 0bed 03bc 4d37 283d 5084 75bc 1d8f a1bc
00000320: b8aa 4abd eca3 6e3b 0a52 6f3d 09de 96bd
00000330: f96a 6bbd 546f d73c 6b8f ea3c b12e 02bd
00000340: b731 f83c 9a52 7c3c 6f81 93bd cf0f f53c
00000350: 12eb 353c 2be7 ab3d 7176 4dbd 4c73 263c
00000360: 18ee 06bd 58f2 23bd 36d3 53bb 346b 453d
00000370: 23a6 183d c60c 323c 894a 8b3c 84e2 b03b
00000380: 26b6 39bd 83d1 073d a091 39bd 2d70 18bd
00000390: 158c 31bd 5b2a f7ba cfda 4fbd 48e8 d7bd
000003a0: ff3c c7bc 02fc edbd 04b7 093a e813 b2bc
000003b0: 5a86 6b3d ec61 053d ca09 8abd 8246 293c
000003c0: c5f5 cbbc 82b7 83bd e6f2 983c 6747 d4bc
000003d0: 15a8 023c 24c7 0ebd 98d5 613d 991d 713d
000003e0: 8add ccbc d5a9 c63c 18c8 f93d 0019 bf3b
000003f0: 4dc0 16bd 76d1 46bb eb0d 90bc 13f4 a23d
0.0016552994 -0.041424632 -0.005651085 0.018715758 0.066412345 -0.0422819 0.045344982 -0.025290638
-0.033962544 -0.0029446867 -0.031182857 0.014727526 0.057971194 -0.049658235 -0.011176789 -0.07472169
0.06759833 0.041858107 -0.07245493 -0.06294952 0.050059624 -0.00458546 -0.051919825 -0.06223832
0.050135516 0.001981231 0.055582076 0.05776444 -0.01508419 -0.02337132 -0.02520037 0.06765575
-0.04665509 0.049405947 -0.013461607 0.006518558 -0.026584178 0.03947872 0.03729478 0.022670254
0.046061974 0.041710686 -0.056553837 -0.028609114 -0.0526192 0.02027528 -0.076492354 -0.035279542
-0.04498541 0.012647842 -0.06573858 0.06358198 -0.031551667 -0.03359551 0.04350961 0.055557583
0.040768113 0.060964104 0.10670197 -0.0031525043 0.049204934 -0.037475623 0.076167166 0.04209092
0.03913832 -0.04363584 0.068666995 -0.044226985 -0.034269847 0.05175068 0.0038733801 0.031636745
-0.032049462 -0.061853882 0.03359191 -0.03710085 -0.0648514 0.07249121 -0.0005051847 0.03590588
0.07108956 -0.04914262 0.0339337 -0.07635992 0.00340071 -0.07940997 -0.05144241 0.04399231
-0.034729432 0.05933605 -0.068335526 0.08976274 0.044107802 0.03543683 0.017778544 0.022743374
-0.015995191 0.026246041 0.028982516 -0.06874444 0.029745966 -0.06845796 0.028715339 -0.080734916
-0.022563996 -0.046596475 -0.05300127 -0.049517676 -0.050438557 -0.0044041784 0.03394339 0.06014546
-0.02957688 0.0040550884 -0.028246969 0.03733512 -0.042069446 -0.026656756 -0.01393914 0.014536581
0.027505169 -0.04876455 0.06130576 -0.051126905 0.020131452 0.03619465 0.039709546 0.12213498
-0.06578762 0.04000638 -0.072821714 0.06393932 -0.09658223 0.053674024 -0.010555873 0.04751059
-0.028844472 0.00042976555 0.0737452 0.043595254 -0.00959226 0.10242394 -0.05657254 -0.0408841
0.051322922 0.028196543 -0.11819825 -0.055175766 -0.021078052 0.016178086 -0.03591707 0.08327644
0.026939163 -0.03017973 0.08406638 0.021638338 0.05792308 -0.08985375 0.06498439 0.040355418
-0.041471314 0.010437055 0.13794693 0.032448158 0.059584152 0.026752632 -0.030952824 0.061126925
0.21504009 -0.033253446 0.056179572 -0.06117026 0.094084434 0.069439225 -0.06481938 -0.045241978
-0.063087046 0.08382592 0.024657175 0.0005283335 -0.023495737 0.059720572 0.04315758 0.02863957
0.041768488 0.015474657 0.08841261 0.048712924 -0.03788421 -0.02516133 0.062441435 -0.05543602
-0.053268094 0.029721418 0.039705303 -0.06639865 -0.008052121 0.041068364 -0.014985159 -0.019721562
-0.049479216 0.0036413623 0.058427848 -0.073665686 -0.057475064 0.026298203 0.02863284 -0.03178281
0.030297143 0.015400553 -0.07202422 0.029914765 0.011103408 0.08393701 -0.050161783 0.010159325
-0.032941908 -0.04002604 -0.0032321936 0.04819794 0.037267815 0.010867303 0.017003315 0.0053980965
-0.045339726 0.03315879 -0.045304894 -0.037216354 -0.043346483 -0.0018857227 -0.05074578 -0.10542351
-0.024321077 -0.11620332 0.00052534067 -0.021738008 0.057501175 0.03256409 -0.06740148 0.010331752
-0.024897465 -0.06431486 0.01867051 -0.025912954 0.007974644 -0.034857884 0.05513534 0.058866117
-0.025007982 0.024250904 0.12196368 0.0058318377 -0.036804486 -0.003033725 -0.017584762 0.0795671

layers.0.theta.bias f4 [64]
00000000: 2688 d437 f650 0d38 1cd6 a038 0e1b b137
00000010: 4ecf 1bb8 00d2 e0b3 d5e6 db37 e355 de37
00000020: 2698 6438 5079 b836 09de 06b8 aa07 81b8
00000030: f3e2 e6b8 067c 5db8 ee74 a6b8 a4f3 1b38
00000040: a44d aa37 b80f 6db8 e81e 3738 422d c937
00000050: 8a94 4438 4046 9e37 aa93 0a38 43c3 b338
00000060: 3217 5038 512c dd38 e8ab 18b8 93d0 78b8
00000070: cc1a 05b8 d2a7 4a38 f5de 68b8 0856 2a37
00000080: ba18 cb38 21b1 2a39 28e2 a4b7 f741 8238
00000090: e79e 63b8 f27c 92b7 f85f 60b8 7ed8 9b37
000000a0: 78a5 78b8 6993 1b39 dad2 2738 c7cf 6337
000000b0: bb1c f1b8 6cf8 1cb6 c412 4f38 4863 63b8
000000c0: 1b5e 9637 97b5 d437 449c 4938 6643 a938
000000d0: b583 c3b7 2037 deb5 e665 79b8 6385 6438
000000e0: fd32 1739 8462 57b8 8cab 75b7 382f ddb7
000000f0: 3294 a1b8 7c77 3eb7 9425 c2b7 004a d8b6
2.5335768e-05 3.369242e-05 7.6692755e-05 2.1112643e-05 -3.7147947e-05 -1.04690116e-07 2.6214324e-05 2.6504456e-05
5.4501135e-05 5.49775e-06 -3.2154876e-05 -6.152627e-05 -0.00011009527 -5.280601e-05 -7.937277e-05 3.7181788e-05
2.0301733e-05 -5.6519842e-05 4.3659384e-05 2.3982142e-05 4.686838e-05 1.886778e-05 3.3039287e-05 8.5717555e-05
4.9612667e-05 0.00010546356 -3.6399724e-05 -5.9322057e-05 -3.1734628e-05 4.8316848e-05 -5.5520755e-05 1.015282e-05
9.6844e-05 0.00016278449 -1.9655636e-05 6.21117e-05 -5.4269007e-05 -1.7462738e-05 -5.349514e-05 1.8578252e-05
-5.9281912e-05 0.00014836866 4.0012274e-05 1.3578631e-05 -0.00011497127 -2.3390412e-06 4.9370123e-05 -5.421348e-05
1.7925215e-05 2.5356929e-05 4.8067668e-05 8.071102e-05 -2.3307142e-05 -1.6556332e-06 -5.9461127e-05 5.4483662e-05
0.00014419477 -5.1351744e-05 -1.4643079e-05 -2.6367241e-05 -7.704682e-05 -1.1352702e-05 -2.31441e-05 -6.4459164e-06

layers.1.bn.weight f4 [7]
00000000: 3d9a bb3f 12e4 b53f 6834 a03f 15db c63f
00000010: 9a0b ae3f ee34 bf3f c157 b23f
1.4656445 1.4210227 1.2515993 1.5535609 1.359729 1.4938028 1.393303

layers.1.bn.bias f4 [7]
00000000: 90d9 0cbc 3bb0 40be 8de8 b4be a1f3 b93e
00000010: d5e2 7abe 5805 eabc 4d5e a5be
-0.008596793 -0.18817227 -0.35333672 0.36318687 -0.24500592 -0.028567001 -0.32298508

layers.1.bn.running_mean f4 [7]
00000000: 41e0 c33e 0eb6 0abd be68 dc3d 6129 f8be
00000010: 09e5 e1bc 3aa2 c73d 1704 5e3e
0.3825703 -0.033865027 0.107621655 -0.4846907 -0.027575033 0.09747739 0.21681248

layers.1.bn.running_var f4 [7]
00000000: cff0 0e40 2c01 cb3f bfab 893f ddd7 2d40
00000010: bc9c c13f b8aa fa3f bfa3 b23f
2.2334478 1.5859733 1.0755538 2.7163002 1.5125957 1.9583349 1.3956221

layers.1.theta.weight f4 [7, 64]
00000000: 6d98 7c3d 4e84 1fbc 9c54 083d ec89 d83d
00000010: 3ebd 04bd 3da6 803d 61e8 363d c765 183e
00000020: 4f32 043e ba0c f43d c8c3 ff3d 33b1 973d
00000030: 1d04 c3bd a60f 0c3e de88 97bd d7ea 7e3e
00000040: 7975 8bbd 3488 b6bd ef4d afbc c45a 02be
00000050: b300 f6bd ae1f 2b3e cfb9 8ebd cd2e d93d
00000060: 86d6 debd 78bb 8fbd 6c95 f8bc 99f1 c23d
00000070: 9ccd 32bd eafe 3cbd 38f6 2f3a 215c 89bd
00000080: 8309 0bbe fdb9 0d3e c86c 783d ffd1 9f3d
00000090: 950c a5bd 3019 59bd b619 16be c715 6e3d
000000a0: 838c e2bd 2ccc ee3d a6b3 ba3d a74a e03d
000000b0: d406 89bd 2d7e b9bd 3962 7e3d 904a afbd
000000c0: b48a a7bd 77ae 343e 70e4 42be 9a91 e33d
000000d0: fc21 fbbd 3ecb 4dbd 17fd 53bd f53f a43d
000000e0: 756b 4f3e 438f 433c 9a09 7dbd e7df 8e3d
000000f0: 51b4 91bd 6b70 f03d 2119 2f3e bbd6 c83d
00000100: 5016 b73b 9d61 f23d b439 373e 995e 8cbd
00000110: 993f 16bd e0ca 02bd 1f5b babd f194 cd3d
00000120: eee6 36bd 64ba ddbd 46a4 adbd 3ae9 1b3d
00000130: b3e4 fc3d 9c32 20bd 69c3 b6bd 6612 623e
00000140: 0b8a 2cbc 1c90 783d ef1d 0b3e d9a9 fdbd
00000150: daca 7eba bc26 ddbc ed7e cbbd 4b69 c8bd
00000160: 3ad7 a73d 9952 ffbd 2cff 0cbe 2bc2 c8bd
00000170: e6cb 273e db08 7b3d af22 16bd 295b 1ebe
00000180: a3d9 153d 8692 f1bc f649 aebd ce21 4c3d
00000190: 7a3b 03be 8c74 ba3d 8089 753c b391 02bd
000001a0: 1247 103e 211e 26be aa55 03be c2e2 39be
000001b0: dda6 bc3d ad71 053e f541 123e 32a4 acbd
000001c0: c6ed 6f3d 30d7 813b c910 973d 257a 193d
000001d0: fad5 80bb 3759 c53d af8e 82bc 6f5d 88bc
000001e0: 2c5f 2e3e 86f3 ed3d 378a c83c 905d 4abd
000001f0: 38c9 fabc a0b4 d3bd 7573 14be 6950 643e
00000200: cb76 c0bd 1770 e3bd ea4c f9bd 38e4 3ebd
00000210: 0c21 343b 8aa2 993d 053d 24bc 30cd cd3d
00000220: 9aea 45bc f504 2b3e 873f 67bd df26 1fbd
00000230: b0a5 ffbc 13f3 abbd 6be7 d1bb 468d 13be
00000240: 02c8 30bd a047 973d 7aeb 023e 6bea ef3d
00000250: 77fd 37bd e69c 083e f55c 963d 8831 edbd
00000260: f8de 4bbd 4387 d4bc 64f1 bf3d a170 aabd
00000270: 4791 0cbd 92f7 2e3e 5df2 d6bc 4c51 09bd
00000280: 2a11 e1bc 22a2 52bd 1f25 c53d 3734 85bd
00000290: 27f2 3e3e ffeb 96bd db81 f83d a58a 563e
000002a0: 2a3a 5cbd d29d 84bd 723e 8bbd 32cc 4f3c
000002b0: 7c35 7dbd 8590 023e 757a ad3d 97ed 47bd
000002c0: 4095 3bbc 3a1c 42bd 263a 563d 398d 0bbd
000002d0: 5ff2 b1bd 4f42 ec3d 730a 843d a744 cabd
000002e0: 3a61 b1bd 4e7b 603d 2301 58bd a189 30bd
000002f0: bda2 a0bd 5b45 b53d a0cc f93d 19da 96bd
00000300: 99a3 b4bd cf26 ba3b c0db b8bc fd62 743d
00000310: 0e8c 613d 35fe cabc dc1e b8bd 4b77 09be
00000320: e8b5 c0bd 2c80 01be 048e 803d 4f27 56bd
00000330: 46f1 edbd a3de 39be 6c6b ac3d a72e 01be
00000340: 1778 34be 4707 0cbe d98a eabd d967 a63c
00000350: 13ef 173e d012 17be 7908 d83c cdf0 ed3d
00000360: dea4 d13d 2aa6 adbd 7780 6d3e 8c99 a53d
00000370: 40ae e13d 7f16 bdbd 7028 c73d 6dd2 e7bd
00000380: f7f0 4e3e 3f25 893d 3c04 09be 9697 463d
00000390: 6c27 cf3d d9ed 973d 1395 063e 206b 15be
000003a0: 0c46 d9bd 6e01 96bd 7b44 11be 93a9 813c
000003b0: 7874 18be 642a dc3d fabd 81bd d6e5 383e
000003c0: b2e7 fbbd d5e0 efbd 7040 f6bd 7874 a03d
000003d0: 961c fe3d 9858 0fbe 7b35 a93d 163b 37bd
000003e0: bbd9 9bbd 384e dfbd 7f9b 923d a98c 813d
000003f0: e600 033e e9b5 c63c c5f8 b0bd 8ff7 23be
0.061668802 -0.009736134 0.033283815 0.105731815 -0.032407038 0.062817074 0.044655208 0.14882575
0.12909816 0.1191649 0.12488514 0.07406845 -0.09522269 0.13677844 -0.07399152 0.24894272
-0.068095155 -0.089126974 -0.021399466 -0.12729937 -0.12011852 0.16711304 -0.06969034 0.1060463
-0.10880761 -0.07018179 -0.030344687 0.09518737 -0.043653116 -0.046141542 0.00067124097 -0.06707025
-0.13577847 0.1384048 0.060650617 0.078037255 -0.080590405 -0.053002536 -0.14658245 0.058126237
-0.11061957 0.116600364 0.091162965 0.10951739 -0.066907555 -0.09057269 0.06210539 -0.085591435
-0.081807524 0.17644678 -0.19032454 0.11111756 -0.122623414 -0.050242655 -0.051755037 0.08020011
0.20255835 0.011936012 -0.061776735 0.069763 -0.07114471 0.11740192 0.1709943 0.098065816
0.0055873767 0.118350245 0.17893106 -0.068539806 -0.036681745 -0.031931758 -0.09099411 0.10038174
-0.044653825 -0.10826567 -0.08478598 0.03806422 0.123483084 -0.039110765 -0.0892399 0.22077331
-0.010530959 0.06068431 0.13585638 -0.123859115 -0.00097195583 -0.026996009 -0.099363185 -0.09785708
0.08195348 -0.12466926 -0.13769215 -0.098026596 0.16386375 0.061287742 -0.03665417 -0.15464462
0.036584508 -0.029488813 -0.08510201 0.049836926 -0.12815657 0.09104261 0.014986396 -0.03187723
0.14089611 -0.16222431 -0.12825647 -0.18152907 0.09211514 0.13031645 0.14282973 -0.08429755
0.058576368 0.00396242 0.073762484 0.03747 -0.003931758 0.09636157 -0.015937177 -0.016646115
0.17028493 0.11618714 0.024479968 -0.049405634 -0.030613527 -0.10337186 -0.14497168 0.22296299
-0.09397658 -0.11105364 -0.12172873 -0.046604365 0.0027485518 0.07501705 -0.010024314 0.10048902
-0.012079859 0.1670111 -0.05645707 -0.03885543 -0.031206936 -0.08395972 -0.006405761 -0.1440936
-0.043159492 0.07386708 0.1278514 0.117146336 -0.044919457 0.13341102 0.07341949 -0.11581713
-0.049773186 -0.025943404 0.093722135 -0.083222635 -0.034318235 0.17086628 -0.026238615 -0.033524796
-0.027474005 -0.051424153 0.09626221 -0.065041 0.18647061 -0.073692314 0.12134143 0.20951326
-0.053766407 -0.06475414 -0.0679902 0.012682961 -0.061818585 0.12750442 0.084706225 -0.048810568
-0.011449158 -0.0473902 0.05230155 -0.034070227 -0.08688807 0.11536085 0.064473055 -0.09876376
-0.086611226 0.054805093 -0.05273546 -0.043100003 -0.0784354 0.08851119 0.12197232 -0.073658176
-0.08820266 0.005680896 -0.022565722 0.059664715 0.055065207 -0.024779418 -0.08990261 -0.13424413
-0.09409696 -0.1264655 0.06277087 -0.05228358 -0.11618285 -0.18151335 0.084189266 -0.12615453
-0.17623936 -0.13674651 -0.11452264 0.02031319 0.14837293 -0.1475327 0.026371228 0.11618195
0.10236524 -0.08478959 0.23193537 0.08085927 0.11019564 -0.092328064 0.0972451 -0.113194324
0.20209108 0.06696557 -0.13380522 0.048484407 0.10114941 0.07418413 0.13142805 -0.14591646
-0.106090635 -0.073244914 -0.1418628 0.01582793 -0.1488818 0.10750273 -0.06335063 0.18056425
-0.12300052 -0.11712805 -0.12024009 0.07834715 0.12407796 -0.1399864 0.08262154 -0.044734083
-0.07609888 -0.10903591 0.07158565 0.06325657 0.12793311 0.024256663 -0.08641199 -0.16012405

layers.1.theta.bias f4 [7]
00000000: 4def b139 25fc b1b9 404b c6b7 a4ce 6039
00000010: f310 94b9 18b4 df37 afe3 dc38
0.00033938364 -0.00033947933 -2.363848e-05 0.00021439284 -0.00028241388 2.6667534e-05 0.00010532827
