src/hcha_best_model.pth (torch, 370703 bytes, 4 tensors)

convs.0.weight f4 [1433, 64]
000000 27 f6 45 bd bf 56 7a bc 21 87 e6 bc 03 ad 33 3d
       -0.048330452 -0.015279471 -0.028140606 0.04386617
000010 7b db 38 ba 4b 43 b1 3c 7d 9d aa bc cb 9e 21 3d
       -0.0007051748 0.021638533 -0.02082705 0.039458077
000020 96 2c 24 3d 2d de 86 bc 13 53 4b 3d ca f2 a5 bc
       0.040081583 -0.016463364 0.049639773 -0.020257372
000030 3e 58 19 3d 76 49 ee bc 6a 73 e4 bb 8a ff 4e bd
       0.03743767 -0.029087763 -0.0069717662 -0.05053667
000040 84 5a b3 3c 4e e7 09 bd 4a 15 50 bd 8b 93 63 bd
       0.021893747 -0.033667855 -0.050801553 -0.05556063
000050 57 cc 46 bd 4d 61 5d bd 07 d4 e7 bc f2 cc af 39
       -0.048534717 -0.05404787 -0.028299345 0.00033531297
000060 c5 7b 0a bd 94 ea 1f 3d a4 6e d4 3b cc 22 08 bd
       -0.033809442 0.03904207 0.006482916 -0.03323631
000070 bf 47 f1 bc 73 92 c3 bc 3e bd 09 bd 64 f3 cd 3b
       -0.029453157 -0.023873543 -0.03362774 0.006285118
000080 02 50 62 bc 0c 2e 60 bd b8 a7 63 3b 1b 55 2a bd
       -0.013813021 -0.054731414 0.003473742 -0.04158507
000090 98 ba 06 bb 12 7f e3 3c 2c 6c 5e bd 6a 44 63 bd
       -0.0020557996 0.027770553 -0.05430238 -0.055485167
0000a0 e2 5b 26 bd 5d ba 1e bd 09 37 d9 bc f7 ac 78 3c
       -0.04061497 -0.03875195 -0.0265155 0.015177957
0000b0 bb 98 f4 bc 3a 5c 63 3d c5 8f 39 3d e0 c0 75 bc
       -0.029857984 0.055507876 0.045303125 -0.014999598
0000c0 1c 80 4b bc d0 94 f1 bb d2 fc 66 3d 74 3b 3b bc
       -0.01242068 -0.007372476 0.056393452 -0.011427749
0000d0 bd 9a 66 3d b3 75 5a bd 13 dc 05 3d 83 10 01 3c
       0.056299914 -0.053334903 0.032680582 0.007877472
0000e0 2b 5e d3 bc 90 de d9 bc 1a cf f8 bc 6e b1 2a bd
       -0.025801739 -0.026595384 -0.030372191 -0.041673116
0000f0 15 54 bc 3c 65 00 ba bc 55 ac 4f 3c e8 de 54 bb
       0.022989312 -0.022705266 0.0126753645 -0.0032481495
000100 09 61 66 3c a3 8d 1b bc 0e 9e 93 3c 4c d2 ca bc
       0.014061221 -0.009494218 0.018019702 -0.02475848
000110 9d bf 39 bd 30 dc e0 3c dd 4d f7 bc 86 c0 a4 bc
       -0.045348752 0.027448744 -0.030188495 -0.020111334
000120 8e 80 3f bd 63 dc 93 bc 64 c4 6a 3d 8b 74 30 bc
       -0.04675346 -0.018049425 0.0573162 -0.0107699735
000130 d7 a9 ff 3c 27 23 48 bc c0 9c 3a 3d 26 58 86 3b
       0.031208916 -0.012215412 0.045559645 0.0040998636
000140 0e bb 0a 3d 5e 2e a6 3c cd 03 09 bd e0 0d ca 3c
       0.033869796 0.020285781 -0.03345089 0.02466482
000150 2b 43 20 bd dd eb fe 3b b1 96 37 bd ef a2 99 3b
       -0.039126556 0.007779582 -0.044821445 0.0046886127
000160 e2 2d 14 3d 27 ab e0 ba f4 93 ec 3b 0e 17 9c bc
       0.03617657 -0.0017140851 0.007219786 -0.019053962
000170 ae 87 4a 3d f5 f3 1b bd 5f 13 0f 3c 6d e3 38 bd
       0.0494458 -0.038074452 0.008732646 -0.045138765
000180 de 9d 64 bd 2c 32 2d bb f1 ac 0f bb 86 1c fe 3c
       -0.055814616 -0.002642761 -0.002192315 0.03101946
000190 62 6a b3 bc 42 6d 38 bd 9b e3 5c bc 73 df c5 3b
       -0.021901313 -0.04502607 -0.013482 0.0060386
0001a0 a6 ab 31 bd b9 24 5c 3d cb 52 26 bb 3e bd da bc
       -0.043376587 0.05374596 -0.0025378938 -0.026701566
0001b0 fd 97 b5 3c d3 58 99 bc ee 43 b8 bc b3 f9 c0 bc
       0.0221672 -0.018719113 -0.022493329 -0.023556566
0001c0 35 e9 43 3d 18 67 fe bc 84 88 5d 3d 74 6a 3a bd
       0.047829825 -0.031055018 0.05408527 -0.045511678
0001d0 29 f0 6d bc 1a 4e 78 3a 32 3c 90 bb 9e 8b ef 3c
       -0.014522591 0.0009472087 -0.004401707 0.02924138
0001e0 29 c4 93 3c 0b 6d b9 bc b0 67 50 3c 52 b5 d9 bc
       0.018037872 -0.022635004 0.0127200335 -0.026575718
0001f0 99 06 1a 3d bc e4 86 bc 27 bb 5c 3d 5e 6b 0f bd
       0.03760395 -0.01646649 0.05388942 -0.035014503
000200 87 10 f8 3b 84 ec 57 3d 29 61 5d bc e5 50 4a bd
       0.0075703296 0.052715793 -0.013511934 -0.049393553
000210 d2 f6 36 bd 76 12 18 bd 6c 7a 87 bc 99 55 9d 3c
       -0.04466898 -0.03712698 -0.016537867 0.019205855
000220 74 a3 dc 3c 44 01 08 3c cc a1 08 bd fb ce ea 3c
       0.02693341 0.008301083 -0.033357427 0.02866315
000230 15 af 17 3d 09 3b 74 3d 39 6e 34 bd a7 4b 77 3d
       0.037032206 0.059626613 -0.04405043 0.060374882
000240 f2 1f 4b bc a2 9f 23 3b 3e 70 00 3d 76 39 79 3c
       -0.012397753 0.0024966975 0.031357042 0.015211454
000250 c6 ee 1f 3c 93 35 5b bc 3e 3d ad bc df 2a 3b bd
       0.009761518 -0.013379472 -0.021147367 -0.045695182
000260 ca a1 4b bd b8 50 4c bd 35 bb 48 3d 77 74 1f 3d
       -0.04971484 -0.049881667 0.04900666 0.03892943
000270 fd b4 0a bd 24 bb b0 bc 78 b4 67 3d 5b 12 a0 3a
       -0.03386401 -0.02157361 0.056568593 0.0012212502
000280 d4 e9 0d 3d 07 e4 d7 3b ec 8d 47 bc 47 97 37 bd
       0.034646824 0.0065884623 -0.012179833 -0.044822004
000290 79 b1 b8 bc 2e 34 d6 3a 60 3d 1d 3d f0 3e ba 3c
       -0.022545563 0.0016342455 0.03838861 0.022735089
0002a0 48 49 1c bb 1e 45 db 3c 2d 7d 0f bd 7e bd dc 39
       -0.002384739 0.026766356 -0.035031486 0.00042102853
0002b0 49 23 4b 3d bb fc 7e 3d 9a 1f 4f 3c 89 e7 28 3c
       0.049594197 0.06225274 0.012641812 0.0103091085
0002c0 1a c0 ca 3b 91 f5 a2 bc 0d d8 27 bd 88 ca fb 3a
       0.006187451 -0.019892486 -0.040977526 0.0019210139
0002d0 b0 8c 65 3d 35 b7 d1 bc 99 33 35 3d a9 16 07 3d
       0.056042373 -0.025600055 0.04423866 0.032980595
0002e0 4d 07 1e bd 90 4b b3 3c 9a 38 6d bc e0 1b 12 bd
       -0.03858118 0.021886617 -0.014478827 -0.035671115
0002f0 74 c1 d4 bc 67 3c c8 3c d4 41 15 bc 06 96 81 ba
       -0.025971152 0.024442865 -0.009109933 -0.0009886629
000300 a8 55 6e 3c 40 53 71 3d 09 8a 5d 3d ce b2 85 bd
       0.014546789 0.058917284 0.05408672 -0.06528245
000310 0d 36 eb bb d8 59 81 bd 15 64 2b 3b 9e 5e ad 3b
       -0.007178074 -0.063159645 0.0026152183 0.0052908203
000320 89 bd 06 bd d1 05 65 bd 75 d6 ec 3c f3 d1 2d bd
       -0.0328956 -0.05591375 0.028910855 -0.04243655
000330 b5 88 74 3c bc 47 c9 3c ac 3d 96 bc d8 57 58 bd
       0.014925172 0.024570338 -0.018339954 -0.05281815
000340 1a 68 2e 3a 88 69 63 3b c5 d7 63 bc cf 14 34 bb
       0.00066530856 0.0034700353 -0.013906424 -0.0027478223
000350 3c 08 4c 3d 11 ba 08 bd 9d 7e 58 3c 64 b1 bf bc
       0.04981254 -0.03338057 0.013213781 -0.023400016
000360 e5 24 69 bd 95 22 0c 3c d7 41 e4 bc 06 94 6b bd
       -0.05691995 0.008553167 -0.027863426 -0.057514213
000370 ac 66 b4 bc 4c cc c3 3c ed 70 78 bc 7f 80 27 3d
       -0.022021614 0.023901127 -0.015163642 0.040894028
000380 e2 73 18 bd 2f b3 3d bc d4 cb 2d bd cd 4a 7c 3d
       -0.03721989 -0.011578365 -0.042430714 0.061594773
000390 c3 6a 06 3c d5 f0 27 3d 43 6b 6a bd c7 84 cf bc
       0.008204165 0.04100116 -0.0572312 -0.025331868
0003a0 54 6f 8d 3b 8b 27 12 3d bc d6 51 bd 28 de 18 3d
       0.00431625 0.035682242 -0.051230177 0.03732124
0003b0 1e 6f 11 3c ef 8f b6 bc e0 50 f5 bc d6 62 a0 3b
       0.00887659 -0.02228543 -0.02994579 0.0048945947
0003c0 60 06 15 ba 25 54 21 bd ad 19 60 bd 49 7a e9 3c
       -0.0005684849 -0.039386887 -0.054711986 0.028500693
0003d0 4f 94 00 bd 90 92 04 bd 8b ce 06 3d d0 e9 14 bd
       -0.031391438 -0.032366335 0.03291182 -0.036355793
0003e0 ad b3 a5 3c 7f 08 0c 3d a8 ce 8e bc a0 4a 0f bd
       0.020227278 0.03418779 -0.017432526 -0.034983277
0003f0 f3 67 1e 3d 32 4c 3b bd 93 0c de 3c 1b 25 3a bd
       0.038673352 -0.045726962 0.027105605 -0.045445543

convs.0.bias f4 [64]
000000 c9 5c 98 bb 50 39 a0 bb 38 67 96 bb bc 2e a0 bb
       -0.0046497327 -0.0048896447 -0.0045899414 -0.0048883837
000010 0e 0f 91 3b 6e ca 99 bb 25 c9 9b bb f6 99 e6 39
       0.0044268435 -0.004693321 -0.004754203 0.00043983728
000020 09 42 a6 bb fa b0 a2 bb 8a 71 84 bb 07 e6 a2 3b
       -0.00507379 -0.004964945 -0.004041855 0.004971269
000030 61 0c 85 bb 41 e5 97 3b 20 c2 95 3b e4 e1 9e 3b
       -0.0040603136 0.0046354835 0.0045702606 0.0048487056
000040 36 e1 a4 3b f6 19 a1 3b 1c 44 97 bb 7a 27 8e 3b
       0.00503173 0.004916425 -0.0046162736 0.004338202
000050 d5 7a 9d 3b 66 97 37 bb d8 ab 98 3b 1b 5e 9f 3b
       0.0048059025 -0.0028013824 0.0046591572 0.004863513
000060 0d 7e 87 bb d4 8e 91 3b 22 6f 92 3b 4e a1 9b 3b
       -0.0041348995 0.0044420753 0.0044688145 0.0047494536
000070 c7 b4 9d bb 20 8e 8d 3b 4c 90 87 3b 98 d4 9c 3b
       -0.00481281 0.004319921 0.0041370746 0.0047860853
000080 de 41 9e bb 0b 44 9c bb d4 ee 85 3b d9 d9 a0 3b
       -0.0048296293 -0.0047688535 0.0040873084 0.004908782
000090 8d 52 90 bb 3b 68 a1 bb 5c 14 94 3b 8e 2d 9e 3b
       -0.004404372 -0.0049257553 0.0045190286 0.004827208
0000a0 61 95 55 3b a0 2c 8f 3b 4e 2e 96 3b 8e f5 97 3b
       0.0032590257 0.0043693334 0.0045831567 0.0046374267
0000b0 80 54 61 bb 4e 02 9f 3b 7e e2 a0 bb ea 83 9c bb
       -0.0034382641 0.0048525697 -0.0049098125 -0.0047764676
0000c0 5b 0f 9e 3b 20 4c 62 bb 26 64 9b bb ae 95 95 3b
       0.004823608 -0.0034530237 -0.0047421632 0.0045649623
0000d0 f0 3d 9f 3b a6 2a a0 3b c0 ac a2 3b 44 b1 9e 3b
       0.0048596784 0.0048878966 0.004964441 0.004842909
0000e0 ae f3 89 bb 1d ca a1 3b 5d 18 9f bb 0c 80 a2 3b
       -0.004209957 0.004937424 -0.0048551993 0.004959112
0000f0 c5 36 93 bb 19 b5 8a bb 47 bb b6 ba d7 6d 95 bb
       -0.004492613 -0.0042330143 -0.0013941311 -0.004560213

convs.1.weight f4 [64, 7]
000000 2c 00 7b bd 0e 2b 58 3e 05 bf 2b 3e 74 40 ad 3d
       -0.06127946 0.21110174 0.16772087 0.08459559
000010 ee 3a 18 bc b2 1f 8c bd 26 98 92 3e 86 60 5f 3e
       -0.009291394 -0.06841983 0.28631705 0.21814165
000020 0b 6d 36 3e 7a 7d 2f 3c 9f 2d 4b be 9c ab 2e be
       0.17815034 0.010711068 -0.19841622 -0.17057651
000030 60 8b c2 bd 3e 7d b8 bd 10 84 c8 3d 55 14 29 3e
       -0.0949924 -0.09008263 0.09790814 0.16511662
000040 d7 ad 06 3e 4d eb 16 be 50 79 0d bd 46 33 1e bd
       0.13152252 -0.14738198 -0.03453952 -0.038623117
000050 bb 2a fa bd 7e 5c 66 be 1f 8b ec bd f9 35 0a 3e
       -0.122151814 -0.2249622 -0.11549973 0.13497151
000060 3f 09 2c be 9c 8f 62 be 20 48 c4 bd 8c f1 76 3e
       -0.16800402 -0.22125095 -0.09584069 0.2411558
000070 83 61 58 3e 5c 56 2f be a0 7e d2 3d c2 55 ad 3d
       0.21130948 -0.17122787 0.10278058 0.08463623
000080 25 59 90 bd 78 85 aa 3d 48 72 1e be 48 92 33 3e
       -0.07048253 0.083262384 -0.15473282 0.1753627
000090 d6 cb 74 3e a7 4f 4a be ea f3 64 be b9 07 7c 3e
       0.23905882 -0.19756947 -0.22358671 0.24612321
0000a0 6f 25 8e be 2e 39 d7 3d 42 6a 52 3e ca 4a 84 be
       -0.27762935 0.10508953 0.20548347 -0.2583831
0000b0 b0 da 10 3e f3 0d 81 be 33 19 bf bd b8 9d cc 3d
       0.14145923 -0.25205955 -0.09330978 0.0999102
0000c0 c3 80 73 3e 22 a1 f5 bd c6 a7 c9 bc 46 78 88 3e
       0.23779587 -0.11993624 -0.024616133 0.2665426
0000d0 70 31 3b 3e aa f4 de bc 45 df 71 3e 6e fd 68 3e
       0.18280578 -0.027216274 0.23620327 0.22752926
0000e0 42 b7 76 be 5e 3a 7d 3e 7c 59 ec 3d 59 59 5c bd
       -0.24093345 0.24729297 0.11540505 -0.053796146
0000f0 b7 8b 05 be c7 54 8a be 0a 88 70 3e c8 d6 f2 bd
       -0.13041578 -0.27017805 0.23489395 -0.118573725
000100 f8 48 fe bd 3c ee 62 3d 4d 85 2d be b3 ac 79 3d
       -0.124162614 0.05540298 -0.16945381 0.060955714
000110 aa d3 09 be 77 d0 90 3e a4 6a 4c 3e a7 58 83 bd
       -0.1345965 0.28284046 0.19962555 -0.064133935
000120 43 04 98 3d 91 14 41 be 11 a4 8f be cf 66 82 3e
       0.07422688 -0.18855502 -0.2805486 0.25469062
000130 e4 48 79 be 5b e7 01 bd f2 95 a1 bd 18 4d ad bd
       -0.24344212 -0.03171478 -0.07889928 -0.0846197
000140 6d 38 94 3e 0b 25 0a 3e 3d 21 92 3e 63 9a 80 3e
       0.289493 0.13490693 0.28540984 0.25117788
000150 cd fa cb bd 37 70 31 3e 0e 1f 50 be fe 46 68 be
       -0.09959946 0.17327963 -0.20324346 -0.22683331
000160 72 dd 4b bd 96 cd 84 3e d4 e0 92 bd 3b 13 f1 bd
       -0.049771734 0.259381 -0.07171789 -0.11771246
000170 b5 b3 48 be e2 48 2a be d0 83 5c 3e 82 d6 7d be
       -0.19599803 -0.16629365 0.21534657 -0.2478886
000180 68 e9 1e be 70 aa 3c 3e 16 e1 59 3d 11 99 fa bd
       -0.15518725 0.18424392 0.053193174 -0.12236226
000190 66 d9 53 3c 9e 19 5a 3e 03 5e 46 3e 95 c8 0e be
       0.01293025 0.21298835 0.193718 -0.13943703
0001a0 75 62 d3 3d 8b ee a2 3d 23 71 c0 3d f2 81 96 bd
       0.103215136 0.07955655 0.09396579 -0.07349004
0001b0 0c d3 5b 3e e7 26 ab bb d1 16 6d be 86 fd 46 be
       0.21467227 -0.0052231434 -0.23153235 -0.19432649
0001c0 85 fd 69 be 29 75 f0 3d fa 33 e5 bd 0b ce 47 3e
       -0.22850616 0.117410965 -0.11191554 0.19512193
0001d0 d0 70 1f 3e 18 19 0a 3e 50 57 02 be 4b 58 af bd
       0.15570378 0.13486135 -0.1272862 -0.085617624
0001e0 de c5 3a 3d e3 06 90 be 34 99 42 3e f1 c2 b9 3c
       0.045598857 -0.28130254 0.19003755 0.022675963
0001f0 55 e9 38 3d 16 c5 69 bd 3a af d8 bd 79 8d 0f 3e
       0.045144398 -0.05707272 -0.10580297 0.14018811
000200 ee 96 d5 bc 41 13 e3 bd f5 ed 3d be 78 10 d2 3c
       -0.026072945 -0.11087657 -0.18547805 0.025642619
000210 e5 94 50 3e 90 fe 8e 3e c0 4a 98 bc a2 c4 92 be
       0.20369299 0.2792859 -0.018590331 -0.28665644
000220 e0 11 06 be 58 b7 78 bc 8e 72 ab 3d b2 63 8b bd
       -0.13092756 -0.015180431 0.08371459 -0.06806125
000230 ba d7 e6 3d 99 21 94 3d e2 d3 8c be f6 b6 40 3e
       0.11271615 0.07232971 -0.27505404 0.18819794
000240 ff 9e c9 3d 2e f6 77 3e 6c 5a 52 3e 0e 0b 80 be
       0.09844779 0.24215004 0.20542306 -0.25008434
000250 37 a5 e3 bd e8 1f 73 3d 72 a6 35 3b a2 9e 88 3d
       -0.111154966 0.0593566 0.0027717617 0.06670882
000260 e0 6d 93 3e cc 89 4b bd 35 5d 81 3e 9e 3b 85 3e
       0.28794765 -0.04969196 0.25266424 0.26022047
000270 38 3e ee 3d 22 14 8c 3e 75 14 46 3e bb 2a e8 bd
       0.11632961 0.2735911 0.19343741 -0.11336275
000280 af d1 46 bd 52 25 0d be 8e 6e 27 3c c7 a7 80 be
       -0.048539814 -0.13783768 0.010219229 -0.25128004
000290 3c ba da 3c 41 4d 83 be 2f 0a b4 bb 01 35 5d be
       0.026700132 -0.25644878 -0.005494378 -0.2160225
0002a0 ad f0 b5 bc ac 0d 0b be e9 7d 50 3d 22 3c d9 3c
       -0.02220949 -0.13579434 0.050901327 0.026517931
0002b0 51 6a 63 3e e2 82 3c 3d 89 49 a4 3c 43 46 66 be
       0.22208525 0.046023257 0.020054596 -0.2248774
0002c0 be 70 2f 3e e2 4e 0e bd 5d c8 82 3b 0e 9a 0c 3e
       0.17132851 -0.034743197 0.0039911703 0.13730642
0002d0 0c 04 a5 bd be e1 8f be 81 2b e2 3d b0 2a 0a be
       -0.080574125 -0.28101915 0.11043454 -0.13492846
0002e0 b3 38 ab 3d 87 05 50 3e c6 95 0a 3d 7c 28 2a 3d
       0.08360424 0.20314609 0.03383424 0.041542515
0002f0 db 05 16 3e a9 d9 c1 bc 21 79 10 bd 69 70 b3 3c
       0.14650671 -0.023663359 -0.035271768 0.021904187
000300 cc 53 80 3e 75 0e 27 3e 75 cf ad 3d 50 70 10 be
       0.25063932 0.16314109 0.08486835 -0.14105344
000310 9f 4c 57 be 05 97 14 3e 21 c3 1a 3d 47 53 5c be
       -0.21025322 0.14510734 0.037783746 -0.21516143
000320 b6 45 58 3c be bd 58 be d7 97 11 be 1e 77 e1 3d
       0.013200214 -0.21166131 -0.14218079 0.11009048
000330 ce 89 df 3b 6d fa 59 be 8c 18 2e be 14 7f 53 be
       0.0068218475 -0.21286936 -0.17001551 -0.20653945
000340 b1 bb cb 3d 42 00 3c be 8b 82 e8 bd 84 7d 8f 3e
       0.09947909 -0.18359473 -0.11353024 0.28025448
000350 d1 06 61 3e c7 03 08 3e 20 0d 03 bd 12 b1 08 3d
       0.21975257 0.13282691 -0.03199494 0.033371992
000360 28 8e 68 bd bc 06 32 bb 70 e3 ef 3d cf 32 02 be
       -0.056776196 -0.0027164659 0.11713302 -0.12714694
000370 df 3c 7c 3d d6 74 21 be 1c 39 78 be e2 a1 81 be
       0.06158149 -0.15767226 -0.24240535 -0.2531882
000380 4a ac 59 bd 64 fb 34 be 08 60 38 3e 4a 5c 71 be
       -0.053142823 -0.17674023 0.18005383 -0.23570362
000390 52 19 51 3e cf 1d d3 3d e5 a5 0f bd 39 81 08 3e
       0.20419815 0.1030842 -0.03507032 0.13330545
0003a0 97 62 79 be 1e 1e 8c 3e 95 8b 0e be dc b8 38 be
       -0.24354015 0.27366728 -0.13920434 -0.18039268
0003b0 31 1b e0 3d 11 6a 49 be 9e 28 ba bd 40 15 2c be
       0.10942686 -0.19669367 -0.09089778 -0.16804981
0003c0 05 79 cc 3d 0f b8 8c 3d 9a 06 3b 3d 40 f0 df 3d
       0.0998402 0.06871044 0.045660593 0.10934496
0003d0 5a fa 29 be 5e fa 0f 3e 22 5f 16 3e 6a 93 02 be
       -0.16599408 0.14060351 0.14684728 -0.12751547
0003e0 e9 1a 3d 3e 50 99 6d be fd dd 7d bd 76 16 85 be
       0.18467297 -0.23203015 -0.061979283 -0.259937
0003f0 87 96 ec 3d 54 56 12 3e 8e 6f 6b 3e 9c c8 d8 bb
       0.11552148 0.14290744 0.22991773 -0.0066157114

convs.1.bias f4 [7]
000000 96 0d be 3b 88 16 bf bb 74 c2 bc bb 7d d6 be 3b
       0.0057999594 -0.0058315434 -0.0057604853 0.005823909
000010 6c e4 b6 bb dc d9 b6 3b 80 42 c5 bb
       -0.005581429 0.00558017 -0.0060198903
