src_new/bkunigin_cocitationciteseer_hid64_0107.pth (torch, 955947 bytes, 12 tensors)

layers.0.bn.weight f4 [64]
000000 31 f6 7e 3f 88 4f 7f 3f c1 62 87 3f 4d 81 80 3f
       0.9959441 0.9973073 1.0577012 1.003946
000010 c2 f6 7e 3f 01 58 7e 3f 65 1d 86 3f c4 62 84 3f
       0.9959527 0.99353033 1.047772 1.0342641
000020 87 cc 85 3f 1f 8a 81 3f 75 cd 7f 3f 5e c7 80 3f
       1.0453042 1.0120276 0.9992288 1.0060842
000030 5c 63 81 3f da 45 84 3f 8d 3f 7a 3f 61 c2 71 3f
       1.0108447 1.0333817 0.9775322 0.94437224
000040 d4 a1 84 3f d0 06 7f 3f 3d 82 81 3f 99 ec 7f 3f
       1.0361886 0.9961977 1.011787 0.99970394
000050 97 e5 84 3f d2 b4 86 3f 96 2f 7f 3f ce db 7e 3f
       1.0382565 1.0523932 0.99681985 0.99554145
000060 7a 7e 7e 3f 74 21 84 3f ab de 84 3f 36 74 82 3f
       0.9941174 1.0322709 1.0380453 1.0191715
000070 1e 28 7b 3f b0 95 7d 3f ba 98 80 3f c6 f9 84 3f
       0.9810809 0.9905653 1.0046608 1.0388725
000080 fd fb 82 3f 1b 52 7e 3f 81 d0 7e 3f 63 27 85 3f
       1.0233151 0.99344033 0.995369 1.0402645
000090 4b b7 7f 3f 34 52 84 3f 45 ac 84 3f f4 88 81 3f
       0.9988906 1.0337586 1.0365072 1.011992
0000a0 cf f8 79 3f ad d2 89 3f 55 02 80 3f d5 58 7f 3f
       0.97645277 1.0767418 1.0000712 0.9974492
0000b0 88 d6 83 3f 9d 9a 7a 3f 37 28 84 3f bf 24 88 3f
       1.0299845 0.9789217 1.0324773 1.0636214
0000c0 85 53 85 3f 8f b8 80 3f 2d 3e 81 3f ee 90 80 3f
       1.0416113 1.0056323 1.00971 1.0044229
0000d0 f6 3b 74 3f a0 16 78 3f 7c 01 82 3f 60 88 7d 3f
       0.95403993 0.96909523 1.0156703 0.99036217
0000e0 50 79 85 3f 15 23 80 3f cd 1e 7f 3f 1f be 7b 3f
       1.0427647 1.0010706 0.99656373 0.98336977
0000f0 ff 88 87 3f c9 0c 77 3f e6 4f 81 3f eb 77 7c 3f
       1.0588683 0.96503884 1.0102508 0.9862048

layers.0.bn.bias f4 [64]
000000 a0 64 02 3c d0 ef 27 bb 00 08 18 3b 66 ba 2d bb
       0.007958561 -0.0025625117 0.0023198128 -0.0026508807
000010 cc df 64 bb 8a ac d6 bb bb 6f c0 3c 4c c5 4a bb
       -0.0034923432 -0.00655133 0.023490777 -0.0030940352
000020 9f 37 04 bc fe 15 50 bb e1 da cb bb 96 98 54 3a
       -0.008069902 -0.003175139 -0.0062211608 0.0008109895
000030 4a 61 e0 bb 77 c5 5f ba a3 dc d3 ba 96 43 fd bb
       -0.0068475353 -0.00085361995 -0.0016163777 -0.007729004
000040 12 26 d5 bb 19 1f f1 bb 52 c4 72 3b cc 3f 74 ba
       -0.0065047825 -0.0073584435 0.0037043286 -0.0009317368
000050 c9 71 18 bc 07 1d 66 bb 1c 57 26 bc 02 37 d3 bb
       -0.009304472 -0.0035112516 -0.010152604 -0.0064457664
000060 9f b7 64 bc 48 f1 ad b9 41 1b b4 bb 31 57 99 3b
       -0.013959794 -0.000331769 -0.005496413 0.0046795835
000070 41 60 22 3b b4 16 ff bb ff 1b ec ba c5 4b b6 3c
       0.002477661 -0.007784689 -0.0018013715 0.022252927
000080 91 52 f7 bb 36 3e d9 bb be db c5 bb 4b df 34 3c
       -0.0075476845 -0.0066297306 -0.006038158 0.011039565
000090 63 c1 bb bb 35 ab 10 bb 83 59 d6 bc 05 86 4f ba
       -0.0057298406 -0.0022074704 -0.02616573 -0.0007916394
0000a0 27 71 47 bb 04 9a 8e 39 03 91 cc 3a 0e 10 55 ba
       -0.0030432434 0.000271991 0.0015607182 -0.00081276975
0000b0 56 55 b3 bb 4e 83 ac bb 51 7f a3 ba e2 a1 c7 3c
       -0.0054728193 -0.005264676 -0.0012473856 0.024369184
0000c0 63 2d c4 bb 12 18 d8 3b ba c2 66 39 47 30 99 bb
       -0.005986856 0.0065946663 0.0002200705 -0.0046749446
0000d0 65 13 fe ba 12 db bd bb 28 0d 5c bc 16 e9 06 3b
       -0.0019384442 -0.0057939375 -0.013430871 0.0020585707
0000e0 bb 9e a3 3c 7f 81 c5 bb b9 ba 79 ba 20 e6 4d bb
       0.01997315 -0.0060274 -0.000952642 -0.0031417683
0000f0 9b db a6 3b b6 0a 3b ba 91 4b 9e ba f6 3a 46 bc
       0.005092097 -0.000713508 -0.0012076964 -0.012099018

layers.0.bn.running_mean f4 [64]
000000 e2 a9 d8 b7 60 f1 bb 3a 81 07 34 3b 58 85 10 3b
       -2.5828314e-05 0.0014338903 0.0027470293 0.0022052135
000010 e5 39 e9 3a 6c 93 1e 3b 6a e3 b4 3a d5 6e a7 3a
       0.0017793743 0.0024196757 0.0013800685 0.0012774119
000020 44 78 08 3a bf 9e 0e 3b 09 cc 4e 3b ab fd 02 3b
       0.0005205909 0.00217621 0.003155472 0.0019987624
000030 1f 7b 1e 3b 07 7b 9b 3a 50 c9 a3 39 12 7f 29 3b
       0.0024182273 0.0011862227 0.00031239772 0.0025863093
000040 b1 68 e9 3a 36 7a 12 3b ee b3 8d 3a 88 8f de 3a
       0.001780769 0.0022350675 0.001081107 0.0016980032
000050 0f f8 a6 3a 25 4f e6 3a d6 11 2c 3b c6 e3 4c 3b
       0.0012738722 0.0017571194 0.0026255748 0.0031263693
000060 06 55 c2 3b f2 63 46 3a 04 f3 df 3a 34 fa 92 39
       0.0059305457 0.00075679936 0.0017085974 0.00028033706
000070 87 44 a2 ba f4 22 c1 3a 2a 64 35 3b 56 f2 7f 3a
       -0.0012380042 0.0014735148 0.002767811 0.0009763589
000080 ae b0 b1 3a 1b 34 34 3b aa 66 44 3b 92 f5 fa 3a
       0.0013556683 0.0027496878 0.002996842 0.0019146672
000090 4d 5e 10 3b 74 df 07 3b a7 78 95 3a c6 de 13 3b
       0.0022028864 0.0020732554 0.0011403755 0.0022563203
0000a0 c7 3a ab 3a 95 b5 81 3a 21 6a 86 3a 8f fd 37 3a
       0.0013063782 0.0009896035 0.0010255018 0.0007018679
0000b0 da 18 dc 3a 2e 16 cc 3a ae 21 23 3b 1b 6c cb 3a
       0.0016792074 0.0015570575 0.00248919 0.0015519889
0000c0 65 99 81 3a a4 83 b3 3a 23 e5 6a 3a d9 32 21 3b
       0.0009887634 0.0013695848 0.00089605356 0.0024596958
0000d0 1d b6 20 b9 6a a1 91 3a e6 57 ba 3a 2b ab 2e 3a
       -0.00015326632 0.0011110727 0.001421687 0.0006663079
0000e0 25 1f e2 3a 7a 54 38 3b fe be 47 3b fd b5 84 3a
       0.0017251713 0.0028126524 0.003047883 0.0010125038
0000f0 c7 10 19 3b a0 f1 ad b8 68 98 68 3a 27 70 09 3b
       0.0023355947 -8.294289e-05 0.0008872808 0.002097139

layers.0.bn.running_var f4 [64]
000000 83 d7 e5 37 2e f4 c1 37 33 f8 d7 37 5f d1 bd 37
       2.7399283e-05 2.3121098e-05 2.5745574e-05 2.2628052e-05
000010 77 fd cf 37 4d 14 aa 37 95 e1 d5 37 98 f3 c8 37
       2.4794352e-05 2.0275033e-05 2.5496623e-05 2.395529e-05
000020 7d 9a c4 37 6f c5 bc 37 b3 a5 ad 37 18 67 db 37
       2.343696e-05 2.2503284e-05 2.0700367e-05 2.6154841e-05
000030 3a a2 ca 37 de 1c ca 37 1a d9 b2 37 df f6 aa 37
       2.415582e-05 2.4093719e-05 2.132035e-05 2.0380538e-05
000040 41 96 ba 37 f2 8c b1 37 90 c8 d3 37 99 e7 bc 37
       2.2242895e-05 2.1165677e-05 2.5246554e-05 2.2519192e-05
000050 e3 a3 cf 37 da c5 cb 37 f0 7c af 37 25 20 ae 37
       2.4752639e-05 2.4291618e-05 2.0919804e-05 2.0757385e-05
000060 8c d0 f6 37 80 30 d0 37 1b be c9 37 fc dc d4 37
       2.9422597e-05 2.4818117e-05 2.4049592e-05 2.5375273e-05
000070 c9 72 b8 37 c5 3a c0 37 f1 06 ce 37 fc 71 d8 37
       2.198796e-05 2.291555e-05 2.4560346e-05 2.5802285e-05
000080 49 58 c6 37 80 2c a7 37 76 cb ab 37 46 0f d8 37
       2.364455e-05 1.9928673e-05 2.0479532e-05 2.5756319e-05
000090 2b b4 b2 37 fc 3c ce 37 0a 15 c6 37 df e1 e9 37
       2.130315e-05 2.4585512e-05 2.3613236e-05 2.7880944e-05
0000a0 d2 93 b9 37 37 c6 d3 37 0c 81 ca 37 66 86 b8 37
       2.2122553e-05 2.5245461e-05 2.4140369e-05 2.1997093e-05
0000b0 f7 c7 d5 37 4e 2a d1 37 d7 da da 37 72 1f d2 37
       2.5484695e-05 2.4934441e-05 2.608953e-05 2.5048594e-05
0000c0 fa 17 cd 37 95 05 d1 37 02 56 c4 37 42 ba b8 37
       2.444907e-05 2.491734e-05 2.3405071e-05 2.2021242e-05
0000d0 4a 28 b0 37 b7 53 c1 37 bd c8 c7 37 48 2a e2 37
       2.0999596e-05 2.3046376e-05 2.3816125e-05 2.6960988e-05
0000e0 ad 46 e2 37 4e 24 aa 37 1e c2 be 37 59 3f c2 37
       2.697421e-05 2.0282485e-05 2.2740158e-05 2.31561e-05
0000f0 ed 31 c9 37 06 cb b5 37 5f 20 cc 37 a8 25 db 37
       2.3984316e-05 2.1671422e-05 2.4333769e-05 2.612437e-05

layers.0.theta.weight f4 [64, 3703]
000000 89 50 ea 3b bc 89 5c bc 2c 55 25 3c e5 92 81 bc
       0.007150714 -0.013460573 0.010091107 -0.015817115
000010 e4 96 ba bb 7c ef a7 3b 73 88 e9 bc a4 50 cd bb
       -0.005694257 0.0051249843 -0.028507447 -0.0062657166
000020 9b 96 8b 3c 87 a5 44 bc d2 26 f2 3b 5a a0 32 3b
       0.017039588 -0.012002355 0.0073898816 0.0027256222
000030 02 88 1b bc 32 2f 29 bc 80 82 bc bc 7e 9c 51 39
       -0.009492876 -0.010326194 -0.023011446 0.00019990091
000040 ab 2d 57 bc 43 30 6c 3c b3 80 02 bb 99 b0 ea 3c
       -0.013133447 0.014415803 -0.0019913136 0.028648661
000050 55 15 55 3c 78 6e 37 bc 1b 2d 5e bc 7d 44 19 bc
       0.013005574 -0.011195771 -0.013560559 -0.009354708
000060 14 c6 00 3d 09 97 43 bc d5 ed de 3c 16 d1 16 3d
       0.031438902 -0.011937865 0.027213017 0.036820494
000070 b9 22 39 bc c7 66 ea ba 0c 5d 21 3c 02 7a 89 bc
       -0.011299782 -0.0017883413 0.009848844 -0.01678181
000080 2f e8 25 3b 01 ae f1 3c 6c 18 06 3c 48 3a d6 bb
       0.0025315394 0.029501917 0.008184534 -0.0065377094
000090 e0 c1 8b 3c f4 92 9b bc d0 45 17 3c f5 39 08 3b
       0.01706022 -0.018990971 0.009232953 0.0020786498
0000a0 42 1c 2e bc 01 2f 0b 3c bc fa 31 3c 82 e5 97 bb
       -0.010626854 0.008495093 0.010863002 -0.0046355138
0000b0 68 b7 cb 3c 5e 6a 2f bc 5c d0 c2 3b 70 75 30 bc
       0.024867728 -0.010706512 0.0059452485 -0.010770187
0000c0 fe 26 11 3d 14 19 ea bb b2 91 db 3b d4 53 73 ba
       0.035437576 -0.007144103 0.006700718 -0.0009282206
0000d0 54 14 99 3c 79 e8 be bc 88 df c6 bb 59 0a 32 3c
       0.018686451 -0.023304211 -0.0060691275 0.010866725
0000e0 94 b6 09 3d 8a a8 27 bc a0 c3 10 3b 15 04 21 3b
       0.033621386 -0.010233054 0.0022089258 0.0024569083
0000f0 ad 78 9f 3b 1e 8c 10 3b 15 aa 96 bb 46 8f c4 3c
       0.0048666806 0.0022056173 -0.004597912 0.0239941
000100 66 59 a8 bb 29 a9 9e bc 98 89 36 bb a7 49 9d bc
       -0.0051376102 -0.019367771 -0.0027853008 -0.01920016
000110 0a 12 27 bc 2c 41 4c 3b 69 11 01 3c 88 04 25 3b
       -0.010197172 0.0031166775 0.007877686 0.0025179703
000120 56 43 b2 3c ac 02 7e bc 4f fa 50 3b d1 a2 32 bc
       0.021760624 -0.015503567 0.0031887477 -0.010903076
000130 1f 7d 87 3c 9d 6c 3f bc f9 1b 9c 3b 74 40 2f bb
       0.016539155 -0.01168361 0.004764077 -0.0026741298
000140 6a 5a e5 bb d6 61 4a bc 3b 53 3f 3b 6d 7e be bb
       -0.0069993036 -0.0123524275 0.0029193896 -0.005813411
000150 b5 9b ce 3c d6 0f 09 bb ca b6 dd 39 b4 71 a9 3c
       0.025220731 -0.002091398 0.00042288593 0.0206841
000160 68 95 fe bc 79 a1 0a bd ae 5d a3 3c 00 65 8a bc
       -0.031077102 -0.0338454 0.01994213 -0.016893864
000170 e8 50 30 bb 10 3f 27 bc 1e 99 da bb a6 cd 91 3a
       -0.0026903693 -0.010207906 -0.006671085 0.001112391
000180 46 b4 13 3d 44 b3 0c 3d 52 63 d5 bc 8a d0 cf b9
       0.036060594 0.03435065 -0.026048336 -0.0003963749
000190 a0 4d 58 3c 98 29 4f 3b 89 c5 9b 3c 43 50 bb 3b
       0.013202101 0.0031610485 0.01901509 0.005716355
0001a0 31 65 6e bc ce 9f 8a 3b d7 67 ed 3b bb ef 1e 3c
       -0.014550493 0.004230476 0.0072450447 0.009700711
0001b0 86 00 ed b9 2b 11 c4 bc aa 70 97 3c 5f 72 7e 3c
       -0.00045204553 -0.023933968 0.01848634 0.015530198
0001c0 9a d2 e9 bb a1 76 b8 3b 08 40 92 bb 2c 6f 6d bc
       -0.0071357014 0.005629376 -0.0044631995 -0.0144918375
0001d0 11 b1 e5 bc d5 09 bb bc 96 09 19 bd bc 57 77 bc
       -0.028038533 -0.022831837 -0.037362657 -0.015096601
0001e0 a1 a9 d4 3a e5 dd 63 3c 8a 74 90 bc 92 53 45 3b
       0.001622487 0.013907884 -0.017633695 0.0030109626
0001f0 fe a1 61 bc 5b d7 1f bc a3 0d c6 bc 0d e1 c8 bc
       -0.013771532 -0.009755935 -0.024176424 -0.024521375
000200 fc 28 9c bc 48 07 e8 bc d7 86 c2 bc 7e 59 f8 b9
       -0.019062512 -0.028323784 -0.023745937 -0.00047368923
000210 42 1c 20 39 6e 4c 24 3c 1c 3c ae bb 9a 99 78 bc
       0.00015269316 0.010027988 -0.005317224 -0.01517334
000220 08 77 cc bc 79 f1 38 3c bd 9d 44 bb 7a 14 1c bc
       -0.024959102 0.01128804 -0.0030001246 -0.009526366
000230 4f b6 dc bb 21 37 96 3c 49 7f 7b bc 15 3a d5 bc
       -0.0067356 0.018336834 -0.015350171 -0.026028672
000240 bf 24 86 3b d0 df 83 bc 14 92 73 bc b4 2f a6 3c
       0.004093736 -0.016097933 -0.014866371 0.020286418
000250 34 df 0d 3d 35 44 85 bb 0b 09 d1 bc 22 17 b2 3c
       0.03463669 -0.004066969 -0.025517007 0.021739546
000260 50 69 f7 bc c4 b7 2b bc 6c 77 62 bc da dd 1c 3c
       -0.030201584 -0.010480825 -0.013822418 0.009574378
000270 29 57 f1 3c cc 59 47 ba 83 98 59 bc 3c 79 dd 3a
       0.029460507 -0.00076046283 -0.0132809905 0.0016897093
000280 f9 4a 3d bb ab 1d f5 3b 74 ca 31 bc cf a4 a9 bb
       -0.0028883799 0.0074803433 -0.010851491 -0.0051771174
000290 67 1a 00 bc 11 1e c6 3b 05 38 8d bb 7b 5c 68 bb
       -0.007818795 0.0060460647 -0.0043096566 -0.0035455513
0002a0 ac 69 4d bc 51 1f a4 bb 30 7f 2a 3c fb d6 45 3c
       -0.012537401 -0.005008616 0.0104063 0.012075181
0002b0 b4 e4 69 3d 44 56 24 bc 8e 2e b7 bc 5b d6 05 bc
       0.057102874 -0.010030333 -0.022361066 -0.008168782
0002c0 42 39 6a 3c 00 9e dd 3b a5 62 33 3c 93 bb b2 bc
       0.014295878 0.00676322 0.010948812 -0.021817958
0002d0 f9 28 dd 3c 4b 72 7f 3c 84 a7 00 3c 62 d3 b2 3b
       0.026997076 0.015591214 0.007852439 0.0054573277
0002e0 e7 23 a8 bc 10 98 66 bb ca 87 77 bc b9 de 50 3c
       -0.020524932 -0.003518585 -0.015108058 0.012748414
0002f0 37 44 cd bc 84 4d 8d bc 7c 12 f3 3c 22 a1 b6 39
       -0.025056941 -0.017248876 0.0296719 0.00034833798
000300 11 d6 9f bc 4f a6 ce 3b 87 3c 9e bc fc 00 1f 3b
       -0.019511255 0.0063064466 -0.019315971 0.0024262061
000310 7d e4 40 bb 2e 4b 82 3b d2 9a f7 bc a9 0b 1d 3d
       -0.0029433065 0.0039762473 -0.030225191 0.038341198
000320 3c f9 27 bc 56 da f9 bc 16 e3 91 3c f1 6e e7 3b
       -0.010252293 -0.030499619 0.017808478 0.007062786
000330 8f 31 ac bb d3 30 30 bc 38 e8 27 3c 0c 17 1a bc
       -0.0052549313 -0.010753828 0.010248236 -0.009404909
000340 b6 62 60 3c d7 a1 24 3c d2 ee 21 bc f6 ea 48 bc
       0.0136954095 0.010048351 -0.009883599 -0.01226305
000350 e8 a3 0e 3d d7 09 b7 bb 87 df 05 bd 2a 2a 0a 3b
       0.034824282 -0.00558589 -0.032683875 0.002108226
000360 fe 47 73 bc f7 a1 7a 3c a4 28 ad 3b ce 6c 0d bb
       -0.014848707 0.0152974045 0.0052843858 -0.0021579745
000370 28 c8 8c bc 7f 91 cd 3a d8 c6 4b bb 81 a9 f2 3c
       -0.017185286 0.001568362 -0.0031093862 0.029621841
000380 31 00 6a bc 55 52 ad bc 39 bf 26 3c 84 b9 5f bc
       -0.014282272 -0.021157423 0.010177427 -0.01365507
000390 08 ae dc 3b e4 9c 7c 3c 29 45 42 3c ba f2 4f 3c
       0.0067346133 0.015418265 0.011857309 0.012692148
0003a0 df 77 bd bb 30 f0 7a bc 3b 65 ad bc 7a ee 35 bc
       -0.005782112 -0.015316054 -0.021166435 -0.0111042205
0003b0 4d 76 71 3c f5 7b 49 bc 13 b9 75 3c fd 47 d0 3c
       0.014737678 -0.01229762 0.014997738 0.025424952
0003c0 88 a7 6a 3c 79 1c c3 3c 72 c2 57 3d 66 a8 9d bb
       0.014322169 0.023817288 0.052675672 -0.0048113344
0003d0 53 8c 5e 3b 42 74 18 3b 0b a2 95 3c 79 7c 84 bc
       0.0033958151 0.0023262654 0.018265745 -0.016172634
0003e0 2e e5 ca bc 77 72 5f 3c 86 18 86 bb 3d 69 08 bc
       -0.024767485 0.01363813 -0.004092279 -0.008325872
0003f0 d0 1f 46 37 26 6a 91 3b e6 45 05 3c 87 01 69 3b
       1.1809127e-05 0.0044377027 0.008134341 0.003555389

layers.0.theta.bias f4 [64]
000000 a4 d5 07 37 4c 01 55 b8 8b 16 8f 37 a6 87 8f b7
       8.096369e-06 -5.0784365e-05 1.7057426e-05 -1.7110095e-05
000010 d9 ca c6 37 35 1b 6f b8 56 3e 5c 38 7e 0a 6e b8
       2.3697898e-05 -5.700738e-05 5.2510142e-05 -5.6753393e-05
000020 6d ad 04 39 a2 58 a0 b8 a0 1d 9b b7 08 3d f1 37
       0.00012653107 -7.645904e-05 -1.8491235e-05 2.8757859e-05
000030 f0 97 41 b6 53 7f 1b b9 e9 be bc 39 88 58 8e b7
       -2.884768e-06 -0.00014829384 0.00036000393 -1.6968945e-05
000040 b2 e2 88 38 3b ab 0d 38 6d 61 d3 b8 c0 dd 1b 38
       6.527211e-05 3.377649e-05 -0.00010079411 3.71614e-05
000050 a6 75 00 b8 48 02 6d 37 e0 7b f7 b8 e0 41 a2 37
       -3.0627147e-05 1.4126832e-05 -0.00011800951 1.934258e-05
000060 d7 33 ad b8 ac f7 6b 37 ed 4a 99 37 cb a9 9e 39
       -8.258939e-05 1.4064757e-05 1.8273911e-05 0.00030262614
000070 62 05 9d b7 0e 60 07 b9 10 32 ac b6 a2 ca 63 39
       -1.8718365e-05 -0.00012910386 -5.1318275e-06 0.00021723894
000080 18 bd aa b8 e8 24 b4 b8 6e 06 14 38 18 e0 03 39
       -8.141453e-05 -8.589943e-05 3.5291938e-05 0.00012576615
000090 94 b3 11 38 a8 24 83 b7 b0 29 5c b9 be 79 18 b8
       3.473794e-05 -1.5633486e-05 -0.00020996365 -3.6353005e-05
0000a0 07 bc 11 37 f8 11 63 37 7b 10 ed 37 e9 e0 20 37
       8.686452e-06 1.3534438e-05 2.8260276e-05 9.589109e-06
0000b0 b5 9e ec b8 43 a3 d2 38 30 ae 22 39 d6 f4 1c 38
       -0.000112829184 0.0001004399 0.00015514414 3.742132e-05
0000c0 1d e7 19 b8 18 af e7 35 c2 bb 48 37 1b ce 14 38
       -3.6693284e-05 1.72618e-06 1.1964645e-05 3.54779e-05
0000d0 44 41 cf 37 c8 47 6a b8 a1 0c ce b8 60 b8 0a 38
       2.4706715e-05 -5.58568e-05 -9.825198e-05 3.3073477e-05
0000e0 32 c3 d8 b7 fb 16 f2 36 0e 14 60 b7 ac 9a fa 37
       -2.5840101e-05 7.2148373e-06 -1.335611e-05 2.9874347e-05
0000f0 df 62 48 38 5c c8 72 39 55 da d4 38 f7 b1 87 b8
       4.7775797e-05 0.00023153558 0.00010149615 -6.47045e-05

layers.1.bn.weight f4 [6]
000000 d3 8d 87 3f ff a7 88 3f 39 46 85 3f 32 20 85 3f
       1.0590156 1.0676268 1.0412055 1.040045
000010 a4 1f 83 3f 4f 48 80 3f
       1.0244031 1.0022067

layers.1.bn.bias f4 [6]
000000 0e 26 88 3d e3 0a a3 bc ec 86 09 bd 2d 5b 70 3d
       0.06647883 -0.019902652 -0.033575937 0.058680702
000010 33 c3 4f 3d 2c 82 9b bd
       0.050723266 -0.07593188

layers.1.bn.running_mean f4 [6]
000000 f6 e3 36 3d ac db 28 3e b7 7d a2 3e 05 2f 31 be
       0.044650994 0.16490048 0.31736538 -0.17303093
000010 3c fa 13 be 04 19 08 3e
       -0.14450926 0.13290793

layers.1.bn.running_var f4 [6]
000000 12 e6 40 3f ed c6 30 3f 7a a4 64 3f 3a ec 42 3f
       0.7535106 0.69053537 0.8931347 0.76141703
000010 ea 66 33 3f b7 dd 51 3f
       0.7007891 0.81978935

layers.1.theta.weight f4 [6, 64]
000000 bc 19 12 3d c4 23 df 3d 07 70 f7 bc 88 39 13 be
       0.035669073 0.108954936 -0.030204786 -0.14377415
000010 cb 3e dd 3d cc ec 05 bd ee 91 ca 3d c4 a3 a2 bd
       0.108029924 -0.03269653 0.09891115 -0.07941392
000020 86 00 a5 bd ab 0c 8e bd d1 c0 06 3d 4a 36 bd 3d
       -0.080567405 -0.0693601 0.032898728 0.092388704
000030 8f db c4 3d 35 9c ec 3d 26 12 3b bd 03 ca 0d be
       0.0961219 0.115532316 -0.045671605 -0.13846593
000040 e1 1e f2 3d 94 d6 91 bd df de a1 3d 85 d3 67 bb
       0.11822296 -0.07121006 0.079038374 -0.0035373878
000050 2d 3d de bd be f5 e1 bd 77 55 d6 bd 9d 67 87 bd
       -0.10851512 -0.110332 -0.1046552 -0.066115595
000060 9a 0e d1 bd 36 74 d0 3c 7b 45 1b 3c 0d 30 38 3d
       -0.10207863 0.025446039 0.009477015 0.0449677
000070 cd b4 8f 3c b3 ce 49 3c 76 8e b1 3d 24 07 c8 bc
       0.017542267 0.012317347 0.086697504 -0.024417467
000080 a6 a0 cd bd 0f 1c d2 3d 25 74 0b bd 08 d3 b1 bd
       -0.10040407 0.10259258 -0.03404631 -0.08682829
000090 e9 84 14 3e 5e 4c a1 bd 03 b5 f0 bd 0b af 63 bd
       0.14503826 -0.07875894 -0.11753275 -0.055586856
0000a0 75 b9 26 3d 39 b2 db bd d0 1f b2 3d 67 c2 5f bc
       0.04070421 -0.10727353 0.08697474 -0.013657189
0000b0 94 0b 15 bd a0 95 2d 3c 0c 8d 08 3e 23 b1 eb 3d
       -0.036387995 0.010594755 0.13335055 0.115083955
0000c0 eb c9 49 bd 35 4b 56 bd fb d6 31 3d e5 c3 62 bc
       -0.04926483 -0.052317817 0.043417912 -0.01384065
0000d0 63 dd 9d bd 1a 29 47 3d a1 2f cb 3c 10 80 2f 3d
       -0.07708242 0.048623182 0.024802985 0.04284674
0000e0 d3 64 8d bd 9e 1e bd 3c 91 49 a1 3d 95 8a cc bd
       -0.06903996 0.023085888 0.0787536 -0.0998737
0000f0 4c 67 e9 3c 16 9b 61 bc e0 d3 eb 3d d0 da e6 3d
       0.028491639 -0.0137698855 0.11515021 0.11272204
000100 bc 1e b2 bc 69 95 d0 3d af 63 03 3e 37 8d 63 3c
       -0.02174317 0.10184748 0.12830995 0.013888649
000110 28 85 93 bd b4 c4 f1 3c 00 1f b7 3c 4c 66 9f bd
       -0.07203132 0.02951274 0.02235365 -0.077831835
000120 ff 78 02 3e 68 48 2a 3c ad 61 67 3c e0 0f 0a bc
       0.12741469 0.01039324 0.014122409 -0.008426636
000130 92 64 db bd 2a c7 10 be 1d e1 6c 3d 66 c0 3d bd
       -0.10712542 -0.14138475 0.057831872 -0.046326064
000140 a9 ea 42 bc 16 94 de 3d 35 8b ac 3c cc d3 8e 3d
       -0.011896768 0.10868089 0.021062473 0.06973991
000150 44 27 b0 bd fa 88 24 bd 5c d8 5a bd 10 ce 2d bc
       -0.08601239 -0.040169694 -0.053428993 -0.010608211
000160 91 fa ba bd 68 32 ea 3d 87 65 e5 bd 31 22 5e bc
       -0.09129823 0.114353955 -0.112010054 -0.013557957
000170 d8 96 21 3b 95 06 4d bc fc 3e 19 3c b2 db d5 bd
       0.002465656 -0.012513776 0.009353396 -0.10442294
000180 fd dd cb bd c3 94 44 bc fd cd af 3d d0 cd e8 3d
       -0.0995445 -0.011998358 0.08584211 0.113673806
000190 90 8a 9d 3d 39 19 f5 3d 9d 6d 1b 3e e0 4c 81 3d
       0.07692444 0.119677015 0.15178533 0.06313491
0001a0 21 03 cf 3c 5d 6c 81 3b 59 f5 9a bd dc 2c 7a 3d
       0.025270047 0.0039496855 -0.075663276 0.061077937
0001b0 65 35 f2 3d df bc b6 3d bb 55 dd 3d 65 93 70 bd
       0.118265904 0.08922743 0.108073674 -0.058734316
0001c0 99 a1 d5 bd ae e8 34 bb 04 6c d4 bd 5e f5 16 bd
       -0.10431213 -0.0027604508 -0.10372165 -0.036855094
0001d0 b8 18 82 bd d4 9b ff bb 0d 20 18 3e c0 03 05 bd
       -0.06352371 -0.0078005586 0.14855976 -0.03247428
0001e0 3f 73 d4 3d de fe 62 bd 2e a3 31 ba 28 38 72 3d
       0.10373544 -0.05541884 -0.000677633 0.059135586
0001f0 52 71 a2 bd c8 a2 31 bd 51 76 cd 3d ac 0b 70 bc
       -0.079317704 -0.04336813 0.10032333 -0.01465122
000200 99 57 cd 3d 28 59 06 be 9a b3 e9 3d 84 ec 06 bd
       0.100264736 -0.13119948 0.114112094 -0.032940403
000210 65 2a 03 bd 61 a5 c3 3c 11 08 dd bc b7 ca 4a 3d
       -0.032022852 0.02388257 -0.026981385 0.04950973
000220 77 04 86 bd 6e 36 bc 3d c3 25 c4 bb e3 62 1c 3e
       -0.0654382 0.09190069 -0.005985947 0.15272097
000230 49 cb 69 bd ce 57 83 3d f0 15 bf bb ca 3a ac 3c
       -0.057078633 0.06413232 -0.0058314726 0.021024127
000240 c6 b7 1b 3e a9 32 ea 3d 62 54 b2 bd b2 f0 b9 bd
       0.15206823 0.11435444 -0.08707501 -0.09079112
000250 a8 60 d5 3c f1 85 a3 3c 9d 36 7d bd 7b 4b 3f 3d
       0.026047066 0.01996133 -0.06181966 0.046702843
000260 cb c7 f5 3d 41 ab 0a 3e e8 6a 84 bd a1 f3 f7 bd
       0.12000998 0.1354189 -0.06465703 -0.121070154
000270 c5 a7 55 bd 31 2e da 3d a7 b7 c7 3d c2 ab f8 3d
       -0.05216195 0.106533416 0.09751826 0.12142135
000280 3b b6 ee bd da 9c c9 3c ea 26 90 3c 0b be 1d 3d
       -0.116558515 0.024610925 0.01759668 0.038511317
000290 4a bd 8e 3d a3 95 a0 3d ea 27 1b bd a1 98 a2 bd
       0.06969698 0.07841041 -0.037879862 -0.07939268
0002a0 21 d6 a6 bd e0 3c e2 bd 69 de b6 3c 16 3e f5 bd
       -0.081463106 -0.11046767 0.02232285 -0.119747326
0002b0 6b 7c 2d 3e 1e 5b 01 3d f4 7e 76 bd 31 71 b5 3d
       0.16941993 0.031581037 -0.060179666 0.0885948
0002c0 ea 5e e5 3d 2a a1 c1 3d 84 7c c5 bd a3 3c d6 3d
       0.11199744 0.09454568 -0.0964289 0.10460784
0002d0 0e b3 3c bd af bd fc 3c be ee 80 bd c4 8e 1e 3c
       -0.046069197 0.030852167 -0.062955365 0.009677593
0002e0 97 c0 6d 3d 1e 8b 3c 3d db d5 54 3d 1c d6 5e bc
       0.058044996 0.04603111 0.05196176 -0.013600852
0002f0 de 3c 18 3e ee 45 ba bd 8c a5 fd bd d2 ab 46 3d
       0.14866969 -0.09095369 -0.12385091 0.048503704
000300 97 f8 5e 3d e0 6d f0 3d 37 8b 8b bd 1b d3 7a 3c
       0.054436292 0.11739707 -0.068136625 0.0153091205
000310 5b b5 c3 3d 68 6a 0d be 34 d8 d0 bd ad be db bd
       0.09556075 -0.13810122 -0.101974875 -0.10729728
000320 84 29 01 be 27 d7 fd bd d7 67 02 3e b8 dd 8a 3d
       -0.12613493 -0.12394553 0.12734924 0.06780571
000330 a7 82 12 bd ef 4c be bd 44 82 5b 3d 80 fa a6 bd
       -0.03576913 -0.09292018 0.053591028 -0.08153248
000340 b6 29 17 3c 46 ad af bd ad 2d 88 bc 9d 4b 0c bd
       0.009226253 -0.08577971 -0.016623342 -0.034251798
000350 3d 31 fd bd 9e 33 0f 3e 41 72 d8 3d 52 74 d0 bd
       -0.12362907 0.13984534 0.10568667 -0.10178436
000360 1e e6 f4 3c a0 b6 e2 bd dd f2 be 3b 02 c4 9e bd
       0.029894885 -0.11069989 0.0058272914 -0.07752229
000370 33 b4 a3 bb d3 72 13 3b 43 11 04 be 6f cb 03 3d
       -0.0049958467 0.002249886 -0.1289721 0.03217643
000380 58 d2 10 3e f1 b0 22 bd 0e 4f 13 3d 34 16 08 3e
       0.1414274 -0.039719526 0.035964064 0.1328972
000390 47 53 9b bd df ea 06 3e 25 f8 b7 bd f9 50 a9 3d
       -0.07584243 0.13175534 -0.08982877 0.082673974
0003a0 44 0c 7a 3d a5 fc 8b bd 53 5f d8 bd a6 b0 6a bc
       0.061046854 -0.068352975 -0.10565057 -0.014324343
0003b0 22 31 93 bd b1 66 ab 3c 31 07 ae bd 41 2f bb 3d
       -0.07187106 0.02092299 -0.084974654 0.09139872
0003c0 e5 7f c1 bd 14 2f c6 3d 4c 13 8e 3d 4a 7a f3 3c
       -0.09448222 0.09676948 0.06937274 0.029721398
0003d0 02 9b 14 3c 39 30 c2 3d 03 26 a5 bd 78 9a eb bc
       0.00907016 0.09481854 -0.08063891 -0.02876018
0003e0 e7 26 c3 3c 1f 7d e9 bd 38 f5 fd bd 73 9b 88 3d
       0.023822261 -0.11400818 -0.124002874 0.066702746
0003f0 7c 55 37 bd be 18 23 3d 3c 8b 06 bc ca ae 67 bb
       -0.04475926 0.039818518 -0.008211907 -0.0035351985

layers.1.theta.bias f4 [6]
000000 9f b6 fe b6 90 d0 e8 b6 88 49 f1 37 70 8e 87 b3
       -7.59105e-06 -6.9384187e-06 2.876368e-05 -6.3123366e-08
000010 7c 69 7e 3b e8 6e 57 ba
       0.0038820198 -0.00082181254
