src_new/launisage_cociteseer_hid64_0106.pth (torch, 954927 bytes, 4 tensors)

unisage1.theta.weight f4 [64, 3703]
0.009547624 -0.11527292 -0.046534706 0.0036209284 -0.032752503 -0.013902436 -0.030866526 -0.028546203
0.02375771 0.0047466857 0.00606329 0.015435737 -0.014408772 0.019395128 0.026727907 -0.034388434
-0.009479197 0.011649684 0.038237087 0.023387916 0.010988109 0.06444381 0.1994043 0.00070472294
0.03447774 0.023346 0.013562458 0.0018751594 0.0033499775 -0.09766171 0.003331434 -0.07079214
-0.03129887 0.012039261 0.036436334 0.06223901 -0.099633954 -0.06497087 0.07126752 -0.060963497
-0.022179792 0.0009917374 -0.016319778 -0.031452525 0.08460527 -0.11551715 -0.038493756 0.0005556538
0.04823937 -0.0289684 -0.009529881 -0.0073376857 0.003424899 0.120994814 0.0031226242 -0.013303181
0.026062898 0.07514022 -0.0138822505 0.012185431 0.022348847 -0.038157318 0.008253117 0.022233259
-0.022649046 -0.5927579 -0.0063463175 0.032318287 -0.036532506 -0.008246972 0.030499643 -0.009722011
0.009593549 -0.062145982 0.002975138 -0.055240005 -0.036591105 0.030364972 0.023557 -0.050349988
-0.013003933 0.024488144 -0.031194106 0.001135362 -0.04813535 -0.0061875107 -0.0074054673 0.005623563
-0.03637195 -0.0063933185 0.028305117 -0.039804593 -0.012371981 0.027105283 -0.027259415 0.054904606
0.04192705 0.0052096136 -0.007495579 -0.023539849 0.020660104 0.055116888 0.0011450684 -0.0047597717
0.00059865415 0.016953615 -0.0131367175 0.0065332917 0.004500701 -0.026082104 0.040654134 0.016032938
0.012699893 0.042050138 -0.03023429 0.029115684 0.004082515 -0.057923526 -0.02121858 0.014324434
0.015255832 0.041407198 -0.015027868 -0.01727266 -0.016712572 -0.011411522 0.007959038 -0.030580092
0.012557867 -0.029154738 -0.0430442 -0.048468396 0.0017203662 0.08444146 -0.0058281613 0.016850047
-0.046105556 0.04748184 -0.027793502 -0.031928312 0.1033978 0.02221063 -0.030963255 -0.014253086
-3.5953926e-05 -0.009956445 0.016438287 0.0089617465 -0.033863842 0.0747982 0.00056297984 0.036002122
0.0044512325 0.008456057 -0.02661511 -0.07057292 0.02597297 0.029182492 -0.010850728 0.00011642097
0.008796064 0.0130700795 0.016007138 0.02162398 -0.0055715535 -0.13886008 -0.07011725 0.03594836
0.116585426 -0.12728158 0.002635432 -0.06447441 0.03486818 0.056932364 -0.0021438398 -0.024513647
0.008705845 -0.106087394 -0.1432789 0.021505306 0.014765855 0.010022592 -0.08262825 0.0014568463
0.012519451 0.0030449247 0.017751101 0.00067937793 -0.013309597 -0.057585794 0.007981114 -0.00786961
0.016472446 -0.06392968 0.016568713 0.011890201 -0.019867832 0.04914397 -0.024257539 0.052170087
-0.09937593 -0.020888371 0.010413898 0.01353363 -0.0017775517 0.016076894 -0.03880849 -0.047824252
0.009759603 -0.0010687137 -0.0026653414 -0.036087893 0.034356106 -0.008565688 -0.062077932 -0.0625027
0.016265227 0.0031519148 0.008349857 -0.025899608 -0.026057903 -0.03268716 -0.053478945 0.042765684
-0.03237285 0.0031121538 0.037011832 -0.039608628 0.047143485 -0.052101713 0.056514535 0.04884935
-0.065593876 -0.046208736 0.05716763 0.017960345 0.09614528 -0.04893543 -0.0429728 -0.010654524
0.046457082 0.027457042 0.038863204 -0.0394552 0.0028360032 0.045800954 0.0036330118 -0.18437931
-0.05623634 0.030640693 -0.095691845 0.00043679023 0.044136092 -0.012763755 0.10027888 0.019680407
00000000: a36d 1c3c 3514 ecbd 2d9b 3ebd 194d 6d3b
00000010: 7d27 06bd 0bc7 63bc ccdb fcbc bad9 e9bc
00000020: 879f c23c 168a 9b3b 90ae c63b 2ce6 7c3c
00000030: c512 6cbc 88e2 9e3c 7cf4 da3c e3da 0cbd
00000040: a24e 1bbc 51de 3e3c 7e9e 1c3d 0498 bf3c
00000050: 7807 343c 1efb 833d a430 4c3e 28bd 383a
00000060: 8838 0d3d 1c40 bf3c 1235 5e3c e9c7 f53a
00000070: 4c8b 5b3b dd02 c8bd 3054 5a3b 78fb 90bd
00000080: 3e33 00bd 5240 453c 443e 153d 55ee 7e3d
00000090: e30c ccbd 730f 85bd b5f4 913d dcb4 79bd
000000a0: 65b2 b5bc 2ffd 813a 0eb1 85bc 5dd4 00bd
000000b0: 8745 ad3d 4194 ecbd a1ab 1dbd 4ca9 113a
000000c0: a596 453d 234f edbc 3823 1cbc f870 f0bb
000000d0: 4574 603b 21cc f73d f1a4 4c3b 96f5 59bc
000000e0: dc81 d53c 1ee3 993d 6172 63bc 67a5 473c
000000f0: ee14 b73c d94a 1cbd 1538 073c 8622 b63c
00000100: 7e8a b9bc fbbe 17bf c5f4 cfbb 2e60 043d
00000110: 1ca3 15bd 4f1e 07bc 63da f93c 1249 1fbc
00000120: 432e 1d3c c98c 7ebd 88fa 423b 5843 62bd
00000130: 8ee0 15bd f6bf f83c 9cfa c03c ca3b 4ebd
00000140: 730e 55bc 5c9b c83c c88a ffbc 6dd0 943a
00000150: 9329 45bd 9ac0 cabb 90a9 f2bb de45 b83b
00000160: c1fa 14bd 0b7f d1bb 22e0 e73c 240a 23bd
00000170: d9b3 4abc e60b de3c 234f dfbc a7e3 603d
00000180: b3bb 2b3d 68b5 aa3b 799d f5bb a4d6 c0bc
00000190: 613f a93c 3fc2 613d 1f16 963a dcf7 9bbb
000001a0: 00ef 1c3a 4fe2 8a3c 633b 57bc 3915 d63b
000001b0: 9e7a 933b 23aa d5bc f384 263d 8257 833c
000001c0: 3613 503c c43c 2c3d e7ad f7bc 0484 ee3c
000001d0: 9ec6 853b 3841 6dbd 96d2 adbc 08b1 6a3c
000001e0: 99f3 793c 989a 293d 7237 76bc 657f 8dbc
000001f0: cee8 88bc 64f7 3abc a066 023c 1a83 fabc
00000200: 83bf 4d3c ebd5 eebc 1d4f 30bd cc86 46bd
00000210: e97d e13a a5ef ac3d 29fa bebb 1c09 8a3c
00000220: 2ed9 3cbd 517c 423d 33af e3bc 43c7 02bd
00000230: 3ac2 d33d 11f3 b53c a7a6 fdbc c785 69bc
00000240: 3ccd 16b8 5b20 23bc 96a9 863c 4ad4 123c
00000250: d0b4 0abd cc2f 993d f094 133a f676 133d
00000260: a5db 913b 468b 0a3c ee07 dabc 8988 90bd
00000270: 44c5 d43c 1f10 ef3c 40c7 31bc 0827 f438
00000280: 5e1d 103c e323 563c 6721 833c c624 b13c
00000290: 9491 b6bb 5631 0ebe a299 8fbd 963e 133d
000002a0: 57c4 ee3d 1a56 02be 36b7 2c3b 290b 84bd
000002b0: f0d1 0e3d e931 693d aa7f 0cbb d8d0 c8bc
000002c0: f6a2 0e3c 5944 d9bd b4b7 12be e52b b03c
000002d0: 7cec 713c cc35 243c 0039 a9bd a6f3 be3a
000002e0: 621e 4d3c 5c8d 473b c26a 913c 4818 323a
000002f0: 7f10 5abc 15df 6bbd 38c3 023c 89ef 00bc
00000300: 39f1 863c 90ed 82bd 1cbb 873c 1ecf 423c
00000310: ddc1 a2bc 304b 493d bfb7 c6bc 4db0 553d
00000320: 9c85 cbbd 171e abbc 0e9f 2a3c 29bc 5d3c
00000330: bdfc e8ba b1b3 833c a7f5 1ebd 5de3 43bd
00000340: bee6 1f3c 1514 8cba 02ad 2ebb e6d0 13bd
00000350: fdb8 0c3d 1957 0cbc 6e45 7ebd 6a01 80bd
00000360: a73e 853c 5b90 4e3b d7cd 083c 6a2b d4bc
00000370: 6277 d5bc f9e2 05bd bd0c 5bbd 122b 2f3d
00000380: 6599 04bd 47f5 4b3b b899 173d a83c 22bd
00000390: 8719 413d 9b68 55bd c97b 673d 4216 483d
000003a0: 1556 86bd 5f45 3dbd 9b28 6a3d 9321 933c
000003b0: d1e7 c43d 8470 48bd 3f04 30bd 5090 2ebc
000003c0: c849 3e3d 97ed e03c 062f 1f3d c79b 21bd
000003d0: 3ddc 393b c899 3b3d d317 6e3b eecd 3cbe
000003e0: 1458 66bd 3102 fb3c 16fa c3bd fe00 e539
000003f0: 0cc8 343d 121f 51bc 035f cd3d ce38 a13c

unisage1.theta.bias f4 [64]
0.04198616 0.034477796 0.051025063 -0.00020171699 0.030214788 -0.0002160303 -8.424024e-05 0.029953752
0.036475677 -0.0012457565 0.02698147 0.043322556 0.03574529 0.024671037 0.036026075 0.035423942
0.020787898 0.036389932 0.034892105 0.029948814 0.0362195 0.033164956 0.035243083 -0.0013935771
0.029685358 0.03498375 0.042334817 0.028986193 0.028664105 0.04125364 0.034112986 0.033240125
0.03860485 0.03262305 0.035310674 0.035484526 0.029277438 0.03652336 0.047826894 0.034786317
0.033482656 0.028739117 0.027367385 0.025929172 0.034266394 0.031014614 0.028502107 0.030211708
0.028584562 0.032900907 0.04176026 0.028219676 0.029017484 0.03241813 0.03575655 -3.0659866e-10
0.04673954 0.043811984 0.038825296 0.030556265 -1.5072394e-06 0.02755873 -0.0050676903 -0.00086825085
00000000: aef9 2b3d 9738 0d3d a8ff 503d fe83 53b9
00000010: 0185 f73c 3186 62b9 22aa b0b8 9261 f53c
00000020: 8567 153d a748 a3ba 3e08 dd3c fe72 313d
00000030: a769 123d ea1a ca3c 1490 133d b218 113d
00000040: 624b aa3c 9c0d 153d 06eb 0e3d 3757 f53c
00000050: e65a 143d fad7 073d 0d5b 103d b0a8 b6ba
00000060: b52e f33c 1f4b 0f3d 4667 2d3d 7474 ed3c
00000070: fcd0 ea3c 94f9 283d 0fba 0b3d cc26 083d
00000080: 1f20 1e3d bf9f 053d eda1 103d 3958 113d
00000090: 3dd7 ef3c 8599 153d 22e6 433d 197c 0e3d
000000a0: 1c25 093d 4c6e eb3c 9131 e03c 6a69 d43c
000000b0: eb5a 0c3d 5c12 fe3c 407d e93c 8b7e f73c
000000c0: 2c2a ea3c 1ac3 063d ce0c 2b3d f32c e73c
000000d0: 13b6 ed3c e0c8 043d 7675 123d ed8d a8af
000000e0: f671 3f3d 3274 333d 4607 1f3d 2251 fa3c
000000f0: 5a4c cab5 d9c2 e13c de0e a6bb 549b 63ba

unisage2.theta.weight f4 [6, 192]
-0.00971674 -0.047263622 -0.018337188 -4.9226062e-05 0.008256722 6.5547293e-24 -1.4045136e-24 -0.0060798014
-0.028854351 0.013893096 -0.06332607 -0.04503354 -0.026779845 -0.02390243 -0.038858008 -0.018797994
-0.04312158 -0.045309763 -0.055441804 -0.028498389 -0.032520793 -0.02466727 -0.048684992 1.3896547e-22
-0.034561116 -0.035177276 -0.036438193 -0.040332 -0.0058767465 -0.039471842 -0.014045822 -0.026021512
-0.04392343 -0.037769347 -0.038829003 0.00465112 -0.00485206 -0.026403919 -0.024138073 -0.061530497
-0.075035036 0.013613542 -0.084287286 -0.058098342 -0.02643924 -0.020097714 -0.029711701 -0.045086864
0.0080132 -0.01854525 -0.0530238 -0.026603878 -0.052443564 -0.029621283 -0.04546726 -2.2678506e-09
-0.046667982 -0.027987035 -0.05355561 -0.052489188 -1.1257758e-22 -0.031404037 0.0005233083 2.4237106e-23
-0.0314062 -0.009068568 -0.03607602 -0.00017395437 -0.03927831 -7.473265e-24 2.4083016e-24 -0.011082929
-0.027007334 0.025733825 -0.01048611 -0.042272434 -0.04372232 -0.06800298 -0.06203225 -0.0039735157
-0.025124522 -0.030050788 -0.06800843 -0.039993975 -0.022339437 -0.042933486 -0.02512873 -2.1089366e-24
-0.05740223 -0.046973098 -0.042820476 -0.051085632 -0.0056836135 -0.012002997 -0.01673221 -0.036126714
-0.024957659 -0.028198507 -0.053146884 -0.03828139 -0.010635564 -0.044247024 -0.010441018 -0.03089854
-0.042507146 -0.049028967 -0.014970797 -0.065258466 -0.006861177 -0.04679628 -0.053435866 -0.019266596
0.0018621401 -0.016002333 -0.03374482 -0.037566334 -0.007443308 -0.009716303 -0.038115863 -8.0590506e-10
-0.021221206 -0.032226026 -0.013802543 -0.029512823 -8.5590895e-24 -0.045597654 0.0032747025 2.5335352e-23
0.40217397 0.650191 0.41169462 -5.546253e-05 0.7286909 -1.408168e-23 3.5729877e-24 0.5293835
0.5217236 -0.012031698 0.6298226 -0.8076694 0.59525096 0.5229111 0.6845775 -0.63520783
0.11883246 -0.58924747 0.7340842 -0.68415076 0.69091314 0.6634226 0.4760451 4.513161e-25
0.66170406 0.5596498 0.80170625 0.7264978 -0.64436346 0.39527807 -0.70636773 0.5936077
0.6199845 0.84150046 0.5753064 -0.70905715 0.6961578 0.7587064 0.40784177 -0.72104317
0.72705173 -0.62199086 0.6776796 0.62841743 -0.672593 0.6025351 -0.7493316 -0.74335355
-0.6496951 0.7048589 -0.6945798 -0.6578254 -0.623575 -0.47351742 0.70257825 -3.7080694e-10
-0.736664 -0.89746386 0.50817746 -0.8313899 2.2122127e-24 0.69132346 -0.012977558 -2.3179932e-24
-0.041383307 -0.062358845 -0.0594824 3.2559936e-05 -0.07374254 -6.843487e-24 6.4409743e-24 -0.040390074
-0.06341644 -0.00013409599 -0.051059373 -0.06243923 -0.06463714 -0.059917696 -0.05731573 -0.052730944
-0.08584821 -0.06011777 -0.07793904 -0.08314966 -0.04572054 -0.06859591 -0.07969525 -5.3970205e-25
-0.059960514 -0.048546832 -0.07822357 -0.0691426 -0.045983575 -0.07673352 -0.03789262 -0.07117588
-0.0479638 -0.06464798 -0.0820283 -0.051706668 -0.061962716 -0.07367575 -0.04593747 -0.10182922
-0.06924971 -0.05631339 -0.077772655 -0.061287187 -0.06077684 -0.04671739 -0.07972994 -0.07284768
-0.06602213 -0.058588363 -0.06073374 -0.08688288 -0.05505857 -0.06998739 -0.061879173 3.9189124e-10
-0.057229303 -0.06636431 -0.044857834 -0.066740215 -1.240274e-24 -0.0627902 4.5887955e-08 4.8683418e-23
00000000: f632 1fbc 8097 41bd df37 96bc 1578 4eb8
00000010: 3447 073c e592 fd18 8456 d997 1239 c7bb
00000020: f65f ecbc de9f 633c 19b1 81bd 1775 38bd
00000030: 6861 dbbc 07cf c3bc 9329 1fbd 40fe 99bc
00000040: 41a0 30bd bb96 39bd f216 63bd 7475 e9bc
00000050: 8634 05bd 0413 cabc ea69 47bd bbff 271b
00000060: f58f 0dbd 0c16 10bd 3740 15bd 2b33 25bd
00000070: b991 c0bb 3aad 21bd 7320 66bc 112b d5bc
00000080: 0ee9 33bd 08b4 1abd 290b 1fbd 6c68 983b
00000090: 08fe 9ebb 084d d8bc 35bd c5bc 6707 7cbd
000000a0: f8ab 99bd 550b 5f3c d09e acbd 87f8 6dbd
000000b0: 1b97 d8bc f6a3 a4bc f465 f3bc 01ad 38bd
000000c0: cc49 033c 35ec 97bc 7c2f 59bd 60f0 d9bc
000000d0: 10cf 56bd 55a8 f2bc e13b 3abd 73d8 1bb1
000000e0: ed26 3fbd 1145 e5bc 215d 5bbd e7fe 56bd
000000f0: 1319 089b 85a1 00bd a02e 093a 2b68 ea19
00000100: caa3 00bd 5594 14bc 73c4 13bd 8567 36b9
00000110: 4be2 20bd d18d 1099 5455 3a18 2c95 35bc
00000120: 7c3e ddbc becf d23c efcd 2bbc dc25 2dbd
00000130: 2d16 33bd 2545 8bbd 8715 7ebd 4434 82bb
00000140: f1d1 cdbc 122d f6bc 0148 8bbd b9d0 23bd
00000150: 3201 b7bc 06db 2fbd c4da cdbc cb2b 2398
00000160: 9a1e 6bbd dd66 40bd 8664 2fbd 2b3f 51bd
00000170: 9b3d babb 38a8 44bc fd11 89bc 9bf9 13bd
00000180: 0174 ccbc 8e00 e7bc 8cb0 59bd f2cc 1cbd
00000190: ca40 2ebc 5e3c 35bd ce10 2bbc ef1e fdbc
000001a0: f91b 2ebd 99d2 48bd 1348 75bc 3ba6 85bd
000001b0: b9d3 e0bb 75ad 3fbd 91df 5abd fbd4 9dbc
000001c0: 0e13 f43a 5317 83bc 0238 0abd 28df 19bd
000001d0: fee6 f3bb 2131 1fbc 611f 1cbd 8786 5db0
000001e0: 18d8 adbc 70ff 03bd 1024 62bc e0c4 f1bc
000001f0: 8f8e 2599 9bc4 3abd 649c 563b 4b07 f519
00000200: bfe9 cd3e eb72 263f a3c9 d23e 70a0 68b8
00000210: 7d8b 3a3f 8d30 8899 2839 8a18 ad85 073f
00000220: ae8f 053f 9920 45bc 0e3c 213f 6cc3 4ebf
00000230: 5e62 183f 80dd 053f 7940 2f3f fb9c 22bf
00000240: 6f5e f33d ecd8 16bf f1ec 3b3f 8124 2fbf
00000250: afdf 303f 10d6 293f 2fbc f33e f2ac 0b17
00000260: 7065 293f 3645 0f3f 9f3c 4d3f c3fb 393f
00000270: 01f5 24bf e361 ca3e 84d4 34bf adf6 173f
00000280: 4eb7 1e3f 936c 573f 4847 133f c584 35bf
00000290: 6637 323f 953a 423f a3d0 d03e 4996 38bf
000002a0: 1020 3a3f cb3a 1fbf 697c 2d3f f7df 203f
000002b0: 0e2f 2cbf be3f 1a3f 32d4 3fbf 6b4c 3ebf
000002c0: 6b52 26bf a271 343f fbcf 31bf 3f67 28bf
000002d0: 9ca2 1fbf e070 f2be 2bdc 333f 70da cbaf
000002e0: 0396 3cbf 31c0 65bf eb17 023f f8d5 54bf
000002f0: 6329 2b18 93fa 303f d39f 54bc 9658 3398
00000300: 8b81 29bd fd6b 7fbd d1a3 73bd f790 0838
00000310: 5406 97bd 4e5f 0499 522c f918 1070 25bd
00000320: 7ae0 81bd 1e9c 0cb9 a223 51bd 47c0 7fbd
00000330: 7a60 84bd 426c 75bd e6c3 6abd 67fc 57bd
00000340: 30d1 afbd 0d3e 76bd 819e 9fbd 5e4a aabd
00000350: 7645 3bbd 037c 8cbd 4337 a3bd 9a07 2797
00000360: 2899 75bd 0bd9 46bd ae33 a0bd a39a 8dbd
00000370: 4659 3cbd 7726 9dbd 4b35 1bbd a9c4 91bd
00000380: b175 44bd 2966 84bd 74fe a7bd 5fca 53bd
00000390: 9ecc 7dbd 50e3 96bd ee28 3cbd d78b d0bd
000003a0: cbd2 8dbd dfa8 66bd 4547 9fbd 4608 7bbd
000003b0: 23f1 78bd bc5a 3fbd 7349 a3bd 2a31 95bd
000003c0: 9c36 87bd 5afa 6fbd f1c3 78bd a7ef b1bd
000003d0: 1885 61bd 8c55 8fbd 0475 7dbd ca71 d72f
000003e0: 4669 6abd 03ea 87bd d9bc 37bd 18af 88bd
000003f0: 51ec bf97 2698 80bd 5716 4533 276b 6b1a

unisage2.theta.bias f4 [6]
0.019163538 0.35351792 0.043477196 0.07826266 0.41236347 -0.3512137
00000000: dafc 9c3c 4d00 b53e 2515 323d 2c48 a03d
00000010: 4e21 d33e 48d2 b3be
