src_new5/model/bkhgnn_cocitationciteseer_hid64_0104.pth (torch, 955915 bytes, 12 tensors)

layers.0.bn.weight f4 [64]
0.73476756 0.52178365 0.6786236 0.5160686 0.6683407 0.6748214 0.626766 0.7005423
0.5620427 0.77530634 0.665788 0.7157499 0.61600375 0.8155715 0.68665606 0.66689837
0.7635069 0.6541304 0.80896205 0.86136734 0.56419843 0.6097481 0.60454553 0.81895167
0.57713646 0.61060774 0.7363733 0.75496763 0.6085647 0.54469126 0.7074138 0.812755
0.66032994 0.8221822 0.8385397 0.6943618 0.52138656 0.7837668 0.6109852 0.7621547
0.81421745 0.64193743 0.7014861 0.6314524 0.6087462 0.80842 0.6247509 0.88546073
0.59213954 0.5168005 0.71181613 0.7598075 0.83634615 0.8080406 0.8059131 0.7131013
0.75012934 0.80127794 0.75425816 0.7525852 0.66397536 0.7651728 0.76276577 0.755091
00000000: ba19 3c3f 9d93 053f 47ba 2d3f 121d 043f
00000010: 6018 2b3f 18c1 2c3f bd73 203f bd56 333f
00000020: 08e2 0f3f 7a7a 463f 1571 2a3f 633b 373f
00000030: 6cb2 1d3f 4bc9 503f b1c8 2f3f dab9 2a3f
00000040: 3075 433f 1775 273f 2318 4f3f 9282 5c3f
00000050: 4f6f 103f 7418 1c3f 7fc3 1a3f d1a6 513f
00000060: 37bf 133f ca50 1c3f f682 3c3f 8f45 413f
00000070: e5ca 1b3f e370 0b3f 1219 353f b610 503f
00000080: 620b 293f 887a 523f 8aaa 563f b2c1 313f
00000090: 9779 053f f1a4 483f 8769 1c3f 921c 433f
000000a0: 8e70 503f 0356 243f 9894 333f dda6 213f
000000b0: cad6 1b3f 9df4 4e3f adef 1f3f 8ead 623f
000000c0: 7596 173f 0a4d 043f 9539 363f bf82 423f
000000d0: c81a 563f c0db 4e3f 5250 4e3f cf8d 363f
000000e0: 7a08 403f 8d20 4d3f 1017 413f 6ca9 403f
000000f0: 4afa 293f 5de2 433f 9e44 433f a54d 413f

layers.0.bn.bias f4 [64]
0.041359022 -0.047577977 0.010317616 0.039436124 -0.041402634 -0.0045504356 0.008817015 0.03409924
-0.08823397 0.03256923 -0.1058771 -0.11500628 0.027538173 -0.0707908 -0.06372116 0.014980534
-0.083064966 -0.04029027 0.00938003 -0.057562504 -0.20180053 0.022137584 -0.03659163 0.024066621
-0.0888276 -0.09926832 -0.10236428 -0.07278094 -0.14214493 -0.083867826 -0.010032091 -0.08618764
-0.090431936 -0.07318444 -0.21360537 -0.117471166 0.037551858 -0.07954229 -0.0044455444 -0.050684836
-0.013204328 -0.059244327 -0.13835742 -0.08854157 -0.06114714 -0.051623072 -0.07542775 -0.124900915
-0.08892049 -0.06261493 -0.12756062 -0.030998038 0.019994253 0.000594034 -0.047738932 -0.076270655
-0.09501008 0.025895081 0.0057601137 -0.1438023 0.02056068 0.025219012 0.05084903 -0.17058744
00000000: 1468 293d 20e1 42bd 380b 293c c687 213d
00000010: cf95 29bd d21b 95bb 3e75 103c a5ab 0b3d
00000020: 03b4 b4bd 5067 053d 18d6 d8bd 6a88 ebbd
00000030: bc97 e13c c4fa 90bd 3d80 82bd ea70 753c
00000040: f71d aabd 6907 25bd b3ae 193c a9c6 6bbd
00000050: cca4 4ebe e159 b53c 1be1 15bd 5d27 c53c
00000060: 3feb b5bd 304d cbbd 5da4 d1bd 2c0e 95bd
00000070: 718e 11be e5c2 abbd a45d 24bc 2583 b0bd
00000080: 6134 b9bd b9e1 95bd 5ebb 5abe b994 f0bd
00000090: facf 193d 11e7 a2bd eeab 91bb e79a 4fbd
000000a0: f756 58bc 2eaa 72bd 91ad 0dbe 4855 b5bd
000000b0: 6c75 7abd b772 53bd dd79 9abd 0dcc ffbd
000000c0: f21b b6bd 423c 80bd 409f 02be 99ef fdbc
000000d0: fdca a33c f2b8 1b3a e689 43bd ca33 9cbd
000000e0: a594 c2bd ec21 d43c 56bf bc3b e940 13be
000000f0: df6e a83c 1a98 ce3c 1347 503d 79ae 2ebe

layers.0.bn.running_mean f4 [64]
0.0038772067 0.0034398478 -0.001164822 0.0039826343 -0.000508721 0.0017047229 0.009494511 0.0015322644
0.001689206 0.0018439657 0.005802811 0.0046170135 0.0020709957 0.0049219346 0.006735356 0.0060647163
-0.001264042 0.0005981071 0.0005535486 0.004399022 0.0031223018 0.0033109162 0.0051971544 -0.0036609746
0.0064586597 0.0015675318 0.0020460484 0.0036781735 0.0031834869 0.001451722 0.0048848186 0.0029532171
0.00047127332 0.0009792591 0.003816991 -0.0018488083 0.0026274878 0.0027259723 -0.001001145 0.0015375093
-0.00027326852 -0.0004999946 0.0049707047 0.0022296198 0.002700335 0.002876186 0.0010252862 0.0037682294
0.002599536 0.0028530282 0.0008119544 -0.0011992248 0.004210559 0.0056720693 0.0076133534 0.002437437
0.002921147 0.0030641828 0.0012040678 -0.00080716336 0.0010213023 -0.0009882718 -0.00010561826 0.006056228
00000000: bc18 7e3b 126f 613b f1ac 98ba c280 823b
00000010: b05b 05ba 0271 df3a de8e 1b3c 43d6 c83a
00000020: 5968 dd3a 39b1 f13a 8225 be3b 514a 973b
00000030: 8bb9 073b 2e48 a13b 43b4 dc3b 87ba c63b
00000040: 36ae a5ba 4aca 1c3a 051c 113a ac25 903b
00000050: 889f 4c3b f5fb 583b e44c aa3b f6ec 6fbb
00000060: 2aa3 d33b a475 cd3a ff16 063b 830d 713b
00000070: 0ca2 503b b547 be3a d410 a03b c38a 413b
00000080: 3c15 f739 7c5a 803a 7c26 7a3b b653 f2ba
00000090: ee31 2c3b 3aa6 323b da38 83ba 4086 c93a
000000a0: 7b45 8fb9 1212 03ba 4be1 a23b d01e 123b
000000b0: 1bf8 303b 657e 3c3b e562 863a 66f4 763b
000000c0: fa5c 2a3b dff9 3a3b 56d9 543a 4f2f 9dba
000000d0: bbf8 893b c4dc b93b 7079 f93b 68bd 1f3b
000000e0: b770 3f3b 75d0 483b d0d1 9d3a d197 53ba
000000f0: 38dd 853a e688 81ba 5f7f ddb8 5373 c63b

layers.0.bn.running_var f4 [64]
0.0005116394 0.00054760417 0.00058801327 0.0006028254 0.00059076137 0.0005941744 0.0005539018 0.0005633363
0.00061247725 0.0005901586 0.0005618792 0.00053007784 0.00054835423 0.0005899426 0.0005818315 0.0005690666
0.0005461445 0.00059203856 0.0005795101 0.0005936046 0.0006474366 0.00060541386 0.0005829135 0.0006165254
0.000593759 0.0005497383 0.0005720779 0.0006027623 0.00063055946 0.0006050827 0.0005551467 0.0005377938
0.000529555 0.000547446 0.000492361 0.0005825186 0.0005740118 0.0005345912 0.0005954169 0.000500785
0.000594309 0.0006069632 0.00061193417 0.000585795 0.00059948704 0.0005957244 0.00053380936 0.00052097486
0.0005837085 0.00064746075 0.0006381089 0.00062718673 0.0006183473 0.0005554178 0.0005524588 0.0005445563
0.0005484444 0.00053704105 0.0006120527 0.0006381614 0.0006167425 0.0006120126 0.00051044225 0.00058407173
00000000: 8a1f 063a 188d 0f3a e724 1a3a ee06 1e3a
00000010: 53dd 1a3a 5ec2 1b3a b833 113a dcac 133a
00000020: a78e 203a e0b4 1a3a 134b 133a ecf4 0a3a
00000030: 6ebf 0f3a 61a6 1a3a 0d86 183a 6a2d 153a
00000040: 232b 0f3a 0933 1b3a 44ea 173a 219c 1b3a
00000050: bcb8 293a a3b4 1e3a aace 183a 529e 213a
00000060: 7ea6 1b3a 501c 103a 7ff7 153a b102 1e3a
00000070: 214c 253a 6a9e 1e3a 4487 113a bbfa 0c3a
00000080: d6d1 0a3a 7b82 0f3a ca11 013a 29b4 183a
00000090: 4879 163a cf23 0c3a c015 1c3a 1d47 033a
000000a0: 67cb 1b3a 9c1c 1f3a 356a 203a 0990 193a
000000b0: e526 1d3a 632a 1c3a 57ef 0b3a 0892 083a
000000c0: 0404 193a 5bba 293a c346 273a ca69 243a
000000d0: 9618 223a 7599 113a e2d2 103a 8ec0 0e3a
000000e0: 7bc5 0f3a 37c8 0c3a 2972 203a 494a 273a
000000f0: e3ac 213a 786f 203a 33cf 053a 641c 193a

layers.0.theta.weight f4 [64, 3703]
0.05267181 -0.033680793 0.022964116 0.026887104 0.034721963 0.02206751 -0.0009911251 0.0074368194
-0.0001386776 -0.020803528 0.009545408 -0.052750517 0.028489474 -0.027344849 -0.0019108375 -0.031671338
-0.037019685 0.006021654 -0.06517571 -0.011355342 0.016252555 0.034606263 -0.035638683 0.0032784268
0.042490114 -0.015033547 0.00528275 -0.029528366 -0.040313326 0.036232214 0.024803601 -0.012485681
0.054909203 0.00803718 0.005912692 -0.0038324082 0.016565064 -0.007951476 0.004918299 0.0049542673
0.0037082382 0.027456516 -0.0040376065 -0.035555042 -0.025108984 -0.0166161 0.039667793 0.015187747
0.021926634 -0.011680856 0.0028672202 0.042648863 -0.0031936949 -0.015456583 -0.061104156 0.0020686388
7.7119636e-05 -0.029575394 -0.02029889 0.004082634 -0.017517066 -0.033689275 0.025885869 0.009581981
0.01298577 0.0669272 0.030469554 -0.02898941 0.03003306 0.015793059 -0.025807569 0.011221938
0.0025369585 -0.008797922 0.005941813 0.007995817 0.0017047001 -0.038525376 0.030883783 -0.040820308
0.00015470071 0.033450417 0.023323143 -0.013986031 -0.002715227 0.00090941275 0.0048645874 0.003874275
-0.0011835825 0.0072504086 0.0024842948 -0.009802164 0.060975924 0.011576011 0.024277942 -0.02141132
-0.012558558 -0.0066753733 0.008188015 -0.006402386 -0.0029780283 0.0270404 0.03743166 0.0010716834
0.008407405 0.014506181 -0.020319473 0.0022893073 -0.038878124 -0.0044899485 -0.049122114 0.025186926
0.0053878045 -0.010026194 -0.06525352 -0.0020599812 0.014149809 0.0014843666 -0.03256706 -0.03161455
-0.022549894 0.0030423 0.010492461 0.017769996 0.014456877 0.009620166 0.0071342373 0.035792388
0.01846156 -0.022433572 0.05009103 0.010153496 -0.016636392 0.0332757 0.011279378 -0.0003074275
0.002409999 0.0015174634 0.025334716 0.0002752426 0.0117366705 -0.00946427 0.03876704 0.031797573
-0.02398968 0.043479957 -0.007254044 0.0013008241 -0.0066855326 0.06539133 0.003444969 0.01569989
0.0066570807 0.0023583616 0.038663786 0.0012236524 0.0070480425 -0.0007175716 0.038248975 -0.035921738
0.026085937 0.009774726 -0.0032081816 0.003283116 0.0002729168 0.03610285 0.04859692 0.0017522669
0.05483599 -0.04458492 0.003769055 -0.048326854 0.020326523 0.03310156 -0.059194066 -0.052263014
-0.0029411593 0.06282862 0.003629944 0.0061324495 -6.0531325e-05 0.02950315 -0.032669894 -0.047519803
-0.008797935 0.0014804249 0.06061571 0.053355366 0.0066172234 -0.008305067 -0.009985955 -0.0059825354
-0.0011366234 0.029756932 0.018519955 0.003995265 -0.0028836676 0.031669166 0.021064445 0.046847045
-0.06325394 0.03767503 0.014097502 -0.00027410267 0.0032754072 -0.0049288347 0.03621213 0.012540455
0.006423755 0.038849723 0.04460461 0.043412 0.03875655 0.017126465 0.0014576312 0.040910188
0.003801341 0.020618137 0.004853622 -0.0005608935 -0.0083622765 -0.0072811847 -0.024772966 0.021982694
-0.014564002 0.030845536 0.0025446897 0.030133681 0.0323349 -0.022036683 0.043332946 0.014305577
0.028072169 -0.00037511459 -0.05016285 0.02166354 -0.049547788 0.014251062 -0.028200533 0.015390419
-0.0030350424 -0.012146691 -0.011739063 0.002511406 -0.015015329 0.02687723 -0.0020484228 0.061923467
-0.009312268 0.05365351 0.022216532 0.013683007 -0.014703607 0.021753566 -0.04985187 0.0028244583
00000000: 65be 573d dff4 09bd 3e1f bc3c 5842 dc3c
00000010: 9e38 0e3d ecc6 b43c a4e8 81ba 90b0 f33b
00000020: fc69 11b9 296c aabc 5864 1c3c ed10 58bd
00000030: c262 e93c 4e02 e0bc 1175 faba ceb9 01bd
00000040: f4a1 17bd 4b51 c53b d87a 85bd c20b 3abc
00000050: 1424 853c 4cbf 0d3d def9 11bd e0da 563b
00000060: 1d0a 2e3d 444f 76bc eb1a ad3b 79e5 f1bc
00000070: 961f 25bd 3b68 143d ec30 cb3c be90 4cbc
00000080: 79e8 603d 60ae 033c 41bf c13b 2429 7bbb
00000090: 75b3 873c e846 02bc af29 a13b 6857 a23b
000000a0: ea05 733b 7dec e03c e64d 84bb 2aa2 11bd
000000b0: 5bb1 cdbc 7d1e 88bc b27a 223d 07d6 783c
000000c0: 7c9f b33c 1061 3fbc f9e7 3b3b 93b0 2e3d
000000d0: 4f4d 51bb 9c3d 7dbc 5a48 7abd 0092 073b
000000e0: 4abb a138 1948 f2bc dc49 a6bc 9ec7 853b
000000f0: f37f 8fbc c4fd 09bd 9a0e d43c befd 1c3c
00000100: 44c2 543c 2111 893d 499b f93c 337b edbc
00000110: e407 f63c 7260 813c 656a d3bc 38dc 373c
00000120: 1a43 263b 2925 10bc 8ab3 c23b e300 033c
00000130: 3e70 df3a c9cc 1dbd fdff fc3c 3233 27bd
00000140: 2837 2239 4e03 093d 2d10 bf3c aa25 65bc
00000150: f3f1 31bb a865 6e3a 1e67 9f3b 8ce7 7d3b
00000160: 7022 9bba d694 ed3b 8dcf 223b 4199 20bc
00000170: e4c1 793d 4fa9 3d3c 89e2 c63c cb66 afbc
00000180: 69c2 4dbc 17bd dabb 0627 063c 1bcb d1bb
00000190: 062b 43bb d483 dd3c f151 193d ba77 8c3a
000001a0: 36bf 093c 55ab 6d3c 0675 a6bc 3408 163b
000001b0: ab3e 1fbd 6b20 93bb 4534 49bd d054 ce3c
000001c0: 2e8c b03b e844 24bc a3a3 85bd c000 07bb
000001d0: 9ad4 673c 148f c23a 0a65 05bd 427e 01bd
000001e0: 8eba b8bc 5361 473b 92e8 2b3c 6292 913c
000001f0: 89dc 6c3c e79d 1d3c 52c6 e93b 0a9b 123d
00000200: b33c 973c 9cc6 b7bc 402c 4d3d d95a 263c
00000210: 0b49 88bc 1a4c 083d 24cd 383c 382e a1b9
00000220: 13f1 1d3b 9fe5 c63a c08a cf3c 704e 9039
00000230: 2a4b 403c 0710 1bbc 30ca 1e3d 2c3e 023d
00000240: 0186 c4bc 0a18 323d 55b3 edbb 6a80 aa3a
00000250: 5012 dbbb e4eb 853d fdc4 613b 0e9d 803c
00000260: a423 da3b be8e 1a3b eb5d 1e3d f662 a03a
00000270: 44f3 e63b 6a1b 3cba f5aa 1c3d ac22 13bd
00000280: 2db2 d53c 2c26 203c 5b40 52bb 8c29 573b
00000290: 4616 8f39 95e0 133d 900d 473d 52ac e53a
000002a0: b49b 603d ad9e 36bd 4002 773b 61f2 45bd
000002b0: cf83 a63c 8095 073d 7a75 72bd be11 56bd
000002c0: 77c0 40bb 4bac 803d 5be4 6d3b b7f2 c83b
000002d0: 04e3 7db8 97b0 f13c ded0 05bd 20a4 42bd
000002e0: 3725 10bc d10a c23a 2e48 783d 288b 5a3d
000002f0: 4bd5 d83b fa11 08bc 229c 23bc 2509 c4bb
00000300: c1fa 94ba cfc4 f33c 29b7 973c b6ea 823b
00000310: eafb 3cbb 87b7 013d 588f ac3c b0e2 3f3d
00000320: 488b 81bd 2251 1a3d 36f9 663c 70b5 8fb9
00000330: 37a8 563b 1082 a1bb 2c53 143d 7b76 4d3c
00000340: 5d7e d23b e320 1f3d 53b3 363d c8d0 313d
00000350: 30bf 1e3d cd4c 8c3c fd0d bf3a 7191 273d
00000360: eb1f 793b 5ee7 a83c 220b 9f3b ed08 13ba
00000370: ee01 09bc 0197 eebb adf0 cabc 0d15 b43c
00000380: da9d 6ebc c7af fc3c cfc4 263b e9da f63c
00000390: 9a71 043d 4686 b4bc e37d 313d f061 6a3c
000003a0: 9bf7 e53c 07ab c4b9 9077 4dbd bc77 b13c
000003b0: 9ff2 4abd 497d 693c ce04 e7bc 1928 7c3c
000003c0: 90e7 46bb ea02 47bc 3355 40bc 6796 243b
000003d0: db02 76bc a32d dc3c d53e 06bb 76a3 7d3d
000003e0: 7c92 18bc c8c3 5b3d 72ff b53c b12e 603c
000003f0: 66e7 70bc 8934 b23c 7931 4cbd 8c1a 393b

layers.0.theta.bias f4 [64]
-0.00010897379 -1.7986724e-05 0.00027068722 -6.71515e-05 -9.663125e-05 6.1314684e-05 4.1904328e-05 0.00011479891
-0.0002183014 -1.8865107e-05 -0.00011794586 -0.00024135875 1.2696313e-05 -2.9301911e-05 1.9514606e-05 -3.125026e-05
-0.00022050683 -0.00044357366 4.546664e-05 9.3171904e-05 -2.5156218e-05 -0.00012199285 2.2825712e-05 2.9125496e-05
-0.00037820401 -0.00014464 3.0632e-05 -0.00023065245 0.000121587436 8.370956e-05 7.818497e-05 1.4193414e-05
3.7380392e-05 6.8448324e-05 -6.887599e-05 6.945958e-05 -0.00023885256 -7.694983e-05 -0.0001934052 -0.00039143718
7.958206e-05 0.0004453324 -0.00015138257 3.59314e-05 9.1059585e-05 0.00014021569 -7.418456e-05 0.00010963797
0.00015623921 6.283413e-05 3.0155115e-06 -2.5908485e-06 -0.00013342926 0.00012524292 0.00020032111 -0.00012365212
-0.00026412486 -0.000117521 -4.7864152e-05 7.753192e-05 -0.00029255066 0.00025280524 2.4611358e-05 3.4526645e-05
00000000: dc88 e4b8 32e2 96b7 06eb 8d39 b0d3 8cb8
00000010: 82a6 cab8 1296 8038 6ec2 2f38 32c0 f038
00000020: d6e7 64b9 8240 9eb7 b459 f7b8 3f15 7db9
00000030: 4002 5537 60cd f5b7 4cb3 a337 b612 03b8
00000040: da37 67b9 738f e8b9 6fb3 3e38 4965 c338
00000050: 9106 d3b7 6ad6 ffb8 d879 bf37 8752 f437
00000060: af49 c6b9 81aa 17b9 dc7a 0038 4cdb 71b9
00000070: c2fc fe38 3a8d af38 3cf7 a338 4020 6e37
00000080: e4c8 1c38 ea8b 8f38 8471 90b8 d4aa 9138
00000090: 7f74 7ab9 2060 a1b8 d0cc 4ab9 cf39 cdb9
000000a0: 4be5 a638 817b e939 73bc 1eb9 0cb5 1638
000000b0: 3ef7 be38 dd06 1339 8893 9bb8 70ed e538
000000c0: 25d4 2339 d1c5 8338 185e 4a36 70de 2db6
000000d0: 25e9 0bb9 a453 0339 4a0d 5239 9da8 01b9
000000e0: 3d7a 8ab9 9b75 f6b8 bec1 48b8 a298 a238
000000f0: 7c61 99b9 f28a 8439 7d74 ce37 b4d0 1038

layers.1.bn.weight f4 [6]
1.5281659 1.4735019 1.4811356 1.4914827 1.5221598 1.4236567
00000000: f19a c33f b69b bc3f da95 bd3f e8e8 be3f
00000010: 22d6 c23f 623a b63f

layers.1.bn.bias f4 [6]
0.2692121 -0.005595455 -0.24117562 0.1374362 0.38278842 -0.32347125
00000000: 2bd6 893e 145a b7bb bef6 76be 13bc 0c3e
00000010: d8fc c33e 069e a5be

layers.1.bn.running_mean f4 [6]
0.037283316 0.008265807 -0.00017542526 0.0025876618 0.018711504 -0.08752534
00000000: 64b6 183d 4f6d 073c 5cf2 37b9 c395 293b
00000010: de48 993c 7c40 b3bd

layers.1.bn.running_var f4 [6]
0.31405693 0.254699 0.24067882 0.18605289 0.22849448 0.13229822
00000000: 12cc a03e e867 823e 8274 763e a684 3e3e
00000010: 75fa 693e 2f79 073e

layers.1.theta.weight f4 [6, 64]
-0.030664735 -0.17182122 0.020167781 0.08985732 0.16741964 0.12892613 -0.08266994 0.09630167
0.024594193 0.08939475 -0.16317035 0.01081825 0.09920161 0.06994174 -0.09740024 -0.15555589
-0.05036821 -0.100844465 -0.18561092 -0.004076288 0.032766744 0.0926938 -0.108646825 0.120335974
0.12110598 0.09696089 -0.0840079 0.17461036 -0.0056108995 0.0038614706 0.15661116 0.008167953
0.08923949 0.11503951 0.22458366 0.06256835 0.104207665 0.05420476 -0.079689674 -0.07353257
-0.099479966 0.16131774 -0.051954865 -0.06790873 0.05051161 -0.04251616 0.21579601 -0.077030204
0.020188447 -0.08922704 -0.13485643 0.12239501 -0.14092219 0.05829867 -0.11078135 0.012188558
-0.066011794 0.14832012 -0.09439495 -0.052434627 -0.09864813 -0.0032408517 0.055460397 -0.111219935
0.039910655 0.1183825 -0.056632046 0.011953095 -0.045803435 -0.05710158 0.178438 -0.069313586
-0.030166376 0.07514529 -0.23814519 0.08047458 0.0074527133 -0.05058072 0.11554846 0.11505562
-0.088980414 -0.1072724 -0.09635192 0.094376296 0.15436086 0.030657385 -0.0028314546 -0.05638428
-0.101719625 -0.07304228 0.16736938 -0.06502909 0.16236968 0.15870354 -0.01871808 -0.11162248
-0.08016335 -0.059407905 -0.03147563 -0.04117115 0.029085048 -0.14874789 -0.09102426 0.097736344
0.10100717 -0.029547846 0.1638678 -0.044067822 0.07766289 0.0073485537 -0.07702072 -0.146546
0.103902586 0.08960798 0.09875026 -0.041766465 0.042772003 0.12756662 -0.14144732 -0.06761133
-0.051174182 -0.08389877 0.079388864 -0.03492065 -0.04424085 -0.087092206 0.05892275 0.18973371
-0.03898339 0.07589669 -0.08465135 -0.070340775 0.04720101 -0.06692633 -0.0840111 0.09607188
0.14238162 0.006113303 0.1129655 -0.15862 0.107611515 -0.030819176 0.04794575 -0.11706007
0.13892445 -0.11168639 0.0750267 -0.07304735 -0.112260215 0.088254355 0.08743582 -0.054754104
0.06927288 0.06492966 -0.043857258 -0.028880568 -0.052705385 0.03340655 -0.057548676 0.08765907
0.023429373 -0.1289926 0.21988331 -0.112885505 0.115630485 0.0874805 0.09152295 -0.11015928
0.12049248 -0.09171802 0.15730216 0.14617959 0.09090706 0.08436348 0.025512539 -0.13531712
-0.12346278 0.13184564 -0.012856548 -0.038373962 -0.093818314 -0.103053786 0.111098975 0.16393855
-0.10384319 -0.105900176 0.077550635 0.0011956301 0.025114676 -0.04173206 -0.11152305 -0.043153957
-7.500159e-05 -0.0599792 0.1002444 0.08020799 -0.02970665 0.11029695 0.010416515 -0.019045485
-0.18377078 -0.10639798 0.21264727 -0.13819143 -0.057004116 0.11614532 0.042757027 0.14104019
-0.07901141 0.11042414 0.08187562 -0.016928576 0.06778419 -0.06581995 -0.040442895 -0.07893789
-0.03807702 0.0662615 -0.067936406 -0.17298822 -0.058521364 -0.027589282 0.13668986 -0.064506404
0.19353817 -0.1764375 -0.059393182 -0.111037455 -0.06918111 -0.07907081 0.021007728 -0.1715816
-0.04860648 0.08768603 -0.06412424 0.10131627 -0.10286538 0.03544766 -0.063940234 -0.13767341
-0.067043275 -0.073490925 0.029092046 -0.0013518154 0.09663023 -0.13286653 0.069519855 -0.08729288
0.1325925 0.079878144 0.06666308 0.019149208 0.08882368 0.055108055 0.057243958 0.1600622
00000000: 9c34 fbbc e7f1 2fbe e736 a53c 1d07 b83d
00000010: 0e70 2b3e 3605 043e dc4e a9bd cf39 c53d
00000020: c379 c93c 9814 b73d 2116 27be 073f 313c
00000030: 372a cb3d 9d3d 8f3d c779 c7bd 0b4a 1fbe
00000040: e54e 4ebd 8b87 cebd ca10 3ebe 6292 85bb
00000050: 6c36 063d 3fd6 bd3d 3a82 debd b572 f63d
00000060: 6906 f83d 6e93 c63d 550c acbd 0fcd 323e
00000070: a3db b7bb ba10 7d3b ad5e 203e e1d2 053c
00000080: 32c3 b63d d699 eb3d 42f9 653e d623 803d
00000090: d46a d53d cf05 5e3d 5734 a3bd 3e98 96bd
000000a0: 27bc cbbd 7a30 253e a0ce 54bd bb13 8bbd
000000b0: 43e5 4e3d 6d25 2ebd a1f9 5c3e 03c2 9dbd
000000c0: 3e62 a53c abbc b6bd ce17 0abe 3caa fa3d
000000d0: e84d 10be 96ca 6e3d 55e1 e2bd 84b2 473c
000000e0: 3131 87bd 3be1 173e 2452 c1bd b1c5 56bd
000000f0: 0808 cabd 7864 54bb 712a 633d 47c7 e3bd
00000100: 5b79 233d 8672 f23d 01f7 67bd ead6 433c
00000110: 629c 3bbd 59e3 69bd 73b8 363e 48f4 8dbd
00000120: 7a1f f7bc c6e5 993d 55dc 73be dbcf a43d
00000130: e435 f43b bb2d 4fbd aca4 ec3d 48a2 eb3d
00000140: 5d3b b6bd a2b1 dbbd 2854 c5bd 5c48 c13d
00000150: c610 1e3e 3225 fb3c ed8f 39bb 34f3 66bd
00000160: 6152 d0bd 3197 95bd e162 2b3e f92d 85bd
00000170: 3d44 263e 2e83 223e a956 99bc 549a e4bd
00000180: af2c a4bd b455 73bd 97ec 00bd 14a3 28bd
00000190: c443 ee3c 5e51 18be ed6a babd fe29 c83d
000001a0: d9dc ce3d 530e f2bc f6cc 273e 7680 34bd
000001b0: b90d 9f3d 23cc f03b 0abd 9dbd 2810 16be
000001c0: e1ca d43d 6384 b73d 943d ca3d 5013 2bbd
000001d0: b231 2f3d d3a0 023e 91d7 10be cf77 8abd
000001e0: 059c 51bd 1ed3 abbd a196 a23d f508 0fbd
000001f0: e535 35bd 665d b2bd fb58 713d 8e49 423e
00000200: 0cad 1fbd b96f 9b3d b05d adbd d30e 90bd
00000210: d955 413d ac10 89bd 030e acbd 55c1 c43d
00000220: 7dcc 113e 1a52 c83b 755a e73d 486d 22be
00000230: 6d63 dc3d 7f78 fcbc c362 443d 31bd efbd
00000240: 3642 0e3e d6bb e4bd 99a7 993d d999 95bd
00000250: afe8 e5bd b3be b43d 8d11 b33d d745 60bd
00000260: f1de 8d3d d7f9 843d aba3 33bd f196 ecbc
00000270: 9ae1 57bd 4ed5 083d 29b8 6bbd 9986 b33d
00000280: f5ee bf3c a316 04be 1729 613e 8430 e7bd
00000290: adcf ec3d fa28 b33d 6270 bb3d 309b e1bd
000002a0: c3c4 f63d a8d6 bbbd d113 213e 1ab0 153e
000002b0: 7b2d ba3d c3c6 ac3d acff d03c 9290 0abe
000002c0: 0eda fcbd 8b02 073e 45a4 52bc 042e 1dbd
000002d0: d123 c0bd dd0d d3bd dc87 e33d 82df 273e
000002e0: bdab d4bd 31e2 d8bd ded2 9e3d b0b6 9c3a
000002f0: 4bbd cd3c 3def 2abd 3266 e4bd 34c2 30bd
00000300: 2c4a 9db8 c0ac 75bd f04c cd3d 1644 a43d
00000310: 5c5b f3bc 5ee3 e13d 08aa 2a3c 4705 9cbc
00000320: 682e 3cbe 2fe7 d9bd 35c0 593e 0e82 0dbe
00000330: 267d 69bd 99dd ed3d fe21 2f3d d76c 103e
00000340: bcd0 a1bd 0d26 e23d 68ae a73d ccad 8abc
00000350: 70d2 8a3d 9ccc 86bd 73a7 25bd 30aa a1bd
00000360: a6f6 1bbd 1cb4 873d 3e22 8bbd d323 31be
00000370: 19b4 6fbd eb02 e2bc 6df8 0b3e ef1b 84bd
00000380: df2e 463e 08ac 34be 4446 73bd 9b67 e3bd
00000390: d3ae 8dbd e0ef a1bd 6618 ac3c 16b3 2fbe
000003a0: 9717 47bd bc94 b33d 9253 83bd e87e cf3d
000003b0: 16ab d2bd 9131 113d 19f3 82bd 42fa 0cbe
000003c0: fc4d 89bd 6982 96bd 7152 ee3c 662f b1ba
000003d0: 12e6 c53d 2a0e 08be 6d60 8e3d 9cc6 b2bd
000003e0: 54c6 073e 2797 a33d a786 883d cdde 9c3c
000003f0: 31e9 b53d fcb8 613d a478 6a3d 58e7 233e

layers.1.theta.bias f4 [6]
3.354292e-05 -7.089606e-06 -3.425494e-05 -2.0101928e-05 -4.0499755e-05 1.7957891e-06
00000000: 70b0 0c38 40e3 edb6 f6ac 0fb8 90a0 a8b7
00000010: 48de 29b8 d806 f135
