src_new5/model/hgnn_news20_best_model.pth (torch, 33402 bytes, 12 tensors)

layers.0.bn.weight f4 [64]
0	0x3f7dc96d	0.99135476
1	0x3f6dce67	0.9289307
2	0x3f73613c	0.9507024
3	0x3f73a8c5	0.95179397
4	0x3f6046f5	0.8760827
5	0x3f7d162f	0.98861974
6	0x3f754d15	0.9582074
7	0x3f66e0f7	0.9018702
8	0x3f5c6928	0.86097956
9	0x3f79075e	0.97276866
10	0x3f76b37b	0.96367615
11	0x3f75901b	0.9592301
12	0x3f6c725b	0.9236199
13	0x3f80b6db	1.0055803
14	0x3f75c41f	0.9600238
15	0x3f7fc609	0.9991155
16	0x3f7eb1d6	0.99490106
17	0x3f678f7e	0.90453327
18	0x3f7114ca	0.94172347
19	0x3f6f6c0f	0.9352426
20	0x3f7c739e	0.9861392
21	0x3f7857f0	0.9700918
22	0x3f7bdad4	0.9838078
23	0x3f7038c4	0.9383662
24	0x3f713fd3	0.94238013
25	0x3f6c70c1	0.9235955
26	0x3f6a87c1	0.91613394
27	0x3f70b30c	0.94023204
28	0x3f71d37b	0.9446332
29	0x3f76057f	0.96102136
30	0x3f747eb1	0.95505816
31	0x3f72de28	0.94870234
32	0x3f6f8841	0.9356728
33	0x3f7909df	0.9728069
34	0x3f75a6db	0.95957726
35	0x3f737546	0.9510082
36	0x3f719089	0.9436117
37	0x3f76679a	0.96251833
38	0x3f6649e4	0.899565
39	0x3f7f5735	0.9974244
40	0x3f756c3f	0.95868295
41	0x3f7a18bd	0.97694
42	0x3f6eb696	0.93247354
43	0x3f77e290	0.9683008
44	0x3f75d7f0	0.9603262
45	0x3f7837fc	0.96960425
46	0x3f7cf5e1	0.9881268
47	0x3f6f61d4	0.9350865
48	0x3f7308e7	0.9493546
49	0x3f734c63	0.9503843
50	0x3f736202	0.95071423
51	0x3f6eb947	0.9325146
52	0x3f64be8a	0.8935324
53	0x3f647e3d	0.89255124
54	0x3f7311d2	0.94949067
55	0x3f7fb94a	0.99892104
56	0x3f6af43e	0.91778934
57	0x3f66b379	0.90117604
58	0x3f7129e5	0.9420455
59	0x3f76a3da	0.9634377
60	0x3f7d5b6e	0.98967636
61	0x3f650cab	0.89472455
62	0x3f718a5c	0.94351745
63	0x3f74f8f3	0.95692366

layers.0.bn.bias f4 [64]
0	0x3cb0c432	0.021577928
1	0x3cc8b389	0.024499672
2	0x3af29b19	0.0018509357
3	0xbce9a78a	-0.028522272
4	0xbd2fe451	-0.04294235
5	0x3be81b27	0.007083315
6	0xbbd744f3	-0.0065694987
7	0x3d3984cf	0.04529267
8	0x3db22a6b	0.08699497
9	0xbd5226f0	-0.051306665
10	0xbba3cca8	-0.004998762
11	0x3cfc3251	0.030785711
12	0xbbb5df95	-0.0055503347
13	0x3d06e7b1	0.032935802
14	0xbc19d1eb	-0.009388427
15	0x3ce8e66f	0.028430192
16	0x3bb67e8a	0.005569284
17	0xbca926a8	-0.020648316
18	0x3c6d7df7	0.014495364
19	0x3cb161cd	0.02165308
20	0x3d07af63	0.033126246
21	0x3c21d2e2	0.009876939
22	0x3d0b3840	0.03398919
23	0x3d31e0c4	0.043427244
24	0xbd55d9f2	-0.052209802
25	0x3c42e40b	0.01189519
26	0xbaeca114	-0.0018053376
27	0xbd04174d	-0.032248784
28	0xbccb4626	-0.024813723
29	0xbb5ea829	-0.0033974743
30	0xbb656e0f	-0.0035008227
31	0x3ca0aff1	0.019615145
32	0xbcbd234f	-0.023088126
33	0x3c8be06d	0.017074788
34	0xbc760121	-0.015014918
35	0x3d0db5ed	0.034597326
36	0x3d75f574	0.060048535
37	0x3c0c6e3f	0.008571207
38	0x3d794e3e	0.060865633
39	0x3c130165	0.0089725
40	0xbbeb8859	-0.0071878848
41	0xbbef74be	-0.007307618
42	0x3d147493	0.036243986
43	0xbafa43d5	-0.0019093702
44	0xbcb312ba	-0.021859515
45	0xbcb4e959	-0.022083925
46	0x3b1f56f0	0.0024313293
47	0xbcdd53a5	-0.027017424
48	0x3d44733b	0.047961455
49	0x3c9596a0	0.0182603
50	0x39ebb807	0.00044959804
51	0xbd29f73e	-0.041495554
52	0x3d34ecbe	0.044171087
53	0x3d9d0cca	0.07668455
54	0xbba21263	-0.0049460395
55	0x3cbd2723	0.02308995
56	0xbd2b98d0	-0.04189378
57	0x3d33253b	0.043736678
58	0x3c15c560	0.009141296
59	0xbc877135	-0.016533474
60	0x3ca7a6ef	0.020465342
61	0x3c662958	0.014047943
62	0xbcf46523	-0.029833382
63	0x3cf96df7	0.030447943

layers.0.bn.running_mean f4 [64]
0	0x3b28a722	0.0025734385
1	0xbd0fbb75	-0.035090882
2	0xbc90d35e	-0.017678913
3	0xbca62e99	-0.020285891
4	0x3cf3b715	0.029750386
5	0xbc1fb888	-0.0097485855
6	0x3b05ee52	0.002043624
7	0xbcd62c04	-0.026144035
8	0x3d07ea8b	0.033182662
9	0x3b35dee1	0.0027751254
10	0x3c3fcf66	0.0117071625
11	0xbd96cd60	-0.07363391
12	0xbd23f14a	-0.040025033
13	0xbc7af1ec	-0.015316468
14	0x3c664c15	0.014056225
15	0x3b8b4340	0.00424996
16	0x3c43845a	0.011933411
17	0x3c8e6846	0.017383706
18	0x3d303e72	0.043028302
19	0x3c345f2c	0.011009019
20	0xbd30b251	-0.043138806
21	0xbac367f8	-0.0014908304
22	0xbcf2ead0	-0.029652983
23	0xbc81ea42	-0.015858773
24	0x3c897256	0.016778152
25	0x3cbb426a	0.022858817
26	0x3d35fdf0	0.044431627
27	0xbb4ef113	-0.0031576797
28	0xba8626d4	-0.001023496
29	0x3d04df48	0.0324395
30	0x3d325d6b	0.04354612
31	0xbced992c	-0.029003702
32	0x3cce64a7	0.02519448
33	0xbd638b5a	-0.055552818
34	0xbc5d4bfe	-0.0135068875
35	0xbce5f921	-0.028072895
36	0x3da84915	0.08217064
37	0x3c59ec2e	0.0133009385
38	0xbce60796	-0.02807979
39	0xbcf566e7	-0.029956294
40	0xbcade1bb	-0.0212258
41	0x3d6a0be5	0.05714025
42	0x3c9996ec	0.018748723
43	0xbc265623	-0.0101523725
44	0x3cf0d133	0.029396629
45	0xbd1cee57	-0.038313236
46	0xbc36dd56	-0.011161169
47	0x3d8c638d	0.06854925
48	0x3b3bee12	0.0028675837
49	0xbd34a426	-0.044101857
50	0xbc8aaa97	-0.016927047
51	0xbbc8a7e2	-0.006123529
52	0xbcd55bfb	-0.026044836
53	0xbde4690f	-0.11152851
54	0xbc10e920	-0.008844644
55	0xba027eb4	-0.00049779867
56	0xbd124880	-0.035713673
57	0x3b1b9aef	0.002374347
58	0x3d44270f	0.04788881
59	0xbd424d06	-0.047436737
60	0xbc8cf907	-0.01720859
61	0xbc84ecda	-0.01622622
62	0xb9fc5e6b	-0.00048135532
63	0xbd2818de	-0.04103934

layers.0.bn.running_var f4 [64]
0	0x3c6d90f6	0.014499893
1	0x3c66e457	0.014092526
2	0x3c63a54d	0.013894391
3	0x3c4b3b1d	0.01240423
4	0x3c84e0a9	0.016220408
5	0x3cab0861	0.020878019
6	0x3c668be7	0.014071441
7	0x3c3d7a4b	0.011564801
8	0x3c225de7	0.009910083
9	0x3c70e3fb	0.014702792
10	0x3c61e6ef	0.013787969
11	0x3c9b670e	0.018970039
12	0x3c686fda	0.014186824
13	0x3c2b186e	0.010442836
14	0x3c44ce29	0.012012043
15	0x3c1b18f0	0.009466395
16	0x3ca83f80	0.020538092
17	0x3c820b45	0.015874514
18	0x3c6b4bd2	0.014361339
19	0x3c74efc6	0.014949745
20	0x3c6386da	0.013887132
21	0x3c6dc749	0.014512845
22	0x3c8d956b	0.017283162
23	0x3c5e12de	0.013554303
24	0x3c7e9d73	0.0155404685
25	0x3c4da078	0.012550466
26	0x3c85c821	0.01633078
27	0x3c65ae92	0.014018672
28	0x3c4d6669	0.0125366235
29	0x3c62b7c5	0.013837759
30	0x3c8ab8d0	0.016933829
31	0x3cad3da4	0.021147557
32	0x3c82a931	0.015949817
33	0x3c91e4bf	0.01780927
34	0x3c195e8e	0.0093609225
35	0x3c674a57	0.014116845
36	0x3c806043	0.015670901
37	0x3c9cc057	0.019134684
38	0x3c40707b	0.011745567
39	0x3c2bb9c0	0.010481298
40	0x3c72bc9d	0.014815477
41	0x3c4b6de0	0.012416333
42	0x3c5150b1	0.012775586
43	0x3c27b0b2	0.010234999
44	0x3c6a2708	0.014291532
45	0x3c4b27aa	0.012399593
46	0x3c3e1a09	0.011602887
47	0x3c90d22e	0.017678346
48	0x3c96535b	0.018350294
49	0x3c500bad	0.012698096
50	0x3c494497	0.0122844195
51	0x3c39f7c4	0.011350576
52	0x3c861f0c	0.016372226
53	0x3ccf0e32	0.025275324
54	0x3c6f7ff5	0.01461791
55	0x3c846583	0.016161686
56	0x3c5b88ed	0.013399345
57	0x3c4c2568	0.01246009
58	0x3c6cc5cb	0.014451454
59	0x3c8a864a	0.016909737
60	0x3c89175a	0.016734768
61	0x3c761027	0.015018499
62	0x3c4f3142	0.012646021
63	0x3c7d92ad	0.015476865

layers.0.theta.weight f4 [64, 100]
0	0xbba678a7	-0.005080301
1	0xbd92f940	-0.07176447
2	0x3d8f6765	0.07002143
3	0xbd1c74da	-0.038197376
4	0xbd4fffc6	-0.050781034
5	0xbd30e447	-0.043186452
6	0x3dd8c871	0.10585106
7	0x3cf3756f	0.029719083
8	0xbdaeb066	-0.08529739
9	0x3af0743f	0.0018345191
10	0x3d524661	0.05133665
11	0xbd2b0edb	-0.041762214
12	0x3d36392d	0.04448812
13	0xbd578832	-0.05262012
14	0xbd9230eb	-0.071382366
15	0x3da33e28	0.0797084
16	0x3de89e9c	0.11358377
17	0x3af34993	0.0018561356
18	0xbd03b659	-0.032156322
19	0x3d6271ae	0.055284195
20	0xbd2707b9	-0.04077885
21	0xbdc0959e	-0.09403537
22	0xbd4cdf33	-0.050017547
23	0xbc2485d3	-0.010041672
24	0x3b367ca7	0.0027845295
25	0xbc1c9e9a	-0.009559298
26	0x3d77d603	0.06050683
27	0x3c8a6110	0.016891986
28	0x3d8a5be7	0.0675581
29	0xbd56bbd4	-0.05242522
30	0xbd09365c	-0.033499107
31	0xbd3b199e	-0.045678727
32	0x3d29f80e	0.04149633
33	0x3c32ce91	0.010913507
34	0x3dfc91b5	0.12332479
35	0xbd9094b6	-0.07059614
36	0x3d77a773	0.060462426
37	0x3d10bb7c	0.03533505
38	0x3ca455f7	0.020060522
39	0xbce16ae1	-0.027516784
40	0xbd0799cf	-0.033105668
41	0x3d18c966	0.037301444
42	0x3d4a3564	0.049367324
43	0x3d08dcfd	0.033413876
44	0x3d636ef1	0.055525724
45	0xbdcd74d2	-0.10032047
46	0x3d97f9ad	0.07420669
47	0xbd410a9f	-0.04712927
48	0xbda8448f	-0.082162015
49	0x3d6c7b77	0.057734933
50	0xbcd6bb1c	-0.026212268
51	0x3d57f56e	0.052724294
52	0x3c4af4d3	0.012387472
53	0xbd9ee893	-0.07759204
54	0x3d9cd5d9	0.07657976
55	0xbbb918bc	-0.0056487005
56	0x3d4e8c4c	0.050426766
57	0xbd31f2f5	-0.043444593
58	0xbd4cce72	-0.05000157
59	0xbc9f7cf5	-0.019468764
60	0xbc02a664	-0.007974241
61	0xbcb07f19	-0.02154498
62	0xbdb95093	-0.090485714
63	0x3d7ca64e	0.061682038
64	0xbcd7052a	-0.02624758
65	0xbc0f80a0	-0.008758694
66	0xbca38312	-0.01995996
67	0xbd613c11	-0.054988924
68	0x3d256d5e	0.040387504
69	0xbd57a871	-0.052650873
70	0x3c6b4df3	0.014361846
71	0xbd6d7933	-0.057976913
72	0x3d471dbf	0.048612352
73	0xbdb51662	-0.0884216
74	0x3d623fa1	0.055236463
75	0xbdcc02ed	-0.099614955
76	0xbda7ba30	-0.08189809
77	0xbc5f1df7	-0.013617984
78	0xbd8be82c	-0.06831393
79	0x3d3ba609	0.04581264
80	0x3df7a8ff	0.1209278
81	0xbd4ff2f2	-0.0507688
82	0x3dbe28a8	0.09285098
83	0xbd41e36c	-0.047336027
84	0x3c150d11	0.009097354
85	0xbda94de8	-0.082668126
86	0xbcd02afc	-0.025411122
87	0xbc4cfc52	-0.01251133
88	0xbc85f359	-0.016351389
89	0x3d191226	0.037370823
90	0xbd83c4e0	-0.06434035
91	0x3ce1386d	0.027492726
92	0x3da8677f	0.08222865
93	0x3d3354e8	0.043782145
94	0x3cea17a4	0.028575726
95	0xbc871aec	-0.01649233
96	0x3d94f087	0.072724395
97	0x3d9d23ce	0.07672845
98	0xbdb312a0	-0.08743787
99	0xbc970235	-0.01843367
100	0xbc71ba3e	-0.014753876
101	0x3d613f3b	0.054991942
102	0xbca1c87f	-0.019748924
103	0xbc32ce8d	-0.010913503
104	0x3d6ba233	0.057527732
105	0x3dd294da	0.102822974
106	0xbde17d7a	-0.11010261
107	0xbd407cf0	-0.04699415
108	0xbda3a285	-0.079899825
109	0xbc8ce0e9	-0.01719709
110	0xbde081c5	-0.109622516
111	0x3cb83a3e	0.02248871
112	0x3dac57ac	0.084151596
113	0xbd772201	-0.060335163
114	0x3d555fdb	0.052093368
115	0xbd012d50	-0.031537354
116	0x3d08cbb7	0.033397403
117	0x3d438b2e	0.047740154
118	0x3d581b2c	0.052760288
119	0xbbc7e3d8	-0.006100159
120	0x3d5cb6a1	0.053885106
121	0x3c6c25bb	0.0144132925
122	0x3d808bf8	0.06276697
123	0xbbc51a0a	-0.006015067
124	0xbd255e38	-0.040373057
125	0x3dd018bd	0.101609685
126	0xbd20728f	-0.03917175
127	0x3c04bea8	0.008102097
128	0x3d99f082	0.07516576
129	0xbcc218c3	-0.023693448
130	0x3d969ac2	0.073537365
131	0xbc93d7e5	-0.018047282
132	0xbd300f1c	-0.04298316
133	0xbd8260ce	-0.0636612
134	0x3c46a223	0.012123617
135	0x3cbc74c5	0.023004899
136	0xbd77a41a	-0.060459234
137	0xbd2c38a3	-0.0420462
138	0xbc8091fe	-0.015694614
139	0xbc23b0f8	-0.009990923
140	0x3d5ac823	0.05341352
141	0x3a525475	0.00080234493
142	0xbdc5b052	-0.09652771
143	0xbd0b4d16	-0.03400906
144	0xbd824422	-0.063606516
145	0xbca91964	-0.02064199
146	0xbdf5fb41	-0.120108135
147	0xbd050671	-0.032476846
148	0xbdae9f76	-0.085265085
149	0x3d9510dc	0.07278606
150	0x3da63d15	0.08117119
151	0xbd9a2608	-0.07526785
152	0x3d2967ec	0.041358873
153	0x3d7b940d	0.06142049
154	0xbd501809	-0.05080417
155	0x3d6bf473	0.05760617
156	0xbd0e1ac3	-0.03469349
157	0x3cf8b45c	0.03035944
158	0x3da0b8db	0.078477584
159	0xbcfe7546	-0.03106178
160	0x3d3b0b49	0.04566506
161	0x3db14ad6	0.08656852
162	0x3d8a9516	0.06766717
163	0x3d531970	0.05153793
164	0xbd72034a	-0.059085168
165	0xbd3f5977	-0.04671618
166	0xbc82baf7	-0.015958292
167	0xbd5f3720	-0.05449593
168	0xbd21acee	-0.03947156
169	0x3bd44658	0.006478112
170	0xbddfbcf2	-0.1092471
171	0x3d50267e	0.05081796
172	0xbd436ca1	-0.04771102
173	0xbcc1b8b8	-0.023647651
174	0x3b806672	0.0039184624
175	0x3d28b094	0.041184023
176	0xb9d8da07	-0.00041361173
177	0x3c3d1d12	0.011542575
178	0x3bb68012	0.0055694664
179	0x3dce5399	0.10074539
180	0xbdb0e556	-0.08637492
181	0xbc724422	-0.014786752
182	0xbc368431	-0.011139915
183	0xbd5cebf4	-0.05393596
184	0x3c57bee4	0.01316807
185	0xbd930657	-0.071789436
186	0x3d412c71	0.047161523
187	0xbb17421a	-0.002308017
188	0xbd0a37c1	-0.033744577
189	0x3db79e60	0.089657545
190	0x3c57747f	0.013150333
191	0xbd93e342	-0.0722108
192	0xbcf8759c	-0.030329518
193	0x3dad7c2f	0.08470952
194	0xbd63dc03	-0.05562974
195	0x3d581e91	0.052763525
196	0x3c3e7d2d	0.011626524
197	0xbdabb48b	-0.08384045
198	0xbcbe9411	-0.023263963
199	0xbd48ff35	-0.04907151
200	0xbd9f17f6	-0.07768242
201	0x3d9c707c	0.07638642
202	0x3dbf4036	0.09338419
203	0x3d2a096b	0.041512888
204	0xbcf6cb80	-0.030126333
205	0x3d6c9d1e	0.057767026
206	0x3c5bef14	0.0134237
207	0x3d3deab9	0.046366427
208	0xbcdc3659	-0.026881384
209	0x3cd42ab1	0.025899263
210	0x3c8b6690	0.017016679
211	0xbd2947c6	-0.041328214
212	0xbd0d5262	-0.034502394
213	0x3c082fa9	0.008312144
214	0x3c99954a	0.018747944
215	0xbda27aa9	-0.07933552
216	0x3d2c8987	0.042123344
217	0x3bfb4aac	0.0076688137
218	0xbdc66a5f	-0.096882574
219	0xbc2a4714	-0.010392923
220	0x3d59f35e	0.05321061
221	0xbdc0c953	-0.094133995
222	0xbddcc79f	-0.10780262
223	0x3e07ab58	0.13248956
224	0x3da09c9d	0.078423716
225	0xbc91df55	-0.017806688
226	0xbcec1614	-0.028819121
227	0xbb8bf386	-0.0042709736
228	0x3c70fa07	0.014708049
229	0x3d424eb1	0.047438327
230	0x3cfe5f79	0.031051384
231	0x3d5acc5e	0.053417556
232	0x3b0df363	0.0021659962
233	0xbc9cea0e	-0.019154575
234	0x3c3a6ec2	0.011378946
235	0xbb9d2855	-0.0047960677
236	0xbddd7d8e	-0.10814963
237	0x3c756342	0.014977278
238	0x3dd24a52	0.10268082
239	0x3ca7445e	0.020418342
240	0x3da517a0	0.08061147
241	0x3d0a9455	0.033832867
242	0xbc21e91a	-0.009882236
243	0x3d9aca84	0.07558158
244	0x3c95a6d8	0.018268034
245	0x3c9afa0b	0.018918058
246	0x3dca4b3a	0.098776296
247	0x3d5b01db	0.053468566
248	0xbc126bbf	-0.0089368215
249	0x3c68bdfb	0.014205451
250	0xbd2fb84b	-0.042900365
251	0x3caad859	0.020855116
252	0xbdb67ee9	-0.08910925
253	0xbc8fd26b	-0.01755639
254	0xbd069dbd	-0.032865275
255	0x3d2bd261	0.04194868

layers.0.theta.bias f4 [64]
0	0xb98a7434	-0.0002640799
1	0x3c146ea6	0.009059584
2	0x349e36fa	2.9469794e-07
3	0x392441a4	0.00015664712
4	0x3b8ff60b	0.0043933443
5	0x35cdb5fb	1.5326654e-06
6	0x3acc1e43	0.0015572984
7	0x3a0c09b4	0.0005342022
8	0x388211e2	6.202214e-05
9	0xb8faa2ce	-0.00011951254
10	0x37f684fa	2.9387407e-05
11	0x38843941	6.304915e-05
12	0xb87531c3	-5.8458896e-05
13	0x380f546d	3.4172484e-05
14	0xb7bfa51b	-2.2845858e-05
15	0xb865a885	-5.47548e-05
16	0x392cc54a	0.00016476694
17	0x3b9039a5	0.004401403
18	0xb9040690	-0.00012590946
19	0x3b0019ed	0.0019546703
20	0x387887fd	5.9254457e-05
21	0x3a46aee7	0.0007579163
22	0xb8cc30d4	-9.736573e-05
23	0xb4ad924d	-3.233021e-07
24	0xbbf606e9	-0.007508148
25	0x385a7cff	5.2091662e-05
26	0x3817da24	3.6204365e-05
27	0xb8a3c461	-7.809024e-05
28	0x3acc4f5e	0.0015587618
29	0x3bb14799	0.0054101464
30	0xb9012d2b	-0.00012319225
31	0x37f84792	2.9597231e-05
32	0xb8269332	-3.971457e-05
33	0x3b8bab6f	0.00426238
34	0xb90ad51d	-0.00013240096
35	0x37404e5b	1.1462335e-05
36	0xbafdd72a	-0.0019366492
37	0xb824200e	-3.91305e-05
38	0xb873a12e	-5.8085825e-05
39	0x38ee9211	0.00011375931
40	0xbb9242fd	-0.004463552
41	0xb7b79532	-2.1884774e-05
42	0x3b2dd068	0.0026521925
43	0x3655d449	3.186304e-06
44	0x38852913	6.349585e-05
45	0xb590b055	-1.0780155e-06
46	0xbba0efa1	-0.0049113785
47	0x3b39069a	0.0028232695
48	0x3b96957b	0.004595456
49	0xb72ae4c0	-1.018605e-05
50	0x372e5536	1.0391048e-05
51	0x38844c4d	6.3084626e-05
52	0xb86d399c	-5.6558856e-05
53	0xb78eb066	-1.7009861e-05
54	0x39330514	0.00017072662
55	0xb88a0665	-6.581544e-05
56	0xbb27f998	-0.0025630947
57	0x345b0029	2.0396023e-07
58	0x37c572e2	2.3537727e-05
59	0xbb97fa8f	-0.004638023
60	0x366ab502	3.4974078e-06
61	0xb6d0b3c8	-6.2198123e-06
62	0xb668fd7e	-3.4718246e-06
63	0x360e7d8b	2.1232725e-06

layers.1.bn.weight f4 [4]
0	0x3f911d56	1.1337078
1	0x3f914304	1.1348577
2	0x3f9146f0	1.1349773
3	0x3f910efe	1.13327

layers.1.bn.bias f4 [4]
0	0x3dac1fe0	0.08404517
1	0xbde4b07f	-0.111664765
2	0xbde8dae8	-0.11369878
3	0x3df2900a	0.118438795

layers.1.bn.running_mean f4 [4]
0	0x3d96508d	0.073395826
1	0xbc29fc7a	-0.0103751365
2	0xbe0cc5df	-0.13747357
3	0x3cc97c2f	0.024595348

layers.1.bn.running_var f4 [4]
0	0x3e890672	0.2676273
1	0x3e3496f8	0.17635715
2	0x3dc49194	0.09598079
3	0x3e7cdd03	0.24693684

layers.1.theta.weight f4 [4, 64]
0	0x3e0338af	0.12814592
1	0xbdc49107	-0.09597974
2	0xbc4b2418	-0.012398742
3	0xbdab9762	-0.08378483
4	0x3dc25197	0.09488218
5	0x3d8e642d	0.06952701
6	0x3dd82d57	0.10555523
7	0xbd1df01f	-0.038559075
8	0x3cdcf983	0.026974445
9	0x3c904787	0.017612232
10	0xbdf4a748	-0.11945969
11	0xbddf44c6	-0.10901789
12	0x3e101b8e	0.14073011
13	0xbd46b1d4	-0.048509434
14	0x3d555cb6	0.05209037
15	0xbdefea83	-0.117146514
16	0x3df14245	0.11780218
17	0x3deed8ed	0.11662469
18	0x3ce861d1	0.028366955
19	0x3d9bf244	0.07614568
20	0xbdb0e915	-0.08638207
21	0xbd00f772	-0.031485982
22	0xbdfc5caa	-0.12322362
23	0xbd987314	-0.074438244
24	0x3d7674ce	0.060169987
25	0x3d28873d	0.0411446
26	0x3dcb8a75	0.09938518
27	0xbdc36d37	-0.095423155
28	0xbdc1748b	-0.09446057
29	0xbd255b86	-0.040370487
30	0x3d94bb92	0.07262339
31	0x3df07c4f	0.1174246
32	0x3df8fa2a	0.1215709
33	0xbc2aad8e	-0.010417355
34	0xbbe32511	-0.006931909
35	0xbdd9e78b	-0.106398664
36	0x3c1f97b2	0.009740757
37	0x3dc8819e	0.097903475
38	0x38b5fdc5	8.678021e-05
39	0xbd2c285e	-0.042030685
40	0xbd5abf5c	-0.05340515
41	0x3d80dcce	0.06292115
42	0xbc2118a7	-0.009832538
43	0x3d17a1d1	0.037019555
44	0xbcfe72df	-0.031060634
45	0x3d0801f5	0.03320499
46	0xbd911077	-0.070832185
47	0x3d17ae43	0.037031423
48	0xbc95856e	-0.0182521
49	0xbd2f1941	-0.042748693
50	0xbcab8fb8	-0.020942554
51	0xbd12bcbc	-0.035824522
52	0x3ca98576	0.020693522
53	0xbd715da6	-0.0589272
54	0x3d99f57d	0.07517526
55	0xbe077f14	-0.1323207
56	0x3cee0cff	0.029058931
57	0x3df6c18e	0.120486364
58	0x3d933f31	0.07189787
59	0xbd60d392	-0.05488927
60	0xbdd4f707	-0.10398679
61	0x3df07afe	0.11742209
62	0xbda4a52b	-0.08039316
63	0x3e13264c	0.14370078
64	0xbd185fe4	-0.037200823
65	0x3defed1b	0.11715146
66	0x3dda73bc	0.10666606
67	0x3cf7b1b1	0.030236097
68	0xbd5f70a3	-0.054550778
69	0xbd49588a	-0.049156703
70	0xbd5e36f9	-0.054251645
71	0x3dc7c262	0.097538725
72	0x3da1500e	0.07876597
73	0xbdc0807f	-0.09399509
74	0xbc0e3c14	-0.008681316
75	0x3e1e606e	0.15466473
76	0x3d4e890c	0.050423667
77	0x3de20464	0.11035994
78	0x3d76c520	0.060246587
79	0x3dc606e7	0.09669285
80	0x3c8f828b	0.017518302
81	0xbd67b876	-0.0565724
82	0xbd65f4a1	-0.0561415
83	0x3cda7c11	0.026670488
84	0x3dcf950c	0.1013585
85	0xbd9f70cd	-0.07785187
86	0x3bb60345	0.005554589
87	0xba2813e5	-0.0006411656
88	0xbc34f814	-0.011045475
89	0xbdcd843c	-0.10034987
90	0xbd514a2d	-0.05109613
91	0xbd9818d3	-0.0742661
92	0xbdc0898a	-0.094012335
93	0xbd8b8dfe	-0.06814192
94	0xbd0fd6fa	-0.035117127
95	0xbd0cac05	-0.034343738
96	0xbd9e58c4	-0.077317744
97	0x3df0c530	0.117563605
98	0x3d66bf4b	0.056334775
99	0xbd68a1a7	-0.05679479
100	0xbd3cb7a0	-0.046073556
101	0xbd49dc13	-0.049282145
102	0x3e173fad	0.14770384
103	0xbd1ac854	-0.037788704
104	0xbd56accc	-0.052410886
105	0x3d61f5d2	0.055166073
106	0xbd501062	-0.050796874
107	0xbd410db4	-0.04713221
108	0x3d7b4314	0.061343268
109	0xbcfec2a4	-0.031098671
110	0x3d9869f6	0.074420854
111	0xbd526a84	-0.051371112
112	0xbbf24f2c	-0.007394692
113	0x3d080012	0.033203192
114	0xbd2bf111	-0.041977946
115	0xbcf7cacd	-0.03024807
116	0x3de1594e	0.11003362
117	0x3e14eae0	0.14542723
118	0x3d91100d	0.070831396
119	0x3cc5504d	0.024086142
120	0x3d8b4517	0.06800287
121	0xbccba066	-0.024856757
122	0xbd61513f	-0.055009123
123	0x3ddcf2c9	0.10788495
124	0x3cc85fda	0.024459768
125	0xbcc5bffb	-0.024139395
126	0x3cc35e4e	0.023848679
127	0x3c80cc69	0.01572247
128	0xbd3e3c8e	-0.04644447
129	0x3dd2007b	0.10253998
130	0xbda512ee	-0.08060251
131	0x3c90edb0	0.017691463
132	0x3cd4e8c1	0.025989892
133	0xbc82309c	-0.01589232
134	0xbd1d1516	-0.038350187
135	0xbdbf2e3a	-0.09334989
136	0xbd88210b	-0.066469274
137	0x3dd8bcbc	0.10582873
138	0x3d96e5b7	0.073680334
139	0x3d862bfa	0.065513566
140	0xbce05f79	-0.027389275
141	0xbd59a042	-0.05313135
142	0xbcb8cb0c	-0.022557758
143	0xbd82cdb7	-0.06386893
144	0xbd0a7a15	-0.033807833
145	0x3cca9269	0.024728017
146	0xbd96cfdc	-0.07363865
147	0xbd017233	-0.03160305
148	0xbd397f19	-0.045287225
149	0xbd506e36	-0.050886355
150	0xbd93ebdd	-0.07222722
151	0x3b37f9b0	0.002807241
152	0x3df0bb5f	0.11754488
153	0x3c8cae3d	0.017172927
154	0xbda445ca	-0.08021124
155	0x3ceeb6dd	0.02913993
156	0x3d41f304	0.0473509
157	0x3d42c910	0.04755503
158	0xbd89a7af	-0.06721436
159	0xbccc19bb	-0.024914613
160	0x3bbf0eae	0.0058306074
161	0x3cf937eb	0.030422172
162	0x3b360b22	0.0027777632
163	0xbd7c1671	-0.06154484
164	0xbd88757b	-0.066630326
165	0x3d090f9f	0.033462163
166	0xbd07182b	-0.032982033
167	0x3e2925f2	0.16518381
168	0xbda187e4	-0.07887247
169	0xbdbe20ad	-0.09283576
170	0xbdda317c	-0.1065397
171	0x3dc48e07	0.09597402
172	0x3d30dbfd	0.043178547
173	0x3dc648ce	0.09681855
174	0x3dd47cdb	0.10375377
175	0xbd230f41	-0.03980947
176	0xbce5bc2f	-0.028043834
177	0xbd2dcafd	-0.042429913
178	0x3d7d7bfd	0.061885823
179	0x3de05da5	0.10955361
180	0xbd55783a	-0.05211661
181	0xbdd9a825	-0.10627774
182	0xbdba5f41	-0.091001995
183	0xbd5b8275	-0.05359121
184	0x3db2e172	0.087344065
185	0xbd14d528	-0.036336094
186	0xbd7485e5	-0.059698004
187	0xbcdb562f	-0.026774494
188	0xbd41c80d	-0.047309924
189	0xbc5b19f2	-0.013372885
190	0x3dfbd15b	0.12295791
191	0xbd8ccd46	-0.0687509
192	0xbd473c4c	-0.048641488
193	0xbd9acf06	-0.07559018
194	0x3da9094d	0.08253727
195	0xbdaa3de8	-0.08312589
196	0xbd681408	-0.05665973
197	0xbdc6a061	-0.096985586
198	0xbd85d780	-0.06535244
199	0xbd89bcd4	-0.06725469
200	0xbc9e4a55	-0.019322554
201	0xbd8a1e22	-0.06744029
202	0x3c9cfac4	0.019162543
203	0xbdd168e8	-0.102250874
204	0x3d526c22	0.051372655
205	0xbda7e1dc	-0.08197376
206	0xbdcf8ff8	-0.10134882
207	0xbc499a13	-0.012304801
208	0xbdd35599	-0.10319061
209	0xbd5b914c	-0.053605363
210	0x3d99363f	0.0748105
211	0xbdbef4c9	-0.09324033
212	0xbd5305d1	-0.05151922
213	0x3de7d1fc	0.11319348
214	0x3e170999	0.14749755
215	0x3e0e55fa	0.13899985
216	0x3d776276	0.060396634
217	0x3de61f2a	0.11236413
218	0xbcabde77	-0.020980103
219	0xbc6a00cb	-0.014282416
220	0x3d2c3a4b	0.04204778
221	0x3d77a5ff	0.06046104
222	0x3cf3f98f	0.029782085
223	0xbd99d199	-0.07510681
224	0x3d61b1a6	0.05510106
225	0xbd5a506b	-0.05329935
226	0x3d94c079	0.07263274
227	0x3dafaaf2	0.08577527
228	0x3d64435c	0.0557283
229	0xbce2c46a	-0.027681548
230	0xbcb31545	-0.021860728
231	0xbd226f04	-0.039656654
232	0x3d7d1325	0.061785836
233	0xbd83a39b	-0.0642769
234	0x3df00d42	0.11721279
235	0xbd957b3a	-0.07298894
236	0x3bf9e6e1	0.0076264
237	0xbdcdd88d	-0.100510694
238	0xbdb42709	-0.08796508
239	0x3e0331cc	0.12811965
240	0x3dfdce26	0.12392835
241	0xbdeaff49	-0.11474473
242	0xbd4e2ffd	-0.050338734
243	0xbdfea4c1	-0.12433768
244	0xbcec5c2e	-0.028852548
245	0xbcab507b	-0.0209124
246	0xbc01eac7	-0.00792951
247	0x3dc26f09	0.094938345
248	0x3cd96890	0.026539117
249	0xbd2c1092	-0.04200799
250	0x3d3fff4a	0.046874322
251	0xbd9e3394	-0.077246815
252	0x3e0878af	0.13327287
253	0xbdd3d531	-0.103433974
254	0xbd0d14c0	-0.034443617
255	0xbd8bd965	-0.06828574

layers.1.theta.bias f4 [4]
0	0xba9e804e	-0.0012092681
1	0xb69781af	-4.515248e-06
2	0xb7034e4c	-7.826438e-06
3	0xb87a8e06	-5.9736914e-05
