src_new5/model/hypergcn_news20_best_model.pth (torch, 29480 bytes, 4 tensors)

layers.0.theta.weight f4 [64, 100]
0.1816189 -0.07789693 0.07830344 -0.10460016 0.19208439 -0.06337038 -0.04058892 0.15626097
0.13957371 0.11431103 -0.13963728 0.07373705 0.009240398 -0.079376884 0.10149798 -0.08375695
0.0017046485 0.09218792 -0.056398243 -0.087458536 -0.099594854 0.14258315 -0.033094715 -0.1436533
0.1498755 0.00015510037 -0.07484055 -0.07906598 0.115834326 -0.018401634 -0.048045542 -0.11579791
0.09761073 0.17649104 -0.069669314 0.11324213 0.1754945 -0.033581834 -0.0149697 -0.14708078
-0.19762072 0.16450633 -0.12350655 0.025522051 0.18053183 0.055020195 0.13075125 0.22931525
0.031037137 -0.11135431 0.102087334 -0.14289188 0.1303418 0.21936087 -0.0114207165 0.16542749
0.14938246 0.10017755 0.08803428 -0.10076252 0.02242294 -0.02076885 0.12584092 0.08318301
-0.025266683 0.014222316 -0.16090369 0.093021214 0.1737874 -0.026968146 0.016616365 -0.11326744
0.10375564 0.11018288 0.11875003 0.0259972 0.17253278 0.12889801 -0.048066493 -0.08349933
-0.05427729 0.12656645 -0.12166732 0.20302293 0.09723918 0.0877846 0.18639024 -0.024691092
-0.027202597 -0.03191915 -0.011278553 -0.105276205 -0.05274175 0.082602575 0.06159475 0.11909397
-0.103658885 -0.040284026 -0.08858971 0.09235535 0.20086828 -0.1383426 0.13390923 -0.079427205
0.19361137 -0.08620312 -0.06368019 0.08125433 0.03458095 0.09470873 -0.108957075 0.12039791
0.13742782 -0.0667878 0.08166412 -0.0392583 -0.07520378 0.09478376 -0.049932662 -0.03687965
-0.17627163 0.023713402 -0.0486783 -0.057484496 0.1572543 0.13611487 -0.18229711 -0.0656159
0.112331934 -0.0789259 -0.03169744 -0.031586096 0.19617932 0.08763548 -0.10418785 0.21463314
0.17268825 0.01668801 -0.07525263 -0.15791376 -0.077447176 0.07144989 -0.11079014 -0.095241144
0.106206395 0.069455065 0.09622128 0.12830754 0.033536993 -0.15543076 0.11846035 -0.07559311
0.18055196 0.14376523 -0.066700846 0.100659974 0.19226588 0.17480865 0.052271083 -0.13292378
0.0019812586 -0.03380721 0.11502971 0.18918943 -0.1039489 0.041137047 -0.09417989 0.10503922
0.17168517 -0.03510092 0.056424372 -0.03195011 0.11855648 0.20054346 0.07354148 0.0943648
0.18797718 0.19978878 -0.06418327 -0.09592326 -0.09096043 0.11562541 -0.011004944 0.13858812
0.0771753 0.08629078 0.16405265 0.011486362 -0.11703272 0.019019172 0.059367932 -0.06375286
0.020103464 0.1142203 0.16776824 0.15490355 -0.10959115 -0.118453294 -0.07685209 0.12408994
-0.023243034 0.16771716 0.06493297 0.14399692 -0.04186244 0.2026263 -0.097765096 -0.0042582243
0.15764719 0.1382427 -0.055136498 0.07056584 -0.076054364 0.14527504 -0.1948616 -0.15507989
-0.033296455 -0.15414834 -0.13529737 -0.0007257521 -0.024624446 -0.00961784 -0.04144421 0.2048374
0.091783054 0.09548483 0.058766346 -0.061157543 -0.0364584 -0.031302445 -0.10161442 0.20822923
0.15224178 0.10437336 -0.09905602 0.102882974 -0.06304951 -0.034921058 0.19280832 0.23706634
0.11248214 0.05527651 -0.09227647 0.17709197 0.08782547 0.20243724 0.16588564 -0.085003346
0.16845027 0.10656732 -0.047139492 -0.132355 -0.07406418 -0.09154954 -0.06440709 0.008086666
00000000: 4efa 393e 6d88 9fbd 8e5d a03d 9c38 d6bd
00000010: c5b1 443e 54c8 81bd 9140 26bd e002 203e
00000020: 69ec 0e3e e71b ea3d 13fd 0ebe 7303 973d
00000030: 0a65 173c 5990 a2bd 2cde cf3d c488 abbd
00000040: 836e df3a 05cd bc3d d801 67bd 761d b3bd
00000050: 63f8 cbbd 5101 123e 538e 07bd da19 13be
00000060: f778 193e 70a2 2239 0146 99bd 58ed a1bd
00000070: 8c3a ed3d 06bf 96bc 67cb 44bd 7427 edbd
00000080: 22e8 c73d 11ba 343e c9ae 8ebd 7deb e73d
00000090: d5b4 333e 1b8d 09bd 7943 75bc 589c 16be
000000a0: 165d 4abe 5974 283e 01f1 fcbd 9f13 d13c
000000b0: 56dd 383e db5c 613d a8e3 053e 9ed1 6a3e
000000c0: 9841 fe3c ba0d e4bd 2a13 d13d 4052 12be
000000d0: 5278 053e 23a0 603e f51d 3bbc d365 293e
000000e0: b7f7 183e e329 cd3d 514b b43d 955c cebd
000000f0: 50b0 b73c 6f23 aabc 71dc 003e db5b aa3d
00000100: 13fc cebc b804 693c f0c3 24be e881 be3d
00000110: 53f5 313e 4dec dcbc 0b1f 883c c2f8 e7bd
00000120: d67d d43d 90a7 e13d 3733 f33d 14f8 d43c
00000130: 6fac 303e d7fd 033e 5fe1 44bd b201 abbd
00000140: dd51 5ebd a39a 013e b72c f9bd 3ee5 4f3e
00000150: 5625 c73d 6ac8 b33d 15dd 3e3e f944 cabc
00000160: fbd7 debc a8bd 02bd aec9 38bc 0d9b d7bd
00000170: bc07 58bd 8a2b a93d c74a 7c3d 8ae7 f33d
00000180: 1c4b d4bd dd00 25bd 866e b5bd cd24 bd3d
00000190: 6ab0 4d3e afa9 0dbe 801f 093e bbaa a2bd
000001a0: 0f42 463e 438b b0bd c26a 82bd ac68 a63d
000001b0: c1a4 0d3d a7f6 c13d e324 dfbd 2e93 f63d
000001c0: e1b9 0c3e 0bc8 88bd 853f a73d 50cd 20bd
000001d0: 7004 9abd fd1d c23d 3186 4cbd 1e0f 17bd
000001e0: 8d80 34be 9c42 c23c e662 47bd dd74 6bbd
000001f0: 4507 213e b261 0b3e 18ac 3abe a161 86bd
00000200: 490e e63d e7a3 a1bd 2dd5 01bd 6c60 01bd
00000210: 3be3 483e 3b7a b33d 7160 d5bd cac8 5b3e
00000220: 30d5 303e 4bb5 883c 0d1e 9abd 25b4 21be
00000230: a09c 9ebd 5254 923d f1e5 e2bd ca0d c3bd
00000240: bd82 d93d 753e 8e3d aa0f c53d 0d63 033e
00000250: 165e 093d 3e29 1fbe 579b f23d 8fd0 9abd
00000260: 9de2 383e 3137 133e 749a 88bd d126 ce3d
00000270: 59e1 443e 0a01 333e 341a 563d 2c1d 08be
00000280: 01d8 013b 6e79 0abd b294 eb3d e0ba 413e
00000290: 29e3 d4bd 527f 283d 63e1 c0bd cd1e d73d
000002a0: 3dce 2f3e fbc5 0fbd 3e1d 673d 1ede 02bd
000002b0: bdcd f23d 445b 4d3e ea9c 963d 5542 c13d
000002c0: 177d 403e 6e95 4c3e 8572 83bd 6a73 c4bd
000002d0: 7649 babd 04cd ec3d 154e 34bc 0bea 0d3e
000002e0: 150e 9e3d 38b9 b03d 6bfd 273e 4b31 3c3c
000002f0: daae efbd 18ce 9b3c ca2b 733d dc90 82bd
00000300: 05b0 a43c 55ec e93d 70cb 2b3e 099f 1e3e
00000310: 5371 e0bd a497 f2bd a164 9dbd de22 fe3d
00000320: 2d68 bebc 0cbe 2b3e 94fb 843d ee73 133e
00000330: f377 2bbd 457d 4f3e 1139 c8bd 9388 8bbb
00000340: 446e 213e 7f8f 0d3e cfd6 61bd d384 903d
00000350: 64c2 9bbd fbc2 143e cd89 47be 43cd 1ebe
00000360: dd61 08bd 10d9 1dbe 658b 0abe 6640 3eba
00000370: 35b9 c9bc 2594 1dbc 67c1 29bd e5c0 513e
00000380: c1f8 bb3d 8d8d c33d fbb4 703d 5580 7abd
00000390: 6755 15bd fe36 00bd 391b d0bd 0b3a 553e
000003a0: 45e5 1b3e b3c1 d53d e2dd cabd 4fb4 d23d
000003b0: 1a20 81bd 6209 0fbd 8b6f 453e 85c1 723e
000003c0: 095d e63d 9f69 623d 72fb bcbd 9957 353e
000003d0: d7dd b33d b54b 4f3e eddd 293e 3c16 aebd
000003e0: 3a7e 2c3e f83f da3d 5715 41bd 1288 07be
000003f0: f6ae 97bd 537e bbbd dde7 83bd f07d 043c

layers.0.theta.bias f4 [64]
0.101692535 0.107489556 0.13312103 0.07820327 0.19632766 0.1637295 0.11647248 0.14716277
0.09885379 0.10355724 0.13143018 0.19609149 0.05334593 0.1385994 0.21148323 0.1506526
0.12164447 0.13688418 0.1118322 0.14395396 0.09375331 0.13039835 0.0886232 0.18384638
0.055542294 0.13899574 0.094712205 0.17044142 0.073946945 0.08602137 0.11164033 0.17455712
0.15051112 0.1522833 0.115107305 0.11836588 0.13265693 0.05924753 0.13296038 0.14097422
0.16957103 0.18531092 0.070455566 0.09613467 0.10454575 0.08786505 0.14528221 0.17457487
0.14183503 0.035519715 0.1604729 0.09797126 0.06691023 0.06871998 0.11042741 0.10443746
0.06705213 0.22542973 0.12796336 0.16132802 0.110823035 0.18922329 0.085669465 0.09584903
00000000: 2d44 d03d 7c23 dc3d e150 083e 0929 a03d
00000010: 1e0a 493e b5a8 273e 2089 ee3d d6b1 163e
00000020: db73 ca3d d115 d43d a295 063e 35cc 483e
00000030: 4381 5a3d 00ed 0d3e 0f8f 583e ad44 1a3e
00000040: bc20 f93d 5e2b 0c3e 4808 e53d ab68 133e
00000050: bc01 c03d 2587 053e 1580 b53d 3a42 3c3e
00000060: 5180 633d e654 0e3e 79f8 c13d 3288 2e3e
00000070: 7f71 973d f92b b03d afa3 e43d 1abf 323e
00000080: 961f 1a3e 27f0 1b3e 61bd eb3d cf69 f23d
00000090: 38d7 073e 8aad 723d c426 083e 8c5b 103e
000000a0: 07a4 2d3e 25c2 3d3e 024b 903d 41e2 c43d
000000b0: 151c d63d 97f2 b33d dcc4 143e c1c3 323e
000000c0: 343d 113e 1f7d 113d 0253 243e 28a5 c83d
000000d0: 3b08 893d 10bd 8c3d c427 e23d 4fe3 d53d
000000e0: a152 893d 0dd7 663e d408 033e 2c33 253e
000000f0: 30f7 e23d c0c3 413e 7973 af3d 7f4c c43d

layers.1.theta.weight f4 [4, 64]
-0.18475887 -0.20616071 -0.18125494 -0.27686614 -0.15587634 -0.27193955 0.20296028 0.19767977
0.22263168 0.102214254 0.02446193 0.12512535 -0.2691679 0.23117253 0.21627356 0.18206784
-0.11385955 -0.1683341 0.23947828 -0.18097608 -0.13496494 0.21895534 -0.24524647 -0.20996495
-0.21005532 -0.2643219 0.2568727 -0.16892645 -0.1286876 -0.2163665 0.24080746 0.1402572
0.22313417 0.25460052 -0.22977845 0.1374562 0.19530419 0.2721256 -0.14714874 -0.19330077
0.25246817 0.19284046 -0.22657713 -0.14394972 -0.2514441 0.20340665 -0.12553273 -0.17403916
-0.20686199 0.24118061 0.13585806 -0.2535492 0.110424235 0.20923659 -0.22504061 0.2104651
-0.24629974 0.17356764 -0.24854222 -0.25864962 0.2042477 0.21409701 -0.2853431 -0.20007516
-0.22852877 -0.27490735 0.15394762 0.2720574 0.21090053 -0.21413225 -0.20339698 -0.1700044
-0.2455283 -0.24818334 -0.19960828 0.15764481 -0.279003 -0.24775904 0.2614032 0.17242914
-0.15804422 -0.20726447 -0.09497034 -0.123279475 0.28448653 -0.18678908 -0.24117854 0.20413363
-0.22284046 0.25130966 -0.17618537 0.18416053 -0.2609429 -0.30117968 -0.22029446 0.19428003
-0.26542887 -0.1632477 0.18310924 0.14477314 -0.27761486 -0.20879327 -0.17927705 0.22057863
-0.16559891 0.24558564 -0.20829837 0.29165992 0.21748501 0.24243927 0.23791374 0.24768598
-0.26273674 -0.24486683 0.19440344 0.12056935 -0.2200923 -0.27186394 0.18108892 0.2634945
-0.22010149 0.20508453 0.20526125 0.16819237 -0.22803092 0.23276266 0.24089785 -0.23133738
0.1966371 0.17650254 -0.20448907 -0.23435394 -0.06503795 0.20455131 -0.080321334 0.24882136
0.16293092 0.15982194 0.20376594 -0.10795986 0.2797148 -0.11055399 -0.06916188 -0.10563251
-0.11196497 0.14844304 -0.21567169 -0.12517235 -0.14907196 -0.18074344 -0.011423828 -0.23374219
-0.12479419 0.2255766 -0.21067967 0.12823015 0.23471262 0.20055863 -0.1034055 -0.15154256
0.22642678 -0.038606875 -0.26625162 -0.16228569 0.058760796 0.0039688125 -0.16561793 -0.13837872
0.1527717 -0.17311491 -0.20751695 -0.061524373 -0.26622534 -0.0960983 -0.10919791 -0.23918086
0.10781081 0.23475616 -0.143836 0.14797078 -0.24127734 -0.06759034 -0.261072 0.18719211
-0.21123952 -0.15179755 0.1782781 0.120983735 0.152596 -0.078927696 0.004270493 -0.115307726
0.22693987 0.1493728 0.13057615 0.14976662 0.14922285 0.1783327 -0.19564047 -0.1351474
-0.17407316 -0.252591 -0.15882339 -0.21762536 0.25346786 0.23731716 -0.10528145 -0.27877617
0.15901522 0.16640699 0.15999658 0.24391422 0.2452981 0.21297266 0.26711804 0.12052511
0.24757105 -0.04500043 0.22476836 -0.14235 0.03924203 0.24241492 0.24606614 -0.2205041
-0.23421685 0.22004507 0.17547801 -0.2032917 -0.25970075 -0.14232115 0.20456333 0.23986314
-0.10201011 -0.12556478 0.28201652 -0.12825498 0.16044699 -0.18417436 0.23384547 0.16666792
0.10866126 -0.16501306 -0.2129515 -0.2791851 0.2642339 0.24731015 0.1500543 -0.25180864
0.26835838 -0.14497246 0.1228192 -0.24456862 -0.17270985 -0.10532706 -0.22714849 0.16841607
00000000: 6e31 3dbe cb1b 53be e59a 39be 66c1 8dbe
00000010: 0c9e 1fbe a93b 8bbe d2d4 4f3e 916c 4a3e
00000020: 8ff9 633e b555 d13d 6364 c83c dc20 003e
00000030: 60d0 89be 7eb8 6c3e d176 5d3e fe6f 3a3e
00000040: 322f e9bd c65f 2cbe cb39 753e cb51 39be
00000050: 4034 0abe d435 603e e421 7bbe 0d01 57be
00000060: be18 57be 3355 87be d284 833e 0efb 2cbe
00000070: afc6 03be 2e8f 5dbe 3b96 763e 959f 0f3e
00000080: 497d 643e 005b 823e 0b4b 6bbe 51c1 0c3e
00000090: d2fd 473e 0c54 8b3e 29ae 16be a3f0 45be
000000a0: 8243 813e f877 453e d603 68be 8e67 13be
000000b0: 48bd 80be d549 503e a78b 00be 5237 32be
000000c0: a1d3 53be 0df8 763e 601e 0b3e 33d1 81be
000000d0: 1a26 e23d 1e42 563e 0c71 66be 2a84 573e
000000e0: 0036 7cbe b7bb 313e da81 7ebe b96d 84be
000000f0: 4f26 513e 3f3c 5b3e 7e18 92be 81e0 4cbe
00000100: 7203 6abe a8c0 8cbe 72a4 1d3e 1c4b 8b3e
00000110: 4ff6 573e 7c45 5bbe 4c47 50be a215 2ebe
00000120: c56b 7bbe c623 7ebe 1d66 4cbe a46d 213e
00000130: 7bd9 8ebe 8cb4 7dbe a4d6 853e 4491 303e
00000140: 58d6 21be 233d 54be cf7f c2bd f379 fcbd
00000150: 38a8 913e a345 3fbe 82f7 76be 6808 513e
00000160: 4a30 64be a9ab 803e f069 34be 9494 3c3e
00000170: 4f9a 85be 3934 9abe df94 61be 58f1 463e
00000180: 4be6 87be 682a 27be fd80 3b3e 693f 143e
00000190: 8923 8ebe e7cd 55be 6794 37be 5ddf 613e
000001a0: c392 29be cd7a 7b3e 2b4c 55be 7354 953e
000001b0: 64b4 5e3e 0042 783e a99f 733e 65a1 7d3e
000001c0: 6e85 86be 5fbe 7abe b211 473e 10ed f63d
000001d0: e05f 61be c031 8bbe 606f 393e c0e8 863e
000001e0: 4962 61be ae01 523e 0130 523e 9f3a 2c3e
000001f0: f080 69be 5659 6e3e edad 763e b5e3 6cbe
00000200: 3c5b 493e 15bd 343e 9565 51be 7bfa 6fbe
00000210: 9e32 85bd e675 513e 837f a4bd 07cb 7e3e
00000220: 5dd7 263e 5da8 233e 05a8 503e 0f1a ddbd
00000230: c736 8f3e 216a e2bd bea4 8dbd db55 d8bd
00000240: e44d e5bd 7401 183e 0ad9 5cbe 2e2d 00be
00000250: 52a6 18be cf14 39be 022b 3bbc 1d5a 6fbe
00000260: 1994 ffbd 8dfd 663e 69bc 57be c44e 033e
00000270: 8158 703e 3e5f 4d3e 43c6 d3bd f92d 1bbe
00000280: 6cdc 673e 3e22 1ebd 2252 88be 382e 26be
00000290: 29af 703d d00c 823b bf97 29be 27b3 0dbe
000002a0: 2f70 1c3e 0945 31be 537f 54be fb00 7cbd
000002b0: b04e 88be 2fcf c4bd 27a3 dfbd d4eb 74be
000002c0: eacb dc3d eb63 703e bf49 13be a785 173e
000002d0: 6811 77be ce6c 8abd 3bab 85be 4aaf 3f3e
000002e0: 2c4f 58be d170 1bbe 898e 363e 52c6 f73d
000002f0: 2042 1c3e d8a4 a1bd 7eef 8b3b 7526 ecbd
00000300: ed62 683e 2ff5 183e c1b5 053e 6c5c 193e
00000310: e0cd 183e d99c 363e fa55 48be 1464 0abe
00000320: 3c40 32be 9c53 81be 99a2 22be 2fd9 5ebe
00000330: 8ac6 813e 4503 733e cd9d d7bd c0bb 8ebe
00000340: e3d4 223e 9866 2a3e 25d6 233e a6c4 793e
00000350: 6d2f 7b3e 8115 5a3e b2c3 883e ded5 f63d
00000360: 4483 7d3e 5f52 38bd ad29 663e 33c4 11be
00000370: 40bc 203d 9e3b 783e c3f8 7b3e d4cb 61be
00000380: 8bd6 6fbe 7f53 613e 82b0 333e b32b 50be
00000390: 7ff7 84be a3bc 11be 0d79 513e af9e 753e
000003a0: adea d0bd 0e94 00be 7864 903e 4655 03be
000003b0: 374c 243e 3498 3cbe 3075 6f3e ffaa 2a3e
000003c0: cb89 de3d 2ff9 28be f50f 5abe 59f1 8ebe
000003d0: aa49 873e df3e 7d3e d6a7 193e 10ed 80be
000003e0: 4566 893e a973 14be a288 fb3d 3270 7abe
000003f0: dada 30be b7b5 d7bd 9d99 68be 4375 2c3e

layers.1.theta.bias f4 [4]
-0.048178125 0.005538622 -0.10592685 0.046220027
00000000: 6d56 45bd 547d b53b 2df0 d8bd 3651 3d3d
